output/models/binary/73.92Acc_L1_VariableNet10Units2Layers_ReLU_CrossEntropyLoss_Adam_0.001lr_5298epochs_10batches.pth (torch, 5419 bytes, 8 tensors)

layer.0.weight f4 [10, 6]
000000 55 b7 05 3f 26 3f a1 be 6d a3 aa 3e 75 67 e1 bd
       0.5223287 -0.3149349 0.3332781 -0.11006061
000010 4b 61 83 be ab 21 c2 3c 5e bc a1 be 93 65 9b 3e
       -0.25660166 0.023697695 -0.31589025 0.30350932
000020 65 f2 d5 3d d2 19 b7 3c ea b5 b1 bf e9 ff 8f bd
       0.10446624 0.02235118 -1.3883641 -0.07031233
000030 63 7f 0a be 4b 97 68 3f a3 07 a2 bd 55 7f 69 3e
       -0.13525157 0.90855855 -0.07911613 0.2280248
000040 b8 8f a6 be 41 aa f6 be 93 39 bf 3e f9 28 e9 3d
       -0.32531524 -0.48176768 0.37348613 0.11384768
000050 76 0a 88 be 52 89 25 3e 0f a5 6b 3f 81 53 47 3f
       -0.2657048 0.16165665 0.92048734 0.7786179
000060 fc d4 78 be 37 74 0a be 29 cf b5 3c 77 fb 38 bc
       -0.24299997 -0.13520895 0.022193508 -0.011290423
000070 26 a3 c3 3e 55 54 79 3e a0 18 e0 be 46 d1 ff 3d
       0.3821041 0.24348576 -0.43768787 0.124910876
000080 02 d2 8b 3e ad fa 44 be c0 bf b1 3f 9e 2b fe 3e
       0.2730866 -0.1923625 1.3886642 0.49642652
000090 9a 9f c8 3e 14 7e 5b 3e 71 9e 90 bd 03 55 91 be
       0.39184266 0.21434814 -0.0706147 -0.2838517
0000a0 5a 78 54 3f cf a8 3c 3e b2 9f 30 3d fc 64 8e be
       0.8299614 0.1842377 0.043121047 -0.2781142
0000b0 a1 2d 87 be 33 da 9f 3e 91 3f 15 bf 4d d2 e4 be
       -0.26402 0.3122116 -0.5830012 -0.44691697
0000c0 39 b2 e5 3e d2 5b fc be 48 6d d7 bd df bb 29 3e
       0.44862536 -0.49288803 -0.105188906 0.16575573
0000d0 99 2c 45 bf 76 88 75 bf 4a 8d b3 bb f1 a2 88 be
       -0.77021176 -0.9591135 -0.0054794895 -0.26686814
0000e0 26 09 f7 3c 66 74 dd 3c d4 8b 28 40 65 f2 61 3f
       0.03015573 0.027033042 2.6335344 0.8826049

layer.0.bias f4 [10]
000000 72 3b 8a bf a9 0e 09 be 3a f5 b4 3e ff 81 82 bf
       -1.0799391 -0.13384499 0.35343343 -1.0195922
000010 d0 c0 82 3f fe e6 58 3f 2b 77 42 be 9e de 01 3f
       1.0215092 0.84727466 -0.18990771 0.5073031
000020 34 6f 9f bf 41 5c 12 be
       -1.2455812 -0.14293005

layer.1.weight f4 [10, 10]
000000 54 5c 77 be d5 98 88 3d fe a9 bb 3e b0 65 fe bd
       -0.24156314 0.066697754 0.3665313 -0.12421739
000010 3a 24 53 3c 21 80 75 3d dc 93 97 bb 2b c6 2b bd
       0.012887055 0.059936646 -0.0046257805 -0.041937035
000020 b7 83 01 bf b0 30 97 be 12 a3 a5 bd 02 ed 8f 3e
       -0.50591606 -0.29529333 -0.08087744 0.2811051
000030 16 a1 05 be da 64 23 3d 34 09 d6 3c 4a 70 e9 bd
       -0.1304973 0.0398911 0.026127435 -0.113983706
000040 6c 93 1e 3c 6c 87 50 3c c3 b1 35 3d 47 e5 23 bd
       0.009678703 0.0127276 0.04435898 -0.040013578
000050 dc 1d 61 3e fe 98 85 3d fc 87 19 3e af 98 00 bb
       0.21984047 0.065233216 0.1499328 -0.0019622257
000060 a0 ac 11 bf a8 45 d2 3d 0a ef a6 3e 22 5f d2 be
       -0.5690403 0.10267192 0.32604247 -0.41088206
000070 32 40 3c 3e 2f 48 b0 3d 5e 9d 8b bd 8f a4 7b 3c
       0.18383864 0.08607518 -0.06817125 0.015359058
000080 97 57 2a be 63 0d 90 be 9d c4 e3 3d e6 2e 59 3e
       -0.16634975 -0.28135213 0.111214854 0.21209297
000090 5e 0f 20 be 36 ce 03 3c b0 b0 44 3e 4f 09 e9 be
       -0.15630862 0.00804477 0.19208026 -0.45514914
0000a0 b1 8b 1b 3e a5 9c 7f be 0a 0b 70 be ad f7 c5 bd
       0.15190007 -0.24962099 -0.23441711 -0.09666381
0000b0 e1 b4 e6 3e 43 c7 f1 3d bd 52 f0 3e a2 ad 1a 3e
       0.45059875 0.11805584 0.46938124 0.15105298
0000c0 ab ba de be 5c 40 96 3f 15 59 1d bf 24 50 fe 3b
       -0.4350179 1.1738391 -0.61464053 0.0077610184
0000d0 1c 0a c4 3e 71 54 af be f8 97 31 3d f6 e8 73 bf
       0.38288963 -0.3424411 0.04335782 -0.95277345
0000e0 26 d4 8f be 75 d6 65 3e a3 eb 73 3c d1 1c 43 be
       -0.28091544 0.2244509 0.014887723 -0.19053961
0000f0 95 f6 5b 3e 84 4f b7 3e 7e 1f bf 3e be 9f 11 3e
       0.21480782 0.35802853 0.37328714 0.14221093
000100 ef 81 af be 30 5d bd bd 09 f0 6e be 05 d8 9e 3d
       -0.3427882 -0.0924629 -0.23333754 0.07756046
000110 38 de 62 3d 6f d0 da be 54 c9 95 3c 0d 1b 90 3e
       0.055387706 -0.42737147 0.018284477 0.28145638
000120 e5 7f 09 bd 63 87 9f be fe e8 e8 3c 18 fe 0e be
       -0.033569235 -0.3115798 0.028431412 -0.13964117
000130 7a 45 a5 bc 01 c0 1e 3e cf 48 9e 3e b9 25 07 bf
       -0.02017473 0.15502931 0.30914924 -0.52791935
000140 76 11 08 3e 3b e4 9f 3d 23 a1 e5 3d 05 4d 9a 3e
       0.13287911 0.078072034 0.11212375 0.30136886
000150 a5 29 37 bf 33 7b 89 bd 45 f3 4c 3e 8c 33 a3 be
       -0.7154792 -0.067129515 0.20014675 -0.31875265
000160 9c 12 4e bd 13 d3 0c bf 3a c8 76 3e 7f db 2c be
       -0.050310716 -0.55009574 0.24099818 -0.16880606
000170 21 57 34 bf f8 33 07 3e 60 3b dd bd 99 3d 61 be
       -0.7044545 0.13203418 -0.108023405 -0.21996154
000180 9a f9 7c 3d a7 64 37 be 73 b1 43 3f 9a 02 5d bd
       0.061761476 -0.1790949 0.7644264 -0.05395756

layer.1.bias f4 [10]
000000 da 8b 69 3f 3f f9 06 3e 96 79 e3 be 8a 90 76 3f
       0.9122902 0.13181017 -0.444287 0.963143
000010 60 f7 fa 3d 28 37 b9 3e 22 66 39 be 1f 83 e9 3c
       0.12254214 0.36174893 -0.18105367 0.028504906
000020 4a 9f ff be af fd cf be
       -0.49926215 -0.40623233

layer.2.weight f4 [10, 10]
000000 7b 58 2b ba af 07 84 be c9 b8 2b be 28 47 99 bf
       -0.0006536317 -0.25787112 -0.16769709 -1.197484
000010 b8 30 24 bf fc 4f a4 3e bb b0 18 3e d7 41 24 3f
       -0.6413684 0.32092273 0.14911167 0.64162964
000020 93 b6 23 3d 91 85 72 be b9 dd 57 3f 7f 89 87 3d
       0.03996904 -0.23683764 0.84322697 0.06618022
000030 e9 e4 92 be f9 d6 95 3e d5 2c 50 3e c6 8f 84 be
       -0.2869027 0.29265574 0.20329602 -0.2589094
000040 8c d1 fc bc 73 a9 32 3e 75 50 f5 be 13 07 43 3f
       -0.030861638 0.17447452 -0.47912946 0.7618267
000050 0b 79 df be 29 9f 86 3d c2 a7 7d 3e e2 27 9b 3e
       -0.43647036 0.06573326 0.24771026 0.30303866
000060 b5 66 e8 3d 09 93 80 bf 65 0f fc 3e fc d2 17 3f
       0.11347715 -1.0044872 0.49230495 0.5930631
000070 d6 40 22 3d 90 30 c4 be 1c 81 42 bd 65 80 3f 3e
       0.039612614 -0.383183 -0.04748641 0.18701322
000080 5e ef f3 bc 24 7c 69 bf 70 54 51 3e 1f d8 7a be
       -0.029777225 -0.9120505 0.20442367 -0.24496506
000090 87 24 20 3d 0f 99 c1 bc e1 0c e9 3d a9 70 8e 3e
       0.039097335 -0.023632554 0.113794096 0.27820328
0000a0 19 94 05 3f 44 d5 52 3c 31 5d 36 be ea a7 81 3e
       0.52179104 0.012868229 -0.17808987 0.2532342
0000b0 24 9e 6a be fd 1f bc bb f2 a4 5a be 6e 87 08 3d
       -0.22911888 -0.005741118 -0.21351984 0.03333228
0000c0 6f bf 72 3d d4 a9 76 3e 50 08 99 3c cb df de bd
       0.059264597 0.24088222 0.018680722 -0.10882529
0000d0 07 a3 55 be 11 5e 2e 3e 0b eb 8f 3e 4e be be 3e
       -0.20862971 0.17028071 0.2810901 0.37254566
0000e0 f2 02 b3 3e 38 a6 2b 3f 1e 7b 83 3e f7 c5 a0 bf
       0.34963185 0.67050505 0.25679868 -1.2560414
0000f0 d1 ab 68 3d eb 49 4d bd 6b a7 9b 3e 11 34 de 3d
       0.056804482 -0.05011932 0.30401167 0.10849775
000100 e3 98 71 be 4d c7 0c 3c 3b be 13 be 4d 7f 30 bf
       -0.23593478 0.008592439 -0.14428036 -0.68944246
000110 ca d3 55 bd 01 b2 d9 be 89 58 8e be 12 0b 7e 3e
       -0.05220393 -0.4251862 -0.27801922 0.2480891
000120 16 fb 8c be ea b7 e0 bd f0 43 e0 3c 12 9c 3f 3e
       -0.27535313 -0.10972579 0.027376145 0.1871188
000130 2f 63 3f be 00 8e 16 bb 90 a1 97 3c 7c 54 a5 3d
       -0.1869018 -0.0022972822 0.018509656 0.08072755
000140 46 de 39 bf a9 ae b1 bd 33 86 78 3e 2c 70 d5 be
       -0.7260479 -0.08675892 0.24269943 -0.41687143
000150 4e 65 01 3c 50 07 99 be b5 b4 97 bf 2c a0 03 bf
       0.007897688 -0.29888391 -1.1852022 -0.5141628
000160 b7 5d 14 3e 96 5c 21 3d 10 84 74 be 28 92 50 3e
       0.14488874 0.039394937 -0.23878503 0.20368254
000170 21 51 70 3e 9e ad 38 bd 95 b1 2a be 4c c2 02 be
       0.23468448 -0.04508745 -0.16669305 -0.12769431
000180 78 97 c1 3c f4 36 39 bf ad 88 a0 3d a6 14 cf 3e
       0.023631796 -0.72349477 0.07838569 0.4044544

layer.2.bias f4 [10]
000000 64 1b a2 be ec cd e0 3e f0 7e e4 bc 4f f8 4d bf
       -0.31661522 0.43907106 -0.02789256 -0.80457014
000010 13 89 85 3f 39 d9 26 3e 5d 3f e5 3e 18 8e 08 3e
       1.0432457 0.16293801 0.44774905 0.13335454
000020 e6 8a f2 be 42 94 55 3e
       -0.47371596 0.20857337

layer.3.weight f4 [2, 10]
000000 7f 7d 19 bf e4 1c 77 3f 0d 5a 52 be 63 6c 48 3f
       -0.59957117 0.9652846 -0.20542164 0.78290385
000010 e7 ab 50 3f 31 94 81 be ee c9 a0 3e 9e 6c 6a be
       0.815123 -0.25308374 0.3140406 -0.22892997
000020 6b 2f 61 bf d5 47 6e 3c 87 76 09 3f e4 1c 2a bf
       -0.8796298 0.014543493 0.53696483 -0.66450334
000030 ac 40 a2 3c a8 39 39 bf b1 00 06 bf ed 30 7f 3e
       0.019806229 -0.723536 -0.52344805 0.24921007
000040 d6 f4 27 bd f0 1f de 3d 2c 08 6a 3f eb 68 d2 be
       -0.041004978 0.10845935 0.9141872 -0.4109567

layer.3.bias f4 [2]
000000 63 db 14 3d 5e 74 08 3e
       0.036342036 0.1332564
