output/models/binary/75.99Acc_H1_VariableNet136Units1Layers_ReLU_CrossEntropyLoss_Adam_0.001lr_4838epochs_10batches.pth (torch, 82831 bytes, 6 tensors)

layer.0.weight f4 [136, 6]
00000000: 22d9 81be 5e33 403e 39c9 14bd 17aa a73e
00000010: 3016 acbf ebf4 4abe 3029 dcbc 442d 8cbc
00000020: f6cd 633e 4af0 1fbf fc6b ba3f c54a 8e3f
00000030: 1f53 9fbe 7ef3 0c3f e031 84be 2dea 8ebe
00000040: 2e6c c73d a086 003f f591 1b3d b2d5 493e
00000050: cc51 483e aee0 9fbc 8f5c 48bc bb50 e23e
00000060: a257 5dbe ee5d 193e 83f8 053e ee75 80be
00000070: fd36 40be 6e09 ab3e d33c 6d3e c552 5f3e
00000080: f856 84bd 06fb a83e 819c b03f ee06 d43f
00000090: 8eca ddbe dff1 fbbe 52f2 703d 94ae 9bbc
000000a0: 8f02 05bb b9d1 1fbe 56f6 c7be 5239 c73e
000000b0: 1fb4 173e a492 91be cb20 ed3d 239f 72bf
000000c0: 939e 39bd a895 93be eb42 0a3d dea1 b9bb
000000d0: 4d11 70bf 0ffe f2bf 1209 463e c827 88be
000000e0: 6113 c9bd dba9 be3e 3185 11bf 7eda 5fbf
000000f0: 7f66 83be e58c f53c e36d 51be 6e8b 5abd
00000100: 6b18 713d 9642 af3e ebe8 d43e 6dcb e9be
00000110: 73a3 6abd 00b3 cbbd 3a4b 5c3e 7998 34bf
00000120: d410 83be d300 043d dc3a 7f3e 4fa9 edbd
00000130: e207 f33e ffbe 8bbe 9b2b 32be 7a13 08bd
00000140: eeb0 193e 780c 1fbe def3 d73e f5c0 053e
00000150: cb5b 9fbe 3121 eebe e7f0 483d 9a27 0e3e
00000160: 2b83 063e 75ad 633e 75c2 cb3e 2286 2fbe
00000170: 585b 893e aac7 903e f8f1 70be b000 bbbd
00000180: b4fb 8ebd f86d bf3d 84e0 a0be bbd1 1b3e
00000190: 2894 5d3e 4de2 fd3e c8f0 0fbf bbf7 6c3e
000001a0: 4b51 953d a1ca b7bd 18fd db3e 558b 803e
000001b0: e5bd 043c 3dc6 c1be b973 e53c bbb2 ab3d
000001c0: a86f b03e 866c 80be 75a8 9ebc ff45 fa3e
000001d0: a6cc 10bd 03dd 983e d911 22bf e708 063f
000001e0: 32a3 0fbe 9c5a 5fbd 78da bbbd bd27 bf3e
000001f0: 5843 1ec0 cfc8 bebf 475b 22bf 9153 59be
00000200: 3780 6c3e 3af1 13bf c063 3c40 591b dabe
00000210: 90ac 60be 4b4d 13be 4bda 573d 0c3c 0dbe
00000220: ee27 543f 4ea6 a0be 605f 5d3e d280 b63e
00000230: 2bba 623e 3555 cabd 0e7f 413e 0158 eebe
00000240: 67c2 91be a54d 003e f81e 5d3e 2790 cebc
00000250: 1116 b13e 495e a33e 07f2 593e df95 b0bd
00000260: 56c0 723e 304f 11bf c37f f6be b7ff 27bf
00000270: 47cd c43e 4980 823e 97d7 ea3c bd11 ddbe
00000280: ffe4 e2bd 5424 8cbf 368d 113f 5340 40be
00000290: c112 24be 76ce 22be 0f91 853f bedd f6be
000002a0: a390 b63d 5575 443d 88ad 8f3d 4551 cfbe
000002b0: dcb8 2fbe 1d35 613f 99a7 87bd 749b ccbd
000002c0: 3553 41be 2d5b d03e 5fcd 02c0 3201 41bf
000002d0: d1f6 d8bd 7f5d 9b3e 4785 843e 4d7a f4bd
000002e0: 9c7c 7fbd e93d 173f 1b92 40bb e721 6abe
000002f0: 19ca 043e 9463 f8bd 9eab 1d3f 4974 4ebe
00000300: c169 883e 7dfe 3f3d 4ff1 babd f260 2dbd
00000310: da19 d9bf 5c4c fcbe e88e e6be 9121 2bbd
00000320: 7af1 223e 71c0 f2be 8215 273f fdab 96bf
00000330: 5d19 113e 69d8 123d d638 3e3e e236 20bf
00000340: 4d4e 073f 9f13 a33e 778f 103e 37c9 3cbd
00000350: ef48 09be f06c 9bbe f7a7 f33f 6eab 9e3f
00000360: 21e5 d93e 4ecc b33c e081 f8bd dd52 39be
00000370: 4fb0 a83f 98df fbbe 5836 5f3e 6b47 343d
00000380: d9b6 833b 6080 6fbe e6d8 38bf 2463 03bf
00000390: 6099 bbbe 0694 a7be acb6 eebd c52d 9d3e
000003a0: d537 a63e a717 243d 43a1 a63e 46d9 7b3e
000003b0: e5fa 04be 2da8 ce3e be50 27bf ba82 43be
000003c0: cffa d63d 10d5 86be b138 db3d 5a61 c9be
000003d0: 1fe5 aa3f ae89 72bf c6ea 60be 60da e93e
000003e0: 33ca a3bd 22b6 d93d 7928 773f 28c6 2c3e
000003f0: a5fd 32be 0eb8 4ebb 322c 253d 897d a1be
-0.25360972 0.18769595 -0.036324713 0.32746956 -1.3444271 -0.19819991 -0.026875108 -0.017111428
0.22246537 -0.62476027 1.4564204 1.1116568 -0.31118104 0.5505904 -0.25819302 -0.27913037
0.097374305 0.5020542 0.037980992 0.19710425 0.19562453 -0.019516315 -0.012229099 0.44202217
-0.2161546 0.14977238 0.13083081 -0.25089973 -0.18770976 0.33405632 0.23167734 0.21808918
-0.064619005 0.33004016 1.3797761 1.6564615 -0.433186 -0.4920797 0.058824845 -0.019004144
-0.0020295714 -0.15607347 -0.39055127 0.3891092 0.14814804 -0.2843219 0.115785204 -0.94774073
-0.045317244 -0.28825116 0.033755224 -0.005665048 -0.937764 -1.8983783 0.19339398 -0.2659285
-0.09818149 0.37238964 -0.5684386 -0.8744277 -0.25664136 0.02997441 -0.20452075 -0.053355627
0.058861177 0.3423049 0.41583952 -0.45663014 -0.057284784 -0.09946251 0.21513072 -0.70545155
-0.25598776 0.03222735 0.24924797 -0.11604559 0.47466952 -0.27294156 -0.17399447 -0.0332217
0.150089 -0.155321 0.42178243 0.13061889 -0.3112472 -0.46509698 0.049057867 0.13882294
0.13135974 0.22234137 0.39796796 -0.17141011 0.26827502 0.28277332 -0.23529804 -0.091309905
-0.06981602 0.09347147 -0.31421292 0.15216725 0.21638548 0.49586716 -0.5622678 0.23141377
0.07290896 -0.08974195 0.42966533 0.25106302 0.008101915 -0.37846556 0.028009282 0.083836995
0.34460187 -0.25082797 -0.019367436 0.48881528 -0.035351418 0.2985612 -0.63308483 0.52357334
-0.14027098 -0.05452977 -0.09172529 0.37335005 -2.4728603 -1.4905032 -0.6342053 -0.21223284
0.23095785 -0.5778996 2.9435883 -0.4259899 -0.21940827 -0.14384954 0.052698415 -0.13792437
0.8287343 -0.3137688 0.21618414 0.35645157 0.2214133 -0.09879533 0.18896124 -0.46551517
-0.2846863 0.12529619 0.21593845 -0.025215222 0.34587148 0.3190787 0.21283732 -0.08622336
0.23706183 -0.56761456 -0.4814435 -0.65624565 0.38437864 0.254885 0.028667254 -0.43177596
-0.11078834 -1.0948586 0.56856096 -0.18774538 -0.16022779 -0.15899071 1.0434893 -0.4821605
0.08914306 0.04796346 0.0701552 -0.4049169 -0.17160362 0.8797167 -0.066237636 -0.09990588
-0.18879397 0.40694562 -2.0437849 -0.7539245 -0.105939515 0.3034477 0.25882933 -0.119373895
-0.062374696 0.5907884 -0.002938396 -0.22864495 0.12967719 -0.12128368 0.6158999 -0.20161547
0.26643184 0.04687356 -0.09128057 -0.042328782 -1.6961014 -0.49277008 -0.45030904 -0.04178006
0.15912428 -0.47412446 0.65267193 -1.1771237 0.14169832 0.035850916 0.18576369 -0.62583745
0.5285385 0.31850907 0.14117227 -0.04609033 -0.13406728 -0.3035655 1.9035634 1.2396066
0.42557624 0.021948006 -0.12134147 -0.18098016 1.3178805 -0.49194026 0.21798074 0.044013422
0.0040196 -0.23388815 -0.7220596 -0.5132315 -0.36640453 -0.3273012 -0.11655936 0.30698982
0.3246447 0.04006162 0.32544908 0.24594602 -0.12986334 0.40362683 -0.6535758 -0.19092837
0.10497057 -0.2633443 0.107041724 -0.39332086 1.3351172 -0.9474133 -0.21964559 0.4567442
-0.07997551 0.10630442 0.9654613 0.16872466 -0.1747957 -0.003154281 0.04032535 -0.31541088

layer.0.bias f4 [136]
00000000: af78 063f cb18 92bf 5c95 e53e 52f0 04bf
00000010: 7a98 803f 71f6 62bf 3b4d 613f cecd 73be
00000020: 70ec 393f 6f28 87bf 1c70 3c3f f113 92bd
00000030: 76d9 263e 8ec4 6d3e 49e4 d33d 2a21 11bf
00000040: d448 fdba e8fa 4c3f 0e3b aebf d2b4 84bf
00000050: 2e9c 983e f02c b1be ed03 c83e 96ec 8f3d
00000060: bfad 6a3f 6ab1 4abe 71bb f4be f7f2 5cbf
00000070: 499e 8ebf 1a4a 8c3e cb91 b73e 210d 7dbf
00000080: 4d96 e6be 2759 22bf c2c1 3d3f b1d4 5abe
00000090: 8df6 32be 655e 83bf 2b69 5a3e 6401 28bf
000000a0: 27b7 d23d 649e 533f 7953 3f3f 82c6 fd3d
000000b0: a939 ab3f 1b31 05bf e3c6 243f e1be 733f
000000c0: 2e32 84bd a679 1c3f 8d66 dcbe d6d5 b5bf
000000d0: 2aef c43e a191 3fbe 5194 8ebd 5d14 873f
000000e0: c8fc b23f 9a03 36bf bdc4 84bf 4425 bfbe
000000f0: 2622 86bf 8b72 62bf c33b 8cbd fded 0d3f
00000100: 6322 6a3f ac01 183d f1b5 46bf cb38 8cbd
00000110: c45d 873f 2fd0 fb3d c487 ed3e c44d 813f
00000120: 1f05 97bd 8369 983c 3c95 59bf 0784 56bf
00000130: ee9a 56be cb07 8fbf b998 9ebf 24c7 5cbf
00000140: 974c 433f 8a09 45bf 9f82 063f d1bd 0bbf
00000150: 9b91 903f 80fa ed3e c626 c23d 9f1c 173f
00000160: 299e b93f 2aba 25bf 6ccd 9abf edba 7abe
00000170: 2aca e8be ff42 533f 4d0a 11be a588 9ebf
00000180: 116c b63d 71de 413f 522e fe3e f772 eb3d
00000190: 34c7 d63f 0b12 8a3f 962c 273f 2c8b b0bf
000001a0: 3b6e ae3f 0d45 8a3f 966c 88be 6d68 41be
000001b0: a5a6 d3be 15c6 42bb 8e2f fcbe 3bfe 933f
000001c0: 7365 dfbe 8780 a13f 14d6 cebe 70fd 3b3e
000001d0: faef d43e 5eb6 383f 8a20 6dbf 9bd0 263f
000001e0: bc99 93bf 6b00 aa3f 5be4 9e3f 32e5 083f
000001f0: e42b 68be 9186 06bf c67e 4ebf c772 313f
00000200: 38d0 39bf 0f29 54bf 59d9 6a3f 095b a8bf
00000210: 6b6a 22be 68ab 36bf a17b d4bf e478 bbbf
0.525279 -1.1413816 0.44840515 -0.519292 1.0046532 -0.8865729 0.8800847 -0.23808977
0.726264 -1.0559214 0.73608565 -0.0713271 0.16293892 0.23219511 0.10346276 -0.5669123
-0.0019324073 0.8007035 -1.3611772 -1.0367682 0.29806656 -0.34604597 0.39065495 0.07027547
0.91671365 -0.1979424 -0.47799256 -0.86308235 -1.1142055 0.27400285 0.3585342 -0.9884816
-0.45036545 -0.63417286 0.74123776 -0.21370198 -0.17476864 -1.0263182 0.21329181 -0.6562712
0.1028884 0.8266356 0.74736744 0.12391378 1.3376971 -0.52028054 0.6436598 0.95213133
-0.064548835 0.6112312 -0.4304699 -1.4205883 0.38463718 -0.18707897 -0.06961883 1.0553089
1.3983393 -0.71099246 -1.037254 -0.3733312 -1.0479171 -0.8845603 -0.06847336 0.55441266
0.9145872 0.03711097 -0.7762137 -0.0684677 1.057549 0.12295567 0.46392643 1.0101857
-0.07374024 0.018605 -0.8499334 -0.8379521 -0.20957538 -1.1174253 -1.2390357 -0.86241364
0.7628874 -0.7696768 0.5254306 -0.5458651 1.1294435 0.4648018 0.09480052 0.5902805
1.4501392 -0.6473719 -1.209394 -0.24485369 -0.4546674 0.825241 -0.14164086 -1.2385451
0.08907331 0.75730044 0.49644715 0.11496537 1.6779542 1.0786756 0.6530241 -1.3792472
1.362739 1.0802323 -0.26645344 -0.18887492 -0.41338077 -0.0029720117 -0.4925503 1.156196
-0.43632087 1.2617348 -0.40397704 0.18358397 0.41589338 0.7215327 -0.92627776 0.65162057
-1.1531291 1.3281378 1.2413439 0.53474724 -0.22672993 -0.5254908 -0.8066219 0.6931576
-0.7258334 -0.8287515 0.91737896 -1.3152782 -0.15860908 -0.71355295 -1.6600229 -1.4646268

layer.1.weight f4 [136, 136]
00000000: 7498 b0bd 962e c83d 542c 533d aedf ac3d
00000010: 9d92 a6bd df25 443e 68e1 b1bd ecc7 04be
00000020: 121f 59bd 4d26 f53d e413 7cbd 8cc3 fa3d
00000030: 7dbb 44bd 98de efbc 8da5 a0bd e056 0dbd
00000040: 77d7 14bd 403e 30be 73e7 013e 2c61 eb3d
00000050: db2f 653c 471f 553d 3c44 2e3c 2dbf a63d
00000060: 7010 5abc 402e d13c 779a f13c 60df d43d
00000070: da9b c93d 195e 41bd 4cc1 9fbd a910 5bbc
00000080: 42a8 653d 4962 90bd df2c 5b3d d155 bcbc
00000090: 3fc7 dd3d 38ed 033e b0ca 903c a3fd 6e3d
000000a0: 1f4f 863d 8434 313b d226 3abc 86cc 733d
000000b0: 1186 06be 15cb dcbc 7d3e 9bbd c379 b3bd
000000c0: 4b8d b33c 2798 f5bd a115 b03d 93af 493d
000000d0: bb9d 9e3b 5a20 a63d 1219 dd3b aaf7 1dbd
000000e0: 2e26 89bd bd27 393e db33 83bd 7b57 9dbd
000000f0: a0b3 8f3d c99c 193e fd1c 15bd d9a2 f03d
00000100: 504e 4dbe 5781 c2bd b02e c73d f8ef ed3c
00000110: 6db9 ebbd b0b9 77bd cabb cf3c 6613 a7bd
00000120: 67fd eebc 2823 a63d 1b52 333e 0359 cf3d
00000130: b63f 723d 3366 b23d 5a49 17bd ad8b d8bc
00000140: 9078 47bd 2629 403e b2ab 133d 2d02 83bd
00000150: 2a96 b3bd a70e 8cbd 0896 bebc c9d9 f2bc
00000160: ffdb b2bb e95b 7cbd fa6b ec3c 5c4e c83d
00000170: fec5 253d a1cb df3c 86d0 813d 2e34 cf3d
00000180: 1659 ac3d ee01 46bd ae4d 12be 5c0a 413d
00000190: d1df 083d 9df4 e23d be7c 80bd 1ba9 bc3d
000001a0: 609b ffbd 5e42 a93c 9bcf 06bd b56d 3e3d
000001b0: 20bc d83b 2976 ae3b 56a8 58bd bf33 4dbe
000001c0: b6a3 6c3d 7a41 2e3d fee7 d13b 030f a43d
000001d0: 2eea 66bd 05d9 54bd 79c8 e5bd e395 5f3c
000001e0: f7cf 443d 2768 a4bd e80d be3c f410 34bd
000001f0: 05ea 39bb 377b 0ebd 3321 2ebe 9400 a5bd
00000200: b2c1 013e 7533 a7bd b805 e7bb ec7f 6e3d
00000210: 44e4 993d cee3 673d a1d5 863e 39e6 aebc
00000220: 38c9 043d 5a9c f7ba 641d 993d f267 8a3c
00000230: 4ef6 26bc ca77 5abd 1bcb 813d 8dc9 903d
00000240: 0953 323d 388e 6abd 0226 a7bc b991 883d
00000250: 37f5 4dbd dc51 2c3d aaaa 00bd 525e a7bd
00000260: d914 50bd 8def 00bd 3fd4 473d b97e a2bd
00000270: d33d 97bc 4ee3 983d a648 823c 72b4 60bc
00000280: a23f 823d 9b20 283d 9f6e 993c 573d 9a3d
00000290: 4f96 303d a72d 30bc 5110 b0bc 4127 babb
000002a0: 460a d23c 9b2f 0d3d 9673 343c f9f8 83bd
000002b0: ff76 7abd 4c5c 52bd 35c9 4abc d304 e53c
000002c0: bb58 18bc 07a9 c5bd 8d28 203d 4f4a ac3d
000002d0: 67f5 6dbd c395 953b 3675 0a3d 834d 22bd
000002e0: d644 853d e895 c83d 1c17 2b3d a7ff 00bd
000002f0: cf1b 33bd 8c0b b73d 6968 c4bd f679 87bd
00000300: ef48 eabc 8924 97bd 1cc3 a6bd 01c0 323d
00000310: df14 ba3c 900e d5bc deeb 73bd b597 41bd
00000320: be03 69bc 638c 4dbd 7081 88bd 3766 b13d
00000330: 8653 463c 9c54 78bd 7846 87bd df2b 9b3c
00000340: ff2a b33d 41fe b13b b8f7 7cbc 521a 3d3d
00000350: b6bd bb3c 274e f73c 5ea1 b23d f89e 2d3d
00000360: 490d 253d f50b 253c 97ca b1bd 7bda 663d
00000370: e227 2d3c 78ab 4b3d 6814 4f3d 2081 9abd
00000380: d75b 253d 8676 d43a fc8f 2fbd dbe0 813d
00000390: ae75 833b 7262 8abd 9e97 2ebd ebee 98bc
000003a0: a003 a63d c11a 0a3d b84a 2cbd 8e2b 2cbc
000003b0: f1f9 8a3d 8df8 893d c1be fe3b d927 973d
000003c0: e439 a6bd 33c2 42bd 0cd2 843d d98f a2bd
000003d0: b747 c63b 87ae 6a3d 1f99 f03a 184b ebbc
000003e0: 7021 0ebd e1f8 8e3c 8c55 99bd 31a9 9f3c
000003f0: dc6e 3c3d f047 3abd ecd0 48bc 9162 883d
-0.08622828 0.097745106 0.051555946 0.08441101 -0.08133433 0.19155072 -0.08685571 -0.12966889
-0.053008147 0.11970196 -0.061542407 0.12244329 -0.048030365 -0.029280946 -0.07844076 -0.03450668
-0.036338296 -0.17211246 0.12685947 0.114931434 0.01398846 0.05203178 0.0106363855 0.08141933
-0.013309583 0.025534749 0.0294926 0.10394168 0.098441795 -0.04720888 -0.0780054 -0.013370671
0.056068666 -0.070499964 0.05350959 -0.02299014 0.10829019 0.1288346 0.017674774 0.058347356
0.0655806 0.0027039358 -0.011361795 0.05952122 -0.1313708 -0.026952306 -0.07580278 -0.087634586
0.02191796 -0.119919114 0.085978754 0.049239706 0.0048405803 0.08111639 0.0067473734 -0.03856627
-0.06696735 0.18081565 -0.06406375 -0.07682701 0.070166826 0.15001215 -0.0364046 0.11749811
-0.20049405 -0.09497326 0.09725702 0.02904509 -0.115099765 -0.06047982 0.0253581 -0.08157997
-0.029173566 0.08112174 0.1751179 0.101243995 0.05914279 0.08710899 -0.036935188 -0.02643379
-0.04869896 0.18765697 0.036052413 -0.06396899 -0.08768876 -0.06838732 -0.0232649 -0.029644864
-0.0054583545 -0.06161109 0.028860081 0.09780571 0.040472023 0.027318778 0.06338601 0.10117374
0.08415429 -0.048341684 -0.14287445 0.04712902 0.033416573 0.110818125 -0.06273793 0.09211942
-0.12480807 0.02066153 -0.03291283 0.046491344 0.006614223 0.0053241444 -0.052894913 -0.20039271
0.057773314 0.042542912 0.0064058295 0.08010676 -0.056375675 -0.05196478 -0.11219878 0.013646576
0.048049893 -0.08027678 0.02319999 -0.04396148 -0.0028368246 -0.034785476 -0.17004852 -0.08056751
0.12671545 -0.081641115 -0.0070502423 0.058227465 0.07514241 0.056613736 0.2633486 -0.021350013
0.03241846 -0.0018891201 0.07476309 0.016895268 -0.01019056 -0.053336896 0.063375674 0.07069693
0.04353622 -0.057264537 -0.020403866 0.066684194 -0.050282683 0.042070255 -0.031412758 -0.08172287
-0.050801132 -0.031478453 0.048786398 -0.07934327 -0.018462097 0.0746523 0.015903782 -0.0137148965
0.06359793 0.04104672 0.018729506 0.07531231 0.043112095 -0.010753072 -0.021492155 -0.005680949
0.025639664 0.03446923 0.011013886 -0.06443972 -0.06114864 -0.051357552 -0.012377073 0.027956402
-0.009298499 -0.0965138 0.039101172 0.08412611 -0.058095362 0.004564972 0.033803187 -0.039624702
0.0650727 0.09794217 0.041770086 -0.03149381 -0.043727692 0.08937749 -0.09590227 -0.06615059
-0.02859923 -0.073800154 -0.08142683 0.04364014 0.02271503 -0.02600792 -0.059551112 -0.04726382
-0.014222084 -0.05018271 -0.06665313 0.08662074 0.0121048745 -0.060627565 -0.06605238 0.018941818
0.08748435 0.0054319208 -0.01543992 0.04616768 0.02291761 0.030188633 0.087221846 0.042387933
0.040295873 0.010073652 -0.08681219 0.056360703 0.010568591 0.049724072 0.05055657 -0.0754416
0.04037079 0.0016209639 -0.042861924 0.06341716 0.0040118312 -0.06757058 -0.042625062 -0.018668612
0.0810616 0.03371692 -0.042063445 -0.010508431 0.06785954 0.067368604 0.0077742045 0.07380647
-0.081165105 -0.047548484 0.06485376 -0.07937593 0.0060510295 0.05729535 0.001835618 -0.02872233
-0.034699857 0.01745266 -0.0748702 0.019489856 0.04600416 -0.04547876 -0.012256842 0.06659425

layer.1.bias f4 [136]
00000000: 9a04 d8be 200c 5dbd 2dd8 fc3c af5b d1be
00000010: c21f 2cbe 77a0 afbd 81de 643c 2444 9bbc
00000020: c836 13bf 73ce e43d 26b5 42bc a84c 2dbe
00000030: 5bb1 2e3c 2ad6 fdbc 2020 943d 7493 9c3e
00000040: 4c06 2ebe 0517 11bd 67ad 0abf 4d1a 7cbd
00000050: 7cfc 803e fcb4 2abe a8c1 053c 1756 98bf
00000060: ac64 933c b629 f03e 3893 7cbd d0d4 84bd
00000070: 269e 823c e24f 64bd 0996 5a3f 0909 963d
00000080: 0aaf 84be 26c5 a6bd c138 bb3e 9085 66bd
00000090: 962e 813d 914a c03e 1089 e9bb da82 74bc
000000a0: 57e3 c63e 9761 75bc ead9 58bd 5762 8a3a
000000b0: d9e5 b2be b8a2 ebbe 1181 93bd ee49 d53e
000000c0: b75b a3be a8d0 2bbc a0a1 4a3c 8c92 df3c
000000d0: 31ca efbc 5d79 f23e 2470 473c 0901 9f3d
000000e0: 05ad a5bd 6afa 6e3d d853 c5bd 805f c53d
000000f0: bd96 173c f42b b2bc cb7b 2d3f 3b79 893e
00000100: 7c10 93be 1f48 adbc fc9f 4dbf 3077 80bf
00000110: de37 da3e 4103 713e fb24 70bd 43d5 413d
00000120: 3692 283f 6fe8 cebc 2099 e63e 52f7 d4bd
00000130: f222 bb3d 33df abbd 0b34 8e3d e875 7b3e
00000140: 7c99 6ebd 328a a4bd 4d42 153f b38f 2bbd
00000150: c2e0 4c3d d4d1 413b 987c 753d b4d3 3d3e
00000160: a2ce febd b818 16bd 79af a8be 3bb1 73bd
00000170: 786b 1ebd 17c8 c23c 41f3 963e 9cbf 1bbe
00000180: d5b6 10bc 4ead 113d 63b5 b23e d6a1 373d
00000190: b5d0 ae3e cf9e 90be 2434 97bd 454a 593c
000001a0: e714 18be f45a 563d cffb 323e 8079 e33d
000001b0: eece 1abe 28b3 00bc cfbe 41bc ee49 893e
000001c0: bf44 a0be 6f7e 933d 9bb9 6cbd 46fb 573c
000001d0: 6145 9cbc 2603 6dbe 83fb 0bbf c5c6 82bf
000001e0: 7add 873d a0e5 9cbc 808f 14bf 74df b6bd
000001f0: 0f01 4f3d f9ba 09bd 4b8b abbe 5b94 263e
00000200: 5ed3 49bd 3215 0abe 837e e7bc eb8d c9bc
00000210: 3eca 783d 7eec 253f 4596 933e 94e7 b1bc
-0.4219101 -0.05396664 0.0308648 -0.40890262 -0.1680899 -0.08575528 0.013969065 -0.01895339
-0.57505465 0.111721896 -0.011884009 -0.16923773 0.010662402 -0.03098591 0.0723269 0.30581248
-0.1699459 -0.035422344 -0.5417084 -0.06154852 0.2519263 -0.16670603 0.008163847 -1.1901273
0.01799234 0.46906823 -0.061663836 -0.06485903 0.015944552 -0.055740245 0.85385185 0.07325942
-0.25914794 -0.08143072 0.36566737 -0.05627972 0.06307714 0.3755689 -0.007126935 -0.014923776
0.38845322 -0.0149768805 -0.052942194 0.0010557872 -0.34940985 -0.46022582 -0.07202352 0.41657966
-0.3190591 -0.010486759 0.012367636 0.027291559 -0.029271217 0.47358218 0.0121727325 0.07763869
-0.080896415 0.058344282 -0.096351326 0.09637356 0.009252247 -0.021749474 0.6776702 0.26850304
-0.28723514 -0.021152554 -0.8032224 -1.0036373 0.42620748 0.23536398 -0.058629017 0.047322523
0.658481 -0.025257317 0.450387 -0.10398735 0.09137525 -0.08392181 0.0694352 0.24556696
-0.058251843 -0.08034171 0.5830429 -0.04188509 0.050019033 0.002957453 0.059933275 0.1853779
-0.12441756 -0.036644667 -0.32946375 -0.059495192 -0.03867671 0.02377705 0.29482463 -0.15209812
-0.008832653 0.035565667 0.34904012 0.044832073 0.34143606 -0.2824616 -0.07382992 0.013262336
-0.14851724 0.052332833 0.1747887 0.11107159 -0.15118 -0.007855214 -0.0118252775 0.26814216
-0.3130245 0.0720185 -0.057794195 0.013182467 -0.019076051 -0.23145732 -0.5468065 -1.021691
0.0663404 -0.019152462 -0.58031464 -0.08929339 0.05053812 -0.033625577 -0.3350471 0.1626753
-0.04927384 -0.13484648 -0.028258568 -0.024603805 0.06073975 0.64813983 0.28825584 -0.02171687

layer.2.weight f4 [2, 136]
00000000: 71a1 04be c472 3c3d ab75 b8bc ff2d 9539
00000010: 3d51 40bc 8021 3abc e7cf 74bd 6c1a 8d3d
00000020: e2a3 dbbd 8fde fd3e 3d1d 07bd ccd5 27bd
00000030: 8c4c 9c3e 97bb c4bc bdbf 6fbc eefe 823d
00000040: ce15 84bc 1894 bcba 1f82 8d3c 8ac9 91bc
00000050: 16cb 85bf 23aa 42bd 9a89 9abd 5428 36bf
00000060: 0c29 5cbd 2eeb b93c aab9 4d3d 53b3 353f
00000070: eb85 563c 90c5 8c3d bc94 9e3e eaf7 4bbd
00000080: 05d1 673f 73d1 3e3d 4a07 1b3d 7329 8bbc
00000090: fb0c da3c 946f d93d 5dac 9bbd f61d e0bc
000000a0: dce8 43be 9430 8e3d 9b93 64bc d2ab 5e3d
000000b0: fe55 89bd ea2b 573e 593d 4cbe d437 9f3d
000000c0: 9c1d 73bd 643c 50bd 554a 5ebd 3e41 3a3d
000000d0: eb38 9dba e49c 873d 5ecd 763d 5076 393d
000000e0: 1c28 33be c087 3e3b 7203 30bc e8d6 823d
000000f0: f8bf 41bd 80ce 813d 65f0 1a3f 4806 003e
00000100: 4923 0dbe 53cc 5db9 ba51 663e 6db7 e9be
00000110: 1d5b a83d 8801 04be 9a52 603c 0557 723d
00000120: 4b3d 7a3d 9c59 68bd e343 4bbe 46c9 14be
00000130: bc68 1dbf 85e4 aebb abed 953d 8481 63bf
00000140: 7442 313d a62f d83c fa31 bc3d 5190 843d
00000150: 2985 a3bd 4abc 27bd 457e 583d 1769 3bbb
00000160: 6286 d43d 06dd eabc 0275 1fbe 4856 513d
00000170: e8e0 cd3c a8ad eb3c 4e7e 8c3c c21c 9cbc
00000180: 5a66 9c3f ce48 79bc 09a6 0b3d cbd4 8ebd
00000190: 973c 403d 2630 d4bd 95ed aeba 47f8 d43e
000001a0: aa19 e83d 2dcd 1cbd 10c6 7ebe 54ae a0bd
000001b0: 3327 cabc 0636 3d3d 3d81 1a3c 2165 e8be
000001c0: 4a23 f03d b325 853e 3048 ef3c 34b3 a63d
000001d0: a95a 56bd 7cca 683d f86e 903e da0b cdbe
000001e0: 03b6 273e 9f4b 26bd cd3d 10be 17ed 593b
000001f0: fad1 85bd 8c31 eebd 385b eabd a0cc 80bd
00000200: 2297 013d c63c 10bf 9b89 2cbe 996d 413d
00000210: 927d 8a3d 21ff 323e ea1c 683d f88d 493d
00000220: 4c81 d13d b749 91bb 2b3a 7b3d a8ec 573c
00000230: c6cc 743d 4a88 c73b bbbb 333d 8cd2 1fbd
00000240: 750f 183d 3c05 bebe ead6 c6bc b072 0cbd
00000250: 59b6 a3be ab7c 8fbc d7e6 f43d d17f bb3d
00000260: 7ca1 443c c97f 913c c78e c83d 511c 6dbc
00000270: d05f 7c3f 45ea 4ebc 08c4 84bd 8149 473f
00000280: 7236 7c3d e946 76bd fec2 643d 2ded 2fbf
00000290: 7838 a73d cc8b 683d bbe2 cdbe c885 5a3d
000002a0: 7ff9 6abf e479 153a 8048 f8ba 79b1 ebbc
000002b0: b9f3 d23c 26db bfbc fcfb 64bd 5129 25bc
000002c0: ff17 1e3e ece7 98bd 2e6d 0cbb 3267 323a
000002d0: 6c6e d73b c4c4 3abe 684d bb3d 04f0 9abd
000002e0: dbf8 943d 6460 50bd 8695 1abd c09b a8ba
000002f0: 62a5 243d 5266 b5bd 64d7 053d 6c1a 503d
00000300: f98f e03d d033 7abc 2798 16bb fffc b43d
00000310: fb9b 1dbd 969d 663d 3d37 2dbf 1d2e 8dbb
00000320: c850 653c 9ce9 813d 42d8 62be b7bb 103f
00000330: ddf8 85bd 4131 793e 8877 903b 5778 a53d
00000340: 635c 05be 2135 97bb 211d ec3d c161 cd3d
00000350: a7cd 313f cd2d 683d aa13 63bd fcd5 5b3f
00000360: 25f6 643d 0323 493d 90c8 b5bd 7400 8d3d
00000370: 5874 31bc e531 41bc eec6 8e3c 9672 aebb
00000380: b2c8 0ebe 20c8 1c3b c652 a03d 162e ccbc
00000390: b609 753d aa80 3e3d c46b c23b 701f 53bc
000003a0: ef8c a5bf f8b6 c33c 06c2 e5bc b7ab e7bc
000003b0: 5efe 10bd 0ff5 453b 2fe2 813d 3979 a0be
000003c0: e103 b0bd bd9d 363d 204b e03d 8140 99bd
000003d0: 5ba7 d8b9 2267 323d b644 5f3d 3ae1 bc3e
000003e0: bf1f c8bd 7fab fdbd 9dff 2d3d f95c 20ba
000003f0: 80d5 df3c 42cd 9e3d 25c2 a8be be56 c33e
-0.1295221 0.046007887 -0.022517046 0.00028453764 -0.011738119 -0.011360526 -0.059768584 0.06889805
-0.107246175 0.4958386 -0.03298687 -0.040975377 0.3052715 -0.024015231 -0.014633116 0.0639628
-0.016123679 -0.0014387397 0.01727396 -0.017796297 -1.0452602 -0.047525536 -0.07545777 -0.71155286
-0.053750083 0.02269515 0.05022589 0.7097675 0.013093452 0.068736196 0.3097285 -0.049796976
0.90553313 0.046586465 0.03784875 -0.016987538 0.026617518 0.10616985 -0.07601235 -0.027358036
-0.19131798 0.06942859 -0.0139512075 0.05436308 -0.06705855 0.21012846 -0.19945277 0.0777432
-0.05935441 -0.050838843 -0.054270107 0.045472376 -0.0011995112 0.066217214 0.060254447 0.045278847
-0.1749577 0.0029072613 -0.010743009 0.06388646 -0.047302216 0.06338215 0.6052306 0.12502396
-0.13782991 -0.00021152319 0.22492114 -0.45647755 0.082205035 -0.12891209 0.013691569 0.05916502
0.06109361 -0.056726083 -0.19850115 -0.14529905 -0.61487937 -0.0053373002 0.07320722 -0.888695
0.043276265 0.026389908 0.0918922 0.06472839 -0.07984383 -0.04095105 0.052854795 -0.0028596574
0.10377194 -0.028669845 -0.15571979 0.051107675 0.025131658 0.02876933 0.01715007 -0.019056682
1.2218735 -0.015215112 0.03409389 -0.06974181 0.046932783 -0.10360746 -0.0013345951 0.4159567
0.1133302 -0.03828161 -0.24880242 -0.078457505 -0.024676895 0.0461941 0.009430227 -0.45389655
0.11725481 0.26005325 0.029209226 0.08139649 -0.052332554 0.05683373 0.28209662 -0.40048105
0.16378026 -0.04059946 -0.14086075 0.0033252889 -0.065341905 -0.11630544 -0.1144318 -0.06289029
0.031638272 -0.5634273 -0.16849367 0.04722366 0.06762232 0.17480136 0.0566682 0.049207658
0.102297395 -0.0044338363 0.06133477 0.013178982 0.0597656 0.006089245 0.043880206 -0.039019153
0.037124116 -0.3711337 -0.0242724 -0.034289062 -0.31975058 -0.017515501 0.11958092 0.091552384
0.0120013915 0.017761128 0.097928576 -0.014472083 0.985837 -0.012629096 -0.064827025 0.77846533
0.06157536 -0.06012622 0.05585002 -0.68721277 0.081650674 0.056773946 -0.40212044 0.05335024
-0.9178695 0.0005702062 -0.0018942505 -0.028771149 0.025750982 -0.023419928 -0.055904374 -0.010080651
0.15438841 -0.074661106 -0.002142738 0.00068055384 0.0065744426 -0.18239123 0.091456234 -0.075653106
0.07274028 -0.050873175 -0.037740253 -0.00128638 0.040196784 -0.08857407 0.032676116 0.050806448
0.109649606 -0.015271142 -0.0022978873 0.08837318 -0.038478833 0.05630263 -0.6766241 -0.0043084756
0.0139963105 0.063433856 -0.22152808 0.5653643 -0.065416075 0.24335195 0.0044087805 0.08079594
-0.13023524 -0.0046144878 0.115289934 0.10028411 0.69454426 0.056684304 -0.055438675 0.8587339
0.055898804 0.049105655 -0.08876145 0.06884852 -0.010830961 -0.011791681 0.017428841 -0.0053237183
-0.13943747 0.0023922995 0.07828288 -0.02492432 0.059823714 0.046509422 0.005933257 -0.012885913
-1.2933635 0.023890957 -0.02804662 -0.028280122 -0.035398833 0.003020588 0.06341969 -0.31342486
-0.0859449 0.044584025 0.10951829 -0.07483006 -0.0004132342 0.043555386 0.054508887 0.36890584
-0.0977168 -0.12386226 0.0424801 -0.00061173696 0.027323484 0.077539936 -0.3296062 0.38152117

layer.2.bias f4 [2]
00000000: 3efe fc3e a644 eebe
0.4941272 -0.4653675
