output/models/binary/76.34Acc_H1_VariableNet261Units1Layers_ReLU_CrossEntropyLoss_Adam_0.001lr_4631epochs_10batches.pth (torch, 286351 bytes, 6 tensors)

layer.0.weight f4 [261, 6]
00000000: 3a49 8c3e eb0d b9be cb1c 4ebe 73a5 21be
00000010: 41a3 acbf 5bc5 94be edb3 eabe 344b b43d
00000020: c39b 853e 26cc d5be 69b6 99bf 9692 62bf
00000030: d357 1fbf a4ee fd3e 604d cf3d e6df 993d
00000040: ff5c b8be b8a9 fd3c da51 e9bd 0fc3 6e3e
00000050: ecca af38 4c93 1f3e 3789 a23d abce f13f
00000060: 8bf4 3f3e 0d85 c83e 78fb a3bc d7b6 abbe
00000070: 1042 f83c 501d 663e 8091 8ebd a4a1 173e
00000080: 1e4b b43a bcf6 473e 724d 7c3e 125a fbbd
00000090: 31ff bdbc 0ad2 733d ca5a 7bbe 2807 b63e
000000a0: 3bde 1e3f 9668 dfbe da72 17bf 048a 013f
000000b0: 2f56 303e 165c 6fbe d651 e73d 95c0 33bf
000000c0: 862f 2c3e 05fd 13be 9a4b b03d ae57 39be
000000d0: d7c6 a7bf 2cfa 95be b879 2d3e d6c5 e8be
000000e0: 020a 563e 9fe1 483e 8798 f2be 242d 8e3e
000000f0: 23fe 233e cd12 50bd 6af8 59bc 71a9 c7bc
00000100: 4fec 1f40 3a66 8fbf 256c cb3e 9904 cf3d
00000110: e555 61be 90e8 f03e cf30 b0be c32c b33e
00000120: 98c5 0fbf 5a3c 573d 78f9 873e c803 bdbe
00000130: 0315 1bc0 920b 463f bf30 043f 8dba f0be
00000140: 5ae0 40bc 7b23 75be 4074 d9be f1fa 14be
00000150: 6dd6 713e c39e 86be cdbc 903d 17a5 d9be
00000160: 955c 90be 1331 88be 46ad dc3e ba53 ac3e
00000170: 8987 2dbe 8ff2 a93d f8a2 e5bc 2858 673e
00000180: 5e62 27be 5d9f 05be d5b3 65bd 7e1f 5dbe
00000190: fa39 92bf b03e d1be 113e 0a3e 619f 6ebd
000001a0: 9e54 8c3d 2fef 8cbe 7867 38bf 5db6 04bf
000001b0: f356 dd3d 440a 23bc ff06 a33d 12cc 58be
000001c0: d90c 77bd 05d6 103f 7637 5abe 9921 c23e
000001d0: dbdb f6bd 4543 3e3e a0d5 afbd 2870 04bf
000001e0: 6234 b53e c3cc 3ebe 5d11 9abd d35c 7dbe
000001f0: 4eca 97bf 1d36 59bf 67b4 7fbe 7a9a 413c
00000200: 2df1 b9bd 44fd 9e3e 5f55 403f 1ca5 7d3e
00000210: 4c64 06be 578c a43e 1b1c f73d 140a 463e
00000220: 3b74 a73d 07be 22bf 52c4 043f 8627 c5be
00000230: 47a1 84be daa3 b23e 9a2e 603e 8d28 8bbe
00000240: 10dc efbc 0658 663d 24bc 82bd 56e7 4dbe
00000250: c4df e5bd b505 13bf 32c5 9ebe 6824 9fbe
00000260: 151c f63d dda0 463e 504e 643e 4c8c c5bf
00000270: 7dca 23be 3da3 b73e 2ad1 3ebe d18e 67be
00000280: 75f3 c2bf 0697 16c0 96e2 09bf 5141 c43e
00000290: 7551 2d3e 57ac a1be e8db 98bf ea23 bebf
000002a0: ac22 39be e577 a43e 22c6 6c3e a25f 6abe
000002b0: d321 44bf 84da 60bf 049f 803e 1525 7dbe
000002c0: d168 8abe ce5f cd3e b75b acbf 106c 123f
000002d0: 4d63 3bbe 971e 693e cab2 03be 3c79 7f3d
000002e0: dfb9 0ebf d76e d3bf 1a58 c3be abf1 d43e
000002f0: 083a bfbd 23af 603e 9afa 413f b668 bdbd
00000300: 6f08 e3be ee8a 5a3e 5337 773e 8d3b 0e3e
00000310: cd8e c53f 2cad 663f c281 373d f2c9 3f3e
00000320: e1d5 febd ba49 b93e 417e c43e 0bb1 31bf
00000330: b1b0 fabe 01a7 133e cf49 793d 8da0 813d
00000340: c766 543f 57fd ffbe d62c a6be 4131 283e
00000350: fe8c b9bd c121 c83e bb97 babf 5376 3abc
00000360: 3651 b9bc c65f 893d 2a3a 57be 56c6 8fbe
00000370: 3332 fe3f 3de7 1340 c0c2 ab3e 187a 9dbc
00000380: f544 5fbe 4fdf afbc 4dd7 413f d668 98be
00000390: 887e 883e 9b3d 213e 5b4a 18bc 6dff 60be
000003a0: 978f 09bf 82a1 06bf b74b 8bbe 0628 08be
000003b0: 3f4e 2d3e 9820 50be a55f 523f 8267 3c3f
000003c0: ae52 8abe d2ed 4abe 650c ac3c af77 103e
000003d0: c1c6 b63e 368c 013e 85a9 21be 7516 0d3e
000003e0: 566e a13d f082 80be a3c3 c13d 7dbd cd3e
000003f0: d960 11bd 5173 843e 5405 f63d 73f6 a2be
0.27399617 -0.3614343 -0.20128171 -0.1578577 -1.3487321 -0.2905682 -0.45840397 0.08803406
0.260954 -0.41757315 -1.2008792 -0.8850492 -0.62243384 0.4959613 0.1012218 0.07513408
-0.3600845 0.030964717 -0.11392565 0.23316596 8.3824474e-05 0.15583533 0.07936328 1.8891195
0.1874563 0.3916401 -0.02001737 -0.33537933 0.030304939 0.2247212 -0.06961346 0.14807755
0.0013755297 0.19527715 0.24638918 -0.12273039 -0.023192974 0.05952648 -0.24546352 0.35552335
0.62057847 -0.4363448 -0.59159625 0.5060122 0.17220376 -0.23374972 0.11294906 -0.7021573
0.16815004 -0.14451988 0.0860817 -0.18099853 -1.3107556 -0.29292428 0.16940963 -0.45463437
0.20902255 0.19617318 -0.47381994 0.27768815 0.16014914 -0.05079918 -0.013303855 -0.024372788
2.4987981 -1.1203072 0.39730945 0.10108299 -0.22005422 0.4705243 -0.34412238 0.34995088
-0.5616088 0.05254779 0.26557517 -0.36916947 -2.4231575 0.77361405 0.5163688 -0.47017327
-0.01177224 -0.23939316 -0.42471504 -0.14548852 0.23616953 -0.26293 0.07067261 -0.42508766
-0.28195634 -0.2659994 0.43100947 0.33657628 -0.16946234 0.082982175 -0.028031811 0.22592223
-0.16346118 -0.13049074 -0.056079704 -0.21594045 -1.1423943 -0.4086814 0.13500239 -0.058257464
0.06852077 -0.27526233 -0.7203288 -0.51840764 0.108076 -0.009951178 0.07960319 -0.21171597
-0.060314987 0.5657657 -0.21310219 0.37916258 -0.12053653 0.18580349 -0.085856676 -0.51733637
0.35391527 -0.18632798 -0.07522843 -0.24742441 -1.1858613 -0.84848195 -0.24971162 0.011816615
-0.09079204 0.310526 0.75130266 0.24770015 -0.13124198 0.3213832 0.120659076 0.19339782
0.08176466 -0.6357121 0.5186206 -0.38506716 -0.25904295 0.34890634 0.21892777 -0.27179375
-0.029279739 0.05623629 -0.06383541 -0.20107779 -0.112243205 -0.57430583 -0.31009823 -0.31082463
0.12017075 0.19397302 0.22295499 -1.543344 -0.15995212 0.35866728 -0.18634477 -0.22613074
-1.5230547 -2.3529677 -0.5386137 0.38331082 0.16925605 -0.31576797 -1.194211 -1.485471
-0.18079633 0.32122722 0.23122457 -0.22888044 -0.7661411 -0.8783343 0.2512132 -0.24721177
-0.27033094 0.40112156 -1.3465489 0.5719614 -0.18299599 0.22765575 -0.12861171 0.062371477
-0.55752367 -1.6518201 -0.38153154 0.41590628 -0.093372405 0.2194181 0.7577301 -0.09248488
-0.44342372 0.2134206 0.24142198 0.13889904 1.5434204 0.9010799 0.04480148 0.1872938
-0.12443138 0.3618906 0.38377574 -0.6941077 -0.4896293 0.14419176 0.060861405 0.06329451
0.82969326 -0.4999797 -0.32456082 0.16425039 -0.09060095 0.39088252 -1.4577554 -0.01138075
-0.022621732 0.067077205 -0.21018282 -0.28081006 1.985907 2.3109887 0.3354702 -0.019223258
-0.21803649 -0.021468787 0.7571915 -0.29767483 0.26659036 0.15746157 -0.0092950715 -0.21972437
-0.53734726 -0.5259019 -0.27206203 -0.13296518 0.1692438 -0.20324934 0.8217719 0.7359544
-0.27016205 -0.19817284 0.021002004 0.14108156 0.35698512 0.12651142 -0.15787323 0.13778098
0.07882373 -0.25099897 0.09461143 0.4018363 -0.03549275 0.2586923 0.12012735 -0.3182865

layer.0.bias f4 [261]
00000000: b04f 3bbe b325 ad3f 6655 363f 9171 f53c
00000010: a8bd 853f 2a26 a5bf 6494 753f 6995 27bf
00000020: d02c 3fbf e2db d43d 4670 003e d935 1cbf
00000030: 2a99 d8bd 898f 69bf 225a 9abf 6810 45bf
00000040: 1512 723f e84d 94bf ec1c 753f 4fd1 b53f
00000050: e4a5 ebbe 4055 573f ec1a 693f cf5d 903f
00000060: a09a 89bf e31a 7b3f be77 6e3e 8cff a63f
00000070: 0394 6f3f a059 003f d32f 7f3f 31d0 b23f
00000080: 7940 ba3e f3b8 ba3f 4440 133f 6bd1 843f
00000090: 912e 223f f829 85bf f4bf 6abf 5fe7 05be
000000a0: c9de a73f 3f14 573f f044 2dbf 32a3 c5bf
000000b0: 043f 19bf a7f2 bdbe 7f47 96be 23df 863c
000000c0: bba3 3e3f 9e8d 993f 05ff 32be a5cc 253f
000000d0: 247d 8b3f 1eb0 8a3e 76c9 0abf dcb6 1b3e
000000e0: 4f4e 823f 75cf 533f e28b 65bf c418 51bf
000000f0: 35f9 37be 539c 193f b557 2abf 1be2 9bbe
00000100: 1bf1 733f a427 07bf a639 16bf 08d8 ccbe
00000110: 5025 84bf 5488 17bf 40d0 453f 153b 063f
00000120: 5106 34bf f724 803d fbc8 e9be 1156 a8bf
00000130: 174e 7c3f ae48 003f 358b 04bf 0c54 febe
00000140: 9368 2bbf cfde 5b3f b143 ad3f b621 8cbf
00000150: 06f2 a6bd c2e1 523f f44d 9d3f 4785 91bf
00000160: adef 35bf f580 963b 330a 133f b64f 513f
00000170: ffb8 b4bf 7c38 21ba 1cd3 6b3f 2323 513f
00000180: 7195 96be 47b0 973f 64e2 7fbf 135c 613f
00000190: b8ae b93f cedf b23d 6516 1bbf ae6d 323f
000001a0: 749b 973f 34b8 8dbf 4c34 8cbf 66a7 eb3e
000001b0: 4a80 6c3c 4725 653e 9818 babf f965 2bbf
000001c0: a2fb 5c3e 1b32 23bf e731 723f 2f51 73bf
000001d0: 0b78 7ebf 7c41 b2bf 4df8 c33d 9ee6 a5bf
000001e0: de6c 6b3f 249c 3bbf ef61 96be 01bf acbe
000001f0: 7a7f bcbf 7d9d c93e f98a 353f 3d7b db3e
00000200: df03 95bf fdec f0be d71d 9ebf 0fb3 babf
00000210: 6837 c83c 5628 75be 6483 a73d dc39 2ebf
00000220: b1aa ae3f b9c2 903e 3e37 cd3e 61c7 e73f
00000230: 70a1 8e3d 15d2 5c3f 4166 0abf df96 a43f
00000240: afa4 41bf 4bc0 403e ab3b 393f 412e 11bf
00000250: 8c47 2b3f 2232 a6bf eec7 f83e 0ca4 7fbf
00000260: 4075 543f 002e 913f 055c b9bf 7c63 103f
00000270: 68c3 783e 1bf0 533f 9925 e43e 41c2 59bf
00000280: b7fe 163f 3728 d5bd 7e2f 693d 6558 723e
00000290: cf4d 003f 79c0 523f cafa 5e3e 5302 8dbf
000002a0: 5444 063f 9219 e7be 0d2e a23f 2ed8 a1bf
000002b0: 64cc 7f3f c650 733f 9b4e 983f 4c91 27bf
000002c0: f193 74bf c409 8e3f fea4 a33e 1d03 76be
000002d0: f42c ef3e 8699 213e e06b 92bf 99e6 b43e
000002e0: b081 9b3f 1398 043f 3690 3dbf 8c59 913e
000002f0: 3c1e 88be 9f1f 903f ffdf 1b3f 5f30 93bf
00000300: fb23 3f3f ca71 72bf d85f 9fbf 70ee 603e
00000310: 3c87 3abf b60c 0b3f 88fe 8bbf 8534 5dbf
00000320: 8097 3a3f 0b7e 323f b05a a0bf 0af5 fb3c
00000330: 515d 7dbf 8b72 43bf fec9 7fbe 05b6 333f
00000340: 6c84 03bf 07df c83c 432b 4abf 5200 95be
00000350: d118 79bf c0b5 443f 9c79 733f 2f5c 5abf
00000360: 3805 41bf f156 64bf 752a 89bd c67b 253f
00000370: 50ad c93e 6bab 9b3f 73e8 2cbe d02d 31bf
00000380: 1a5f abbf b56e 703e c667 0f3f 30d4 06bf
00000390: ee98 473f 66d4 8b3e 2784 303f 7b7e 01bf
000003a0: 73c5 853e 6b94 a0bf 1899 34bf 4f63 60bf
000003b0: 7122 433f b853 83be 7af3 d1bd bf6f 763f
000003c0: 6c7a 5c3e 6ed7 ba3f 6601 2e3f 359d 8cbf
000003d0: 19ad 493d 0949 42bf fc15 503f 1100 823f
000003e0: f967 8a3f 97d3 873f 6586 71be b8f0 9a3f
000003f0: bd53 7bbf 42af 60bf b684 443d 02bb d63e
-0.18292117 1.352713 0.7122406 0.02996138 1.0448503 -1.2902272 0.9592955 -0.65462357
-0.74677753 0.10393502 0.12542829 -0.61019665 -0.10576089 -0.9123464 -1.2058756 -0.7697816
0.9455884 -1.1586275 0.95747256 1.4204501 -0.46025002 0.84114456 0.91056705 1.1278628
-1.0750313 0.980879 0.23287866 1.3046737 0.9358522 0.50136757 0.9968235 1.3969785
0.36377314 1.4587692 0.57519937 1.0376409 0.63352305 -1.0403433 -0.9169915 -0.13076542
1.3114864 0.8401527 -0.67683315 -1.5440428 -0.5986178 -0.37099192 -0.29351422 0.016463822
0.7446858 1.1996343 -0.17480095 0.6476539 1.0897565 0.27087492 -0.54213655 0.15206474
1.0180148 0.8273843 -0.8966657 -0.81678414 -0.17966159 0.60004157 -0.6654008 -0.30445942
0.9528977 -0.5279486 -0.58681715 -0.4000857 -1.0323887 -0.59192395 0.7727089 0.524339
-0.7032214 0.062570505 -0.45661148 -1.3151265 0.98556656 0.501109 -0.51774913 -0.49673498
-0.6695644 0.85886854 1.3536283 -1.0947788 -0.08151631 0.8237573 1.2289414 -1.1368798
-0.7106884 0.0045930096 0.5743744 0.81762254 -1.4118956 -0.00061500794 0.92119 0.8169424
-0.2941089 1.185067 -0.9995482 0.8803112 1.4506445 0.087340936 -0.60581046 0.6969861
1.1844316 -1.1071839 -1.095346 0.46026152 0.014434883 0.22377501 -1.4538755 -0.6695247
0.21580365 -0.6374833 0.94607395 -0.9504575 -0.9940192 -1.3926234 0.09568844 -1.2961004
0.91962993 -0.73285127 -0.29371592 -0.33739474 -1.4726403 0.39377967 0.7091518 0.4286746
-1.1641806 -0.47055808 -1.2352856 -1.4585894 0.024440482 -0.23941168 0.08179358 -0.68057036
1.3645841 0.28273562 0.4008121 1.8107721 0.069643855 0.8625806 -0.5406228 1.2858542
-0.7564191 0.18823354 0.7235667 -0.567112 0.66906047 -1.2984049 0.48590034 -0.9985969
0.8299141 1.1342163 -1.4481207 0.564018 0.24293292 0.82788247 0.44559935 -0.8506203
0.58982414 -0.10408061 0.056930058 0.23666532 0.50118726 0.8232494 0.21775356 -1.1016334
0.5244801 -0.45136696 1.2670304 -1.2644098 0.9992125 0.95045125 1.1898988 -0.6545608
-0.9553824 1.109673 0.31961817 -0.24024625 0.46713984 0.15781221 -1.1439171 0.35332182
1.2148952 0.51794547 -0.74048173 0.2838863 -0.26585567 1.125965 0.60888666 -1.1499137
0.74664277 -0.9470488 -1.2451124 0.21965957 -0.728626 0.5431627 -1.0937052 -0.86408263
0.7288742 0.69723576 -1.2527676 0.030756492 -0.98970515 -0.76346654 -0.24979398 0.70199615
-0.51373935 0.02452041 -0.7897226 -0.29101807 -0.9730349 0.7683983 0.95107436 -0.8529691
-0.7539859 -0.8919516 -0.06697551 0.6464199 0.3939004 1.2161688 -0.16885547 -0.6921053
-1.3388398 0.23479731 0.5601772 -0.5266752 0.7796773 0.27310485 0.6895165 -0.5058362
0.26127204 -1.2545294 -0.705461 -0.8765153 0.7622443 -0.2564981 -0.102515176 0.9626426
0.21531075 1.4596994 0.67970884 -1.0985476 0.049237344 -0.7589269 0.81283545 1.015627
1.081298 1.0611447 -0.23586424 1.2104712 -0.9817465 -0.8776742 0.047978126 0.4193955

layer.1.weight f4 [261, 261]
00000000: 07ee 243d 2d7b 5a3d 3891 2f3d f31e d53b
00000010: df5a b43d 5075 f3bb 6b4c 3f3c 8634 503c
00000020: 27f0 20bd 92fb 0f3d 3bd1 e1bc eb79 0bbd
00000030: 9066 583d bf85 57bd 8aa8 2cbc 7cfb 1dbd
00000040: 17e9 91bc 9e9f 4dbc a873 b6bb c1a9 003d
00000050: e675 a7bc 1ec8 973d 2aac 3a3c c7de f4bc
00000060: d6c5 73bd 8942 3dbd 9694 fcbc 2dac 303c
00000070: d26e 593d de15 7a3d b77b 4c3d e30c 163d
00000080: 99bf de3c 9961 a839 bcf3 f23c 4dfa 963d
00000090: 5244 99bc 6628 8f3b f8f1 ce3c c9e3 19bd
000000a0: fda5 023e 4a6b 503c 65bf 8abc 6460 ccbc
000000b0: 853b 513d 0292 e23b 37ec c2bd b61b 943c
000000c0: 1736 9fbb d16d 2bbd 0321 b13a 7a37 12bd
000000d0: febf 983c 006a 86ba d47b 41bc 9e1b f1bc
000000e0: c95b d13c aeea 0939 5cee 27bd f996 4f3d
000000f0: 671e 5cbd d566 f8bb 7de8 18bd 2f39 10bc
00000100: 53be e43a e34f 773b dab9 29bd 80d8 2ebd
00000110: 1ace c7bd 5897 c43c 52d2 2dbd 5197 40bd
00000120: f816 693d c519 ea3c d0e9 7a3d 9369 b2bd
00000130: 0e76 9cbc 7ef6 733c 9424 373d 3dcd 163d
00000140: dbd8 c83c 6bbe 71bd 68c4 0e3d a56f b23a
00000150: 9527 c2bb 554f d9bb f5da e53c ca98 33bc
00000160: e273 5a3b f533 81bc 1fb3 923c f767 063b
00000170: 0d8f d63c f385 953c fe78 84bc 47b8 763d
00000180: 0aaf c83c 5dce ae3c 9764 76bc 24a6 883c
00000190: 2403 153d 4a54 503d 7600 563c c4db 39bc
000001a0: 1e82 25bc e3aa 2fba 469b f13c 6fcd 3bbd
000001b0: 630f b3bc 29b4 f9bc 5386 573b 4d73 63bc
000001c0: 9220 58bc 8aca 57bd 8005 bdbc 6991 093d
000001d0: b899 12bd bdbc 893c cee9 cc3b 31f5 17bd
000001e0: a01b 5bbd 5939 813c af12 c5bc 32a3 763d
000001f0: 74cd 973c 5822 b23c 9ac1 e6bc 1fc2 ebbc
00000200: f07a 8dbc 8a2e 5e3d 02a2 e43b c499 8abd
00000210: e69f 35bd 9281 cd3c 7e06 fcbc 43cf 363d
00000220: 6214 883c 4e3b 6b3d 99bf 03bc 3731 4dbc
00000230: be4f 6d3d c1b8 5e3d e765 8a3c bd2e 203d
00000240: c832 25bd ba6a bbbb ec8f 313d 0e27 2fbc
00000250: c430 c73c 0739 4fbd a4d4 a93c 8ebe 4d3d
00000260: bf2f fb3c d5c4 cf3c 1b86 c4bc 5b80 553d
00000270: c553 063d 9be0 d23c 88ce 513d 4736 9ebc
00000280: e7da 7cbc f20f 6bbd 9d3d a4bc 595b 15bd
00000290: 7988 063d d2b0 223d 9c04 803d 877b 59bd
000002a0: ee9a 853d ec6e 2f3d 8c14 d0bc a808 1bbc
000002b0: 497e 563d d944 253c 7809 583d fc8e 4abc
000002c0: 992a 9bbd 189c 1c3d 9574 eebc dc20 fb3b
000002d0: 6368 4dbc 716b f4bc 8da2 8ebd 94b3 ea3c
000002e0: 3da0 31bd 0957 2fbd 7d30 edbc 667b 87bc
000002f0: 33da 34bd 8a26 b23d 06f8 b33c 8507 85bd
00000300: 4289 6c3d db55 c7bb ec60 97ba b847 193d
00000310: d973 3c3d 9f51 313d 74ce 573b c191 133d
00000320: 9393 3dbd 68cc 8c3c 16a5 60bd 260c 93bb
00000330: 0331 1d3d 7b3d 19bd 6ecc 83bd 40c6 023d
00000340: 6235 5b3c 736f 6c3c 9b6d f5bc 9349 9a3c
00000350: 9551 5e3d 0ce4 15bd b38f 1e3d 000a 2c3d
00000360: 5f21 30bd 5930 d43c b4f3 1b3d cd1a c5bb
00000370: eb95 8e39 c3f3 01bc 370c b1bc c363 b23c
00000380: 8fea 9c3b a8bd 84bb d9c8 24bb 99dd b53c
00000390: 6b6f 203d f703 c83b b3e6 803c 354f 58bd
000003a0: f144 323d a939 3bbd b58d 473c 873e 09bb
000003b0: 4a7f da3c 96dc b73b 4f49 173d ef8f 19bd
000003c0: ed79 00bd 82a5 7b3d 4a29 2fbd 1ea7 6a3d
000003d0: 1eca 943c a20a cbba 3510 7a3d 7910 e33c
000003e0: 5a42 3c3d 6b3b fd3c e704 1a3d 9ddf 64bc
000003f0: 450d 0fbd 247e 56bd 6a42 2f3c 92dc 143d
0.040266063 0.053340126 0.0428631 0.0065039336 0.08806395 -0.007429756 0.011675934 0.012707835
-0.039291527 0.035152026 -0.02756559 -0.034051817 0.052832186 -0.052617785 -0.01053823 -0.038569912
-0.017811341 -0.012550263 -0.0055679865 0.03141189 -0.02044196 0.07411216 0.011393586 -0.029891385
-0.059514843 -0.04620603 -0.03083257 0.010783237 0.053084202 0.06105601 0.04992267 0.036633383
0.02719097 0.00032116173 0.029657237 0.0737196 -0.018709335 0.0043688295 0.025261864 -0.03757075
0.12758632 0.012720892 -0.016936967 -0.024948306 0.051082153 0.006914378 -0.09517711 0.01807962
-0.004858743 -0.041852776 0.0013513867 -0.035697438 0.018646237 -0.0010254979 -0.011809308 -0.029432114
0.025556462 0.00013152763 -0.0409988 0.050681088 -0.05373993 -0.007580618 -0.037331093 -0.008802696
0.001745174 0.0037736825 -0.041437007 -0.04268694 -0.09756108 0.023997948 -0.042436905 -0.047019307
0.05690667 0.028576741 0.061258137 -0.08711543 -0.019099262 0.014890311 0.044712618 0.036816824
0.024517467 -0.059019487 0.034855276 0.0013613595 -0.0059251287 -0.0066317716 0.028058508 -0.010961721
0.0033333232 -0.015771845 0.017907677 0.0020508745 0.026191259 0.018252349 -0.016170975 0.060234334
0.024497528 0.021338636 -0.015038631 0.016680785 0.03637995 0.050861634 0.013061633 -0.0113439
-0.010101823 -0.00067011843 0.029492985 -0.045850214 -0.021857923 -0.030481415 0.003288646 -0.01388247
-0.013191359 -0.05268339 -0.023073912 0.03358594 -0.03579113 0.01681363 0.0062534576 -0.037099067
-0.053493142 0.015774416 -0.02405676 0.06021423 0.018530585 0.021744892 -0.028168488 -0.028779088
-0.017270535 0.0542436 0.0069773206 -0.0676761 -0.044341944 0.025086198 -0.030764814 0.044631254
0.016611282 0.057429604 -0.008041286 -0.012523941 0.057937376 0.054375414 0.016894294 0.039107073
-0.040331632 -0.00571951 0.043350145 -0.010690464 0.024315245 -0.050591495 0.020731278 0.050230555
0.030662416 0.025362412 -0.023989728 0.052124362 0.032794733 0.025741866 0.051222354 -0.01931299
-0.01543305 -0.057388254 -0.02004891 -0.03646407 0.032844994 0.03971941 0.06250879 -0.05309632
0.06523691 0.042830393 -0.025400423 -0.009462513 0.05236653 0.010087215 0.052743405 -0.012363192
-0.07576484 0.0382348 -0.029108325 0.0076638293 -0.012537095 -0.029836388 -0.06964598 0.028650083
-0.043365706 -0.042807613 -0.028953785 -0.016538333 -0.044153403 0.08698757 0.021968853 -0.06495575
0.057748087 -0.006083233 -0.0011549271 0.037421912 0.04600892 0.04329073 0.0032929452 0.036027674
-0.046283316 0.017187312 -0.05484494 -0.004487532 0.03837682 -0.037412148 -0.06435476 0.031927347
0.013379427 0.014430868 -0.02995949 0.018833911 0.05427702 -0.036594436 0.03871126 0.042001724
-0.043000575 0.02590196 0.03807421 -0.006015158 0.00027196048 -0.0079316525 -0.02161227 0.021776086
0.0047887038 -0.004050929 -0.0025144129 0.022200393 0.039168756 0.0061039883 0.015735006 -0.052809913
0.04352278 -0.045709286 0.012179782 -0.002094181 0.026672024 0.0056110127 0.036935147 -0.03749078
-0.031366277 0.061437137 -0.042763986 0.05728828 0.018162783 -0.001549084 0.061050612 0.027717816
0.045961715 0.030912122 0.03760233 -0.013969329 -0.034924764 -0.05236639 0.010696987 0.036343165

layer.1.bias f4 [261]
00000000: d0f2 913e f758 783e 7667 f6bd 83ee 023e
00000010: 221e 81bd 7e20 e2bc 7db4 77bd 21ee e13e
00000020: 8b87 a53e eab5 393d aeca 57bb 02ac 933b
00000030: 8c22 7ebc bc6e 5dbe 602a e63c bd7c 51bd
00000040: 062d 523d c72e 563d c564 d03e 4e60 3b3d
00000050: f3e6 673c de47 02bc 0c9c 00bc e7a6 ca3d
00000060: 8bae 3d3c 1260 87bd cd88 31be 8884 23bd
00000070: c677 0dba bf4c 283d eb5d 5cbe 82a9 bebc
00000080: b1ca afbb 5e14 b63c 5c87 72bd c315 5cbd
00000090: a7fe 0ebf bd38 933c d88a 9c3c d9a4 0ebc
000000a0: 5e0c 4339 c8d2 2cbc d01a 983c 5bc6 283d
000000b0: 894c cd3c 19ef 55bd cdfa dabd 8b88 4bbd
000000c0: 0ead bc3d 7e94 efbc d1a9 8cbb 9e07 f5bd
000000d0: 21a6 b83d 66e6 08bd 987f 10bd 7017 7dbd
000000e0: ac7a 0e3d 5082 293c 11e0 56bd 1cec 833c
000000f0: b35d 63bd 5a7f cabe 4728 65bd ced9 12bd
00000100: e333 4f3a f905 ebbd 7290 6c3d d61d 82bd
00000110: 7f5b 133d f436 a93d 3f4a d73c 2fbd 0d3f
00000120: 8ed8 1bbe ab30 693f 31e7 2dbd 34ea acbc
00000130: 2b29 1eb8 f665 05be ba5a 343e 08d7 6d3d
00000140: 6bc6 ad3e c613 463d 5baa dcbc c518 adbd
00000150: 72f7 a0bd 15d0 133d 1a13 043e ad7a c63b
00000160: 75b9 cdbc f221 babd e247 22bd a410 fbbc
00000170: da2f a23c ce9c e23c bb48 423e 14dc 49be
00000180: 0b84 073d b742 a53b d6f6 1f3b b321 61bc
00000190: 50d0 f33c 7278 59bd 6554 65bb 9cbe ac3c
000001a0: e62c ccbe d067 ed3e 7aed 97bd ed4e 1a3d
000001b0: 0df9 8bbc 073c 65bd c3d9 7ebc 746f 83bc
000001c0: e86b 8ebc 898e 403c 8f62 a2bd 4236 203d
000001d0: 3910 49bb ee04 8ebd 8e38 a13e dfb2 593d
000001e0: a411 123d eb77 a03e 0e18 99bd 1f70 d6bd
000001f0: b8ed 873c 0a2d 1b3c 5267 17bd e0ba 463d
00000200: 0f05 4bbd 309c 393e a705 70bc 6de7 22be
00000210: df9d 453b f64c 19bd 591e 24bf e0a4 093e
00000220: b964 3a3e 82f8 23bd 3f62 b53e 2e3e 3e3d
00000230: ceb3 b0bb 8106 d33d e0b5 4f3f 617d 76bd
00000240: 2f59 e43b ea5a 15bd 6f74 40bd d0c9 7c3f
00000250: 0b26 4ebd 1508 3c3c c50e a8be 8d4b 8bbe
00000260: a2cf 32bd 7c53 5e3d 0545 41bb 21d9 993c
00000270: 2893 5ebd 1c6f 163d 6cc0 c73a 670a f8be
00000280: 6a79 9ebe 16eb 32be a478 19bd 33e3 413d
00000290: ddee 933d 2dea e0bb 825d 91bd f697 13bc
000002a0: fe64 073d 905b 64bd 56b9 f8bc 84cd 9b3c
000002b0: f4c1 bd3e 7d8c aabd dca2 063d 2c39 55bd
000002c0: 330f 9e3d 2cb6 5a3e f995 44be 933f 1a3d
000002d0: 9cac 12bf 65e4 abbc 15b2 db3e e493 c3be
000002e0: 0f9b 4fbd 17d0 edbe 0b7e 903e b379 1f3d
000002f0: 7363 84bc c788 033d ffe9 73ba 2619 35be
00000300: b028 88bd 33de 80bc 61b5 1cbd a876 b3bf
00000310: dcbb 973c 2a2c 07be d3c8 0c3e 437d a03c
00000320: c444 adbe 1709 54bd d24e 8fbd e5d2 3e3d
00000330: 3222 143d b836 193e 86c9 6a3e 223a 093d
00000340: 20f8 46bd ed4b 883e 0a40 07bd dd02 69be
00000350: 63c2 18bc 097d babc 13c0 42bd f2e6 14bd
00000360: 09f6 213e a68b 36bd 3787 3b3e 7e9c 66bd
00000370: 55e2 5e3d 14ad 14bf 3434 183d 4bf1 3ebd
00000380: 5b51 12bd 33ed 093e f828 083d fac9 cf3e
00000390: 87a0 7bbd 621a 9f3d 418a 4abd 760c b7bc
000003a0: e70e 713c 586a d43c 19bc 8c3e e8fd 53bd
000003b0: 026a c63c c365 72bf 8215 c4bc f50f 4e3b
000003c0: 8dc6 bfbe 1718 193e afce 0ebe a19a a3bc
000003d0: e619 583c aa23 23bd 4c02 c83c 58f6 593e
000003e0: 9c26 283d 9d9a 46bd 574e 4b3d 4364 74bd
000003f0: 014e 37bc 9a63 83bd 8d36 8abd aa3f 003c
0.28505564 0.24252687 -0.12031452 0.12786298 -0.063045755 -0.027603384 -0.06047486 0.4412699
0.32329974 0.045339502 -0.0032927203 0.004506589 -0.015511166 -0.21624273 0.028096378 -0.05114435
0.05131247 0.052290704 0.4070188 0.04574614 0.014154184 -0.007951705 -0.0078497045 0.09895115
0.011577259 -0.06610121 -0.17337342 -0.039921314 -0.0005396571 0.041088816 -0.21520202 -0.023274187
-0.005364739 0.022226509 -0.05921112 -0.05373169 -0.5585732 0.01797139 0.019109175 -0.008706295
0.00018601256 -0.010548301 0.018567473 0.04120479 0.025060909 -0.052229974 -0.10692368 -0.049690764
0.09212695 -0.029245611 -0.0042927046 -0.119643435 0.090160616 -0.03342285 -0.035277933 -0.06178993
0.034784958 0.01034601 -0.05245978 0.016103797 -0.05550928 -0.39550287 -0.055946615 -0.035852246
0.0007904155 -0.114757486 0.05775494 -0.06353347 0.03597593 0.082624346 0.02628052 0.55366796
-0.15219328 0.91089886 -0.04245681 -0.02110777 -3.7708476e-05 -0.13027176 0.17612734 0.058066398
0.33940443 0.0483587 -0.0269367 -0.0845199 -0.078596964 0.036087114 0.12897912 0.0060571046
-0.025112847 -0.09088506 -0.039619334 -0.030647583 0.019798208 0.02766266 0.18973057 -0.1971286
0.03308491 0.0050433534 0.00244086 -0.013740945 0.029762417 -0.05309338 -0.003499293 0.021086983
-0.39878005 0.46368265 -0.07418342 0.037672926 -0.01708653 -0.05596545 -0.015554848 -0.016044356
-0.017385438 0.011752733 -0.07928955 0.039114244 -0.0030679835 -0.06934534 0.3148846 0.0531491
0.035661355 0.3134149 -0.07475291 -0.10470604 0.016592845 0.009471187 -0.03696377 0.04851806
-0.04956537 0.18125987 -0.014649785 -0.15908594 0.0030153913 -0.03742691 -0.64108807 0.13441801
0.18202485 -0.040031917 0.35426518 0.046446018 -0.005392528 0.10303975 0.81136894 -0.060178164
0.0069686393 -0.036463656 -0.04698604 0.9874544 -0.05032925 0.011476536 -0.32823768 -0.27206078
-0.043655045 0.054278836 -0.0029490602 0.018780293 -0.054339558 0.036727056 0.0015239841 -0.48445436
-0.30952007 -0.1747249 -0.037468567 0.047335815 0.07223294 -0.0068638534 -0.07097913 -0.009008398
0.033055298 -0.055751383 -0.030361813 0.019018896 0.37062037 -0.08327577 0.03287016 -0.052056476
0.07717743 0.21358556 -0.19197835 0.037658285 -0.5729463 -0.02098293 0.42909303 -0.3819877
-0.050684985 -0.46447822 0.28221163 0.03893442 -0.016160702 0.032112863 -0.00093045825 -0.17685375
-0.066483855 -0.015730953 -0.038258914 -1.4020586 0.018522196 -0.13200441 0.13748483 0.01959098
-0.33841527 -0.05176648 -0.06997456 0.046587843 0.036165424 0.1496228 0.22928438 0.033502705
-0.048576474 0.26620427 -0.033020057 -0.22754999 -0.009323689 -0.0227647 -0.047546457 -0.03635306
0.15816511 -0.044566773 0.18313299 -0.056301586 0.054415066 -0.58076596 0.03715916 -0.046616834
-0.035722118 0.1346939 0.033242196 0.40583783 -0.061432388 0.07768704 -0.049448255 -0.022344809
0.014713026 0.025929615 0.27487257 -0.051755816 0.02422047 -0.94686526 -0.023936037 0.0031442617
-0.3745617 0.14950596 -0.13946031 -0.019971194 0.013189768 -0.039828934 0.024415158 0.21285379
0.041052446 -0.048487294 0.049635258 -0.05966593 -0.011188031 -0.06415482 -0.06748686 0.007827679

layer.2.weight f4 [2, 261]
00000000: a054 ebbc f876 283c fe73 e5bd b43e d83c
00000010: 56b6 b4bc 3217 3d3c 6734 2cbd 7bef 9dbd
00000020: 6234 513d 7c3a 233d ae1d 5c3d 8573 20bc
00000030: aae0 1d3b bb94 8ebe b53a 123d 61d6 48bd
00000040: 48fc d33d 7bfb 403c 4ef4 9b3d 1854 5c3d
00000050: 6023 31bd 2c22 743d f73a 10bd dd53 d3bc
00000060: 5556 23bd 8af9 12bd 391d 37be d72f 51bc
00000070: f3b9 3ebd 1b32 8cbc a7b8 b3be f710 4d3c
00000080: edc8 94bc cee0 1bbd adbb 17bd 8878 a5bc
00000090: de58 063e fb10 81bb 57ae f7bc 3ce4 5c3e
000000a0: 7506 38bd 382e 02bc ff86 09bd c583 a0bc
000000b0: 7845 4d3d e4df e83b adad ee3d 3066 a13c
000000c0: 4120 debd 3bbc 77bd f73b 353d f8c4 193f
000000d0: 69aa 403c be7a 123e 1c83 5d3d acb9 583d
000000e0: b18e a33b 2c40 353d 9853 89bb f6f8 23bd
000000f0: 8544 593c 7203 13be 4898 623d b43d 353f
00000100: 5532 e33d bb56 e3bc f1e3 0f3e d45d 02bd
00000110: f037 983c c8af f73c 1a87 053b 7988 b63d
00000120: e0ec 9e3c 0fc6 bd3e b597 993d 0949 8abb
00000130: 0cc2 603d 76fe 333c 19fc 003d 7383 193d
00000140: e47f 3e3c 1ee4 01bd 8b67 603d b7c6 50bf
00000150: d404 34bd 2fd7 72bc 34f4 123d de13 983d
00000160: 24ee 093d 8a8c 46bd c405 60bd ec38 3cbd
00000170: df55 b4bc 0281 633c f5e0 dfbc a2b3 813e
00000180: 289f a0bc fcd9 8dbb c716 0fbd ac53 b1bc
00000190: e8a7 873c 4142 07bd f0b6 6dbd 6c9a 21bc
000001a0: 1405 e0bd 2561 ab3d f2a3 ee3a 8312 5ebd
000001b0: fbbf 133c ddcc 863d 0d84 6e3c 2f29 653e
000001c0: fb2e bf3c 4af7 da3d dbb3 95be 34c0 d93c
000001d0: af73 8c3d d26d 32bd 661d 18bd 5956 0bbe
000001e0: b768 573c 6fe9 0fbe 0f4a 0dbd 46ea d73c
000001f0: 5c15 f33c f515 8a3c a4b2 a0bc 9e6d 00bd
00000200: 17c6 06bd ba17 0a3d cc4b 553d 77ea 8abd
00000210: d01a 8cbc 12c9 c4bc 6682 903d 6618 b43b
00000220: 596c c23d ce1b d33b 64d7 27bd dda5 bb3d
00000230: 933b 5fbc bd84 ad3c 8532 113e 5f33 ef3c
00000240: 7663 9f3b f3fc f43c 0b9a 5ebc 9604 3b3e
00000250: 655b 66bc 68be 0cbd 8745 29bc 48ca 6ebf
00000260: 454b 67bd c1ce f53c 1c6f 01bd 3eae 163e
00000270: a285 b03d 90a2 e83b ba49 c03c ca60 07be
00000280: a802 45be 3a00 01be b94e 76bd be8e a43d
00000290: 4f8b 04bd d001 613b 390a 623e 77a3 503d
000002a0: 08a8 e3bc ae28 563d 73e2 1f3e 1322 26bc
000002b0: 8fb8 46be b613 273e 1843 19bd 1f25 b7bc
000002c0: 3507 3bbe 73dc b43e 85a4 07bd fe2d 7cbd
000002d0: 0dd3 c8bd aeb9 2b3d 14aa a93d 0a05 c3bc
000002e0: 2835 5d3d 4507 683e 7013 68bd d76a e13b
000002f0: 02b7 dabd 3092 a53c 45bc d93b a578 61bd
00000300: fa61 62bc 2bef 083d 686b dcbd 6c05 0fbf
00000310: c8c6 8a3d 7c85 a53c 2916 253d 8f98 293d
00000320: 347a 3a3f 2417 583d 67af df3d a9ab 933c
00000330: 1cd5 39bc c8aa 4dbf f1bd e93b 2958 df3a
00000340: 971d 18bd 3528 7c3f 0cc3 2cbd ee4b 203e
00000350: 690f f13c 88de cc3b 903e 14bc 3005 6fbd
00000360: 74f0 313d 6669 113d 820e 653a b540 1f3d
00000370: 8552 f73c 4a37 8bbd dc41 5bbd 9100 3f3c
00000380: f482 19bd b815 aabc 71b9 1dbd 4a01 ad3d
00000390: 7a77 3b3c 2293 72bd b710 4c3d 63c5 94bc
000003a0: 47e3 a53c 6af0 0ebd 22ca 913b b7a6 c23d
000003b0: dd5e c73c ae31 d4bd 3ecf be3d 11de 99bc
000003c0: 40f6 23bd 5ae2 5b3d 2fe3 b3be dd9d 71bc
000003d0: cfcb 103c dfca c5bc 58a3 b9bc db1e aebc
000003e0: d74d 5d3b e38a 14bd 07c5 debb 8841 ad3d
000003f0: 5c8c e5bb a2be 993c b343 043d 7266 01bd
-0.028726876 0.010282271 -0.112037644 0.026397087 -0.0220596 0.011541175 -0.042042162 -0.07711693
0.051075347 0.039850697 0.053739242 -0.009793167 0.002409021 -0.27847847 0.03570052 -0.049032573
0.10350853 0.011778708 0.07614957 0.053791136 -0.043246627 0.0596029 -0.035212483 -0.025796825
-0.039877255 -0.03588251 -0.17882241 -0.012767754 -0.046564054 -0.017113736 -0.35101816 0.012516252
-0.018162215 -0.038056187 -0.037044216 -0.020199075 0.13119838 -0.003938792 -0.030234499 0.2157144
-0.044928033 -0.00794559 -0.033576008 -0.019594083 0.05011508 0.007106768 0.1165422 0.019702047
-0.10845996 -0.060482245 0.04424664 0.60066175 0.011759379 0.14304635 0.054080114 0.052911445
0.0049913754 0.044250652 -0.0041908734 -0.04003235 0.013260965 -0.14356783 0.055321008 0.70797276
0.110935844 -0.027751317 0.14051796 -0.031827763 0.01858136 0.030235186 0.0020374716 0.08912749
0.01940006 0.3706517 0.07499639 -0.0042201323 0.054872558 0.010985961 0.03149042 0.037478875
0.011627171 -0.03171169 0.054786246 -0.81553215 -0.043949917 -0.014821812 0.03587742 0.07425664
0.033674374 -0.048473872 -0.054693 -0.045952722 -0.022013603 0.013885738 -0.027328948 0.2533236
-0.019607142 -0.0043289643 -0.03493383 -0.021646343 0.016559556 -0.03302217 -0.05803579 -0.009863477
-0.109384686 0.08368138 0.0018206818 -0.054216873 0.00901794 0.06582043 0.014557851 0.22378992
0.023337832 0.10691698 -0.2923878 0.026580907 0.068580024 -0.043561764 -0.03713741 -0.13607158
0.013147525 -0.14053892 -0.034494456 0.026356827 0.02967327 0.016856173 -0.019616432 -0.03135454
-0.032903757 0.033714034 0.05207424 -0.06783002 -0.017102629 -0.024021659 0.070561215 0.0054960726
0.09493322 0.0064425236 -0.040976897 0.09162495 -0.013625043 0.021181459 0.14179428 0.0291993
0.0048641516 0.029905772 -0.013586531 0.18263468 -0.014059876 -0.034361273 -0.010331518 -0.93277407
-0.056468267 0.030005815 -0.031600103 0.14714906 0.086192384 0.007099457 0.023472656 -0.13220516
-0.19239295 -0.12597743 -0.06013367 0.080350384 -0.032359418 0.0034333356 0.22074212 0.050937142
-0.027790084 0.05228489 0.15613727 -0.01013996 -0.19406341 0.16316113 -0.0374175 -0.022356568
-0.18264468 0.3532444 -0.033115882 -0.0615673 -0.0980588 0.041925125 0.08284393 -0.023806114
0.054005772 0.22659023 -0.056659162 0.0068791914 -0.10679437 0.02021131 0.006644758 -0.055046696
-0.013817305 0.033431213 -0.107626736 -0.5586765 0.06776196 0.020205252 0.040304337 0.041405257
0.7284272 0.052756444 0.10922127 0.01802619 -0.011342313 -0.80338717 0.0071332385 0.0017039824
-0.037137594 0.9849885 -0.0421782 0.15653965 0.029426293 0.0062521137 -0.009048119 -0.058354557
0.043442205 0.035500906 0.00087378186 0.03888007 0.030190716 -0.06797655 -0.053529605 0.01165785
-0.037478402 -0.02076231 -0.03850693 0.084475115 0.01144206 -0.059222348 0.049820628 -0.018160528
0.020249976 -0.034897245 0.004449145 0.095044546 0.024337227 -0.10361038 0.09316872 -0.018782647
-0.040029764 0.053682663 -0.35134265 -0.01474711 0.008837654 -0.024144588 -0.022660896 -0.021254947
0.003376832 -0.036265265 -0.00679839 0.08459765 -0.0070052575 0.018767659 0.032291126 -0.03159184

layer.2.bias f4 [2]
00000000: 90c2 d23e ecb7 bbbe
0.41164064 -0.3666376
