output/models/binary/76.53Acc_H1_VariableNet10Units1Layers_ReLU_CrossEntropyLoss_Adam_0.001lr_3269epochs_10batches.pth (torch, 4167 bytes, 6 tensors)

layer.0.weight f4 [10, 6]
00000000: f217 46be e186 4bbe 0d25 8abe 9e76 0e3e
00000010: 6211 9ebc 41de 9ebe a61e 883e 365f 003f
00000020: 8f8f 6f3c 462b 013e 8cb3 d5be 42e8 54bf
00000030: 61c7 e0bd 97de 85bd 6b3a 9d3d 353d 37bc
00000040: d57a 1a40 76a5 d4bb 7259 c1be 2646 1e3e
00000050: 834e 653e 3d96 dc3d 0ebe a9be d0db 883e
00000060: deb9 333e 8036 f0be 7b5d 5bbd 16e7 c83e
00000070: ee5c f73f 5456 273f c1e2 57bf 3d1c 1c3f
00000080: fd56 473e c435 ac3d e9a4 803f 4b24 cc3f
00000090: 5a21 e5be 9be4 7abe 0f2a 85be 825c 0c3f
000000a0: 3bef c8bf 621a 17bf 8dde 653e 44ce ec3d
000000b0: 7c9c 0f3e 3787 f93d aa43 f2bf 421a 25c0
000000c0: 8f08 fe3e 024d 81bf d9f4 363e 2b26 20be
000000d0: 9e8e a4bf f5cd 90bf 4632 853e 8b08 bdbe
000000e0: 8dfe 453d 941d 7b3e cf27 bb3f 89ed 0340
-0.19345072 -0.19875671 -0.26981393 0.13912436 -0.019295398 -0.3102894 0.26585883 0.5014528
0.014621629 0.12614164 -0.41738546 -0.831669 -0.109755285 -0.06536596 0.07677158 -0.0111840265
2.413747 -0.006489451 -0.37763554 0.15456447 0.22393231 0.10770843 -0.33152813 0.26730204
0.17551371 -0.4691658 -0.053555947 0.39238805 1.9325235 0.653661 -0.84330374 0.6098059
0.19466777 0.084086925 1.0050327 1.5948576 -0.44752008 -0.24501269 -0.2600865 0.54828656
-1.5698007 -0.5902463 0.22448178 0.115627795 0.14024538 0.12183993 -1.89269 -2.5797276
0.49615905 -1.0101626 0.1786684 -0.1563956 -1.2856023 -1.1312853 0.26014918 -0.3692058
0.04833846 0.24523002 1.4621524 2.061373

layer.0.bias f4 [10]
00000000: 3218 643f 85b2 56bf 365c 0d40 0400 a13f
00000010: 8c32 37bf cf6d c53f 9fdf 0b3f 7496 21bf
00000020: 49d8 97bf 696c 07c0
0.8909942 -0.8386615 2.208753 1.257813 -0.71561503 1.5424136 0.54638094 -0.631202
-1.186288 -2.1159918

layer.1.weight f4 [10, 10]
00000000: ee57 d93c 5813 d03d 7a2c 4cbe e12e 8dbe
00000010: 5bb8 07be 5f67 f0bd e169 a53e a408 0ebe
00000020: e5f8 1d3d 27be 96be bc0a ae3e ac53 d6bc
00000030: 2621 363e fc04 ab3e e5b9 61be 7879 7f3e
00000040: 5304 d2bb ee64 903d 0e75 8abe b927 b9be
00000050: 4560 4ebc 5b37 943e 9bb0 1ebe 26ed 2f3e
00000060: 2cb3 82be b410 8ebe 11fb 983e 186d 8d3e
00000070: 55fe 9d3e 5736 b1be e605 0ebe 444a 703e
00000080: e666 083f 708d 53be ccfd 3f3e eccf 953d
00000090: aa60 a7bd 63a7 76bb 153c a7be cce3 51be
000000a0: c382 f9bd ea04 a03d 261b 55bd 96f3 673b
000000b0: 2e8e ccbe 49c4 ed3e 0a37 9a3e 1f8b 75be
000000c0: 93cf adbe 7eb9 0bbe 9cfe 7d3d 2c93 133e
000000d0: 9fa7 7dbd cbf8 13be f5fe 25be a41a e4be
000000e0: d1a2 4abe f004 8d3e 1f7c 9e3d d646 a5be
000000f0: 6d96 02be 32dd 9a3e 6f7a 183e 26da 4fbd
00000100: adac c9be aaae 1cbc 4c47 12be f566 0fbe
00000110: 5766 cc3d 8b0a fbbe 46e7 c3bd 170d 3ebf
00000120: 3892 1a3d 1caf 0f3e 9216 d53e da7e 57be
00000130: 458a 0b3e 8f83 b0bd c54f e13e 785f 88be
00000140: 27df 403e d1e3 2cbe 3a21 7b3e 1512 30be
00000150: 7720 8c3e 5b23 8a3e 8e8f 25bd 73ae 81be
00000160: 5e26 bfbb 6fbe 3abe 6710 793e 11d3 aebd
00000170: ebb2 863e 6d88 21bd 0e30 833d bd02 10be
00000180: 068a 2abe 8aea 5ebe 2fc0 47bd be4f b8bd
0.026531186 0.101599395 -0.19938841 -0.27574828 -0.1325392 -0.117384665 0.32307342 -0.13870484
0.038567442 -0.2944195 0.33992565 -0.026162945 0.17786083 0.3340224 -0.2204357 0.2494868
-0.006409207 0.07050501 -0.2704243 -0.36163118 -0.012596195 0.28948483 -0.15497057 0.17180309
-0.25527322 -0.27747118 0.29879048 0.27622294 0.30858102 -0.3461177 -0.13869438 0.2346583
0.5328201 -0.20659423 0.1874916 0.073150486 -0.08172734 -0.0037636391 -0.32663026 -0.20497054
-0.12183144 0.07813437 -0.052027844 0.0035392991 -0.39952224 0.46438816 0.30120116 -0.23978852
-0.3394743 -0.13644978 0.062010393 0.1441161 -0.061927434 -0.14450376 -0.1621054 -0.44551575
-0.19788672 0.2754283 0.07738518 -0.32280606 -0.12752695 0.30246884 0.14890455 -0.050745152
-0.39389554 -0.0095631275 -0.1428501 -0.14004119 0.09980457 -0.4903148 -0.09565596 -0.74238724
0.0377371 0.14031643 0.41618782 -0.21044484 0.13626964 -0.08618843 0.44006172 -0.26635337
0.18835126 -0.1688378 0.24524394 -0.17194398 0.2736852 0.269801 -0.040420108 -0.25328407
-0.005833431 -0.18236707 0.24322663 -0.085363515 0.2630838 -0.039436746 0.0640565 -0.14063545
-0.16654214 -0.21769157 -0.048767265 -0.089995846

layer.1.bias f4 [10]
00000000: 4b9c 603e 7676 ad3f 2d35 103e 082c ed3d
00000010: b7ba 8f3e 087b c4be 6b12 8cbb 5e74 563f
00000020: f9cf 68bd 2e3c ad3e
0.21934621 1.3551776 0.14082785 0.11580664 0.2807214 -0.38375115 -0.0042746565 0.8377131
-0.056838963 0.33834976

layer.2.weight f4 [2, 10]
00000000: 930d 60bb 0cbf 213f c60d 74be 1680 70be
00000010: 29f8 adbe aca4 853e 309d c9be f04e c83f
00000020: ffdf 7e3e cd2f 013e fb44 a3bd 26cf 2bbf
00000030: 1775 093f 1117 703e 0bd5 873e b102 a0be
00000040: 5d5c 64be 6e25 9abf c3c1 963e 3843 2dbe
-0.0034187778 0.6318214 -0.23833379 -0.23486361 -0.33978394 0.26102197 -0.39377737 1.564909
0.24890135 0.12615891 -0.07972141 -0.6711296 0.5369429 0.23446299 0.26529726 -0.31252053
-0.22300859 -1.2042673 0.29444703 -0.16920173

layer.2.bias f4 [2]
00000000: 843d c23e 3803 36bf
0.37937558 -0.7109866
