output/models/binary/78.17Acc_H1_VariableNet10Units2Layers_ReLU_CrossEntropyLoss_Adam_0.001lr_3592epochs_10batches.pth (torch, 5419 bytes, 8 tensors)

layer.0.weight f4 [10, 6]
000000 e5 eb a2 be c2 e5 8f 3e 18 94 88 3e 18 4c 3d 3e
       -0.31820598 0.2810498 0.26675487 0.18486059
000010 ec a8 81 3f 74 42 a9 3c 77 44 5f be c1 4c 87 bf
       1.0129676 0.02066157 -0.21803461 -1.0570298
000020 27 86 35 be a6 2b 03 be cf 89 28 3f 88 12 aa 3e
       -0.17726956 -0.1280962 0.6583528 0.33217263
000030 b9 54 8d be 4c 50 f5 3e 2e 5f 2e be 70 d4 2c be
       -0.276037 0.47912824 -0.17028496 -0.16877913
000040 25 6b 31 3e df 14 4f 3f 74 2c f9 bd 3d 38 8a 3e
       0.17326029 0.8089122 -0.12166682 0.2699603
000050 08 40 94 be f4 d8 6a 3d e5 12 8f 3f 21 ce 38 3f
       -0.28955102 0.05733581 1.1177641 0.7218953
000060 c6 12 ac bd 82 89 5a 3f 34 c3 f7 3d 76 97 59 be
       -0.08402018 0.8536607 0.12097779 -0.21249184
000070 84 61 56 be 4e 8a c3 bd 7a af d0 3b 2e 9a 21 3f
       -0.20935637 -0.09547864 0.0063685747 0.63125885
000080 a1 21 a2 be bf 75 12 3b ec 78 6c bf 5d df b9 be
       -0.31666282 0.0022348014 -0.9237201 -0.36303225
000090 73 6b 48 be b3 d6 e2 3e c3 df 0d be 8d 40 74 3e
       -0.19572239 0.44304428 -0.1385489 0.23852749
0000a0 35 bd ee be 96 e8 b5 3e e3 f7 ea be 39 86 80 3d
       -0.46628729 0.3552901 -0.45892248 0.06275601
0000b0 82 98 57 3d 9e 91 a1 3d 1d f3 91 3e 94 13 df be
       0.052635677 0.078891024 0.28505793 -0.43569624
0000c0 5d 29 0e bf 0c 34 d5 3e 9a 9d 54 3e 2f e7 0c 3e
       -0.55531865 0.4164127 0.20763245 0.13760065
0000d0 88 b8 3d 3f 04 8d dd 3e ac c1 5f be b0 11 68 be
       0.741097 0.4327165 -0.21851224 -0.22662997
0000e0 f8 63 d8 bc 89 50 a4 be 86 87 df be 54 22 1a 3d
       -0.026414856 -0.32092693 -0.43658084 0.037630394

layer.0.bias f4 [10]
000000 ec 47 98 3f 7c 00 fe 3e 35 d9 1f 3f 52 8c f8 be
       1.1896949 0.49609745 0.62440807 -0.48544556
000010 27 d0 c1 3e 33 b4 70 3e a8 29 48 3f f1 48 7b 3f
       0.3785412 0.2350624 0.7818856 0.98158175
000020 f0 f8 1b be e6 53 4c 3f
       -0.15231681 0.7981552

layer.1.weight f4 [10, 10]
000000 4e d6 48 be 35 93 56 3e db 63 72 bd 2c 96 91 be
       -0.19613001 0.20954593 -0.05917726 -0.28434885
000010 84 d2 30 3d 51 3b 13 3d fe be 66 3e d4 c0 99 bc
       0.043169513 0.03594524 0.22533795 -0.018768705
000020 60 16 32 3d c4 21 54 3e 05 2c 42 bd 10 94 ac be
       0.04347837 0.20716006 -0.04740526 -0.33706713
000030 e7 7b 72 bd f6 4a 92 be d7 ba f9 3d a3 e1 8f 3e
       -0.059200194 -0.28572816 0.1219384 0.28101835
000040 70 d7 10 be 23 a5 4d bd ca 7c a0 be a8 ea 2d be
       -0.14144683 -0.050206315 -0.31345206 -0.16984046
000050 fd fa b3 3d 12 76 9a be 9b 09 00 be 51 28 84 3e
       0.087881066 -0.30168205 -0.12503664 0.2581201
000060 ae 64 36 3d 47 b3 1f be 22 cd 9b 3d ac 56 3b bf
       0.04452961 -0.15595733 0.07607485 -0.73179126
000070 d4 d7 83 be d2 a7 ae be 14 46 47 3d fd 11 3a be
       -0.257506 -0.34112412 0.048650816 -0.18170924
000080 37 21 2b 3d 00 c5 8f 3d 1c 8d 16 be 78 98 8b be
       0.041779723 0.07019997 -0.14702266 -0.27264762
000090 5e fd 6a be d4 2a 04 bf e5 b6 64 3e 34 a6 ac be
       -0.22948214 -0.5162785 0.22335394 -0.33720553
0000a0 8f 7c 8d 3e f8 ed cf be 10 71 29 3e f7 56 58 bb
       0.27634093 -0.40611243 0.16547036 -0.003301082
0000b0 11 47 d0 3e af 30 9d 3e 37 84 b0 3e 1e 12 a0 3e
       0.4067922 0.30701205 0.34475872 0.31263822
0000c0 c4 35 26 3e 59 fe 1a 3e 76 60 a4 3e 3d 5f 11 3e
       0.16231447 0.15136088 0.32104844 0.14196487
0000d0 3a d4 80 3e f3 fb b0 3e ba cc 3c 3e d2 d2 ab bd
       0.25161916 0.34567222 0.18437472 -0.0838982
0000e0 8f cf fe bc db 05 c9 3e de 2c cc 3e b5 f7 8b be
       -0.031104831 0.3926228 0.3987798 -0.27337423
0000f0 d6 42 1e 3e 11 9d ad 3e f3 4b 91 bd 28 17 73 be
       0.15455183 0.33908895 -0.07094564 -0.23739302
000100 b4 81 a5 be 0e 12 22 be 6e 39 40 3e 48 e6 cc 3d
       -0.32325518 -0.158272 0.18771908 0.1000486
000110 84 f3 45 be c8 f0 9d 3e 7f 9a 84 be 39 bb 93 3e
       -0.19331175 0.30847764 -0.2589912 0.28853777
000120 b8 62 f4 3d b8 e5 7c bd 48 32 ae 3d e4 b9 74 be
       0.119328916 -0.061742514 0.08505684 -0.23899037
000130 b0 d2 47 bd 00 83 1b 3b c8 b5 12 3e 48 f2 ef 3d
       -0.04878491 0.0023729205 0.14327157 0.11716133
000140 d9 2c 8f bd bf c1 ae 3d 47 06 92 3e 6d e9 a4 3d
       -0.06990976 0.08533048 0.28520414 0.08052335
000150 e8 29 2e be ec 8f 9a 3e e2 52 ea 3c 41 2e 27 3e
       -0.17008173 0.3018793 0.028603975 0.16326238
000160 ec 4a 86 be 67 c2 4e be ef 0b 46 bc 76 11 d5 be
       -0.26229036 -0.20191346 -0.012087806 -0.41614884
000170 0f 06 ab 3e 6a b5 8f 3d 64 6d c1 3e 2a 25 21 bc
       0.3340306 0.07017024 0.3777877 -0.009835521
000180 e1 72 d2 3e da 2e 1d 3e 08 7c 50 3d b0 bf 7d 3e
       0.4110327 0.15349904 0.050899535 0.24780154

layer.1.bias f4 [10]
000000 ab 25 25 3e 73 cf 0e bd a8 e8 40 bf 64 f9 53 bf
       0.1612765 -0.034865808 -0.75355005 -0.82802415
000010 a1 53 9c 3e 7e 10 9b 3e f4 dd a5 3f f2 fe 61 be
       0.30532554 0.3028602 1.295836 -0.2206991
000020 a4 96 b4 be 96 ff 2f bd
       -0.3527118 -0.042968355

layer.2.weight f4 [10, 10]
000000 a0 6f 1b 3c 17 93 95 3d cb 2f 57 be 21 19 dc 3d
       0.009487063 0.07303446 -0.21014325 0.107469805
000010 3a 9b 78 be 6d 08 a2 bb 47 f2 a7 3d de 9f 38 3e
       -0.24277964 -0.004944852 0.082005076 0.18029734
000020 20 67 3d 3e 34 90 64 bd 7d 7d 20 be 49 49 2f 3e
       0.1849637 -0.055801585 -0.1567287 0.171178
000030 1c 19 da be a3 27 24 bd 67 b5 22 bd 32 cb 74 be
       -0.42597282 -0.040076863 -0.03972378 -0.23905638
000040 90 ee b7 3d 38 a0 9c 3d 57 73 80 3c 8f 2f 06 be
       0.08981049 0.07647747 0.015679998 -0.1310408
000050 36 60 9c 3d eb 3a 7a bd 62 65 2c be 56 2d c0 bd
       0.07635538 -0.061091345 -0.1683555 -0.09383647
000060 bc 40 05 3d 58 83 2f be 72 60 08 3f 26 f5 3a 3e
       0.03253244 -0.17139947 0.53272164 0.18257579
000070 ba 95 9d be ad c6 46 3e 9e cc 49 be 36 94 79 bc
       -0.30778295 0.19411726 -0.19706962 -0.01523309
000080 4c ee 67 be d5 87 05 3e d8 47 dd bd 81 fa f7 bd
       -0.22649497 0.13040097 -0.10804719 -0.12108327
000090 ce b4 a0 3c c0 89 98 3b 7d fb 89 bd e3 f8 21 be
       0.019617464 0.004655093 -0.06737421 -0.15817599
0000a0 2c 8f 3a 3e a6 83 4c 3e c6 b9 8c 3e da 41 34 3e
       0.18218678 0.19972095 0.27485484 0.17603245
0000b0 19 08 04 3e d6 8b 4e 3e 92 c1 9a 3e 2c 63 38 be
       0.12893714 0.2017053 0.30225807 -0.18006581
0000c0 2f d3 2d be bc 29 06 be b5 8c 9d 3e 66 f4 09 3e
       -0.16975091 -0.13101858 0.30771413 0.13472137
0000d0 79 15 73 3e 35 13 7c 3e 69 a2 07 bf ce 08 86 bd
       0.2373866 0.24616702 -0.52982193 -0.06544648
0000e0 90 59 d9 be 12 72 7c 3e 09 84 0f be 24 be 94 3e
       -0.42451143 0.2465289 -0.14015211 0.29051316
0000f0 5f 77 80 3e 78 fc 37 3d f7 1d 62 bd f9 63 9d 3e
       0.25091073 0.044918507 -0.055204358 0.30740336
000100 aa e5 ec be f2 40 67 be a0 4b ba 3e 79 a3 83 be
       -0.4626897 -0.22583368 0.36385822 -0.25710657
000110 09 33 eb bd ec 9d df 3e e8 31 6d bd 89 a0 b5 be
       -0.114843436 0.43675172 -0.057908922 -0.3547404
000120 43 02 c3 be 4a d9 51 be 4a 0f a2 3e 53 c3 9e 3d
       -0.38087663 -0.20493045 0.3165229 0.07752099
000130 1f bf 23 3e c4 12 88 be ca 44 fd 3e 4e 24 5b 3e
       0.15990876 -0.26576817 0.49466544 0.21400568
000140 cb 88 8c 3e ad 17 e8 3e c4 25 5f 3e 18 f9 be 3c
       0.27448115 0.45330563 0.2179175 0.023312137
000150 b5 11 89 bc c2 27 a6 be 88 a7 bd bf 8a 78 46 3e
       -0.016732076 -0.32452208 -1.4816751 0.1938192
000160 13 4b b9 bd 7b d0 15 bf 80 dd db bd 83 4f ac bd
       -0.090475224 -0.5852124 -0.10735607 -0.08413603
000170 56 b5 59 3e 55 3f a8 3e 6e c4 03 bd 0a 0e 9b be
       0.2126058 0.32860819 -0.03216975 -0.30284148
000180 2a c7 b3 bf 38 65 2c 3d 3a 7b 8c 3e 31 98 0f 3e
       -1.4045155 0.042088717 0.27437764 0.140229

layer.2.bias f4 [10]
000000 47 55 7d be 06 86 91 3d 1e ec dd 3f 16 01 6d be
       -0.24739562 0.07105641 1.7337682 -0.23144946
000010 70 97 f2 3e e9 8d af be f2 07 1b 3e 2c 59 2b be
       0.47381163 -0.34287956 0.1513975 -0.16733235
000020 78 8f 6d 3e 1c 1d 56 bf
       0.2319926 -0.8363817

layer.3.weight f4 [2, 10]
000000 52 2a 1a be 4c 4b 16 bd f0 c3 28 3f 28 d3 3b 3d
       -0.15055206 -0.036692902 0.65923977 0.04585567
000010 0e 6d a1 3c 08 af 72 3f ff 71 10 3f 97 d9 13 be
       0.019705322 0.94798326 0.56423944 -0.14438473
000020 07 24 ee be e1 9b cd be 2f 14 3a 3d 6c 11 8e 3e
       -0.46511862 -0.4015799 0.045429405 0.27747667
000030 12 eb 63 bf d0 0d 92 3e cb 86 40 be 92 cc 59 bf
       -0.89030564 0.28526163 -0.1880142 -0.85077775
000040 c1 e8 29 bf f8 cb 7c 3e 57 95 34 3f aa b9 fd 3e
       -0.6637078 0.24687183 0.70540375 0.49555713

layer.3.bias f4 [2]
000000 de db 76 3e 5a fd c1 be
       0.2410731 -0.37888604
