old/30.95Acc_H1_OneLayer261Units_ReLU_CrossEntropyLoss_Adam_0.001lr_200epochs_10batches.pth (torch, 17127 bytes, 4 tensors)

output.0.weight f4 [261, 6]
000000 36 0d 1d 3e bc 93 45 3d 22 a1 f3 3d 7b ad 80 3e
       0.15337071 0.048236594 0.11895968 0.25132355
000010 37 b5 aa 3e 7f 4b b6 3d 80 a6 bc 3d f4 74 ad be
       0.3334138 0.089011185 0.09211445 -0.3387829
000020 30 6f ba be 67 54 57 be 91 13 78 be 48 da cb 3d
       -0.36412954 -0.2102829 -0.24226214 0.09953743
000030 f2 87 47 3e 30 69 01 bf 9b c5 88 be 9c 4f c6 3e
       0.19485453 -0.5055113 -0.2671326 0.38732612
000040 a0 0a d0 be db 8b 95 be ce 59 90 be ea 9b a7 3e
       -0.40633106 -0.29208264 -0.28193516 0.3273614
000050 9a 6b 97 3c af 72 0e 3e a3 e8 fb be 56 65 65 3e
       0.018483926 0.13910936 -0.49200925 0.22401938
000060 00 b0 ca be c7 b6 4b 3e a5 c9 e9 bd 72 d0 8d bc
       -0.39587402 0.19893943 -0.11415414 -0.017311309
000070 74 d7 02 3e 61 eb 6b 3e 90 41 93 3e 29 f6 b0 be
       0.12777501 0.23039009 0.28760958 -0.34562805
000080 b9 02 5e be 0e 02 48 be 78 c7 b9 be 72 00 ce be
       -0.21680726 -0.19532034 -0.36284995 -0.40234715
000090 ca 76 ff bc 5c bb c8 bd 2a 28 bc 3e e1 72 8d 3e
       -0.031184573 -0.09801361 0.36749393 0.27626708
0000a0 aa f8 2c 3e cd c5 f4 3d 2c 51 d0 bc 3e ea d9 3c
       0.16891733 0.1195179 -0.02542933 0.026600953
0000b0 a1 f6 88 3d cc 5a c1 be 0e 00 3a bf d0 c1 4f be
       0.06687666 -0.37764585 -0.72656333 -0.20288777
0000c0 32 f3 a0 3e 40 33 23 bf 92 7f 80 3a d2 c8 7e bd
       0.31435543 -0.63750076 0.0009803644 -0.062203236
0000d0 28 2c f9 3d 99 49 42 3f 13 eb 43 bd 65 d5 0b be
       0.12166625 0.7589355 -0.047831606 -0.13655622
0000e0 9d 8c 10 3e d6 a9 77 be f0 12 26 3e 03 60 74 bd
       0.1411614 -0.24185881 0.16218162 -0.059661876
0000f0 ac 72 81 3e 26 98 a2 3d c4 a9 a2 be 64 66 34 3e
       0.252828 0.07939176 -0.31770146 0.17617184
000100 9d 2e 73 be 5c c2 c4 be 46 ca c9 bd a0 9a a0 be
       -0.2374825 -0.38429534 -0.09853034 -0.3136797
000110 9f 63 5b 3d 84 b6 7e 3e c6 62 e0 bd ae f6 9e be
       0.053561803 0.24874312 -0.109563395 -0.31047577
000120 d9 fa e0 3c c0 b3 7c 3e eb 96 c0 bd af 7b 64 3d
       0.027463363 0.24677944 -0.09403785 0.055782016
000130 f3 df 1c 3f 0f a1 6a bd 97 64 54 be d4 c3 96 be
       0.6127922 -0.057282504 -0.20741497 -0.2944628
000140 bd 0e b8 be 28 47 54 be b4 2d 4e 3e 72 64 cb 3e
       -0.35948744 -0.20730269 0.20134622 0.3972507
000150 9c 89 34 bd b2 33 99 3d c9 1e fb bd 55 42 a5 3e
       -0.044076547 0.07480563 -0.12261731 0.3227717
000160 94 c1 22 bf 11 2f ac 3e b1 4c 80 bd 36 2a ba 3c
       -0.63576627 0.3362966 -0.06264628 0.022725206
000170 aa 7d 40 3c 73 82 4b 3e aa 15 b0 3e 27 db ff 3e
       0.011748711 0.19873981 0.34391528 0.49971887
000180 8f e3 61 3e 90 75 b0 3e da e6 46 be 8d f5 3f 3d
       0.22059463 0.34464693 -0.19424 0.046865035
000190 17 28 e0 3e 8e 38 95 be 86 ef 8e be 38 bd 75 3d
       0.43780586 -0.2914471 -0.27917117 0.059994906
0001a0 45 37 b9 3e ce 1c a3 3e b8 e9 81 3e 8a ed 35 be
       0.3617498 0.31857914 0.25373626 -0.17766395
0001b0 6c bc 85 bc 22 18 56 3e 3b fd b5 3e 48 08 e7 3c
       -0.016325198 0.20907643 0.35544762 0.028202191
0001c0 2a 98 0b 3e 60 da 02 be 2c c6 18 3e de 70 f0 3d
       0.13632265 -0.12778616 0.14919347 0.11740278
0001d0 13 89 0b bd 3d 4f 98 bd bf 78 ee 3e 91 a7 00 3e
       -0.03406627 -0.074369885 0.46576497 0.12563922
0001e0 4b 8e 14 bd 96 bd d1 3c 67 9b 8b 3e 85 91 bd be
       -0.036268514 0.025603097 0.27267 -0.37025085
0001f0 03 01 c6 3e 84 45 f9 bd c0 23 e3 be b4 7b 29 3e
       0.38672647 -0.12171462 -0.44363213 0.16551095
000200 16 08 d8 3d 95 68 0d be 3f 84 bd 3e 35 a3 d6 3d
       0.10548417 -0.13809426 0.37014958 0.10480348
000210 11 cc 9a be a7 ea 8b 3c ce 48 cf be 7b 16 b9 be
       -0.30233815 0.017079664 -0.40485233 -0.36149964
000220 ed 5f 1c 3e 99 64 35 3d 5f d6 31 be ad 3a 81 be
       0.15270968 0.04428539 -0.17366932 -0.2524008
000230 32 39 75 be 3c 8a a8 bd 42 87 c8 3e b8 15 7b bd
       -0.239476 -0.08229491 0.39165694 -0.06130001
000240 5a 95 a6 be db fb f1 bb f8 1e ab 3d 06 42 c9 be
       -0.3253582 -0.00738476 0.08355516 -0.39308184
000250 f3 70 43 bf 77 c4 97 bd 80 a2 7c bc d0 7c 08 be
       -0.7634422 -0.074105196 -0.015419602 -0.13328862
000260 46 1f a2 be f8 2b 58 3e 44 68 46 be fe 24 26 be
       -0.31664485 0.21110523 -0.19375712 -0.16225049
000270 f0 4c 3f bd d1 71 85 be 43 19 a9 3e 81 64 a3 3d
       -0.046704233 -0.26063398 0.33027086 0.07978154
000280 64 8d cb 3e e4 a3 29 3e d9 68 d6 bc 89 9b 81 3b
       0.3975631 0.16566426 -0.026173042 0.003955309
000290 cf b5 a9 3e 21 48 a2 3d e3 a5 a9 3e 8b 65 7c be
       0.3314652 0.07923914 0.33134374 -0.2464811
0002a0 65 64 8a 3e 12 79 f7 bd ad b6 04 3e cd 7d 96 3e
       0.2702972 -0.12083639 0.1296031 0.29392853
0002b0 f6 49 b1 3e b0 03 aa bd 47 13 87 3c a1 4a 67 be
       0.3462674 -0.083014846 0.016488684 -0.22587062
0002c0 6f ac 90 bd 8e 50 63 3d 99 31 8c bc 10 b9 bc be
       -0.07064139 0.055496745 -0.017113494 -0.3685994
0002d0 d0 70 5f bd e4 a3 18 3e e2 a4 bc bc ea 83 b2 3e
       -0.054550946 0.1490627 -0.023027841 0.34866267
0002e0 a8 03 a3 be e1 be 87 3e eb 85 ea 3d 6b d2 ba 3e
       -0.31838727 0.26512817 0.11451324 0.3648866
0002f0 da 3d ae 3e f7 cf 8e 3e db 2e a0 3d ed 82 6d bd
       0.34031564 0.2789304 0.07821437 -0.05798619
000300 9b 54 14 bd 42 39 3f 3e ab 22 df be db 19 39 3d
       -0.0362135 0.18674186 -0.43581137 0.045190673
000310 d5 ee e8 3c e9 eb 07 3f f6 17 cb bd 4b 94 1e be
       0.028434196 0.53094345 -0.099166796 -0.15486257
000320 0f d0 1c 3e 1c 21 28 3e 96 50 d2 be 52 6d 55 be
       0.15313743 0.1641888 -0.41077107 -0.20842484
000330 ac 5c a5 3e 20 a0 8e be 9c fa 20 3e bb 15 57 be
       0.32297266 -0.2785654 0.157206 -0.21004383
000340 c4 3d 6d bd 46 ae 27 be 00 d8 cb bb 40 46 b3 bd
       -0.057920232 -0.16375074 -0.0062208176 -0.087536335
000350 6c bb c7 be 0b 76 61 be d8 5d 7c 3e a8 50 70 3e
       -0.3901018 -0.22017686 0.24645174 0.23468268
000360 c0 ad f4 3d d0 b9 9f be 5f d8 e9 3d 6b d7 5f bd
       0.11947203 -0.3119645 0.11418223 -0.054648798
000370 c2 ec 8b 3e 59 7d b6 be c8 b2 9c be 5d 73 b6 be
       0.2732907 -0.35642508 -0.3060515 -0.3563489
000380 b3 84 4b 3e cf f4 96 3d 22 da 4f be e2 b6 3c be
       0.1987484 0.07370912 -0.20298055 -0.1842914
000390 21 0c 16 be 0b 35 b1 bd 12 c2 1e 3d bf e6 55 3d
       -0.14653064 -0.08652695 0.0387593 0.05222201
0003a0 ef e8 1b bf 04 61 8c 3e 30 79 0b be bf fc 88 be
       -0.60902303 0.27417767 -0.13620448 -0.2675533
0003b0 6f 55 45 bd d4 21 b4 3e e0 48 f5 be 2f ea 31 3f
       -0.04817718 0.3518206 -0.47907162 0.6949796
0003c0 88 9b e2 3d ce d7 97 be 96 20 b5 be 29 72 35 be
       0.110648215 -0.29656833 -0.35376424 -0.1771933
0003d0 3e d5 c1 be 4a 63 c3 3e e7 16 84 3e 4c ba 18 bc
       -0.37858003 0.3816169 0.25798723 -0.00932176
0003e0 b3 23 56 bd af 0e 1e 3e ab 5d 3f be 9f f4 98 bd
       -0.05228014 0.15435289 -0.18688075 -0.07468533
0003f0 b8 a6 a9 3e 21 68 58 3e ec 9c 52 be e6 c4 68 3e
       0.3313501 0.21133472 -0.20567673 0.22731361

output.0.bias f4 [261]
000000 d1 5a 51 3e 98 a2 1f 3e f3 aa d8 3e 7f b2 9c be
       0.204448 0.15589368 0.42317924 -0.30604932
000010 44 04 65 be ae c8 8e be dc 40 80 bc c5 07 81 be
       -0.22364908 -0.2788748 -0.015655927 -0.2520124
000020 a5 4c 9a 3e c3 6e 0c 3e 32 88 90 3d 60 40 98 be
       0.301366 0.13714127 0.07057227 -0.29736614
000030 be cd e9 3e d8 0c 27 3e c0 05 89 3e 6e 2d 10 be
       0.4566478 0.16313493 0.267622 -0.1407983
000040 13 4b d1 be 21 8a 76 bc be 4e b4 be ca d8 96 3e
       -0.4087759 -0.015047581 -0.35216326 0.29462272
000050 97 03 3f be 43 3f a8 3e 38 7e 77 3d fe 78 4e be
       -0.18653713 0.32860765 0.060423106 -0.20163342
000060 e8 a8 13 bf 4a 9c a7 be 4e 57 3d 3e 6c 41 a7 3d
       -0.57679605 -0.32736427 0.18490335 0.08166775
000070 da 4f aa bd ef 23 60 3d 14 44 ea be dd c6 b0 be
       -0.08316012 0.05472177 -0.45755064 -0.3452672
000080 84 32 12 be bb 6a 00 3e 71 95 bd 3e 86 32 d0 3e
       -0.14277083 0.12540714 0.37028077 0.40663546
000090 cc 57 e5 be bd f4 30 bd 77 12 f0 be 26 fa b7 3d
       -0.44793546 -0.04320215 -0.46889088 0.08983259
0000a0 14 3a 8f 3e 42 80 8b 3e 4d 0c a1 bd 62 5a 2a bd
       0.27973998 0.2724629 -0.07863674 -0.041590102
0000b0 0c 20 16 bf 6d ef 83 3c b0 51 5e 3e 43 37 fb 3e
       -0.5864265 0.016105378 0.21710849 0.490656
0000c0 f7 0f ca be 46 f7 c0 be aa fd 9a be 9a bb 00 bf
       -0.39465305 -0.37688655 -0.30271655 -0.5028626
0000d0 27 07 b9 3c b8 87 47 be 87 0c 11 3d 13 95 d1 be
       0.022586418 -0.19485366 0.035412338 -0.40934047
0000e0 93 27 cc 3c 52 2e e4 3d d0 11 3a 3e 96 28 e2 3e
       0.024921214 0.111416474 0.18170857 0.4417159
0000f0 e9 a0 00 3f 83 2d 2d be 7b e3 17 3d 9f 3b ce 3e
       0.5024553 -0.16911893 0.037082177 0.40279862
000100 86 c2 20 be 7f c5 e7 3d 1a 40 92 3d b2 12 67 be
       -0.15699205 0.11316966 0.07141133 -0.22565725
000110 a7 b6 c0 be f0 f6 73 3d 02 40 19 3e 46 8b 92 bd
       -0.37639353 0.05956167 0.14965823 -0.071554706
000120 3e 9a 8e 3e 02 d2 d6 be 92 b9 8c 3e ce 5f ab 3e
       0.27852052 -0.41957098 0.2748533 0.3347153
000130 bc 92 03 3f bc 14 92 be 0c 70 80 be 2e cf a9 3e
       0.51395774 -0.28531444 -0.25085485 0.33165878
000140 ae 71 27 3e 51 64 8d 3e e0 74 6f bd 4d 31 6f be
       0.16351959 0.27615598 -0.05846107 -0.2335865
000150 cd 2a 0d be 24 3a c3 bd cc 4c 23 be 62 8b e1 be
       -0.13785858 -0.09532574 -0.15947264 -0.44051653
000160 38 d4 cc bd b2 e3 29 3e 80 06 d2 3e da 48 a3 be
       -0.10001415 0.16590765 0.41020584 -0.3189152
000170 59 d6 95 3e ed 5a 9c 3e c2 e2 b3 3e 7f 2d ed 3d
       0.29265097 0.3053812 0.3513394 0.11580943
000180 a7 d5 9c be 95 89 15 be ac 75 1a bb ae d5 e5 3d
       -0.30631754 -0.14603265 -0.0023568673 0.11222397
000190 34 86 05 bf 25 d4 d3 3d b4 fc 4f 3e 7a 82 c5 3e
       -0.521579 0.10343198 0.20311242 0.38576108
0001a0 bb c6 85 3d 97 fe 26 bd a8 ea a3 3e 98 fe be be
       0.065320455 -0.04077014 0.32014966 -0.37303615
0001b0 c8 2e 19 bf 13 c0 b4 bd 5e c5 36 be 44 77 2e be
       -0.5983701 -0.08825698 -0.17848727 -0.17037684
0001c0 57 11 71 3e fd e8 d9 be f7 92 02 3f 56 57 ec be
       0.23541771 -0.42560568 0.510055 -0.46160382
0001d0 ca db 6b 3d 68 f1 11 3d 9e 6a 5c 3e 24 b2 4e be
       0.057582654 0.035630614 0.21525046 -0.20185143
0001e0 ce bd af be 44 2a cc 3e e3 31 9d 3e 59 ec c0 3e
       -0.34324497 0.39875996 0.30702123 0.3768032
0001f0 0d 24 6c be 08 3e 08 3f d9 79 91 be 73 6b b2 3d
       -0.23060627 0.5321965 -0.28413275 0.087119006
000200 11 9f 02 bf f5 3c ca 3e 11 a8 75 3d 82 c7 62 be
       -0.51023966 0.39499632 0.059974734 -0.22146419
000210 e0 b3 14 bf bc 5b 50 3e 4c 89 5a be bc 12 62 3e
       -0.5808697 0.20347494 -0.21341437 0.22077459
000220 95 b1 48 3d f7 82 c3 be 39 8b 77 be 60 4f 29 3e
       0.04899748 -0.38185856 -0.24174203 0.16534185
000230 39 32 29 be 0f 15 d7 be 6b ea 30 be d0 fc d8 bc
       -0.16523065 -0.42008254 -0.17276923 -0.026487738
000240 9f c3 a9 bc d2 44 91 3e 8a ed b1 3d 47 3c 00 3e
       -0.020723162 0.28372818 0.08687885 0.12522994
000250 57 b3 58 3e a9 bb a9 be 18 5a 20 bf 05 ee 2f bf
       0.21162163 -0.33150986 -0.6263747 -0.68722564
000260 ea a9 a1 be b3 d1 8e 3e cc 6e 0a be 42 c9 9a 3e
       -0.31574947 0.27894363 -0.13518828 0.30231673
000270 19 f8 09 3f e4 a3 3e 3e ae fa 30 3e 54 ac b6 be
       0.5389419 0.18617207 0.17283127 -0.3567835
000280 6c 16 90 3e 3d 47 92 be a1 cc 23 3c f3 bf da be
       0.28142107 -0.28569975 0.009997518 -0.4272457
000290 02 b7 1c be f6 ab 1c 3e 26 bb 8b 3e fe 28 04 bd
       -0.15304187 0.15299973 0.2729122 -0.032265656
0002a0 b5 c2 b9 3e a2 bf 8a 3d 54 0e 99 3d 80 be be bd
       0.36281362 0.06774832 0.07473436 -0.09313679
0002b0 fc c1 50 3e cf f1 ac be ac 64 ec 3e e4 66 a5 be
       0.20386499 -0.33778235 0.46170557 -0.32305062
0002c0 78 10 65 3d 5f 23 65 bc 99 dd 2b be 94 1d 77 3e
       0.05592391 -0.013985484 -0.16783752 0.24132377
0002d0 3d f9 45 3e e3 5e 36 3e 4f b1 0c bf d7 51 22 bd
       0.19333358 0.17809634 -0.5495805 -0.03962883
0002e0 62 69 3a 3e 08 43 f7 bd b5 c3 ba 3e fa 1e 12 bd
       0.18204263 -0.12073332 0.36477438 -0.035674073
0002f0 7e ce 03 3d 25 60 1c 3e 6f a7 17 be 1c 99 3f be
       0.03217935 0.15271051 -0.14809965 -0.1871075
000300 00 d3 86 3d 5b 3b 9d be e8 73 de be 84 48 3a 3d
       0.06583214 -0.30709347 -0.43447804 0.045479313
000310 32 e7 2d be ea 4a 2c 3f aa 75 13 3f 26 1a 16 be
       -0.16982725 0.6730181 0.57601416 -0.14658412
000320 30 d5 d8 be 4e c7 8f be b5 ab 7f be 83 d9 71 bd
       -0.4235015 -0.28081745 -0.24967845 -0.059045326
000330 7c 29 3a be b6 9a 88 be 61 ce f5 3e df 1e b2 be
       -0.18179888 -0.26680535 0.48009017 -0.34789178
000340 1c d3 a4 3e ab 89 27 3e cc 57 cc 3a 1e be c6 bd
       0.32192314 0.1636111 0.001559013 -0.09704231
000350 cf b0 81 bd 4d aa 1d bd c2 dd dc bd cc 65 8d bd
       -0.06332552 -0.03849249 -0.107844844 -0.06904182
000360 01 2e 76 be ab d7 76 3e 6d 45 2e be 42 1f de be
       -0.24040987 0.24105708 -0.17018671 -0.43383223
000370 10 4d fa be 55 0d ff 3e 57 10 42 be 4a 44 ab 3d
       -0.4888692 0.4981486 -0.18951546 0.083626345
000380 20 f8 77 be 9c 28 b7 3e e4 ad 2d bf 84 fc 0b 3e
       -0.24215746 0.3577317 -0.6784346 0.13670546
000390 52 fc 42 be 18 d6 0b 3d f4 09 d1 3d ac ee f1 bd
       -0.19041565 0.034139723 0.102069765 -0.11813101
0003a0 d1 2a 1f be be 33 20 be a8 df af be 6a 9e 68 be
       -0.15543677 -0.15644738 -0.34350324 -0.2271668
0003b0 f4 0b 0f 3f 9c 5b 69 3e 00 8b 36 3d ad 12 3a 3e
       0.55877614 0.22788852 0.044566154 0.18171187
0003c0 06 05 d1 be 62 e1 0e be 54 8d cc bd ad 4a b8 3e
       -0.40824145 -0.13953164 -0.09987894 0.35994473
0003d0 3e a9 07 3e ea 4f 13 be 30 38 ff be 08 5c 94 bd
       0.13248155 -0.14385954 -0.49847555 -0.07244116
0003e0 61 5e bb be 38 60 b5 be b8 2d d9 be a2 4a 0e 3e
       -0.36595443 -0.35424972 -0.42417693 0.13895658
0003f0 60 77 c4 be e9 6e ce 3e 4f 73 73 3d 03 e6 19 3c
       -0.38372326 0.40318993 0.05943614 0.009393218

output.2.weight f4 [7, 261]
000000 03 0a 13 bd 3e 5f 02 3d 3f 6f e3 bc 9f ed ae bc
       -0.03589822 0.03182911 -0.027763007 -0.021353541
000010 7c 96 ae 3c df 80 6f bd f4 2f 4c 3d 4e bf 34 bd
       0.02131199 -0.05847251 0.04985042 -0.044127755
000020 74 fd 93 3e 60 2f ea 3c 4a c5 8b 3b bd ea e3 bb
       0.28904307 0.028587043 0.004265462 -0.006955473
000030 c7 34 87 3d 10 18 27 bd 6e 71 70 3c 36 9a 15 bd
       0.06601863 -0.040794432 0.014675481 -0.03652402
000040 2a 72 2d bd 94 5e 5e bd 56 bc 1f bd 7a e4 6d bc
       -0.042345203 -0.054289415 -0.03899797 -0.014519805
000050 2e ef e0 bc 6b 60 fc 3c 9c 2f 17 bd 80 64 2e 3c
       -0.0274578 0.030807694 -0.03691064 0.010644078
000060 60 80 82 bd b8 b9 fe bc ef 7f c2 3c ce 2c 40 3d
       -0.06372142 -0.031094417 0.023742644 0.04691773
000070 42 40 24 3d 48 b4 1f be 42 ff a9 bb a8 8f 4d 3d
       0.040100344 -0.15596116 -0.0051879 0.05018583
000080 11 2f a5 3b ed a1 aa bc 46 f9 cf ba dc be f5 bc
       0.005041011 -0.020829165 -0.0015867136 -0.029998235
000090 8c ee 1f bd e3 d0 55 3d f4 09 df bc fa e7 ee 3d
       -0.039045855 0.052201163 -0.027226426 0.1166534
0000a0 e0 64 cd bc 01 0e e1 bc 06 f9 07 3d 2f 89 07 bd
       -0.025072515 -0.027472498 0.03319647 -0.033089813
0000b0 fe b3 8a 3c b4 47 b3 3a ce 7c 81 3d a1 88 13 3d
       0.01693153 0.0013677985 0.06322633 0.03601897
0000c0 c5 17 e3 3c 10 22 c4 3c 54 5b 9c 3a 96 ff a6 3c
       0.027721295 0.023942024 0.0011929073 0.020385545
0000d0 a7 1c 47 3d 61 0e 80 3c 93 5c 9d 3c 95 43 05 3d
       0.04861131 0.015631856 0.019209182 0.032535154
0000e0 d5 96 21 3b 46 9d 1b 3d db 39 4f bd e9 51 f1 bc
       0.0024656553 0.037991785 -0.050592285 -0.029458003
0000f0 6b d0 76 3d e2 9d 68 bd a8 0f 45 bd 39 d2 c9 bc
       0.060257357 -0.056791194 -0.048110634 -0.024636375
000100 e0 be 62 3e 64 aa 36 3d 31 f8 45 bd e4 a0 c8 bb
       0.22143126 0.04459609 -0.048332397 -0.0061226953
000110 9c 1b 20 bc ee 58 3a bd 90 73 c9 3d dc cc 59 3d
       -0.009772208 -0.045494966 0.09836495 0.053173885
000120 f8 55 8e 3c 89 a2 d5 bc 1f 52 5f 3d 35 df 63 3d
       0.017374977 -0.02607848 0.054521676 0.05563279
000130 5b 16 7e 3d 0b 3b 88 3d 98 bd f9 bd 0a f7 e2 bc
       0.06203304 0.066518866 -0.12194365 -0.027705688
000140 96 e9 8e 3c 31 84 2a bd 90 cd 45 3c 05 32 69 bc
       0.017445367 -0.041629974 0.012072936 -0.014233117
000150 19 44 17 bd 80 04 e3 3c 76 01 cc 3c cb 08 44 bd
       -0.036930177 0.027712107 0.02490304 -0.047859948
000160 46 85 52 bc 87 55 62 bc 8a f9 cd 3c 71 ad 1a bd
       -0.012849158 -0.013814337 0.025143404 -0.037763063
000170 2a 90 5f bc 68 0d 1b bd 03 5a 3d bd 00 65 42 3d
       -0.013645211 -0.037854582 -0.04622842 0.047459602
000180 1c 89 f0 3c a5 19 00 3c 3f be f4 bb 57 2f 85 bc
       0.029362254 0.007818614 -0.007468968 -0.016257925
000190 34 5b 97 bd bf 39 3f bd b7 51 25 bd 80 ed b7 3a
       -0.073904425 -0.04668593 -0.040361132 0.0014032573
0001a0 5b 1d 31 bd 17 23 e4 3c f3 4d f3 bc 44 cd 77 bd
       -0.043240886 0.027848763 -0.029700255 -0.06049849
0001b0 d2 4f 4f bd ed 5b 81 bd 3d df 86 bb c4 f4 70 bc
       -0.050613232 -0.063163616 -0.0041159675 -0.014706794
0001c0 d1 90 c0 3e 5e 72 2e bd ba 28 14 bd 30 4b df 3c
       0.37610486 -0.042589538 -0.036171652 0.027257532
0001d0 24 a0 eb 3d 11 05 42 3d 6c f3 18 3d 33 15 c1 3b
       0.11505154 0.047368113 0.03734152 0.0058924197
0001e0 d6 5d 80 bc 62 94 9c 3a 42 fb a6 bc 9d 5e 47 3d
       -0.015669744 0.0011946077 -0.020383481 0.048674215
0001f0 ac 6d 80 bd 89 da 23 3c c2 d3 bd bc d0 09 6f 3d
       -0.06270918 0.010000833 -0.023172263 0.058358967
000200 f0 fd 46 bd bf f4 ef 3c 07 6d 66 bd ac cc bc be
       -0.048582017 0.029291509 -0.05625632 -0.36874902
000210 30 8a 63 bd 92 dc 4d bd 49 4a c0 3c 15 4c f0 bb
       -0.055551708 -0.05025918 0.023472922 -0.0073332884
000220 f8 92 af 3c c7 92 2a bd a2 8d 10 ba 6e 0e 1d 3b
       0.021432385 -0.041643884 -0.0005514269 0.00239649
000230 69 b2 be bc b1 9e 92 bd d0 8a f1 bb e0 0e d6 3b
       -0.023278432 -0.07159174 -0.007371284 0.006532535
000240 7f 3e b0 3c fc d1 54 bb 5b 44 90 3d 53 6b f3 bc
       0.021514175 -0.0032473793 0.07044288 -0.029714262
000250 4f 14 8a 3b db a4 08 bd 93 2f 87 bb 5b 7f 8c bd
       0.0042138468 -0.033360343 -0.0041255443 -0.06860229
000260 61 3c 90 3c b6 f1 4c be ec 2a 80 3c 00 e8 2c 38
       0.017606916 -0.2001408 0.015645467 4.1224062e-05
000270 60 15 13 3d 82 9d 4d 3d 61 76 f3 bc d2 2b c0 3c
       0.035909057 0.05019904 -0.029719533 0.023458395
000280 aa ea c9 bb 3d 23 4b bc 6b bc 2a 3c ed 90 19 3d
       -0.0061620073 -0.012398538 0.010420899 0.037491728
000290 77 d5 44 be 61 d6 ee bc 39 cd 26 3c 36 4e 87 3d
       -0.19222055 -0.029154958 0.010180765 0.066067144
0002a0 1b 2c 55 bd cb cd 7a 3c 03 70 00 3c 64 80 16 bd
       -0.052044015 0.015307854 0.007839206 -0.036743537
0002b0 14 c8 0f 3d 94 62 c0 3c fe c7 2f 3d 8b fa 06 bd
       0.03510292 0.023484506 0.042915337 -0.03295378
0002c0 e6 e3 ab bc 09 3c 23 3b b2 1f 43 3d 54 53 22 3d
       -0.020982694 0.002490761 0.04763765 0.03963025
0002d0 6f 06 60 3d c1 aa 42 3d df 77 ae bd a0 7b dd 3b
       0.054693636 0.047526125 -0.08518957 0.006759122
0002e0 30 5d 84 bc 5a bd 08 bd e7 18 2b 3d aa 92 3a 3d
       -0.016157717 -0.033383705 0.041771796 0.045550026
0002f0 fc 23 5d bc ed 6a 16 3d a8 7e 3a be fd bf 76 3b
       -0.013497349 0.036723066 -0.18212378 0.0037651055
000300 f6 1d b5 bc d6 49 63 3d 8a bf 5b bd 11 2a c1 3b
       -0.022109013 0.055490337 -0.053649463 0.0058949073
000310 8a 32 34 bd c2 88 25 bc f4 fe 9b 3c c6 10 2b 3c
       -0.04399351 -0.010103406 0.01904247 0.010441011
000320 51 f1 73 bc b1 2e bf bd 12 09 cc 3c 91 2b f8 bd
       -0.014889077 -0.093350776 0.024906669 -0.12117685
000330 85 4c 71 3c a6 79 57 bb 29 06 41 bd 97 4b 00 bb
       0.014727716 -0.0032878905 -0.047125015 -0.0019576305
000340 a2 dc 04 bc 28 1c b9 3c 9b 63 27 3d 92 d2 45 bd
       -0.008109244 0.022596434 0.040866476 -0.04829652
000350 63 6e cf bc d6 1f e9 3c ab 59 a8 bc e8 4b 59 3d
       -0.025321191 0.028457563 -0.02055057 0.053050905
000360 db f6 6d bd 5e 2f 0a 3d 00 f7 e8 3b 65 50 10 bd
       -0.058096748 0.03373658 0.007109523 -0.03523292
000370 e9 7f 8d bc 87 2b c9 3d 34 30 71 3c a0 a1 43 3d
       -0.017272906 0.09822755 0.014720965 0.04776156
000380 f7 bb 17 3e 10 10 a2 3c 9b ad d3 bc c1 ca ee bc
       0.14817797 0.01978305 -0.025839617 -0.029149415
000390 ea a9 d3 3c 76 7a a4 bc 08 6d 71 bd b7 bd 5c 3c
       0.025837857 -0.020077925 -0.05894187 0.013472966
0003a0 1b dc 73 bc e0 e3 57 3c 9f 81 24 bd 2c 09 23 3d
       -0.01488402 0.013176888 -0.04016268 0.03980367
0003b0 cf de bd 3a 1e 65 77 3d 26 c4 92 bc ce ca 15 bd
       0.0014485958 0.060399167 -0.017915796 -0.036570363
0003c0 f5 21 37 3b ae fd 88 3b 60 b1 5a bd 87 49 22 3d
       0.0027943824 0.0041806316 -0.053391814 0.039620902
0003d0 b1 11 e5 bb 2a 46 0f bd e5 3c 52 bd 78 ba 46 3b
       -0.0069906344 -0.034979023 -0.051327605 0.0030323546
0003e0 21 1e e0 3c e7 64 e2 bc 09 31 68 bd e4 38 44 bd
       0.027358117 -0.027636005 -0.05668739 -0.047905818
0003f0 2b d4 8c bc d3 28 17 bd de df 67 3d 17 b7 79 3d
       -0.017191013 -0.036904167 0.05660998 0.060965624

output.2.bias f4 [7]
000000 65 1c 73 3e e0 48 46 3a 03 43 18 be f8 a3 77 3e
       0.237413 0.000756396 -0.14869313 0.24183643
000010 3e 53 51 be d0 19 f4 bd 5c d5 8a bd
       -0.2044191 -0.11918986 -0.06778976
