output/models/11.43Acc_H1_Perceptron_CrossEntropyLoss_Adam_0.001lr_10epochs_10batches.pth (torch, 1767 bytes, 2 tensors)

output.0.weight f4 [7, 6]
0	0xbeae36c2	-0.34026152
1	0xbe933e1d	-0.28758326
2	0x3e1d87fd	0.15383907
3	0x3e69bb94	0.22825462
4	0xbcf5077a	-0.029910792
5	0xbea458e1	-0.3209906
6	0xbea0dfb2	-0.31420666
7	0xbe5679c0	-0.20944881
8	0x3e44ae08	0.19207013
9	0xbd8a06fa	-0.06739612
10	0x3e8832a3	0.26601133
11	0xbdffa896	-0.12483327
12	0x3de34bfa	0.11098476
13	0xbe9ddcd5	-0.30832544
14	0x3d9b71a8	0.075900376
15	0x3e9cb678	0.30607963
16	0xbd8d4f28	-0.068998635
17	0x3ec6dbb2	0.3883949
18	0xbeb5ae6c	-0.35484636
19	0xbe8ff0de	-0.28113455
20	0x3e6d6489	0.23182882
21	0xbeaf4d70	-0.34238768
22	0xbe827fae	-0.25488037
23	0xbb039a6b	-0.0020081054
24	0xbe4b05e7	-0.1982647
25	0xbe8cb040	-0.27478218
26	0xbe7bf3a6	-0.24604663
27	0x3ee0015a	0.4375103
28	0x3c39e8c0	0.011346996
29	0x3e973fd6	0.2954089
30	0xbe5b2a1c	-0.21402782
31	0x3e25ef4d	0.16204567
32	0xbdcaddb0	-0.09905565
33	0x3e9d155c	0.30680358
34	0xbea35a9e	-0.31905073
35	0x3b46fa6a	0.003036166
36	0xbe41c18c	-0.18921489
37	0x3e23be07	0.15990458
38	0x3c3ca91b	0.011514927
39	0x3e69bed0	0.22826695
40	0xbe819616	-0.2530982
41	0xbe649aab	-0.22324626

output.0.bias f4 [7]
0	0x3e643641	0.22286321
1	0xbe1e2cdf	-0.15446804
2	0xbe620d0b	-0.22075288
3	0x3dc79fac	0.09747252
4	0x3ddcbce2	0.10778214
5	0xbdcea644	-0.100903064
6	0xbdbcfd4a	-0.092279986
