output/models/21.27Acc_V1_Perceptron_CrossEntropyLoss_Adam_0.001lr_10epochs_10batches.pth (torch, 1767 bytes, 2 tensors)

output.0.weight f4 [6, 6]
00000000: 9d30 c5bd 7125 463e 2e3c d5bd 7515 db3d
00000010: cc02 b6bd 5c30 1e3e 023a 283e b0a6 02be
00000020: 9e42 773e 9699 503e 9d31 35bd 24bf 983e
00000030: 9eec 913d dc38 9f3e f4a2 5bbe 7719 a13e
00000040: 8d85 a0be 13ce b5be b4da a3be 25b9 a73d
00000050: c72a 883e 1808 153e aabd b8be e772 d33d
00000060: 0047 b03d 3698 833e 6e3a 2fbd a5fc 88be
00000070: 6b27 1ebe d552 bbbe 4a26 41be a01b 3d3e
00000080: d4c6 c23d eb39 2abe eff8 123e 3fd6 cd3d
-0.09628413 0.1935022 -0.10411869 0.10697452 -0.08887252 0.15448135 0.16428378 -0.12758899
0.24146506 0.20371088 -0.044236768 0.2983333 0.07125209 0.31098068 -0.2144888 0.3146474
-0.3135189 -0.35508785 -0.32002795 0.081896104 0.26595137 0.14553869 -0.36082202 0.1032465
0.08607292 0.25702065 -0.042780332 -0.26755252 -0.15444724 -0.36586633 -0.18862262 0.1846757
0.0951058 -0.16623656 0.14352773 0.1005063

output.0.bias f4 [6]
00000000: ce1f c23e d5e8 f0be ecad f03e 4e4c bb3e
00000010: b03b 41be c41d 003f
0.3791489 -0.47052637 0.47007692 0.36581653 -0.18870425 0.5004542
