output/models/32.94Acc_H1_Perceptron_Fast Scattering_Adam_0.001lr_200epochs_10batches.pth (torch, 1767 bytes, 2 tensors)

output.0.weight f4 [7, 6]
000000 be c0 8e bd 57 f2 7b 3e ca 9e 0f 3e 71 61 c9 3d
       -0.069703564 0.24604164 0.14025417 0.098330386
000010 c7 c0 00 3f 6c 3d 1b 3e 6d 50 03 3e 1c ac da 3d
       0.50294155 0.1516015 0.12823649 0.106773585
000020 99 13 03 3e 7f 35 12 3e 68 e4 2c 3c 83 26 78 be
       0.12800445 0.1427822 0.010552503 -0.24233441
000030 21 7f e7 3c 81 69 7b 3e 25 6e 0a 3e 58 35 e0 3d
       0.028258862 0.24551965 0.1351858 0.109476745
000040 2b 4e 5a 3e 41 94 b3 3d 66 5c d3 bd 53 c4 7c 3e
       0.21318881 0.087685116 -0.10320358 0.24684267
000050 61 7d 11 3e 40 ae 0a 3e db c5 c2 3e a0 c9 35 be
       0.14207985 0.13543034 0.38041577 -0.17752695
000060 35 62 c4 bb 59 61 6f 3e 12 c2 10 3e c7 84 1a 3e
       -0.0059931525 0.23376979 0.14136532 0.15089713
000070 c7 4f 65 3c e8 d0 50 3e 83 ca 12 3e 38 14 2c 3d
       0.013996071 0.20392191 0.14335065 0.04201147
000080 c6 6a 08 3e 29 cb 13 3e 14 a9 c8 3c 40 91 47 be
       0.13321981 0.14432968 0.024494685 -0.19489002
000090 50 86 52 bd bd 06 7c 3e b3 79 12 3e 48 09 16 3e
       -0.05139762 0.24611945 0.14304237 0.14651978
0000a0 5d fb 4b 3d f8 1a 96 be
       0.049800266 -0.2931745

output.0.bias f4 [7]
000000 54 29 64 3f 21 52 d3 3d f8 52 f3 be bd 9b 49 3f
       0.8912556 0.10318399 -0.47524238 0.7875326
000010 1b fe 9d be 83 1c a9 bd 47 92 89 3c
       -0.3085793 -0.08257391 0.016793383
