output/models/33.38Acc_H1_Perceptron_CrossEntropyLoss_Adam_0.001lr_200epochs_10batches.pth (torch, 1771 bytes, 2 tensors)

output.0.weight f4 [7, 6]
00000000: 4859 62be 54e1 bc3d 30bd 913e 64f0 fb3d
00000010: 4f2a d43e c20d a53e 55c8 12bd da7b 21bd
00000020: a12d 8e3e ef6c 293e eaf7 40be 1e0e 23be
00000030: 2f92 10be 5da5 c03d c31f 903e 19ab 0a3e
00000040: d757 783d 8464 483e cfe2 84be 4b51 c33d
00000050: 0705 943e 96d8 153e 90d2 c63d 18a1 82bd
00000060: 4e6a 2dbe 9463 9e3d 75e1 933e 742d 233e
00000070: 994e 08be 61d4 bd3e 7737 e2bc 9d58 c5bd
00000080: 274f 8f3e 4568 273e 5245 83bd 0b72 9fbd
00000090: 1cd1 5fbe 753a c13d 44c7 933e 1ee1 2f3e
000000a0: 1db2 3dbe 6a8d d3bd
-0.2210437 0.092226654 0.2846465 0.1230171 0.4143853 0.3223706 -0.035835583 -0.039424755
0.27769187 0.16545461 -0.18844572 -0.15923354 -0.14118265 0.094065405 0.28149232 0.13541831
0.060630646 0.19569594 -0.2595429 0.0953699 0.28910086 0.14633402 0.0970813 -0.063783824
-0.16935083 0.07733837 0.28882948 0.15935308 -0.13311233 0.37076095 -0.027614338 -0.09636042
0.27990076 0.1634837 -0.06409706 -0.07785424 -0.21857113 0.09434978 0.28862965 0.17175719
-0.18524976 -0.10329707

output.0.bias f4 [7]
00000000: 1fc8 403f 21fd a0be 9fb3 05bf 4748 203f
00000010: d21e 81be c1a7 2bbe 5969 71bd
0.7530536 -0.31443122 -0.52227205 0.62610286 -0.25218827 -0.16763212 -0.058938358
