output/models/33.61Acc_H1_Perceptron_CrossEntropyLoss_Adam_0.001lr_4764epochs_10batches.pth (torch, 1775 bytes, 2 tensors)

output.0.weight f4 [7, 6]
0	0xbd995dc8	-0.074885905
1	0x3e3e5e26	0.18590602
2	0x3d954f67	0.072905354
3	0x3e0521d0	0.1300118
4	0x3eb4277f	0.35186383
5	0x3e86813e	0.2627048
6	0x3ddf149d	0.108926035
7	0x3d9da6b1	0.076978095
8	0x3d8f1e85	0.06988243
9	0x3e36740a	0.17817703
10	0xbe0b078a	-0.13577095
11	0xbe698506	-0.2280465
12	0x3d28cba7	0.041209843
13	0x3e3da6d8	0.18520677
14	0x3da32818	0.07966632
15	0x3e1bb2ae	0.1520488
16	0x3d9e2a9b	0.0772297
17	0x3e1ea222	0.15491536
18	0xbdd3b961	-0.103380926
19	0x3e3f2941	0.18668081
20	0x3da335cb	0.079692446
21	0x3e2a3eee	0.16625568
22	0x3e2e7246	0.1703578
23	0xbd9da331	-0.07697142
24	0x3bcbe560	0.006222412
25	0x3e2f7fa5	0.17138536
26	0x3da5db03	0.08098414
27	0x3e36f6df	0.17867611
28	0xbdcd6ce7	-0.10030537
29	0x3ea5e08a	0.32397872
30	0x3dfa3e5f	0.122189276
31	0x3bd545e2	0.006508575
32	0x3d91d053	0.07119813
33	0x3e375ab4	0.17905694
34	0xbd5ac4c5	-0.05341031
35	0xbe060712	-0.13088635
36	0xbd1cfadd	-0.03832518
37	0x3e3e9493	0.18611364
38	0x3da661eb	0.08124145
39	0x3e3c5c0f	0.18394493
40	0xbda3d9f9	-0.08000559
41	0xbe3f19ce	-0.18662187

output.0.bias f4 [7]
0	0x3faac75c	1.334209
1	0xbe41520b	-0.18878953
2	0xbfa89362	-1.3169978
3	0x3f53d78b	0.8275077
4	0xbedc7b0c	-0.43062627
5	0x3b7cd371	0.0038578177
6	0xbe6754f5	-0.22591002
