output/models/34.44Acc_H1_OneLayer261Units_ReLU_CrossEntropyLoss_Adam_0.001lr_200epochs_10batches.pth (torch, 17127 bytes, 4 tensors)

output.0.weight f4 [261, 6]
0	0x3dc97458	0.09836644
1	0xbdaf8bd4	-0.08571592
2	0xbe7ed322	-0.24885228
3	0xbe07de9e	-0.13268515
4	0x3eaf8e5e	0.34288305
5	0xbd907df4	-0.07055274
6	0x3e60eee2	0.21966127
7	0xbe6ef4b8	-0.2333554
8	0x3e29095e	0.1650748
9	0xbd1f02c1	-0.038820986
10	0x3ea3db6d	0.32003346
11	0x3c859895	0.016308108
12	0xbeb6fb0b	-0.35738406
13	0xbda34d30	-0.07973707
14	0xbeb5d2fe	-0.35512537
15	0xbe1a3abe	-0.15061471
16	0xbeb82318	-0.35964274
17	0x3ebb75f4	0.3661343
18	0x3c73d67b	0.014882679
19	0xbd8810ee	-0.06643854
20	0x3e35e17f	0.17761801
21	0x3b0bdf37	0.0021342763
22	0xbeaa5cb9	-0.33273867
23	0xbeda03f3	-0.42581138
24	0xbebfeed8	-0.3748691
25	0xbed1acb0	-0.40952063
26	0x3e5d85d7	0.21633087
27	0xbeae41a3	-0.34034452
28	0xbd5fd5d3	-0.054647278
29	0x3e969241	0.29408458
30	0xbeac31fb	-0.33631882
31	0x3e92c2b7	0.2866418
32	0xbd3ab429	-0.04558197
33	0x3e6522aa	0.22376505
34	0xbf4644a8	-0.7744851
35	0x3e66e9ad	0.22550078
36	0xbdcde399	-0.100531764
37	0xbd03ca60	-0.03217542
38	0x3de741bd	0.112918355
39	0xbc63bb84	-0.013899688
40	0x3ef6b2c9	0.48183277
41	0x3d90f485	0.070778884
42	0xbdf45e2f	-0.119320266
43	0xbe83554d	-0.25651017
44	0x3e111858	0.14169443
45	0xbe4b8aa8	-0.19877112
46	0x3c0fb16c	0.008770328
47	0xbefc434a	-0.49270087
48	0xbe186a20	-0.14884233
49	0xbdb7550a	-0.08951767
50	0x3de9aa21	0.11409403
51	0xbd8172fb	-0.06320759
52	0x3f24f30d	0.64433366
53	0x3e6bab48	0.23014557
54	0x3cb49e1b	0.022048047
55	0x3e32ca39	0.17459954
56	0xbebd9e23	-0.3703471
57	0x3e07bcce	0.13255617
58	0xbe589ec5	-0.21154316
59	0xbf599c91	-0.85004526
60	0xbe6b33f4	-0.22969037
61	0x3e812cdf	0.25229546
62	0x3e04eeb4	0.12981683
63	0x3ea093c6	0.31362742
64	0xbead4151	-0.33838895
65	0x3e3001b7	0.17188154
66	0x3e4ef889	0.20211996
67	0x3c246785	0.010034447
68	0xbd247c31	-0.0401575
69	0x3e8a106f	0.26965663
70	0xbe6e6012	-0.23278835
71	0x3dc8bb8f	0.09801399
72	0xbe5a0c0e	-0.21293661
73	0x3e020470	0.12697005
74	0x3e198166	0.14990768
75	0xbabf7d7d	-0.0014609542
76	0x3e724199	0.23657836
77	0x3c820798	0.015872762
78	0x3ec80cca	0.39072257
79	0xbeb8d52c	-0.36100137
80	0xbe97f409	-0.29678372
81	0xbe86a83d	-0.2630023
82	0xbe95eff9	-0.29284647
83	0xbdaa7468	-0.08322984
84	0x3e102e1c	0.1408009
85	0x3e9b9bd6	0.3039233
86	0xbe0dd6d8	-0.13851488
87	0x3e105def	0.14098333
88	0xbf08f0c7	-0.534924
89	0xbeb86c76	-0.3602025
90	0xbc824617	-0.015902562
91	0xbe6ced8d	-0.23137493
92	0x3dbe61b0	0.09295976
93	0xbe0db428	-0.13838255
94	0x3d95ee44	0.07320836
95	0x3e2fd306	0.17170343
96	0xbebf42cf	-0.37355658
97	0x3ddf9e8b	0.109189115
98	0xbee157d3	-0.44012317
99	0xbe935050	-0.2877221
100	0x3e20a018	0.15686071
101	0x3e594abf	0.2121992
102	0xbe479e8c	-0.19494075
103	0xbdd58840	-0.10426378
104	0xbe8ef96b	-0.27924666
105	0x3eaf92c6	0.34291667
106	0xbeba437a	-0.36379606
107	0x3e900320	0.28127384
108	0xbeab216d	-0.3342394
109	0x3d7ae44f	0.06125289
110	0x3e7c1f11	0.24621226
111	0xbecdc6be	-0.4019069
112	0x3df20757	0.11817806
113	0x3e17388c	0.14767665
114	0xbe9a0ad0	-0.30086374
115	0x3eb0284d	0.34405747
116	0xbe32a02e	-0.17443916
117	0x3ea850ea	0.32874233
118	0xbe831868	-0.25604558
119	0xbd3f8ef2	-0.046767183
120	0xbec9cdd3	-0.39414844
121	0x3e2ab652	0.16671112
122	0x3e53ad01	0.20671465
123	0xbe2a03fb	-0.16603081
124	0x3cfbf62d	0.030757034
125	0xbe5ef3b0	-0.21772647
126	0xbea4881f	-0.32135102
127	0xbe8adb2c	-0.2712034
128	0x3e93cde7	0.2886803
129	0xbc315e90	-0.010825768
130	0xbe09fd2c	-0.13475484
131	0x3e0e2dca	0.13884655
132	0xbe813162	-0.2523299
133	0xbeb2324c	-0.34803998
134	0xbe1e519e	-0.15460822
135	0xbec994fa	-0.39371473
136	0x3dfb8e88	0.12283045
137	0xbe4a3dc2	-0.19750121
138	0xbeb004e5	-0.34378734
139	0x3cee85fd	0.029116625
140	0x3e7747f1	0.24148537
141	0xbda7f837	-0.0820164
142	0xbf1ab858	-0.60437536
143	0x3ea7b706	0.32756823
144	0x3e83d989	0.25751904
145	0x3ea9c20a	0.33155853
146	0x3d82bf44	0.06384137
147	0x3e2126c8	0.1573745
148	0x3eba7d0d	0.3642353
149	0xbec98ef1	-0.39366868
150	0xbe8b46d5	-0.27202478
151	0x3da1cf3c	0.07900855
152	0x3e9d5628	0.30729795
153	0xbd6832e1	-0.056689147
154	0x3dd8d787	0.105879836
155	0xbcb3a1fc	-0.021927826
156	0xbdd686ab	-0.104749046
157	0x3e95b206	0.29237384
158	0xbe0a547b	-0.13508789
159	0x3de9a3f4	0.11408225
160	0xbf5201b0	-0.82033825
161	0x3e9527a1	0.29131797
162	0xbe5dff17	-0.2167934
163	0x3e6eaa29	0.23307098
164	0xbde9224c	-0.11383495
165	0xbebfc082	-0.3745156
166	0x3e8b8ee1	0.27257445
167	0xbf2d8c62	-0.6779233
168	0xbe12e6f6	-0.14345917
169	0xbd889309	-0.0666867
170	0x3eabcc79	0.33554438
171	0x3e36c97d	0.17850299
172	0xbd83c4d0	-0.064340234
173	0xbda21e3e	-0.079159245
174	0x3e885b0b	0.2663196
175	0x3d2805cd	0.041021157
176	0x3e373135	0.17889865
177	0x3e958c63	0.2920867
178	0xbc30e4ed	-0.010796768
179	0x3e9a5925	0.30146137
180	0xbe873c41	-0.26413158
181	0xbdf9fc4c	-0.12206325
182	0xbe83753e	-0.25675386
183	0xbe307dc5	-0.17235477
184	0xbc80ddc0	-0.015730739
185	0xbe30e747	-0.17275725
186	0xbb9cb206	-0.0047819642
187	0x3cc1b812	0.023647342
188	0xbe780892	-0.2422202
189	0x3d9fbe2d	0.07799945
190	0x3edb8e4e	0.42882007
191	0x3e36c566	0.17848739
192	0xbe8034c4	-0.25040257
193	0xbe823030	-0.2542739
194	0xbe8758e6	-0.26435012
195	0xbc5c27c0	-0.0134372115
196	0xbb97c340	-0.00463143
197	0xbe214f7a	-0.15752974
198	0x3e12ab46	0.14323148
199	0x3df398b6	0.11894362
200	0x3e89d5d3	0.26920947
201	0xbe8f7a5c	-0.2802304
202	0x3e2ca6db	0.16860525
203	0xbe39f87a	-0.18161193
204	0x3d5228fb	0.051308613
205	0xbdcd5e6e	-0.10027777
206	0x3dc7510d	0.09732256
207	0xbeaea298	-0.34108424
208	0xbee0ee3f	-0.43931767
209	0x3e13d48f	0.14436553
210	0x3eba876a	0.36431438
211	0x3daf32e7	0.08554631
212	0xbea5067b	-0.32231507
213	0x3d35c4db	0.04437719
214	0xbde39271	-0.11111916
215	0x3e594394	0.21217185
216	0xbdf3beee	-0.11901651
217	0xbe14cdcc	-0.1453163
218	0x3d806d81	0.06270886
219	0x3eb2c0e5	0.34912792
220	0xbe91ab38	-0.28450942
221	0xbf0ada54	-0.5423939
222	0xbe7b58b9	-0.24545564
223	0x3ea7177e	0.3263511
224	0xbe5801fb	-0.21094505
225	0xbe9563ea	-0.2917779
226	0x3eaabd2b	0.3334745
227	0xbf20900e	-0.6271981
228	0xbd00c6f0	-0.03143972
229	0x3ebaca09	0.36482266
230	0xbd00fa44	-0.031488672
231	0x3e923615	0.28556886
232	0xbedb8106	-0.42871875
233	0x3d21605b	0.039398532
234	0x3cd41367	0.025888158
235	0x3de2123b	0.110386334
236	0x3e9b7964	0.3036605
237	0x3d8c9b4d	0.06865559
238	0xbe05ba87	-0.13059436
239	0x3ebf81d3	0.37403736
240	0x3e3a8470	0.18214583
241	0xbf07087e	-0.52747333
242	0x3b7abec0	0.0038260669
243	0x3d67bc21	0.056575898
244	0x3e6ea288	0.23304188
245	0xbe50d985	-0.20395477
246	0x3cbd22e0	0.023087919
247	0x3a898400	0.001049161
248	0xbebf472d	-0.3735899
249	0x3e91e2da	0.28493387
250	0x3d161d60	0.036649108
251	0x3e9721cc	0.29517972
252	0xbe5054e7	-0.20344888
253	0x3daf87c7	0.08570819
254	0x3dc937bd	0.09825084
255	0x3e2d074b	0.16897313

output.0.bias f4 [261]
0	0x3ec2d31c	0.3805169
1	0xbe19b0f6	-0.15008911
2	0xbdf15280	-0.11783314
3	0xbea19c67	-0.31564638
4	0x3df9a2fc	0.1218929
5	0xbf0eb1af	-0.55739874
6	0x3e9d3060	0.3070097
7	0x3eaacfd3	0.33361682
8	0xbe721eb4	-0.23644525
9	0x3f07b381	0.53008276
10	0x3dc3c465	0.09558944
11	0xbecea726	-0.403619
12	0x3f005532	0.5013
13	0x3da4b6c4	0.08042672
14	0x3df7b733	0.12095489
15	0xbe392027	-0.18078671
16	0xbee051f3	-0.43812522
17	0xbe402a7b	-0.18766205
18	0xbed5fd2e	-0.41794723
19	0xbeb51110	-0.3536458
20	0xbe0aca5d	-0.13553758
21	0xbe4d7ebf	-0.20067881
22	0xbe7533f1	-0.23945595
23	0xbea0328e	-0.3128857
24	0xbe7a276c	-0.24429101
25	0xbe695f84	-0.22790343
26	0xbe7e2eed	-0.24822588
27	0x3ef910da	0.4864567
28	0xbe407d10	-0.18797708
29	0x3eb69fd1	0.35668805
30	0x3e507400	0.2035675
31	0xbd379f62	-0.044829734
32	0x3ecf95d6	0.40544003
33	0xbe343119	-0.17596854
34	0x3dbb3cb1	0.09142435
35	0xbde127ff	-0.10993957
36	0xbf1597d2	-0.58434784
37	0x3b6786e4	0.0035328204
38	0x3e7da112	0.24768475
39	0xbec589e8	-0.38581777
40	0x3f237b37	0.63859886
41	0xbe4a66d6	-0.19765791
42	0x3f025873	0.5091621
43	0xbeb13d5b	-0.34617123
44	0xbe940076	-0.28906602
45	0xbe312c16	-0.17301974
46	0xbaff2347	-0.001946547
47	0x3e22ae62	0.15886834
48	0xbe3d7869	-0.18502964
49	0xbf10d8b8	-0.56580687
50	0x3c61f3eb	0.013791065
51	0x3f2fa353	0.6860859
52	0xbe9fb724	-0.31194413
53	0x3e881086	0.26575106
54	0x3d1dd38f	0.038531836
55	0xbef436ab	-0.47697958
56	0xbea8ab62	-0.32943255
57	0x3e1c3438	0.15254295
58	0x3e01a216	0.12659487
59	0xbdfdad06	-0.12386517
60	0x3dadb820	0.08482385
61	0xbd88cbf5	-0.06679527
62	0x3f1ad602	0.604828
63	0x3e0879c7	0.13327704
64	0x3ee2c25f	0.44288918
65	0x3e3d8414	0.18507415
66	0x3c3b0338	0.011414342
67	0x3e37017d	0.17871661
68	0x3f045af1	0.51701266
69	0xbd2ced7a	-0.042218663
70	0x3d134f2b	0.035964172
71	0xbd6cdf85	-0.057830352
72	0x3eb3b773	0.35100898
73	0xbd4e51ae	-0.050370865
74	0xbcff3717	-0.031154199
75	0x3c819ce0	0.015821874
76	0x3c34c2c0	0.01103276
77	0x3d8636b5	0.06553403
78	0x3df2725d	0.11838219
79	0x3d2d4040	0.0422976
80	0xbf2741fd	-0.65335065
81	0xbd6af674	-0.057363942
82	0x3e89f0e1	0.2694159
83	0xbedb0cac	-0.42783105
84	0x3f0e484b	0.5557906
85	0x3d82ec18	0.063926876
86	0xbf0d9f1b	-0.553209
87	0x3edf0c40	0.43564034
88	0xbe7472d4	-0.23871928
89	0xbe8576fc	-0.2606734
90	0x3e1eae6b	0.15496223
91	0x3f20c748	0.6280408
92	0xbeda35b8	-0.4261911
93	0xbda28a5a	-0.07936545
94	0x3e9793f6	0.29605073
95	0x3be75540	0.007059723
96	0xbe9c93d2	-0.30581528
97	0xbea7188c	-0.32635915
98	0x3cf4728b	0.029839775
99	0x3da3f7d3	0.08006253
100	0xbe8778da	-0.2645939
101	0xbb7fe84d	-0.0039048374
102	0x3d39e768	0.0453867
103	0x3c9a67c0	0.0188483
104	0xbd48974e	-0.04897242
105	0xbec9ff2d	-0.39452496
106	0xbe454739	-0.1926545
107	0x3d53fc40	0.051754236
108	0xbe737087	-0.23773395
109	0xbeb8470e	-0.3599171
110	0xbdf3e79e	-0.11909412
111	0xbe6730f8	-0.22577274
112	0xbdfcc601	-0.12342454
113	0x3e21453e	0.1574907
114	0x3f16a82c	0.5885036
115	0x3efd8d41	0.4952183
116	0xbecccde1	-0.40000823
117	0xbe7333f1	-0.23750283
118	0xbcf3d40c	-0.029764198
119	0xbdd5e3ce	-0.10443841
120	0x3e40bc16	0.18821749
121	0xbddd7b90	-0.10814583
122	0x3f2e66b1	0.68125445
123	0x3dbfd130	0.09366071
124	0xbd81e0f0	-0.063417315
125	0x3e956789	0.29180554
126	0xbe8e1c47	-0.2775595
127	0xbe3c015e	-0.18359897
128	0x3f4073c4	0.75176644
129	0x3ea37962	0.31928545
130	0x3d8ad08b	0.06778058
131	0x3d341afd	0.04397105
132	0xbe99a1fc	-0.30006397
133	0x3eaa877a	0.33306485
134	0x3e582c6f	0.211107
135	0x3de77e78	0.11303419
136	0x3e00ca89	0.12577261
137	0xbdcd21c6	-0.100162074
138	0x3e2e542b	0.17024295
139	0x3ead51ba	0.33851415
140	0x3ec2b6aa	0.38029987
141	0xbdef1551	-0.11673988
142	0xbe388d53	-0.18022661
143	0x3e3f60e9	0.18689312
144	0x3d1c74ba	0.038197257
145	0xbd66d846	-0.0563586
146	0xbeb90cbc	-0.36142528
147	0x3f1b8f70	0.60765743
148	0x3e0b88ae	0.13626358
149	0x3ea93189	0.33045605
150	0xbe8e7ff3	-0.27831993
151	0xbf0a54d2	-0.54035676
152	0xbe54a563	-0.20766215
153	0x3f059a11	0.5218821
154	0x3ed1fbb5	0.4101235
155	0xbe9382a4	-0.28810608
156	0x3e8ad043	0.27112016
157	0xbf49257b	-0.78572816
158	0xbea710a7	-0.32629892
159	0x3f0f190a	0.5589758
160	0xbdb6f67a	-0.089337304
161	0x3cda0280	0.02661252
162	0x3eb2c584	0.34916317
163	0xbde0f2c3	-0.10983803
164	0xbed59d21	-0.41721442
165	0xbeafc765	-0.34331813
166	0x3ec52689	0.38505962
167	0xbe0beb66	-0.13664016
168	0x3dd9e900	0.10640144
169	0xbcc91cde	-0.024549898
170	0x3f0114ba	0.5042225
171	0xbe4f9299	-0.20270766
172	0x3ec37bb0	0.38180304
173	0x3d710532	0.058842845
174	0xbe97e4df	-0.29666802
175	0xbe45d3b4	-0.1931904
176	0xbe3de401	-0.18544008
177	0x3de55745	0.11198286
178	0xbea7337b	-0.32656464
179	0xbecc5e70	-0.399158
180	0xbc88fed0	-0.016723067
181	0xbe992227	-0.2990887
182	0x3e7ef4a7	0.24898015
183	0xbe7a83b0	-0.24464297
184	0xbe70f155	-0.23529561
185	0xbe4bf050	-0.1991589
186	0xbe7f35d6	-0.2492288
187	0xbf0d6533	-0.5523254
188	0xbe7e4b7c	-0.24833483
189	0x3d4e4372	0.05035729
190	0x3eaefa97	0.3417556
191	0xbd2efed8	-0.042723507
192	0xbecf1e94	-0.40453017
193	0x3d6818b4	0.056664184
194	0x3d7d0549	0.06177262
195	0x3e45a3e3	0.19300799
196	0xbe41c0af	-0.18921159
197	0xbe84ee30	-0.25962973
198	0xbde9a02d	-0.11407504
199	0xbe85e7dc	-0.26153457
200	0x3de8e191	0.113711484
201	0xbeab6e58	-0.33482623
202	0xbcf949cb	-0.030430695
203	0x3cefb058	0.029258892
204	0xbef3a8d6	-0.4758975
205	0x3ec19edc	0.37816513
206	0x3e6068ab	0.21914928
207	0x3edf51a8	0.43616986
208	0x3e4eb828	0.20187438
209	0xbc00c2ec	-0.007858973
210	0x3f079d44	0.52974343
211	0x3dddf9c0	0.10838652
212	0x3edb051d	0.4277734
213	0x3d9a212a	0.07525857
214	0xbe8ba87b	-0.27276978
215	0x3e733681	0.2375126
216	0xbd8dedf6	-0.06930153
217	0x3e47efe4	0.19525105
218	0xbe56c438	-0.20973289
219	0x3e8746d2	0.2642122
220	0xbe96dcb1	-0.2946525
221	0xbeed6c3f	-0.46371648
222	0x3e98b7a8	0.2982762
223	0xbddd6c20	-0.10811639
224	0xbefe1d26	-0.49631613
225	0x3dce1931	0.10063399
226	0xbf0dfe14	-0.5546582
227	0x3ccd064d	0.025027419
228	0x3e6d4618	0.2317127
229	0x3e0cff50	0.13769269
230	0xbe751d08	-0.23936856
231	0xbeea681c	-0.45782554
232	0x3e6d9879	0.23202695
233	0xbe8ff7e7	-0.28118822
234	0xbe4f4aa0	-0.20243311
235	0x3ca2fb80	0.019895315
236	0xbe92f6d2	-0.28703934
237	0x3de957e0	0.11393714
238	0xbdb5e304	-0.088811904
239	0xbea788e4	-0.32721627
240	0x3dba31bf	0.090915196
241	0xbe37005c	-0.17871231
242	0x3e926a14	0.28596556
243	0xbed1dd9c	-0.40989387
244	0x3e33a66e	0.17543957
245	0xbe8fb6e1	-0.28069213
246	0x3eaff73b	0.3436831
247	0x3ea3f71c	0.32024467
248	0xbe29b427	-0.16572629
249	0xbebfa4fe	-0.37430567
250	0xbd4be459	-0.049778316
251	0x3e77140e	0.24128744
252	0x3d73a750	0.059485734
253	0x3f0db8ad	0.5535992
254	0xbef17f22	-0.47167307
255	0xbf1120c9	-0.5669065

output.2.weight f4 [7, 261]
0	0xbbeaf7e8	-0.007170666
1	0xbc48ecb3	-0.012263465
2	0x3d2e83ba	0.042606093
3	0xbd4c83b8	-0.049930304
4	0x3d0baf34	0.034102634
5	0xbceedb58	-0.029157326
6	0x3d33d4c5	0.043904085
7	0xbcd12ab2	-0.025533054
8	0x3d27d807	0.040977504
9	0x3d007f28	0.031371266
10	0xbc8adc46	-0.016950738
11	0xbcde8d5e	-0.027167019
12	0xbc17debb	-0.009269412
13	0x3cde6c34	0.027151205
14	0x3d32ba5b	0.043634754
15	0xbcbc3f18	-0.022979304
16	0xbd22e9f4	-0.039773896
17	0xbce12ebc	-0.027488105
18	0xbd1237aa	-0.035697617
19	0x3d3257b4	0.04354067
20	0x3c95dc77	0.018293602
21	0xbc8ffcbd	-0.01757657
22	0xbd52f57c	-0.051503643
23	0xbcdb53b9	-0.02677332
24	0x3c1d7d35	0.009612371
25	0x3c5c207c	0.013435479
26	0xbccdbff8	-0.025115952
27	0x3cbe9c2a	0.023267824
28	0x3d4b4f9d	0.049636472
29	0xbd113ccd	-0.035458375
30	0x3cc6cd18	0.024267718
31	0xbd89a6e5	-0.06721286
32	0x3bfe8b70	0.007768087
33	0xbc54a0f9	-0.012977832
34	0xbae45e75	-0.001742317
35	0xbd07f04f	-0.03318816
36	0xbc8d91f2	-0.017281506
37	0x3d6c728d	0.05772643
38	0x3cb7f076	0.022453528
39	0x3d191874	0.037376836
40	0x3e0e8708	0.13918698
41	0xbca869c2	-0.020558242
42	0x3d280a18	0.04102525
43	0x3d784d92	0.06062085
44	0xbd757ee9	-0.059935484
45	0x3de546b4	0.11195126
46	0x3aa5bc20	0.0012644567
47	0xbc043dfe	-0.008071421
48	0xbd98720e	-0.07443629
49	0x3c89ddd2	0.016829405
50	0x3d358ba1	0.044322614
51	0x3dd1fb7b	0.10253044
52	0x3d6669ba	0.056253172
53	0x3c9c305b	0.019066026
54	0x3d7f1583	0.062276375
55	0xbd2d372d	-0.042288948
56	0x3cc5dcac	0.024153076
57	0xbc98aa40	-0.018635869
58	0xbbf56f30	-0.007490061
59	0xbd35066b	-0.044195574
60	0x3d29d0ad	0.041458774
61	0x3d61b2b8	0.05510208
62	0x3d3d435d	0.04620682
63	0x3992d743	0.00028007673
64	0xbb1b7d33	-0.0023725748
65	0xbb353a36	-0.0027653105
66	0x3d6de17c	0.058076367
67	0xbacea875	-0.0015766757
68	0x3d2a36f8	0.04155633
69	0x3c31eba7	0.010859407
70	0x3c0622cf	0.00818701
71	0x3bd812dc	0.006594045
72	0x3cd7464a	0.026278634
73	0xbcba054b	-0.022707602
74	0xbd0b67e5	-0.03403463
75	0xbc24ebb0	-0.010065958
76	0x3c2871f8	0.0102810785
77	0xbd4f7db9	-0.050657008
78	0x3c89cc57	0.01682107
79	0x3d30c928	0.043160588
80	0xbce52360	-0.02797097
81	0xbe942870	-0.289371
82	0x3d91bcb9	0.07116074
83	0xbd34a9cb	-0.04410724
84	0x3d127d66	0.03576412
85	0x3e2d6e2f	0.16936563
86	0xbcd1d174	-0.02561257
87	0xbc83b13e	-0.016075727
88	0xbdee4a56	-0.11635272
89	0xbd56cf70	-0.05244392
90	0x3d5ee663	0.054418933
91	0xbd2b7199	-0.041856382
92	0xbc8872da	-0.016656328
93	0xbc9481dc	-0.018128328
94	0x3dd8290f	0.10554706
95	0x3d00f444	0.03148295
96	0x3b6c3840	0.003604427
97	0x3cf56368	0.029954627
98	0x3bb941ef	0.005653612
99	0xbd0c0bab	-0.034190815
100	0x3d7a8974	0.06116624
101	0xbd0807b5	-0.033210475
102	0xbcfa2794	-0.03053645
103	0xbd53e0c6	-0.051728033
104	0xbd4e3838	-0.050346583
105	0xbcb076f6	-0.0215411
106	0x3d2d5f26	0.04232707
107	0xbcd0c5c4	-0.025484927
108	0xbd5e4658	-0.054266304
109	0xbc4f80f3	-0.012665021
110	0xbd417f05	-0.047240276
111	0x3d608c48	0.054821283
112	0x3ca5f3ce	0.020257857
113	0xbcf389d2	-0.029728804
114	0x3af14d5c	0.0018409896
115	0x3d19d49f	0.037556287
116	0x3bb4913d	0.005510478
117	0xbdeb5dfc	-0.114925355
118	0x3d68db69	0.05684987
119	0xbbc32cf7	-0.005956288
120	0xbd26e0c2	-0.04074169
121	0x3d334076	0.043762647
122	0x3d8afac3	0.0678611
123	0x3c848fad	0.016181791
124	0xbb5d5304	-0.0033771405
125	0xbcaaee46	-0.02086557
126	0x3cbc92cf	0.023019223
127	0x3aee0808	0.0018160352
128	0x3c870aa9	0.016484575
129	0x3d16ae52	0.03678734
130	0x3d95178b	0.07279881
131	0xbd62aefd	-0.055342663
132	0xbc21d122	-0.009876521
133	0x3cb1f6bc	0.021724097
134	0x3d4aeb7b	0.049540978
135	0x3c240774	0.010011543
136	0xbcbec4c8	-0.023287192
137	0x3cba03c1	0.022706868
138	0x3c9346b0	0.017978042
139	0x38379000	4.376471e-05
140	0x3b5f1520	0.003403969
141	0xbd35465e	-0.04425656
142	0xbd39bbe0	-0.045345187
143	0xbc696ad8	-0.014246665
144	0x3c87450d	0.016512418
145	0xbd0469d8	-0.032327503
146	0xbcc3a10c	-0.023880504
147	0x3d9386a5	0.07203416
148	0xbd5400bd	-0.051758517
149	0x3d0d2d97	0.034467306
150	0x3ca3dbc1	0.020002248
151	0xbd1544a2	-0.036442406
152	0x3b6edbea	0.0036446997
153	0x3cb6bf94	0.022308148
154	0x3d1f5087	0.038895156
155	0x3d099d16	0.033597074
156	0xbd2f0553	-0.042729687
157	0xbd996ae4	-0.07491091
158	0x3f2bd025	0.6711448
159	0x3dae46a5	0.08509568
160	0xbd3d0612	-0.046148367
161	0x3cad50cc	0.021156691
162	0x3d40c92d	0.047066856
163	0xbc9fc0a9	-0.019501047
164	0x3d0136c5	0.031546373
165	0x3c765d93	0.015036958
166	0x3d12aeb8	0.035811156
167	0xbcfde3ec	-0.03099247
168	0xba8eca40	-0.0010894015
169	0xbd22438d	-0.039615203
170	0xbc397fa7	-0.011321939
171	0xbd3e6b53	-0.04648907
172	0x3bdc1343	0.0067161634
173	0x3d0a79c2	0.033807524
174	0xbe24bf2d	-0.16088553
175	0xbd81eb82	-0.06343748
176	0xbd319cc0	-0.04336238
177	0x3d03775f	0.032096263
178	0x3d8aaab7	0.067708425
179	0xbd1ebb05	-0.038752574
180	0x3d7b0054	0.06127961
181	0x3cf46ca5	0.029836962
182	0x3ce3a313	0.02778772
183	0xbd6854ca	-0.056721486
184	0x3cad36f6	0.021144371
185	0xbd7d46c7	-0.061835077
186	0xbd10e31c	-0.03537284
187	0xbd03fba3	-0.0322224
188	0xbccd8c7f	-0.025091408
189	0x3b173d60	0.0023077354
190	0x3c734931	0.014848993
191	0x3cd1a050	0.025589138
192	0x3cce8638	0.025210485
193	0x3c79caf3	0.015246141
194	0x3c521704	0.01282287
195	0xbb90a2f1	-0.0044139554
196	0x3b919e80	0.0044439435
197	0x3d3b9624	0.045797482
198	0x3b69c308	0.0035669226
199	0x3c292bd1	0.010325388
200	0xbc5246f1	-0.012834297
201	0xbc3fdb58	-0.0117100105
202	0xbc376f86	-0.011196023
203	0x3d4ddc8f	0.05025917
204	0xbd69ee28	-0.05711189
205	0xbc47f19d	-0.012203601
206	0x3d97e16c	0.07416043
207	0x3e2583a2	0.16163495
208	0x3d101762	0.03517855
209	0x3cec5f07	0.028853906
210	0x3ceb7eb5	0.028746942
211	0xbb748860	-0.003731273
212	0xbc9b2cac	-0.0189422
213	0xbcaba590	-0.02095297
214	0x3d27115b	0.040788036
215	0x3d8bc232	0.06824149
216	0x3cc9fe72	0.024657462
217	0xbbc4a770	-0.0060014054
218	0x3bb1776e	0.0054158485
219	0xbd243768	-0.040091902
220	0x3d4b906a	0.04969827
221	0x3d81080b	0.06300362
222	0x3c845fa4	0.016158886
223	0xbd50beef	-0.05096334
224	0xbd3082e4	-0.043093577
225	0xbcf426c8	-0.029803649
226	0xbce45aed	-0.027875388
227	0x3bb59c86	0.0055423407
228	0x3d124ba6	0.035716675
229	0xbc016f78	-0.007900111
230	0xbd1fd900	-0.039025307
231	0xbd42cc00	-0.04755783
232	0x3d5dc675	0.05414434
233	0x3980dc6b	0.00024578287
234	0x3b2d15ec	0.0026410772
235	0xbc269898	-0.010168217
236	0x3c100dc3	0.008792344
237	0xbbbb1e28	-0.005710382
238	0x3d16b1ac	0.036790535
239	0xbd488de4	-0.048963442
240	0xbd069748	-0.032859117
241	0x3d2f1976	0.04274889
242	0x3da0b32a	0.07846673
243	0x3c872631	0.016497703
244	0xbb47c1cd	-0.0030480505
245	0x3bed2060	0.0072365254
246	0x3d95025e	0.07275842
247	0xbd503627	-0.050832894
248	0xbc475f0f	-0.01216866
249	0x3d12ebd6	0.035869442
250	0xbd2a38bb	-0.04155801
251	0xbc415db8	-0.011802129
252	0xbd3943e6	-0.04523077
253	0x3c98f582	0.018671755
254	0xbdc91784	-0.098189384
255	0xbcfbad4b	-0.030722281

output.2.bias f4 [7]
0	0x3e77cecc	0.2419998
1	0xbd53d577	-0.051717248
2	0xbe1f7609	-0.1557237
3	0x3e80d942	0.25165755
4	0xbe0b15af	-0.1358249
5	0xbe04a354	-0.1295293
6	0xbd3959ed	-0.045251776
