output/models/37.17Acc_H1_OneLayer10Units_ReLU_CrossEntropyLoss_Adam_0.001lr_2453epochs_10batches.pth (torch, 2983 bytes, 4 tensors)

output.0.weight f4 [10, 6]
0	0xbf59d74b	-0.85094136
1	0x3df5a19c	0.11993715
2	0x3e38fa12	0.18064144
3	0x3e90f4f4	0.28311884
4	0xbf38ebbf	-0.7223472
5	0xbf7e5e52	-0.9936267
6	0xbd90a0db	-0.07061931
7	0xbf422341	-0.75835043
8	0x3dd01dce	0.10161935
9	0x3dfd47ce	0.12367211
10	0x3ee45f30	0.44603872
11	0x3cb2fd47	0.021849288
12	0xbdcd62dd	-0.10028622
13	0x3e27683d	0.16348357
14	0xbdb5af19	-0.08871288
15	0xbe997bcd	-0.29977265
16	0x3eb27965	0.34858242
17	0xbf9eebe7	-1.2415742
18	0xbe79bd0e	-0.24388525
19	0xbf50b756	-0.8152975
20	0x3a6c8c8a	0.00090236275
21	0xbce50ba7	-0.027959658
22	0x3e70adcb	0.23503797
23	0x3dc6ed76	0.09713261
24	0x3e5df530	0.21675563
25	0x3daf4fbe	0.085601315
26	0xbe91b35a	-0.28457147
27	0xbe5682fb	-0.20948403
28	0xbf67097c	-0.90248847
29	0x3efab019	0.48962477
30	0x3ec62788	0.38702035
31	0x3daca9f3	0.08430853
32	0x3dd31f5c	0.10308716
33	0x3df1a814	0.117996365
34	0xbab106f4	-0.00135061
35	0x3f7c6e9d	0.9860628
36	0x3e7a79dc	0.24460548
37	0x3e73322a	0.23749605
38	0xbc68d5bc	-0.0142111145
39	0xbe4b13b7	-0.1983174
40	0x3f1b0065	0.60547477
41	0x3f803858	1.0017195
42	0x3ef26f1d	0.47350398
43	0xbd50aa22	-0.0509435
44	0x3cef2cb0	0.029196113
45	0x3c96526f	0.018349854
46	0xbda447a4	-0.08021477
47	0x3eab8c03	0.33505258
48	0x3d7996c1	0.060934786
49	0x3e880ede	0.26573843
50	0x3e0e2f27	0.13885175
51	0x3e4b4706	0.19851312
52	0xbf1fdd1e	-0.62446773
53	0xbf0df8ae	-0.5545758
54	0xbe10a407	-0.14125071
55	0x3e292ec3	0.16521744
56	0xbec5e520	-0.3865137
57	0x3ef13826	0.4711315
58	0xbf11af36	-0.56907976
59	0xbffb29eb	-1.9622167

output.0.bias f4 [10]
0	0xbf0de989	-0.5543447
1	0x3f1a871e	0.6036242
2	0xbfe64612	-1.7990134
3	0x405825b4	3.3773012
4	0x4046df1e	3.107368
5	0xbd92ca0c	-0.07167444
6	0x3fc3aa53	1.5286354
7	0xbf0e5b85	-0.556084
8	0xbf766fb6	-0.9626421
9	0x3df2e96b	0.11860927

output.2.weight f4 [7, 10]
0	0x3e59922c	0.21247166
1	0x3e615f42	0.22008994
2	0x3ec3c2c3	0.3823453
3	0x3ea920c9	0.33032826
4	0xbd4be1c3	-0.04977585
5	0xbc08db30	-0.00835304
6	0x3e9a6f4d	0.3016304
7	0x3e444916	0.19168505
8	0xbeb70eef	-0.3575358
9	0x3d4ab50d	0.04948907
10	0xbd6103f9	-0.05493543
11	0x3e97e6ad	0.2966818
12	0xbe5cb136	-0.21551976
13	0xbfa5175b	-1.2897753
14	0xbbe6f70c	-0.0070484933
15	0xbe5f6700	-0.21816635
16	0xbd98e07b	-0.07464691
17	0x3ee86635	0.45390478
18	0x3c50216d	0.012703282
19	0x3f4ccff9	0.8000484
20	0x3e691657	0.22762428
21	0xbe03ca4f	-0.12870143
22	0xbe4f74eb	-0.20259444
23	0xbea690c2	-0.32532316
24	0x3cb3b49d	0.021936709
25	0xbe498363	-0.19679026
26	0x3e87d04c	0.26526105
27	0x3e742940	0.2384386
28	0x3c559bbd	0.013037619
29	0x3e0ab7cb	0.13546674
30	0x3e2e5149	0.17023195
31	0xbd94f7ce	-0.072738275
32	0x3e5fbf2e	0.21850273
33	0x3fcdbeb5	1.6073824
34	0xbe4428c8	-0.19156182
35	0x3d678ad7	0.056528892
36	0x3d5c031b	0.0537139
37	0xbcf054c3	-0.029337293
38	0xbd854810	-0.065078855
39	0x3e237eca	0.15966335
40	0x3e1ab50b	0.15108125
41	0xbdd65cd4	-0.10466924
42	0xbee57870	-0.4481845
43	0xbfe9d008	-1.8266611
44	0x3ea27972	0.3173328
45	0x3e8f20b6	0.27954644
46	0x3d402410	0.046909392
47	0xbe2096e4	-0.1568256
48	0xbe187356	-0.14887747
49	0x3e63e581	0.22255518
50	0xbe82cb46	-0.2554571
51	0x3f04e4ba	0.5191151
52	0xbfa3421b	-1.2754549
53	0xbe34795c	-0.1762442
54	0xbffbe3f9	-1.9678947
55	0xbe23f701	-0.16012193
56	0xbe4aca8d	-0.1980383
57	0x3eae6a5d	0.34065524
58	0x3db781f3	0.08960333
59	0x3f2e8078	0.6816478
60	0xbd7eac5a	-0.062176086
61	0x3e0d7bb8	0.13816726
62	0xbe26fe6c	-0.16307992
63	0xbf609dea	-0.8774096
64	0x3e9edb6c	0.3102678
65	0x3d330ef7	0.043715443
66	0xbdb5fde6	-0.08886318
67	0xbe226322	-0.15858129
68	0x3e0a54a9	0.13508858
69	0x3df3dbd6	0.11907165

output.2.bias f4 [7]
0	0x3fa04576	1.2521198
1	0x3ed08d22	0.40732676
2	0xbf74e97c	-0.9566877
3	0x3d926682	0.07148458
4	0xbd87c350	-0.0662905
5	0xbdad2b8b	-0.08455571
6	0x3ddefb84	0.108878165
