output/models/46.58Acc_H1_OneLayer261Units_ReLU_CrossEntropyLoss_Adam_0.001lr_3735epochs_10batches.pth (torch, 17133 bytes, 4 tensors)

output.0.weight f4 [261, 6]
00000000: 6314 c3be 1c97 0cbf 40f5 8cbd d008 0a3f
00000010: 8fb4 ac3f 1a80 823f fa5a af3e 9453 893e
00000020: 0b8b 12be 4910 ac3e ef65 0cc0 ba40 c73e
00000030: a804 a73d 76f9 1ebe f082 14be f88c 54be
00000040: b2e2 c1be 780b 783e 1078 8a3e 4645 7ebe
00000050: 5ce2 a43e 2063 2b3e 9337 f5bd c4f5 e73e
00000060: 94b6 adbc 4ed7 c73d ebac 1f3e aeb0 65bd
00000070: 102c 6abd e2dc 08bf 2811 a0be 0015 8abd
00000080: 603c 5cbd b457 9bbe e0ef 1fbe 6c0f 5e3e
00000090: 1285 c2be 72ce 02bf 793b 6f3d 5450 b63e
000000a0: 745a 4ebf 2487 683f f4cb 843e 57e7 713e
000000b0: 9c76 44bd 6a74 a13d 2a98 053f cf4f 543f
000000c0: 3af1 89bd cd38 903e d7fd adbc 23fa 9a3e
000000d0: 21ba 22bf 534a 703d f9b5 8ebd 4568 823e
000000e0: 5478 b03c 9879 63bf ca96 153f 35da 523f
000000f0: d523 833d 0eed 553e dc69 8ebe 245c d03e
00000100: 9f64 9fbf 9534 003f 5320 95bd 8edb 8cbe
00000110: e94c 903e ac6e c3bd ecd3 1b3f c981 f0be
00000120: 3e2a cdbe ab59 6fbe 707a 56be 5c38 113e
00000130: a00b 3cbc 4a31 a4be d414 fa3d ffa5 983d
00000140: 540f d0be 5fba ae3e 58e1 8e3f e49a bfbe
00000150: 7505 9e3e d34b a93e b72b a73e 8d67 53bd
00000160: 3f68 fd3e 1f7c 96bd 9105 83be e438 bebe
00000170: abf9 8ebe eedf 8e3e 30f3 d3bd 1495 8ebe
00000180: 4794 dd3e 03ef e1bd 96b6 d9be 8d1c d23e
00000190: 1e39 c2bf 581c dbbe 65e0 e23e a622 06bf
000001a0: fd49 f9bb 1e47 233d 1ff5 e93e 5ade 333c
000001b0: 4b15 823e 20ae 673e de5c 14bb ce17 b43b
000001c0: 2fe7 d8bc 5220 6bbe 8963 cebe 95ff 0b3e
000001d0: 89f7 133d 12a7 053e b32e ebbe 717b 18be
000001e0: 6910 d2bd 9180 b1be 64bd 6e3e 93c8 46be
000001f0: 3bcd ac3e 6b4a 243f 45db 81be 6a31 0dbe
00000200: 0833 8abe 405f ee3b 3ca7 3e3e e867 e13d
00000210: 6396 173e e3c3 00be 6db5 983d ff0a 9a3e
00000220: d6f7 1e3f fcfd acbe 1262 bc3e f415 b03d
00000230: cc7d bfbc fdd7 de3d a4ea 87be 5829 86be
00000240: 2d60 fdbd f375 293d 8f5a 48bf 0ae2 27bf
00000250: 100a f13e 996c ac3f b3c9 65be a045 15bc
00000260: ea3d 8dbe 20e8 263e e8bb 003d 41c8 73be
00000270: 5e3e 11bd aec2 1cbd a520 083e ea71 ac3e
00000280: 459c 62bf 5d03 763e 5dc4 9ebe 1c12 323e
00000290: 67a4 2abe d24e 1f3e bddb 293f 32de 9e40
000002a0: 731e 54be e282 943d 80ac 923e 242c e8bd
000002b0: 15c8 f1be 63d0 6d3e f8e6 e83d da8c 4bbe
000002c0: dd02 cebe 143c 563e 0298 1cbe 6460 b4be
000002d0: c8cd 5e3e daa1 edb9 6397 d33d 23e2 61be
000002e0: 293d cabe 9722 7ebe d0d7 7cbd e144 7c3c
000002f0: c91c cf3c 8041 b83e 9174 35be b673 433e
00000300: 4f3c 223c d9cf 523d dc5b 9bba 0b68 313e
00000310: 1f1c 81c0 a66c 5bbe 91b1 57be 9d91 673d
00000320: de4b d23d 705a 133e ae20 bdbe 37a4 0f3e
00000330: 27c4 b73e d5aa a0be ed67 9dbd db4e 963e
00000340: 227b 593b 0c24 bfbf c0a6 193e 4da3 37bd
00000350: 5c6c 0a3b 3faf bbbe 4ffc 833d 8f42 50bf
00000360: bbff 11be e22c 80bd a03c 82be 3c25 003f
00000370: 1bd4 063f b40f cebf b17b 84be 2d77 3f3d
00000380: be0e 453e ab33 11be 9d95 5a3e b318 7dbc
00000390: 9c51 1bbe 470e afbe c997 a63e 127c 89be
000003a0: 1311 15be d2ae 873c 569e 47bf a1d3 d7bd
000003b0: fd1c 2a3d ed68 f53d 30be 163f 25b4 f33e
000003c0: c7c5 6c3e 4122 323d f9a3 17bf 27ea 69be
000003d0: 4645 e7be b61e abbf 24c5 91be 1056 45be
000003e0: a934 babe f099 fe3c 8c9a ad3d d2bb 92be
000003f0: 785b c13e 5160 0bbd c7f9 573d 7dab 71be
-0.3810149 -0.54918075 -0.06882715 0.53919697 1.3492602 1.0195343 0.34249097 0.26821578
-0.14310853 0.33606175 -2.1937215 0.3891657 0.08155185 -0.1552485 -0.14503074 -0.207569
-0.37868267 0.24223125 0.27044725 -0.24831113 0.32203948 0.16737032 -0.119734906 0.45304692
-0.021205224 0.09757863 0.15593307 -0.056076698 -0.057170928 -0.5346204 -0.3126309 -0.06742287
-0.053768516 -0.3034035 -0.15618849 0.2168557 -0.3799215 -0.5109626 0.058406327 0.3560816
-0.8060677 0.9083121 0.25936854 0.23623405 -0.047964677 0.07883532 0.5218531 0.8293428
-0.067354634 0.28168336 -0.021239204 0.30268964 -0.6356526 0.05866463 -0.06968302 0.25470176
0.021541752 -0.8885741 0.5843321 0.8236421 0.06403319 0.2089121 -0.2781514 0.40695298
-1.2452582 0.50080234 -0.07281556 -0.27511257 0.28183678 -0.09542593 0.6087024 -0.46974018
-0.4007129 -0.2337405 -0.20945144 0.14181656 -0.011477381 -0.32068855 0.12211004 0.07453536
-0.40636694 0.34126565 1.116252 -0.3742286 0.30863538 0.33065662 0.3265054 -0.051612426
0.49493596 -0.07347893 -0.25590184 -0.3715278 -0.27924857 0.2790522 -0.10349119 -0.27848113
0.4327719 -0.11031916 -0.42522115 0.41037408 -1.5173681 -0.42795062 0.44311824 -0.5239662
-0.007607697 0.039862745 0.45694825 0.010978306 0.2540687 0.22625017 -0.002263836 0.005496002
-0.026477424 -0.22961548 -0.40310314 0.13671716 0.03612474 0.13052014 -0.45934066 -0.14890839
-0.10257036 -0.346684 0.23314434 -0.1941245 0.33750328 0.6417605 -0.25362602 -0.13788381
-0.2699206 0.0072745383 0.18618482 0.11006147 0.14803462 -0.12574725 0.07456479 0.30086514
0.6209692 -0.33787525 0.36793572 0.08597937 -0.023375414 0.1088104 -0.26546204 -0.26203418
-0.1237186 0.04137225 -0.7826318 -0.65579283 0.4707799 1.3470641 -0.22440223 -0.009110838
-0.275863 0.16299486 0.0314292 -0.2380686 -0.03545987 -0.0382716 0.13293703 0.3368066
-0.885197 0.2402472 -0.31009188 0.1738972 -0.16664277 0.15557411 0.6635092 4.9646235
-0.2071474 0.072515264 0.28647232 -0.11336544 -0.47222963 0.23224024 0.11372179 -0.1987795
-0.4023656 0.20921355 -0.15292361 -0.3522979 0.21758187 -0.0004532475 0.10331609 -0.2205892
-0.39499786 -0.24817882 -0.061729252 0.015397281 0.02528228 0.35987473 -0.17720248 0.19087109
0.009902074 0.05146775 -0.0011852938 0.17324845 -4.0346828 -0.21428165 -0.2106383 0.056535352
0.10268377 0.14389968 -0.36938995 0.14027487 0.3589184 -0.31380334 -0.07685838 0.29357037
0.0033184965 -1.4932876 0.15005016 -0.04483347 0.0021121716 -0.3665714 0.064446084 -0.8135156
-0.1425771 -0.06258561 -0.25436878 0.50056815 0.526674 -1.6098542 -0.2587562 0.046744514
0.19243905 -0.14179866 0.21346135 -0.015447783 -0.1516785 -0.3419058 0.32537678 -0.2685247
-0.14557295 0.016562853 -0.77975976 -0.10538412 0.04153155 0.11982904 0.58883953 0.47598377
0.23122321 0.0434897 -0.5923458 -0.22843228 -0.4517004 -1.3368747 -0.2847072 -0.19271111
-0.36368302 0.031079262 0.08476743 -0.2865892 0.37765098 -0.0340274 0.05272844 -0.23600574

output.0.bias f4 [261]
00000000: 4c42 cb3a 5ab2 8bbf 5041 04bd 1eda 933d
00000010: 1277 0439 e004 2d3c 2433 f33e 3af7 86be
00000020: 295f 4b3f 0f8f 1a3f 9c54 323e 4efe 9ebf
00000030: 2875 083e c345 75bf 4353 89be 38de b3be
00000040: 6c35 293f 923d 01c0 b0ef 15bf 28c3 9a3f
00000050: 4371 19bc a69b 923e 1031 c4bd c3fa 573e
00000060: dd2e 9c3e 9079 1b3e 1dc6 293f 419e ba3f
00000070: 532e e03e c025 e3bc 9807 a43b 0fd4 1cbf
00000080: 5ea2 cfbf 2dc0 d23e 5ce0 5bbf 702c db3f
00000090: 85d9 83bf 6e3d 6b3b 478a 09bf daca c33f
000000a0: e3aa e2be 244d 273e ab46 9bbe ef34 97bd
000000b0: 9ac4 573f 4a22 8fbf c7a2 0b3f 0c7e 703e
000000c0: 4a02 953f d057 21be 5fe0 d53d 3ebe c63e
000000d0: 8f76 c1be 12c3 06bf f8b5 56be e231 ad3d
000000e0: 2ebd b0be 6cb1 923f b63e dbbe 281b b9be
000000f0: af0b 423e d7b6 9fbf 1446 b9bf 7ac0 cfbe
00000100: 3ff1 e2be b4c6 2ebe 9957 d2be 1ebd 24bf
00000110: f6bb e7be fa7f 003f bc40 803e 3086 e1be
00000120: e937 20bf 9a93 5c3e 690d 8dbe 1c34 e0be
00000130: 395e 80be c8f7 9cbe 5e69 ac3e 2444 1b3d
00000140: 2a6a 86be 5bdb c5be ce0f a53e 3fcc f7be
00000150: 5a95 86bf f587 8cbb a425 06bf db94 0f3e
00000160: 8a50 923e 9299 8abe 7ef4 b9be db44 6f3f
00000170: 2c8e 6cbe beb9 553f 20e5 e03c 9a4a d23f
00000180: 1a63 133f f6fa 00be 9fba 9e3d f448 d23f
00000190: 733a 753e 1d94 2cbf 8147 413f 87a7 073e
000001a0: bb12 66be d54d 04bf ec18 11be cea0 dcbe
000001b0: acd7 1240 16c5 1e3d 7410 a03e 6263 c4be
000001c0: e688 46be f990 c23e 2df5 cc3e 3f2c da3d
000001d0: 8c53 a43d e158 563e 70ff 6b3f d147 403d
000001e0: 44de 273f 90e2 f53d 4916 e53e 103a 81be
000001f0: 804f 033e e4a0 663e 59d7 af3e 3596 acbd
00000200: f378 9abe ef9c 253d 8fdd fb3d 23d7 c2be
00000210: 4c88 813e bbab 87be fe3a c23f d086 2d3e
00000220: 38e4 82be c92c 0a3d d021 2fbf de9f 5dbd
00000230: ca33 b83e 72db ccbe 05cc 863f 0a08 4c3f
00000240: deeb d13d b674 d33e 4354 c13e 30e9 ffbd
00000250: 552a bc3e 85ba 173f 357f 8c3e 3d7b 79bf
00000260: 56b0 163f a865 27bf 06a5 1bbe e6e1 853d
00000270: ec9e bf3f 736d b2be 8b0a 01bf 70cf 873e
00000280: 4847 b33e 43f7 443e 2e9a 8cbd f2ec 0440
00000290: e9e2 b9be 1eb6 9c3d deac 7bbe 20ea ca3e
000002a0: f461 3fbe 4859 613e 2593 75bf 5e32 51bf
000002b0: bf21 ac3d eb86 4e3f 7da9 193e 8e5f 8f3d
000002c0: dfa5 a4bc 87d1 3bbf afa8 23be b4cc b3be
000002d0: 9b22 323f 380b 6c3d e4db 273f 0df6 2f3f
000002e0: b99e 92bf a9f5 cdbe b121 80be 80a0 3240
000002f0: 28d8 06bd 583d ec3d 01c6 5b3e fa11 adbe
00000300: 9c95 013f 1e60 0dbe e009 91be 7a3b 9a3e
00000310: 0fa5 0bbf a1bd 343d e65d 1dbf d93e 4cbf
00000320: a02f ffbe f894 b2bd 27e2 ae3e 1879 bfbe
00000330: 40fd 503d f8ae 18c0 c989 18bf 949e a6be
00000340: f065 3bbf 0ca7 9f3d ba5a 83be 282c 12bf
00000350: d75d 403e 848a a03e a803 28be a56c 273f
00000360: 87b2 c23f c7ae 223f 6e6c b23e 4502 bcbf
00000370: fdf1 f93e c80b 843e 99db 0cbe 50b0 083f
00000380: 7662 a6be 6ef4 7c3f d065 6cbd 7c66 92be
00000390: 67fa 843f 7c3c cfbe f313 fa3e c937 ca3e
000003a0: 62d6 6bbf 63d5 963f 65cc 0abf 4d02 903e
000003b0: d300 53be 0736 423e 96e6 d03d 982d c9bd
000003c0: 0657 f7be c71c 95bd 8c8b 1ebe 821a 8bbf
000003d0: b2e8 0e3f 3ae0 8fbe 8816 853f 7c2b 89be
000003e0: 0ced 4a3e a054 d73e 1472 5dbe 0857 673e
000003f0: a542 babe dd65 2f3f 1f74 9e3c 5d2d 573f
0.0015507429 -1.0913804 -0.03228885 0.07219337 0.00012632858 0.010560244 0.47499955 -0.26360494
0.7944208 0.6037454 0.17415088 -1.2421358 0.13325942 -0.9580957 -0.26821336 -0.35130477
0.6609714 -2.019383 -0.5856886 1.2090807 -0.009365383 0.28634375 -0.095796704 0.21091752
0.30504504 0.15183091 0.6631792 1.4579545 0.43785343 -0.027727962 0.005005788 -0.61261076
-1.6221426 0.41162243 -0.8588922 1.7122936 -1.0300757 0.003589477 -0.5372662 1.529628
-0.44271 0.1633802 -0.30327353 -0.07383143 0.84284365 -1.1182339 0.54545254 0.23485583
1.1641324 -0.15756154 0.10443186 0.38817018 -0.37785766 -0.52641404 -0.20967853 0.0845678
-0.34519333 1.1460395 -0.42821282 -0.3615353 0.1894977 -1.2477673 -1.4474511 -0.40576535
-0.4432468 -0.17067987 -0.41082457 -0.6435107 -0.4526059 0.50195277 0.25049388 -0.4404769
-0.6258531 0.2154068 -0.27549294 -0.43789756 -0.25071886 -0.30657792 0.3367414 0.03790678
-0.26252872 -0.38643917 0.3223862 -0.48398015 -1.0514328 -0.0042886683 -0.52401185 0.14021628
0.2857707 -0.2707029 -0.36319345 0.9346444 -0.2310111 0.83486545 0.027453005 1.6429017
0.5757309 -0.12595734 0.07750439 1.6428514 0.23948078 -0.674135 0.7549973 0.132475
-0.22468083 -0.5168126 -0.14169663 -0.43091434 2.2944136 0.038762175 0.31262553 -0.38357073
-0.1938816 0.3800123 0.40030804 0.106529705 0.08023748 0.20932342 0.9218664 0.04694349
0.65573525 0.12006104 0.44743565 -0.2523961 0.12823296 0.22522312 0.34343985 -0.08427087
-0.30170402 0.040432867 0.12298118 -0.3805476 0.252993 -0.26498207 1.5174253 0.16945958
-0.25564742 0.033734117 -0.6841097 -0.05410754 0.35977012 -0.40011173 1.0531012 0.79699767
0.10250066 0.4129998 0.377596 -0.12495649 0.36751047 0.5926898 0.274408 -0.9745367
0.5886282 -0.6538949 -0.1519967 0.06537227 1.4970374 -0.34849128 -0.5040671 0.2652545
0.3501532 0.19234948 -0.06865345 2.076962 -0.3630593 0.076519236 -0.24577662 0.39631748
-0.1868971 0.22006714 -0.9592765 -0.8171748 0.08404874 0.8067462 0.15006061 0.070006475
-0.020098625 -0.7336659 -0.15982316 -0.35117114 0.69584054 0.057627887 0.655699 0.6873482
-1.1454688 -0.40226486 -0.25025705 2.7910461 -0.032920986 0.11535138 0.21462251 -0.33802778
0.5061891 -0.13806197 -0.28327847 0.30123502 -0.54548734 0.044126157 -0.614714 -0.797834
-0.49841022 -0.0871982 0.34156916 -0.37397075 0.051022768 -2.3856792 -0.59585243 -0.3254286
-0.7320242 0.077955335 -0.25655156 -0.5709863 0.18785797 0.3135568 -0.16407645 0.65400153
1.5210732 0.6354794 0.3484835 -1.4688193 0.48817435 0.25790238 -0.13755645 0.5339403
-0.32496995 0.9881047 -0.057714283 -0.28593814 1.0388917 -0.40475833 0.48843345 0.39495686
-0.92124 1.178387 -0.5421813 0.28126755 -0.20605783 0.18965922 0.10200231 -0.098231494
-0.4830858 -0.072808795 -0.1548292 -1.0867465 0.55823815 -0.2810076 1.0397501 -0.26790988
0.19816989 0.4205675 -0.21625549 0.22591794 -0.3637897 0.68514806 0.01934248 0.84053594

output.2.weight f4 [7, 261]
00000000: b78e c5bd 50d6 833d a613 733d db9d 31bd
00000010: e207 203d 5a1d 56bd c781 e4bc c2a6 523d
00000020: b57b b23c af3c 033c cbf6 9c3d 3d96 80bd
00000030: 20d5 4cbd 0e29 2d3c 9818 a43c ac08 393d
00000040: 9af9 3b3f 2d8f 843f 0189 08bd cdea a33d
00000050: 3bcd 80bc c68c 04bd 9162 d9bc 47a9 163d
00000060: 9177 4e3c b33d 21bd ca7a 773d 97e3 103d
00000070: 0571 843d 30d5 a7bb 026f 423d 85b6 28bd
00000080: d9e1 aebe 86ff 373c bb9c 50be cfc3 cb3e
00000090: 8bb6 e8bd 83aa aebc b2f4 4fbd 3c66 703e
000000a0: 5bf4 3abd 7067 6b3d b4af 1ebd 94c7 41bd
000000b0: 3f38 c33c 781f 373f 2133 cfbd 2290 6b3d
000000c0: 486b 523d 4d91 1fbd 5285 ddbc f061 113d
000000d0: 78b6 56bd 7395 59bd 7f30 27bc bead d8bc
000000e0: 3895 34bd 8aa0 103e 4f16 723c fe22 84bd
000000f0: 8e89 9bbc ac44 063d 404f 4c3c d6a0 17bd
00000100: 230c 52bd d95f 753e 5e58 403c caf3 98bd
00000110: 088f 02bc 82eb 963d c5d1 523d 49fe 0ebd
00000120: b7da 34bc cb36 ce3e 1cd6 d8bc b573 bcbb
00000130: 1b97 0e3d 9d62 bc3a beb6 423d 2e43 203c
00000140: 1109 703d 4aec b139 343b b63c 1aec d43c
00000150: a685 a93d 8d9e b5bc 1669 c23d 28fd 6a3f
00000160: fe1d 70bd 2845 b2bb ed09 f8bc ac61 ab3d
00000170: 2b18 ca3c 2cc0 653d 0b69 21bd 082f ae3e
00000180: 6e26 023f 30b7 04bb f9af a9bd d727 da3e
00000190: d8c1 c0bb 5872 aabd 0833 3fbd 8571 403d
000001a0: 2a7e 293c 04b9 9b3d 8078 e4b9 076e 4fbd
000001b0: cc23 b5bb 8804 0bbc 621f 3d3d ddc6 17bd
000001c0: aab3 6cbd 8d38 20c0 0018 1c3d 17a6 15be
000001d0: d75a 753d c61c f1bc 8cb6 7c3d 493e 943c
000001e0: 8cde a1ba b042 fe3c 786f 95bd eb29 72bc
000001f0: 0468 3d3d bc2c 003d bb54 f53c d430 b9bc
00000200: 3150 ef3b af41 9fbd e2c7 f33b 8989 30bd
00000210: a83b 44bd 6a96 d4ba b257 c83c a7ce 3dbd
00000220: 6092 683b 7128 363d 06f8 aebd 4f25 06bd
00000230: b0ac 713c bde4 9abc f0ff cdbe 74d5 a23d
00000240: d1b4 c63c 978a e63d b5f7 84bd 6640 a03b
00000250: 6c50 4bbd cc8a 10bc 75e6 a93c 4980 afbd
00000260: 2d64 1d3d 7121 b9bb 2b89 6dbd 8397 f0bb
00000270: a645 763c a33a b33c 899b 2bbc 4acd 623d
00000280: 24d2 613d 2f4d 28bd f897 0d3d 5727 b53d
00000290: a728 3abc 1535 a53b d0ca 6cbd a3cd 44bd
000002a0: 6ee5 9bbd a042 3b3b cebb 59bf 6f0c c5bd
000002b0: 10cf 173c e844 7f3d 111e 14bb f18b af3d
000002c0: 9b3f d93b c4c1 49bc 8349 973d 2af9 5cbd
000002d0: 30ff 193d 1661 89bc 02e0 39bd 303b 8f3d
000002e0: 41ba 89bf d823 41bd d79b e3bc 5c92 dd3e
000002f0: 5803 babb 204a aa3c 411e eebb 10ea 31bd
00000300: 3363 a13c f477 f9bc 2677 e0ba 4086 62bd
00000310: ac2d 47bd f3f5 7f3c 2226 e9bd 32fe 14bd
00000320: fb68 cbbb bc62 ad3d dee7 29bd 6fbc 55bd
00000330: c842 103c ced6 27bd 687c 0b3d cea3 85bd
00000340: 5712 62bd 6ef2 363d 7c15 26bc 25b5 3ebe
00000350: e4b7 bb3c e246 163d ee52 c6bc 97da 073d
00000360: fb4c 263f 6e92 09bc 2f6e c93c e952 babc
00000370: 2a92 623c 303e 153c 8862 87bd 761c a5bb
00000380: a385 893d 060e a43d d60a 693d 689e ebbb
00000390: 7e7c a33d ea1e 93bd a9da e8bc 5419 403d
000003a0: 8da6 98bd 8898 a73e dcbb 5d3d 36ab ad3b
000003b0: 5817 92bb 1b0c 83bc f054 e63c 4410 d83c
000003c0: 1e32 b9bc 499b 603e 2b71 9eba 371c 84be
000003d0: 1a0b f83c f267 78bd afe3 79be 6624 323d
000003e0: c0e6 943a 4c1e 9a3d 149e a33c 217b 0f3d
000003f0: 51d4 9cbc 5b6e 853d 3d74 8a3c 83ff 2d3d
-0.09646361 0.06437361 0.05934491 -0.043363433 0.039070018 -0.052274086 -0.027893914 0.051428564
0.021787504 0.008010074 0.076642595 -0.06278656 -0.05000794 0.01056887 0.020031258 0.045174286
0.73427737 1.0356194 -0.033333782 0.08003769 -0.015722862 -0.032360815 -0.026536258 0.03678253
0.012601749 -0.03936548 0.060419835 0.035373297 0.06466869 -0.0051218495 0.047469147 -0.04118969
-0.34156683 0.011230355 -0.20372288 0.39797828 -0.11362942 -0.02132154 -0.05077047 0.234765
-0.04564319 0.057471693 -0.038741782 -0.047309473 0.023830531 0.7153239 -0.10117174 0.057510503
0.051371843 -0.03895693 -0.027041111 0.03549379 -0.05242011 -0.05312104 -0.010204433 -0.026450034
-0.04408762 0.14123741 0.014775827 -0.06451987 -0.01898649 0.032780334 0.012470067 -0.03701862
-0.051281106 0.23962344 0.011739818 -0.07468374 -0.007968672 0.07369138 0.051469583 -0.034910474
-0.011038474 0.4027618 -0.026469283 -0.005751098 0.034812074 0.0014372651 0.047537558 0.009781642
0.058602396 0.0003393612 0.022245027 0.025991488 0.082774445 -0.02217033 0.094927 0.91792536
-0.058622353 -0.005440373 -0.03027817 0.08368239 0.024669727 0.056091473 -0.039406817 0.34020257
0.5083989 -0.002025079 -0.08285517 0.4260852 -0.005882483 -0.083225906 -0.046679527 0.04698326
0.010345021 0.07603648 -0.00043577328 -0.05064204 -0.005527949 -0.008484967 0.046172507 -0.037054885
-0.05778853 -2.5034516 0.038108826 -0.1461414 0.059901085 -0.029432666 0.061697528 0.018096106
-0.0012349649 0.031037658 -0.072966516 -0.014780502 0.046241775 0.031292662 0.02994763 -0.02260629
0.0073032607 -0.077762 0.0074395994 -0.043099914 -0.047908455 -0.0016219143 0.024455879 -0.046339657
0.0035487637 0.04447216 -0.085434005 -0.032750424 0.014750645 -0.018907899 -0.40234327 0.07950869
0.024256142 0.11256903 -0.06492559 0.0048904894 -0.049637243 -0.008822154 0.020739773 -0.0856939
0.038425613 -0.0056497385 -0.05799214 -0.0073422804 0.015031254 0.021878546 -0.010474094 0.05537156
0.055132046 -0.041089233 0.034568757 0.08845394 -0.011362231 0.0050417283 -0.057810605 -0.048047673
-0.076121196 0.0028573647 -0.8505219 -0.09621512 0.009265676 0.062321573 -0.0022600929 0.085716136
0.006629897 -0.012314264 0.07387068 -0.05394856 0.03759688 -0.016769927 -0.045379646 0.06993711
-1.0759965 -0.047153324 -0.027784271 0.43275726 -0.005676668 0.020787299 -0.00726679 -0.04343611
0.019700622 -0.030452706 -0.0017125353 -0.055303812 -0.04862754 0.015622604 -0.113842264 -0.036375232
-0.006207583 0.08466098 -0.04148089 -0.052181657 0.008804984 -0.040976338 0.03405419 -0.06525384
-0.05519327 0.044664793 -0.010136958 -0.18623789 0.022914834 0.036688693 -0.024209466 0.033167448
0.6496121 -0.008396728 0.024588672 -0.022744613 0.013828794 0.009109065 -0.0661059 -0.005038793
0.06714942 0.08010487 0.0568951 -0.0071905144 0.079827294 -0.07183631 -0.028424578 0.046899155
-0.07453642 0.3273356 0.054134235 0.005299951 -0.004458349 -0.015996983 0.028116673 0.026374944
-0.022606906 0.21934237 -0.001208817 -0.25802776 0.030278731 -0.060646005 -0.2440326 0.043491744
0.0011360273 0.0752531 0.019972838 0.035029534 -0.01914421 0.06515189 0.01690113 0.042480003

output.2.bias f4 [7]
00000000: 287c 293f 0d44 b2bd 5e72 dcbe fd42 c23d
00000010: 3f26 88bc eac9 b3be 59d9 d1bc
0.6620507 -0.08704386 -0.43056005 0.09485433 -0.0166198 -0.35114986 -0.025616335
