output/models/48.13Acc_H1_OneLayer261Units_ReLU_CrossEntropyLoss_Adam_0.001lr_5832epochs_10batches.pth (torch, 17133 bytes, 4 tensors)

output.0.weight f4 [261, 6]
0	0x3d0eabbc	0.034831747
1	0xbce21978	-0.027600035
2	0x3ccbadf3	0.024863219
3	0xbd5fb7bc	-0.054618582
4	0xbfb3d0cb	-1.4048094
5	0xbfe2d0cc	-1.771997
6	0x3ec2ac00	0.3802185
7	0x390cae52	0.0001341638
8	0xbeee32b4	-0.46523058
9	0x3da65cf7	0.081232004
10	0xbf7c1828	-0.9847436
11	0xc088b103	-4.271608
12	0xbea66a55	-0.32503
13	0x3e2104bf	0.15724467
14	0x3d2445ed	0.04010575
15	0xbf5be513	-0.85896415
16	0x3ff7f487	1.9371499
17	0xbf4f6d1d	-0.8102587
18	0x3d14d681	0.03633738
19	0xbde382dc	-0.11108944
20	0xbc3123cf	-0.01081176
21	0x3da117a6	0.07865839
22	0xbff5cffd	-1.9204098
23	0xbeb461e7	-0.35230944
24	0xbe404613	-0.18776731
25	0x3dbb2a81	0.09138966
26	0x3dc99323	0.09842517
27	0x3c54b54f	0.01298268
28	0x3f23db24	0.6400626
29	0x3ef397d8	0.47576785
30	0xbf08b2d9	-0.533979
31	0xbed0ab00	-0.40755463
32	0xbcb2a739	-0.021808254
33	0x3e8e5e5c	0.27806365
34	0xc0081c6c	-2.1267347
35	0x4051644e	3.271747
36	0x3e6ec985	0.23319061
37	0xbe40dc9f	-0.1883416
38	0x3e364a3c	0.17801756
39	0xbe9e5903	-0.30927286
40	0x3f9b1db3	1.2118438
41	0x3f563593	0.836755
42	0x3e2b2da1	0.16716625
43	0x3c572bb2	0.013132976
44	0xbeb239b9	-0.34809664
45	0x3f4c62c8	0.7983823
46	0x3f93eb24	1.1556134
47	0x3fe1413f	1.7598037
48	0xbd4d9730	-0.05019301
49	0x3e1e731e	0.15473601
50	0xbe67eb56	-0.22648367
51	0x3dc34f26	0.09536581
52	0xbfd8ff51	-1.6952916
53	0xc05ffb18	-3.4997005
54	0x3daa5b94	0.083182484
55	0x3d00aef6	0.031416856
56	0xbd2aa1da	-0.04165826
57	0x3eb6222e	0.35572952
58	0x3a6c60dc	0.0009017119
59	0x3d765ec7	0.06014898
60	0xbdedfdde	-0.11620687
61	0xbedef9d0	-0.43549967
62	0x3da564f7	0.08075898
63	0xbea26235	-0.3171555
64	0xbf30aecc	-0.6901672
65	0xbfcd7735	-1.6052004
66	0xbef700fa	-0.48242933
67	0x3e5c2f32	0.21502379
68	0xbd48bc34	-0.04900761
69	0x3d59a3a9	0.053134594
70	0x3f5f487f	0.87219995
71	0x406f9e83	3.7440498
72	0x3e8091b2	0.25111157
73	0xbceb096d	-0.028691018
74	0x3db32435	0.0874714
75	0xbebcf6f8	-0.36907172
76	0x3e867742	0.26262861
77	0xbf8430d4	-1.0327401
78	0x3e44a523	0.1920362
79	0x3e1578a7	0.14596806
80	0xbca3b140	-0.01998198
81	0xbdf42e58	-0.11922902
82	0xbfa76008	-1.3076181
83	0x3e2bebc2	0.16789153
84	0x3e88884e	0.26666492
85	0x3e3650b4	0.17804223
86	0x3dd60747	0.10450607
87	0xbe372726	-0.17886028
88	0x3eb5ed70	0.35532713
89	0xbe76d6d3	-0.24105386
90	0xbe6cd0a5	-0.23126467
91	0xbe4048d5	-0.18777783
92	0xbe49deb9	-0.19713868
93	0xbd9362aa	-0.07196553
94	0x3df7668b	0.120801054
95	0x3eb9f6fc	0.36321247
96	0x3e9c49fe	0.30525202
97	0xbd51bfdb	-0.05120836
98	0xbed66436	-0.4187333
99	0x3e77dcf3	0.24205379
100	0x3f6dc3fe	0.92877185
101	0x4005ef94	2.0927477
102	0x3edc5b0c	0.43038213
103	0xbe71e986	-0.23624238
104	0x3e119bfd	0.14219661
105	0xbe8c1f03	-0.2736741
106	0x3f9807d0	1.1877384
107	0x3f9f9355	1.2466837
108	0xbe926fb0	-0.28600836
109	0xbe844d46	-0.25840205
110	0xbe861f73	-0.2619587
111	0x3e08f933	0.13376312
112	0x3ebd4ecd	0.36974183
113	0x3e9e03d3	0.30862293
114	0x3e2e24d9	0.17006244
115	0xbdc5a2d9	-0.09650201
116	0xbd967d63	-0.07348134
117	0x3ee159b2	0.44013745
118	0xbe5f9b4a	-0.21836582
119	0x3ffc8a94	1.9729791
120	0xbe4d5ba5	-0.20054491
121	0x3d5e0f47	0.05421379
122	0xbe04282d	-0.12905951
123	0x3d23789a	0.039909936
124	0xbf16f3c5	-0.5896571
125	0x3ed9feea	0.42577296
126	0xbd13b034	-0.036056712
127	0x3d88b6f6	0.06675522
128	0xbf0ebb43	-0.5575449
129	0x3f3396c0	0.701519
130	0x3f965d00	1.1747131
131	0x3f3014dc	0.6878183
132	0x3d62083f	0.055183645
133	0xbeb961fb	-0.36207566
134	0xbe05cab5	-0.13065608
135	0xbe8c1e97	-0.27367088
136	0xbb9f37eb	-0.004858961
137	0x3ead1b37	0.33809826
138	0x3d6e9c4e	0.058254533
139	0xbca54fab	-0.02017959
140	0x3d23b88b	0.039970916
141	0xbde2cacc	-0.11073837
142	0xbf4023d0	-0.75054646
143	0x3f907c68	1.1287966
144	0xbd93d014	-0.07217422
145	0x3e2faac7	0.1715499
146	0x3e83f4e7	0.25772783
147	0xbeb116b9	-0.3458765
148	0xbf004d37	-0.5011782
149	0xbf50f117	-0.81617874
150	0x3e0ecb1b	0.13944666
151	0x3e1eaff6	0.15496811
152	0xbe80d024	-0.251588
153	0xbeab91ce	-0.33509678
154	0xbf11425d	-0.5674189
155	0xbdd1d954	-0.1024653
156	0xbe733835	-0.2375191
157	0x3e7ffc8c	0.24998683
158	0x3d8cdf95	0.068785824
159	0xbe89d7c0	-0.26922417
160	0xbf89a53e	-1.0753553
161	0x3b557354	0.0032569962
162	0xbe79764b	-0.24361531
163	0x3ea95442	0.33072096
164	0xbe491c2e	-0.19639656
165	0xbeaed634	-0.341478
166	0x3ff738cc	1.9314208
167	0xbf480b50	-0.7814226
168	0x3e281f72	0.16418245
169	0xbc8c068e	-0.01709297
170	0x3e62a452	0.22132996
171	0xbf09a643	-0.5376932
172	0x3f02a0e8	0.51026773
173	0x3e5f3a01	0.2179947
174	0xbece61bc	-0.4030894
175	0x3d196fc4	0.037460104
176	0x3dc65e74	0.09685984
177	0xbecf2ee2	-0.40465456
178	0x3e07e6c0	0.13271618
179	0x3f1a53d7	0.6028418
180	0xbea3b673	-0.31975135
181	0x3d28144e	0.04103499
182	0x3e9dbd50	0.30808496
183	0xbedee282	-0.43532187
184	0x3eeb8455	0.459994
185	0xbca8e000	-0.020614624
186	0x3e3b284f	0.18277095
187	0xbe4b3919	-0.19846
188	0x3e281175	0.1641291
189	0x3dcc5315	0.09976784
190	0xbef7f30e	-0.48427624
191	0x3ebde3e6	0.37087935
192	0x3e97eded	0.2967371
193	0xbe9d2a79	-0.30696467
194	0x3e610dbc	0.21977895
195	0xbe990ddf	-0.29893395
196	0x3dd84e38	0.10561794
197	0x3f48dc2a	0.78460944
198	0x3c156b2c	0.00911979
199	0x3cc1e6f9	0.023669707
200	0x3e5c8088	0.21533406
201	0xbe8bf665	-0.27336422
202	0xbe995aa2	-0.2995196
203	0xbe804ea7	-0.25060007
204	0xbd9dd00f	-0.077057
205	0x3dd01db6	0.10161917
206	0xbedb03c2	-0.42776304
207	0xbd07c811	-0.033149783
208	0x40411819	3.0170958
209	0xbf9f47cf	-1.2443789
210	0xbd49bc39	-0.04925177
211	0x3ea2103b	0.31653008
212	0xbe8ad873	-0.27118263
213	0xbdd88e2a	-0.10573991
214	0x40098853	2.1489456
215	0xbdc24ad0	-0.094869256
216	0x3e0b158f	0.13582443
217	0x3e92a99c	0.28645027
218	0x3da950ea	0.08267386
219	0xbeef6832	-0.46759182
220	0xbf566362	-0.83745396
221	0xbf372f35	-0.7155641
222	0xbdd3016e	-0.10303007
223	0x3e353c69	0.17698826
224	0x3d0cc6e2	0.034369357
225	0xbc06ffd1	-0.008239702
226	0xbefb0ccc	-0.490332
227	0xbc9ced84	-0.019156225
228	0x3c0258fe	0.007955788
229	0xbe98c181	-0.29835132
230	0xbecac154	-0.39600623
231	0xbe98fdff	-0.29881284
232	0xbdbd643b	-0.09247633
233	0xbebd7fb8	-0.37011504
234	0x3ec20c61	0.3790007
235	0x3e8c68de	0.27423757
236	0xbe996f3e	-0.29967684
237	0xbe5f22be	-0.21790597
238	0x3f71bfa3	0.9443304
239	0x3d1c4c74	0.03815885
240	0xbde171e6	-0.110080525
241	0x3e8f1ca2	0.27951533
242	0x3dd0a14b	0.10187014
243	0x3e56d1fd	0.20978542
244	0x3f0118dc	0.5042856
245	0x3ef49a63	0.47774038
246	0xbeee92b4	-0.465963
247	0xbf0f625f	-0.5600948
248	0xbdfb74ad	-0.122781135
249	0x3f10de5d	0.565893
250	0x3f03a670	0.5142584
251	0x3e26c4df	0.16286038
252	0xbde050cb	-0.1095291
253	0x3c622983	0.0138038425
254	0x3d8ec7c8	0.06971699
255	0x3e4f32c5	0.20234211

output.0.bias f4 [261]
0	0xbf576f75	-0.84154445
1	0x3f6d2c02	0.92645276
2	0xbf20e88a	-0.62854826
3	0x3f53f7d0	0.82800007
4	0xbebcb4a2	-0.36856562
5	0x3f4c4503	0.79792804
6	0x3f3bcfc8	0.73363924
7	0x3f5c8bff	0.8615112
8	0x3f932a5b	1.1497301
9	0x3eacef99	0.33776549
10	0x3f7f455b	0.99715203
11	0x3d970fbc	0.07376048
12	0x3f5bc316	0.8584455
13	0x3efbdc63	0.4919158
14	0xbebfb4a7	-0.37442514
15	0xbe9a6cc3	-0.30161104
16	0xbe9dbe1d	-0.30809107
17	0x3b830123	0.0039979382
18	0x3e8efcaa	0.27927142
19	0x3e2096c4	0.15682513
20	0xc06151e3	-3.520623
21	0xbf1c7cdf	-0.6112804
22	0x3eb11735	0.34588018
23	0xbf1124d9	-0.5669685
24	0x3eee757c	0.46574008
25	0x3f39b65b	0.7254388
26	0x3f57047a	0.83991206
27	0x3f6ffd9a	0.9374634
28	0xbf7343d6	-0.95025384
29	0x3fc4cd52	1.5375159
30	0x3e488419	0.19581641
31	0xbe5db4fe	-0.21651074
32	0xbea5f423	-0.32412824
33	0xbe2af00a	-0.1669313
34	0xbfecccda	-1.8500016
35	0x3f0c62ce	0.54838264
36	0x3e4b202e	0.19836494
37	0x3c92cf56	0.017921131
38	0xbd43815b	-0.047730785
39	0xbf9a9c2f	-1.2078913
40	0xbe5757e9	-0.21029629
41	0xbfbde819	-1.4836456
42	0xbe0e31a5	-0.13886125
43	0xbec66e4b	-0.38756022
44	0x3e5daf9b	0.2164902
45	0x3e61d526	0.22053966
46	0x3f161688	0.5862813
47	0xbd20dd62	-0.039273627
48	0x3ea15ab8	0.31514525
49	0xbe7f963f	-0.24959658
50	0xbf291002	-0.6604005
51	0x3e53c3ff	0.20680235
52	0xbeb219c4	-0.34785283
53	0x3d9f3541	0.07773829
54	0x3f727f93	0.9472591
55	0xbf5a6d9d	-0.85323507
56	0xbe7b0862	-0.24514917
57	0xbec99200	-0.39369202
58	0x40095ded	2.1463578
59	0x3da9fda8	0.08300334
60	0x4017dfd8	2.3730373
61	0xbf1736db	-0.5906808
62	0x3e7c7c35	0.24656756
63	0x3e6f6d64	0.23381573
64	0xbfc4772e	-1.5348871
65	0x3f618806	0.8809818
66	0xbee1d2c5	-0.44106117
67	0xbf17d935	-0.59315807
68	0x3f34a942	0.70570767
69	0xbf52197a	-0.82070124
70	0x3f82b673	1.0211929
71	0x3fecb977	1.8494099
72	0xbebd3c13	-0.36959895
73	0xbf11ed4d	-0.5700272
74	0xbe397472	-0.18110827
75	0xbec1964d	-0.37809983
76	0xbf1a0af7	-0.6017298
77	0x3e9621b9	0.29322603
78	0xbf8bd814	-1.0925317
79	0x3eb15738	0.34636855
80	0x3f84e597	1.0382565
81	0x3e98eb7e	0.29867166
82	0x405239b4	3.284772
83	0xc01a8092	-2.4140973
84	0x3dce4c7d	0.10073183
85	0xbe389723	-0.18026404
86	0xbec72ba7	-0.38900492
87	0x3eba08be	0.36334795
88	0xc045c297	-3.0900018
89	0x3e98e689	0.29863384
90	0x3ee242c5	0.44191566
91	0x3ef0563c	0.46940792
92	0x3e2a37ac	0.166228
93	0xbe8883ad	-0.2666296
94	0xbdae6228	-0.085148156
95	0xbffc425f	-1.9707755
96	0xbdbefcfc	-0.09325597
97	0xc02911b8	-2.6417065
98	0xbecd97ed	-0.40154973
99	0x3fa52ba1	1.290394
100	0x3f0aa9de	0.54165447
101	0x3ead1e9f	0.33812425
102	0xbe168260	-0.14698172
103	0xbe522727	-0.20522748
104	0x3ec1263b	0.3772448
105	0xbfaa2928	-1.329381
106	0xbea1132e	-0.31459945
107	0x3f7a7ccf	0.9784669
108	0xbef36adf	-0.47542474
109	0x3efb3560	0.4906416
110	0xbe7a62c4	-0.24451739
111	0x3e79638b	0.24354379
112	0xbe1a9a5f	-0.1509795
113	0xbf8862a4	-1.0655103
114	0x3e86e834	0.26349032
115	0xbe4ef523	-0.202107
116	0x3f06ea6f	0.5270147
117	0x3f3677f9	0.71276814
118	0x3ee60453	0.44925174
119	0xbf688a19	-0.9083572
120	0xbf1cebb5	-0.6129716
121	0xbeaa3f8b	-0.33251604
122	0xbea53bb9	-0.32272127
123	0xbe713e83	-0.23559003
124	0xbe12a551	-0.14320876
125	0x3fcc9d2f	1.5985469
126	0x3fadc8cf	1.3576907
127	0xbe3ac94e	-0.18240854
128	0xbe9c38fe	-0.30512232
129	0x3f1d41f1	0.61428744
130	0x3e59207d	0.212038
131	0x3f1bf34b	0.6091811
132	0x3ea7a7ed	0.32745305
133	0xbdce36f4	-0.10069075
134	0x3e296959	0.16544093
135	0x3eda6891	0.42657903
136	0x400dffca	2.2187371
137	0xbf07cd2a	-0.5304743
138	0xbf8c79e8	-1.0974703
139	0xbea3a8e4	-0.3196479
140	0xbf0d8b84	-0.5529101
141	0x3fe0bb4a	1.7557156
142	0xbfcd2e86	-1.6029823
143	0x3e85ebfc	0.26156604
144	0x3f8b8a4c	1.090158
145	0xba64b19d	-0.0008723976
146	0xbea72716	-0.32647008
147	0x3ed788f7	0.42096683
148	0xbfc912f9	-1.5708915
149	0x3d557659	0.05211482
150	0xbe80d664	-0.25163567
151	0xbe37259d	-0.17885442
152	0xbf60d7ae	-0.878291
153	0xbf88932a	-1.0669911
154	0x3e5ebd8c	0.21751994
155	0xbeac4ea5	-0.3365375
156	0xbfc66948	-1.5500879
157	0x3e87fed6	0.26561612
158	0x3f15cb63	0.5851347
159	0xbe8de1a7	-0.27711222
160	0x3e61bd97	0.22044979
161	0xbf04de10	-0.5190134
162	0xbe1fb888	-0.15597737
163	0xbe841a6b	-0.25801405
164	0x3d6e300c	0.05815129
165	0x3df2bc2a	0.11852296
166	0xbef76c0e	-0.48324627
167	0xbdcb9dc5	-0.099422015
168	0x3d3879d9	0.045038078
169	0xbf568de2	-0.83810246
170	0x3ebbd8b1	0.3668876
171	0xbece2e96	-0.40269917
172	0xbd1f9d23	-0.038968217
173	0xbf6bb9d7	-0.92080444
174	0x3eae1624	0.34001267
175	0x3dfcd57f	0.12345409
176	0xbe9ce13e	-0.30640596
177	0x3f1a82ae	0.6035565
178	0x3eacd481	0.33755878
179	0x3d79d0bb	0.060990077
180	0xbf76fd33	-0.964801
181	0x3f676235	0.9038423
182	0x3f1a0d0c	0.6017616
183	0xbecc7965	-0.39936367
184	0xbf0ca4aa	-0.5493876
185	0x3e1c3523	0.15254645
186	0x3e94d4a5	0.29068485
187	0x3f8a7929	1.0818225
188	0xbf4e3656	-0.8055166
189	0x3e9fda27	0.31221125
190	0xbe8bf4bd	-0.27335158
191	0x3f8297a7	1.0202531
192	0x3ec9c733	0.3940979
193	0x3ee04726	0.43804282
194	0xbcb64c37	-0.022253139
195	0xbf1a9099	-0.6037689
196	0xbdc8faad	-0.098134376
197	0x3e452a91	0.19254519
198	0xbebbf234	-0.36708224
199	0xbe77d24d	-0.24201317
200	0xbe2153b8	-0.15754592
201	0x3f224f37	0.6340212
202	0xbd7363d7	-0.059421387
203	0xbeac4492	-0.33646065
204	0xc03d5922	-2.9585652
205	0xbeac779c	-0.33685005
206	0x3cfcaa63	0.030842965
207	0x3f8a6f81	1.0815278
208	0xbf4782e2	-0.77934086
209	0x3fee2c95	1.8607355
210	0xbef0d7dc	-0.47039688
211	0xbe4fd6f1	-0.20296837
212	0x3fb85c58	1.4403181
213	0xbf2515ea	-0.64486563
214	0x3fe1659c	1.7609134
215	0x3fb61b16	1.4227016
216	0x3feba9b7	1.8411168
217	0x3ef9aeac	0.48766077
218	0x3e94150a	0.28922302
219	0xbe20e5fc	-0.15712732
220	0xbf28fdb3	-0.66012114
221	0x3e71024d	0.23536034
222	0xbeb64969	-0.35602883
223	0xbdc5f44d	-0.09665737
224	0x3f41744d	0.75568086
225	0xbe4b4bfe	-0.19853207
226	0xbe7a051e	-0.24416015
227	0xbf3cbe32	-0.73727715
228	0x3fbe8c56	1.4886577
229	0xbe84dd1c	-0.25949943
230	0x3d333ab2	0.043757148
231	0xbe78eeab	-0.24309795
232	0x3fa1d4a8	1.2643023
233	0x3ebf1d48	0.37327027
234	0xbed51934	-0.4162079
235	0x3ea1e40e	0.31619304
236	0x3e8b6e27	0.27232477
237	0xbe8db7a3	-0.27679166
238	0x3fe6c5d5	1.8029124
239	0x3f1dd1fc	0.61648536
240	0x3e954d72	0.2916065
241	0xbf3cbe1c	-0.73727584
242	0x3e996973	0.29963264
243	0x3e8507b3	0.25982437
244	0x3f4ae380	0.7925339
245	0xbe0723ed	-0.13197298
246	0x4014f300	2.3273315
247	0xbf8408d1	-1.031519
248	0x3f18b543	0.59651583
249	0x3ecb2ed9	0.3968418
250	0xbf0f21c6	-0.5591091
251	0xbfc8f81f	-1.570072
252	0xbf28eff6	-0.6599115
253	0x3e677af7	0.22605501
254	0x40201f2f	2.5019033
255	0xbeb43b8d	-0.35201684

output.2.weight f4 [7, 261]
0	0xbf218e2d	-0.6310757
1	0x3c595769	0.013265469
2	0x3d6bfb72	0.057612844
3	0xbda31fc8	-0.07965046
4	0xbcaed5fb	-0.021342268
5	0x3f27d556	0.655599
6	0x3bd4f5a7	0.0064990106
7	0x3dabd5b2	0.083903685
8	0xbceb9fed	-0.028762782
9	0x3d1aca71	0.03779072
10	0x3e9b8106	0.30371875
11	0x3ad791ae	0.0016446614
12	0xbcd3295c	-0.025776558
13	0x3d46d9a4	0.048547402
14	0x3b2d035e	0.0026399712
15	0x3cdb1623	0.026743954
16	0xc017a9a2	-2.3697286
17	0xbd4d1157	-0.050065365
18	0x3d7ccb2b	0.061717194
19	0x3ea54903	0.32282266
20	0xbe2f3024	-0.17108208
21	0xbe09de6d	-0.13463755
22	0x3d6ced07	0.057843234
23	0x3e29cdc0	0.16582394
24	0x3d1b86bb	0.037970286
25	0xbc455703	-0.012044671
26	0x3dbdae36	0.09261744
27	0xbd89429a	-0.06702156
28	0xbd4d05fa	-0.050054528
29	0x3e7c12c3	0.24616532
30	0x3b2765be	0.002554282
31	0xbc80ac29	-0.015707092
32	0xbc84ceb4	-0.016211845
33	0xbcd6fb24	-0.0262428
34	0x3de93a43	0.11388066
35	0x3bcd9a10	0.006274469
36	0xbd3099ce	-0.04311543
37	0x3c7115b3	0.014714646
38	0x3d5a3178	0.053269833
39	0xbb4c4391	-0.0031168202
40	0xbca0d807	-0.01963426
41	0xbee23e0a	-0.44187957
42	0x3d011a01	0.03151894
43	0x3d0dafc8	0.034591466
44	0x3cbb1dd5	0.022841373
45	0xbb28fe04	-0.002578617
46	0xbd4dd0d0	-0.050247967
47	0x3c9172e5	0.017754981
48	0x3d8e28e5	0.06941394
49	0xbd17bb92	-0.037044115
50	0xbd4b1f0d	-0.04959016
51	0x3ca6a3b2	0.020341728
52	0xbc5d786c	-0.01351748
53	0x3d294365	0.041324038
54	0x3d943d4c	0.07238254
55	0xbd395f54	-0.045256928
56	0x3d9eb8c8	0.07750088
57	0x3e7659ef	0.24057744
58	0x3c21fe22	0.00988725
59	0x3a09b43e	0.00052529934
60	0x3e0e1cbc	0.13878149
61	0x3d4d48e4	0.050118342
62	0xbd33d84e	-0.043907456
63	0xbd27e00b	-0.04098515
64	0xbd89cbf8	-0.06728357
65	0xbd9f18c8	-0.077683985
66	0x3c26546e	0.010151966
67	0xbd12bc8e	-0.03582435
68	0xbde91ddc	-0.11382648
69	0x3d3b7b5d	0.045771945
70	0xbd1ac95a	-0.03778968
71	0x3d6df025	0.058090348
72	0xbd641dba	-0.055692412
73	0x3d12d9a5	0.035852093
74	0x3cd32133	0.025772667
75	0x3d432fd1	0.047653023
76	0xbcf2f318	-0.029656932
77	0xbd83f0a4	-0.06442383
78	0xbe132c82	-0.14372447
79	0x3d8d9fab	0.0691522
80	0xbeaadcd2	-0.33371598
81	0xbd4449eb	-0.047922056
82	0x3f3a6178	0.72804976
83	0x3e3c1373	0.18366794
84	0x3da28e74	0.07937327
85	0x3d3c6ec5	0.046004076
86	0xbb99e070	-0.0046959445
87	0xbd4961e1	-0.04916561
88	0x3d04ad25	0.032391686
89	0x3d52930c	0.051409766
90	0x3d278dc5	0.040906686
91	0xbe2ef4e7	-0.1708561
92	0xbd52ba94	-0.051447466
93	0xbcb29a83	-0.021802193
94	0xbc30cbe2	-0.010790797
95	0xbc22a882	-0.009927871
96	0x3f6a4325	0.91508704
97	0x3d540bb9	0.051768992
98	0x3d463ed9	0.04839978
99	0x3e0975de	0.13423869
100	0x3d86dcbc	0.065850705
101	0xbd5f98de	-0.054589145
102	0x3d03c72c	0.032172367
103	0x3d44ba73	0.048029374
104	0xbc8c82e4	-0.017152257
105	0x3da661e7	0.08124142
106	0xbd93fa29	-0.07225449
107	0x3d101b3a	0.035182215
108	0xbd37d8be	-0.044884436
109	0x3da5bd4e	0.08092748
110	0xbff09aa3	-1.8797191
111	0x3b0e0490	0.00216702
112	0x3d68c41f	0.05682766
113	0x3d44d45b	0.04805408
114	0xbd832f64	-0.064055234
115	0x3cf4fb37	0.029904945
116	0x3e6c33e3	0.23066668
117	0x3d940378	0.07227224
118	0x3d5ad169	0.053422365
119	0xbe7cbf51	-0.24682356
120	0xbd28d484	-0.041218296
121	0x3deff68c	0.11716947
122	0x3da37b70	0.07982528
123	0xbc849d60	-0.016188323
124	0x3b82bca6	0.003989774
125	0xbdc38bce	-0.0954815
126	0x3e9101e7	0.28321764
127	0xbf21b4b1	-0.6316634
128	0x3d9452c5	0.072423495
129	0x3dae4dbe	0.08510922
130	0xbd450867	-0.048103716
131	0x3dbf33ae	0.09336029
132	0x3c8b1e1f	0.016982136
133	0x3d3e7db2	0.04650659
134	0xbc8bf639	-0.017085182
135	0x3d064067	0.032776263
136	0xbd2bf308	-0.04197982
137	0x3c994f17	0.01871447
138	0x3d0d1a7e	0.034449093
139	0xbc08a85c	-0.008340921
140	0x3eede41a	0.4646309
141	0x3ae82638	0.0017711585
142	0xbe563648	-0.20919144
143	0x3cc55b43	0.024091369
144	0x3d163699	0.036673162
145	0x3d0ec58d	0.034856368
146	0x3c952c8c	0.018209718
147	0x3c6846f7	0.014177076
148	0x3d179326	0.037005566
149	0x3db82f4d	0.08993397
150	0xbd8cc27d	-0.06873033
151	0xbf701296	-0.9377836
152	0xbd64b879	-0.05583999
153	0x3e9caeef	0.30602214
154	0x3ce6817b	0.028137913
155	0x3d147aa7	0.036249783
156	0xbdc2624e	-0.094914064
157	0xbda131b2	-0.07870807
158	0xba384859	-0.00070298236
159	0x3d62ca35	0.05536862
160	0x3d21b100	0.03947544
161	0xbdd27236	-0.1027569
162	0x3cd8ac89	0.026449459
163	0xbd5ef508	-0.0544329
164	0x3d82d91a	0.06389065
165	0xbc9776e0	-0.018489301
166	0xbdcca110	-0.09991658
167	0xbe284962	-0.16434243
168	0x3c95ea24	0.018300124
169	0xbb560bb0	-0.0032660775
170	0xbdd84271	-0.10559548
171	0xbd494b71	-0.049144212
172	0x3d6491b2	0.05580301
173	0x3cbc1a03	0.022961622
174	0x3d4d3735	0.050101478
175	0xbd794fe6	-0.060867213
176	0x3d0c6416	0.034275137
177	0x3dffed60	0.124964476
178	0x3d307981	0.043084625
179	0x3b16e4d8	0.0023024585
180	0xbfdde6ad	-1.7336022
181	0x3db62b75	0.088950075
182	0x3c96038d	0.01831224
183	0xbd70f4b5	-0.05882712
184	0xbcd61740	-0.026134133
185	0x3dad4abe	0.084615216
186	0xbe23106f	-0.15924238
187	0x3d4d8ecd	0.050185014
188	0xbce44c40	-0.02786839
189	0x3cbcba59	0.023038076
190	0xbc3e7e3a	-0.011626774
191	0xbea016d5	-0.3126742
192	0x3d564bea	0.05231849
193	0x3eb78a63	0.35847768
194	0xbc962bee	-0.018331494
195	0xbd43c237	-0.04779264
196	0x3ca34e7f	0.01993489
197	0x3b6b599d	0.0035911568
198	0x3cddbbf6	0.027067166
199	0xbcf4908f	-0.029854087
200	0xbd9c454b	-0.07630404
201	0x3d02c0f2	0.03192229
202	0x3b9e140f	0.0048241685
203	0xbcbb3ffa	-0.022857655
204	0xbe22f4f5	-0.15913756
205	0xbd8f62f4	-0.07001296
206	0xbc34fdf1	-0.0110468725
207	0xbd4273a0	-0.04747355
208	0x3cba2818	0.022724196
209	0x3e7cce25	0.24688013
210	0xbb82c3cc	-0.003990626
211	0xbd790b75	-0.060801942
212	0xbdc9756d	-0.0983685
213	0x3dfcaf43	0.12338116
214	0x3c181338	0.009281926
215	0xbcf66e54	-0.030081905
216	0xbe14f87a	-0.14547911
217	0x3cc20908	0.023685947
218	0xbc17136b	-0.009220938
219	0xbc507ef8	-0.012725584
220	0x3bc81957	0.0061065364
221	0xbcd8a72c	-0.026446901
222	0x3cbeaf0f	0.023276834
223	0x3d511b12	0.051051207
224	0xbe485d3f	-0.1956682
225	0xbe1a56a0	-0.15072107
226	0x3ca46341	0.02006686
227	0x3dae0007	0.08496099
228	0x3d8b4352	0.0679995
229	0xbd0c66dc	-0.03427778
230	0x3da0193e	0.078173146
231	0xbce00be8	-0.027349427
232	0x3cdc9b06	0.02692939
233	0x3c070967	0.008241988
234	0x3ee855cd	0.4537796
235	0x3bb660b3	0.0055657267
236	0x3d9275ac	0.071513504
237	0x3d49ebbe	0.049297087
238	0x3de6fe0a	0.11278923
239	0x3d88ca5c	0.06679222
240	0x3d8eebeb	0.069785915
241	0x3b83ceda	0.0040224614
242	0x3cd6c819	0.02621846
243	0xbd7045e9	-0.05866042
244	0xbc274e67	-0.010211564
245	0xbdef71c7	-0.11691623
246	0x3f7b99d1	0.9828158
247	0x3f51e636	0.819919
248	0xbe09e5f4	-0.13466626
249	0x3db1b5de	0.086772665
250	0xbc16b9e7	-0.009199596
251	0x3d847164	0.0646694
252	0xbd32f20c	-0.043687865
253	0x3d155fd3	0.03646834
254	0x3daa9341	0.08328868
255	0x3dafe6f1	0.085889705

output.2.bias f4 [7]
0	0x3effffe4	0.49999917
1	0x3e0667f3	0.13125591
2	0xbebfd503	-0.37467203
3	0xbcbd0a47	-0.02307619
4	0xbdbdc543	-0.0926614
5	0xbcb1ac5a	-0.021688629
6	0x3db9d4ba	0.090737775
