output/models/49.08Acc_H1_OneLayer369Units_ReLU_CrossEntropyLoss_Adam_0.001lr_7221epochs_10batches.pth (torch, 23149 bytes, 4 tensors)

output.0.weight f4 [369, 6]
00000000: c603 623e 6f60 6bbd bd76 283e 3430 78be
00000010: 96ef d53e eaed d2be 99d8 ad3c fc70 69bf
00000020: d504 cd3d 3af2 5b3d e9f7 883f 28a9 6bbf
00000030: 62a4 2c3d b342 1d3b ade7 e03d 64aa 383d
00000040: ca4c 8abc 45c9 dabe 8535 a1be 55e9 6d3d
00000050: e2eb 013e 5bc7 debd 3d60 acbd f36d 9fbd
00000060: 49fc 203e db33 583e 96c5 d3bc 1a6a 8dbe
00000070: 2750 a9bf 671d 2f40 42b9 7cbe 16fb bebf
00000080: 547d 843d b86f 83be 9415 833f 5797 92bf
00000090: a968 723e f500 a3be 3363 3b3e c42e c2be
000000a0: 3775 a53e d4cb 193f be8b 0b3e 95fa 1ebd
000000b0: e0ea b73d c9ce 3d3d 51ff 52bf e548 3e3f
000000c0: 65e4 f7bd b952 32bb c826 563c f449 063e
000000d0: 0eb5 f1bf 0233 39c0 0695 80be 4c50 11be
000000e0: cf9b 9abe e03b 92bc 2895 14bd 06fb a73e
000000f0: d855 3fbd 8609 0abe 648f 83be 3396 babe
00000100: b493 6d3e dcc5 afbe 58ba 8cbc 592f 9bbe
00000110: ec75 173e 1e91 513d 8acf c73e 655c 4dbf
00000120: 3b55 fdbe e4b6 853e e31a 293b 5485 10bd
00000130: 460f 0a40 29a7 8e3f 6bf6 043f 726f aabe
00000140: 13c4 bdbe 91f8 263f 3b1e bc3f fbde 5f3f
00000150: 0ce5 f3be d204 853e 1f9c 9cbe 9e0e d33e
00000160: a653 983f 80cd b8bf 80f2 27be 01a5 1c3d
00000170: a24b ae3d 8f32 e63c 8184 d43e a2c4 27bf
00000180: 2444 153f ca93 babe 68a2 f7be 38a1 0f3f
00000190: ca2b ca3d 04f2 ff3f a829 72be 814e 6b3d
000001a0: aaed e0be 8491 60bf 6c20 a740 0a64 28c0
000001b0: 0b45 c4bc 6c71 af3d adf6 d43d f118 68be
000001c0: da9a 25be 351e a1bf 09c3 823e 7a70 7cbe
000001d0: 7eab 6b3e 7784 133e 851e 71be 1cd8 8e3e
000001e0: 093b f7bc de47 783e f120 67be 5c01 223e
000001f0: bc7e 3440 7697 e13f 3cf1 743d dcd0 7dbe
00000200: 6e09 583e 8dd7 4bbe 48c8 92bf 0deb 64bf
00000210: 6a06 033f 749d 75be e3fe 0abd 3eea 24bf
00000220: b256 413f aa8e 31bf fd6a a83d 6c8d a5bb
00000230: 57a8 2e3e f23c 89be cd99 7dbe ae45 0a3f
00000240: 7186 72be c0e5 aebb a26c 88be b02c e8bc
00000250: 9829 663e 40b3 463e 59e6 35be 83a1 893e
00000260: 3427 85be 30f1 3bbf 5135 d43f 6e0a babf
00000270: 9070 583e 5b80 b2be bbc7 cabe 4265 80be
00000280: 3a61 3bbe d95d 91be af5e 7dbd a987 0f3e
00000290: 6b29 a9be 3c5c 3f3e e88c aebf 1771 26c0
000002a0: bcca 02be 5f54 813d e29a 943c 2921 9d3e
000002b0: a7f0 5e3e afdb 52bf 2f37 8dbe 07e4 3c3e
000002c0: f9de a53d bda6 91bd 443c 86bf f6ad fcbe
000002d0: 08f3 b93d ed14 b3bd fa54 2a3e 6baa 8f3b
000002e0: 3b01 f1be 0348 0c3e a14c 5b3c 90ac f5bd
000002f0: b17a 0b3e 355a 343e b366 d0bd 59ea b23e
00000300: 6f98 40be f2ae 2dbd 844b 2d3e 0e6e 47be
00000310: e2c2 513d 773d fcbb 8b21 77be 4f0b 123e
00000320: 8943 e93c 13a6 883e 65a7 3e3d c6b0 133f
00000330: df51 0bbf dccd a13d 4954 08be 3897 1e3d
00000340: 2fdf d5c0 2fad 3c40 3686 33be fe1c 413e
00000350: a45d 7ebc 31e3 a83e 3d60 e4bd 3678 cabe
00000360: da85 b9be 603b 71be b71a b9be dafc 2bbe
00000370: a4ef 52be c0d1 49be 6cb1 a1be 055e 52be
00000380: 8c8e 813e edad abbe d6a7 99bf 787a 463e
00000390: 9fe4 503e 3fb1 4d3e 19a3 c33d 01ef 54be
000003a0: 7f40 923e e83f 63bf f02a 253d 6508 67bc
000003b0: 0272 ae3d 2b88 58be 7834 50be 131c 0dbf
000003c0: 910f c3be 6cb6 69be 0332 3fbe 040d babe
000003d0: 18ce 72bd b4cc 8b3d ee54 473d bb63 68bd
000003e0: ae83 8c3d 9f8e 293e fbb6 6fbe 5248 373e
000003f0: c431 d93e 29f7 74be 30ab 0a3e bd40 a0be
0.22071752 -0.057465013 0.16451545 -0.24237138 0.41784352 -0.4119714 0.021221446 -0.91188025
0.10010687 0.053697802 1.0700656 -0.92054987 0.042148955 0.0023996055 0.10981689 0.045084372
-0.016882319 -0.4273168 -0.31486145 0.05808385 0.12687638 -0.10877868 -0.084167935 -0.07784643
0.15721239 0.21113531 -0.025851052 -0.27620012 -1.3227586 2.7361696 -0.24680045 -1.4920375
0.06469217 -0.25671172 1.024096 -1.1452435 0.23672737 -0.31836668 0.1829956 -0.37926304
0.3231599 0.6007664 0.13627526 -0.038813192 0.08980346 0.046339784 -0.8242083 0.7432998
-0.1210411 -0.002720995 0.01307077 0.13114148 -1.8883379 -2.8937383 -0.25113696 -0.14190787
-0.30196998 -0.017850816 -0.03627506 0.32808703 -0.046712726 -0.13480195 -0.25695336 -0.36442718
0.23200876 -0.34330642 -0.0171787 -0.3030956 0.14791077 0.051163785 0.39025527 -0.8021911
-0.49479088 0.26116097 0.002580338 -0.0352834 2.1571822 1.1144763 0.51938504 -0.3328815
-0.37063655 0.6522303 1.4696726 0.87449616 -0.47635686 0.2598024 -0.3058786 0.4122209
1.1900527 -1.4437714 -0.164011 0.038243297 0.085105196 0.02810028 0.41507342 -0.6553441
0.583071 -0.3644088 -0.48366094 0.56105375 0.09871633 1.9995732 -0.23648703 0.057447914
-0.43931323 -0.8772204 5.2227077 -2.631106 -0.023958704 0.085665554 0.10398612 -0.22665764
-0.16172352 -1.2587343 0.25539425 -0.24652281 0.23014638 0.14406 -0.23546799 0.27899253
-0.030179517 0.24246165 -0.2257116 0.15820831 2.8202353 1.7624347 0.05980037 -0.24786705
0.21097347 -0.19906445 -1.1467371 -0.8942116 0.5118166 -0.23985845 -0.033934485 -0.64419925
0.7552291 -0.69358313 0.082235314 -0.005052259 0.17056404 -0.2680431 -0.24765702 0.5401257
-0.23684098 -0.005337447 -0.2664538 -0.028341621 0.22476804 0.19404316 -0.17763652 0.26881036
-0.26006472 -0.734149 1.6578771 -1.4534433 0.21136689 -0.34863552 -0.39605507 -0.25077254
-0.18298808 -0.28391913 -0.061857875 0.14016594 -0.33039412 0.18687528 -1.3636751 -2.6006525
-0.1277265 0.06314921 0.01814026 0.30689362 0.21771489 -0.8236646 -0.27581164 0.1844636
0.08099169 -0.07111881 -1.0487142 -0.49351472 0.09079558 -0.08744226 0.16633978 0.004384329
-0.4707125 0.13699345 0.013384969 -0.11995804 0.13621022 0.17612536 -0.10175838 0.34944418
-0.18808149 -0.04240317 0.16923338 -0.19475576 0.051211245 -0.007697757 -0.2413389 0.14262126
0.028474586 0.26689205 0.04654636 0.5769161 -0.544218 0.07900593 -0.13313402 0.038718432
-6.683494 2.9480703 -0.17531666 0.18858716 -0.015525255 0.32985833 -0.111511685 -0.3954484
-0.36234933 -0.23557806 -0.36153194 -0.16795674 -0.20599228 -0.1970892 -0.31580675 -0.20543678
0.25304067 -0.33531132 -1.2004344 0.19382656 0.20399712 0.20087145 0.09552593 -0.20794298
0.28564832 -0.8876939 0.04032415 -0.0141011225 0.08517839 -0.21145694 -0.20332515 -0.5512096
-0.38097814 -0.22823495 -0.18671422 -0.36338055 -0.059278578 0.068261534 0.04866498 -0.056735735
0.068610534 0.16558312 -0.23409645 0.17898682 0.4242078 -0.23922409 0.13541865 -0.3129939

output.0.bias f4 [369]
00000000: 4195 eebe f513 1f3f 54e0 1bbf 234a 1f3f
00000010: aec0 d6bd cfe6 0940 12ce a13e 62dc a9bd
00000020: b8f9 573e 8886 113e 80dc cb3d ed23 9d3e
00000030: d6ab 17bf ae0b ae3d bde0 243f 77ed 0abf
00000040: 1ac4 023f 9c5f 0b40 54e1 19bf 2641 983e
00000050: 2f30 dcbd f25f a6be b609 b23e fa38 bf3e
00000060: 196a 50be 552d d83e f484 523e fa52 5e3f
00000070: 7dcd 3cbf 97b3 8ebe dfb3 933e 56a9 1cbf
00000080: 557b 2bbe 7e23 453d 398c ef3e 8461 833e
00000090: a000 c33e a5e2 673e 518c fd3d b3fd 3a3e
000000a0: f249 9bbe 74d0 38be eb6c 3a3d 2542 be3f
000000b0: d1b7 0ebe 4e15 733f f0ee d73f 1165 1f40
000000c0: 5ebc 0c3f b6b8 3240 54bf 0f3f 71cf 0840
000000d0: 1d20 b03f 393b dabd bef8 c93a 130d 66be
000000e0: c9a8 f5be f2fa 5b3e 52a1 90be 70e3 183e
000000f0: 2313 11bf bf16 3cbe 5c43 2a3e 414e 3a3f
00000100: f3b9 80bf 74f0 ecbd 0f4d 6b3e a61d bbbf
00000110: 5d45 8fc0 4ff2 253f c803 88bd 7d23 e9be
00000120: 34a9 3b3f 0ded 223f 5413 80be 41b6 87bd
00000130: 34a2 dfbe a31c 5d3e fcdd 873f cd79 cfbf
00000140: 6986 5abf eeb0 983e 2c36 413e 9dfa b9bd
00000150: 676d 5dbf f005 4c3e f4c9 d63e 4014 433e
00000160: c4f9 593f 91eb 27bd 6fd6 853e d6b3 aabe
00000170: b119 033e f77e 563f 13c2 053f 15e4 c23d
00000180: 74e5 f83e b9fc debd 7add a03e ff06 143f
00000190: 1e6f fe3e c2cd 513d 204d 813d c4ae 78bf
000001a0: 1a28 253f 5487 97be 9951 6b3f 1db2 33bf
000001b0: 1bf5 babf 42ef 583f cbe1 e23e 7909 cdbe
000001c0: 6af2 b73f dc2f e33e 4848 d53e d83b a2bf
000001d0: 8403 3d3f 64e1 063e 83c3 30bd 98a7 02bd
000001e0: 54e1 833e 0721 e9bf e3f5 9bbe cbbe 7dbf
000001f0: 0a74 593f 126f 1fbf 50a4 d03e 003f 12be
00000200: 77d9 963e 86da a83e 20bb f1be c041 423d
00000210: c0d8 b6be fbec ef3e 512b 8ebe 7ee7 65bf
00000220: e2b3 40be d9c5 113e ca65 bcbe 7374 04bd
00000230: 7229 92c0 dcaa 19bf 2c67 a3bf 804f 603f
00000240: 03fa a5bf 7d8c 71be 9695 a7bf 5074 c03e
00000250: 5412 3f3e 41d9 70be 9f61 8dbe 18f1 673d
00000260: 5da0 f53f 2ba9 6c3f d50b 88bd b884 acbf
00000270: 1cc3 933d 73c7 b2be 31c3 a8bf a048 703e
00000280: c28b 59bd d4d0 02bf 7eb6 0dbf d67f cebe
00000290: 7637 8b3d 6cf6 8ebe 3b78 253f aca2 e9be
000002a0: 0e44 88bf dd1f f2be 8b01 5abb 1229 43be
000002b0: e952 9cbe a1c7 86bf b560 bcbe 48a9 debd
000002c0: d155 d2be b5e7 333f 4057 7e3f e7db e7be
000002d0: eceb 5b3d 434d 023e 89e7 113f 4f72 afbe
000002e0: eba2 cdbe 0fcd 3e3e 0337 b53d eda1 2fbd
000002f0: 5d77 c8be 7a98 ad3f c63a af3e 967a 573f
00000300: a13c b0be 524a 2fbf 079c 1ebf 6ba4 c83e
00000310: 3ccb 8fbf 9e84 d73e b5cf 723f f93f abbe
00000320: fba2 ea3f 5f3f c2be 9760 17bf adc8 893e
00000330: c834 9dbe 678f 38bf bdf4 c03f 7c80 7dbd
00000340: 42f7 a4be 42d1 62be 40e8 b1bd a3e3 d8be
00000350: fc2f a7bd 112d e63d 2c83 63be ef30 5e3e
00000360: 42bb 8abf 8713 a93e 5a21 c93e 79cd 4dbd
00000370: 6dad c5be 83d1 af3f 44e7 85be f8b9 51bf
00000380: 9606 eebe 5875 373e 7cc9 1a3f 883d d7bd
00000390: 3a61 1c3f bbab 48bf bc0f 0f3f 7c3e 5cbf
000003a0: 24b5 9abf e8a6 aebf 02ba b33e 4636 933d
000003b0: 9ae9 1740 55f1 98bf b473 953e bce0 b7bf
000003c0: c9dd bbbe 7b65 d53c c03c ecbd 4c62 c5be
000003d0: 0eb0 9e3e 9408 a8bf 76e5 c0be f45d 6a3e
000003e0: 1a94 013f c646 513e 2559 a8be 8271 11be
000003f0: 9b08 ad3f bf02 cf3e f237 823d 13b7 083f
-0.46598247 0.62139827 -0.6088917 0.622225 -0.104859695 2.1547124 0.31602532 -0.08293988
0.21091354 0.14211476 0.099541664 0.30691472 -0.59246576 0.084983215 0.64405423 -0.5426859
0.5108048 2.1777105 -0.6010945 0.29737204 -0.10751378 -0.32495075 0.34773034 0.37348157
-0.20352973 0.42222086 0.2055853 0.8684536 -0.7375105 -0.2787139 0.28848168 -0.61195886
-0.16746266 0.04812955 0.4678667 0.25660336 0.38086414 0.22645052 0.12380279 0.18260841
-0.30329853 -0.18048269 0.04551403 1.4863936 -0.13937308 0.94954383 1.6869793 2.4905436
0.54974926 2.7925239 0.5615132 2.1376612 1.37598 -0.10655827 0.0015409214 -0.22465925
-0.47980335 0.21482447 -0.28248078 0.1493051 -0.56669825 -0.18368052 0.16627258 0.72775656
-1.0056747 -0.115693 0.22978614 -1.4618423 -4.477217 0.6482286 -0.06641346 -0.45534888
0.7330506 0.6364296 -0.25014746 -0.06626559 -0.4367844 0.21592955 1.0614619 -1.6209046
-0.85361344 0.29822487 0.18868321 -0.09081004 -0.8649506 0.1992414 0.41950953 0.19050694
0.8514674 -0.040996138 0.26140162 -0.3334033 0.12802769 0.8378748 0.5224926 0.095161594
0.4861256 -0.10888047 0.31418973 0.57823175 0.4969415 0.051221617 0.063135386 -0.9714167
0.64514315 -0.29595435 0.91921383 -0.70193654 -1.460605 0.8474008 0.4431289 -0.4004629
1.4370854 0.4437245 0.4165671 -1.2674513 0.7383349 0.13171917 -0.043155205 -0.03189811
0.2575785 -1.8213204 -0.30461034 -0.9911925 0.84942687 -0.62278855 0.4075036 -0.14281845
0.29462788 0.3297922 -0.47213078 0.047425985 -0.35712242 0.4686049 -0.27767423 -0.89806354
-0.1881862 0.14235629 -0.3679641 -0.032337617 -4.5675592 -0.60026336 -1.276586 0.8762131
-1.2966923 -0.23588748 -1.3092525 0.3758874 0.18659335 -0.23520376 -0.2761354 0.05662641
1.9189564 0.9244563 -0.06642882 -1.3478003 0.072149485 -0.34917793 -1.3184568 0.23465204
-0.0531118 -0.51099896 -0.55356586 -0.40331906 0.06797688 -0.2792238 0.6463658 -0.4563192
-1.0645769 -0.47289935 -0.003326508 -0.19058636 -0.30532005 -1.0529672 -0.36792532 -0.108721316
-0.41081098 0.7027543 0.9935188 -0.4528496 0.05369179 0.12724786 0.5699392 -0.34266898
-0.4016336 0.18632911 0.08848383 -0.042879034 -0.39153567 1.3562157 0.34224528 0.84171426
-0.34421256 -0.6847278 -0.6195683 0.3918794 -1.1233897 0.42093366 0.94848186 -0.33447245
1.8330988 -0.37938973 -0.5913176 0.26910916 -0.3070433 -0.72093815 1.5074688 -0.06189011
-0.32219893 -0.22150138 -0.08686876 -0.42361173 -0.08163449 0.112390645 -0.22218007 0.21698354
-1.0838397 0.3302271 0.39283258 -0.050244782 -0.38608876 1.3735813 -0.26153004 -0.8192439
-0.464894 0.17915857 0.6046369 -0.10509783 0.61085856 -0.7838704 0.55883384 -0.86032844
-1.208653 -1.3644686 0.3510285 0.07188086 2.373633 -1.1948649 0.29189837 -1.4365458
-0.36692646 0.026049366 -0.11535025 -0.38551557 0.30993694 -1.3127618 -0.37675065 0.22887403
0.5061661 0.20437154 -0.32880512 -0.14203456 1.3518251 0.40431783 0.06358327 0.5340435

output.2.weight f4 [7, 369]
00000000: bd7b 7abc c125 2fbd 0226 a4bc 3541 803c
00000010: d6a7 16bd 7cb1 bebd 9666 8fbc 0b1a 20bd
00000020: 40cb f4be 40ea 9d3c dafd 3b3d 8a9a 543d
00000030: 3c08 8d3d e031 53be 57bb 483d 48f2 dd3c
00000040: ff63 c6bf 25c5 ec3d 4be5 e0bb 1f1f dc3c
00000050: 994a e1bc 2150 06bd 2228 afbb 15ec 533c
00000060: 5660 503d 1b9e 9f3c c8cc 343d d402 043d
00000070: 300d 17bd 2a23 29bd 9da6 ba3c d795 89bd
00000080: faa1 973d f5b1 073c 2435 0cbd 90c9 0a3d
00000090: c086 a33a 91a1 2dbd 9fab 873c 8166 cfbc
000000a0: 301f d03b f560 46bd 524b bf3c 9a53 7bbd
000000b0: 7d69 f53b d005 403d 24d4 243d d365 2b3e
000000c0: d648 573d 1843 22be f6e8 2f3d e88b 553c
000000d0: 87f4 0b3d 60b5 44bb 77ac d33f 13cd b0bc
000000e0: ac82 70bc 54da 40bd 4072 12bb a0e5 dfbc
000000f0: 1dbb 0cbd 1e6c 34bd 0f30 d2bc b3e0 803e
00000100: ee0f 5bbe 1cba 9fbc c1c6 e93c c3d3 ff3c
00000110: 2c52 f8bd 9b5f 5bbd 9035 e13c eefb d5bc
00000120: dbe6 1d3d 78dc 003d c222 7c3c 4970 13bd
00000130: be63 39bd 9b02 cebe 687b e93c 2c5f 7bbc
00000140: 8db1 7ebd d8e1 dcbb 80fe 5abb b012 293d
00000150: 75ff ab3e 83c0 ac3e 86a5 9a3e 5a23 91bb
00000160: 72f9 30be c9be c3be 0720 97bc be33 453d
00000170: 4743 5f3b 949a a8bd dda7 8d3f 2ccb e23f
00000180: 9540 72bc 8f64 f0bc d856 ee3c a175 d63b
00000190: ebf1 8ebd d855 57bc 1d63 e8bc 47ab 773c
000001a0: 8242 533c 1d7a 2bbe 5603 4f3e 1f06 4cbd
000001b0: 594c a23e b608 a4bc a7e5 013d 0942 903a
000001c0: 00a8 0f3d 3ca8 6d3c f4fc cb3e bfed 31bb
000001d0: e47e 35bd e00a 1a3d 1538 30bf 503b 46bb
000001e0: 609a 2e3d 99a7 60bd 8eff b93d c409 2ebd
000001f0: 4c4a e03d 4117 8ebc 4457 2a3d c958 88bc
00000200: c452 2dbc e4f4 7f3d 074c 403c 1258 9abc
00000210: 0c72 b33e abc2 32be c045 1dbd 7291 0e3c
00000220: c651 dabc b873 57bd 1172 a1bb b97a 2dbc
00000230: 1515 f8bd 6dd2 afbd 321f 6b3e b38b edbd
00000240: 56ed b4bc 86f1 8d3a ad5d 70bf 970a 8d3c
00000250: 2474 09bd 9f06 b53d f51f 72bd ebdb bb3c
00000260: bc29 043c 07f3 013d f850 dcbb ef48 9abf
00000270: 26eb 373d 2c78 57bc 1c12 d3be 39c3 bcbc
00000280: 0dc1 41bb c58c 11be b664 bf3c fb0e fa3e
00000290: 4d16 73bb 4a37 0b3d d80d 593d c0be 06bb
000002a0: 9e73 ac3d db73 30bc 089c a23e 4dbc e3bb
000002b0: 166d 943c e831 443f 4afa 15bd 6072 813c
000002c0: 207f 24bc af63 463c d4d8 8cbb b415 8b3d
000002d0: 559c 283c 7736 413d b402 073d a24c 4a3a
000002e0: c821 263d d387 f83c c833 8a3d a2bf 873d
000002f0: 1108 aebc 68dc 4c3d 0cb3 a8bc 442d bb3e
00000300: 034a 963d 1f11 82bc 946e 1d3b 18cc 0c3d
00000310: 2d2e f23d f555 063d 7cee cebc c39c f6bc
00000320: 7c42 283d fb2e 3f3c 0d23 2dbe 5375 70bb
00000330: 2cfb bf3c b377 8eba 7bda 693c f314 af3c
00000340: 1c4c c33c 8029 43ba d8fa cd3c cc9d 15bd
00000350: 7c0b 4e3d f95e 8b3d 0f5f 8b3c 7b00 0c3d
00000360: 1747 98bd c997 58bd b119 413b 3f7a 363c
00000370: 5a9c 12bd 1f6d b33e cc88 39bd 9aaf 723e
00000380: c82c 3abd 068b a3bc 339d 243d ec74 7b3b
00000390: d816 d63d a9ac 8bba 92ea 883c 91dc 04be
000003a0: ef36 2b3c def3 00bc 6824 fc3c c283 3abd
000003b0: 2677 043e 0f99 2cbc eb85 163d 1036 b73f
000003c0: 7712 0cbe 74d9 f53a ee4c 6bbe 00f9 9d39
000003d0: 04a6 a6bc 0451 10c0 b56a b0bc 70f5 b53c
000003e0: 0249 193c 017a f23c 8af3 e9bc 3173 eabc
000003f0: e7b8 6a3d dc97 a93b 6bf4 143d 4695 0c3d
-0.015288291 -0.042760614 -0.020037655 0.015656093 -0.036781155 -0.09311196 -0.017504971 -0.039087337
-0.47811317 0.019276738 0.04589639 0.051905192 0.06886336 -0.20624495 0.049006786 0.027093068
-1.5499266 0.1156104 -0.0068632714 0.026870308 -0.027501391 -0.03279126 -0.0053453604 0.012934704
0.050873123 0.01948457 0.044140607 0.03222926 -0.03687781 -0.0412933 0.022784526 -0.06718033
0.074039415 0.008282174 -0.034230366 0.03388363 0.0012476072 -0.04239041 0.016561328 -0.025317432
0.006351374 -0.04843231 0.023351345 -0.061359026 0.007489382 0.046880543 0.040241376 0.16738062
0.052559696 -0.15845907 0.04294678 0.0130338445 0.034168746 -0.0030015334 1.6537007 -0.021582162
-0.014679592 -0.047083214 -0.002234593 -0.027331173 -0.034358133 -0.04404842 -0.025657682 0.25171432
-0.21392795 -0.019497924 0.028537156 0.031228906 -0.12125048 -0.053557973 0.02749136 -0.026121106
0.03855024 0.031460255 0.015389146 -0.035995755 -0.045261137 -0.40236363 0.028501227 -0.015342515
-0.062181044 -0.00674079 -0.0033415854 0.041277587 0.33593336 0.33740625 0.3020441 -0.004429263
-0.17282656 -0.38231495 -0.018447889 0.04814505 0.00340672 -0.082326084 1.1066853 1.7718253
-0.014785905 -0.029344825 0.029094145 0.006544784 -0.06979736 -0.013143025 -0.028367573 0.015116519
0.012894275 -0.16745801 0.20216116 -0.049810525 0.31698874 -0.020023685 0.031713154 0.0011006008
0.035072327 0.014505442 0.39841425 -0.0027149764 -0.044310465 0.037608027 -0.68835574 -0.0030247755
0.042627692 -0.054847334 0.09081946 -0.042489782 0.10951671 -0.017345073 0.04158713 -0.016643899
-0.010578815 0.062489405 0.011736876 -0.018840823 0.35047948 -0.17457072 -0.038396597 0.008701669
-0.02665032 -0.052600592 -0.004926928 -0.010588341 -0.12113396 -0.085850574 0.22961119 -0.11598911
-0.022085827 0.0010829426 -0.9389294 0.017216964 -0.033558026 0.088391535 -0.059112508 0.022932013
0.008066591 0.03172591 -0.0067235194 -1.2053508 0.04490199 -0.01315121 -0.41224754 -0.023042308
-0.002956453 -0.14213856 0.023363452 0.48839554 -0.003709215 0.033988275 0.052991718 -0.0020560473
0.0842049 -0.01076981 0.31759667 -0.0069499374 0.018118422 0.7663865 -0.036615647 0.015801609
-0.010040075 0.012108727 -0.004298309 0.06791249 0.010291179 0.047171082 0.032961562 0.00077171077
0.04055956 0.030338204 0.06748158 0.06628348 -0.02124408 0.050014883 -0.020593189 0.36557972
0.07338335 -0.015877305 0.0024022209 0.034374326 0.118252136 0.03279682 -0.025260203 -0.030104047
0.04107903 0.011668916 -0.16907902 -0.0036691024 0.023435198 -0.0010869413 0.014273281 0.021372294
0.023840003 -0.00074448436 0.025144026 -0.03652744 0.05030392 0.06805224 0.0170131 0.034180146
-0.07435434 -0.05287913 0.0029464776 0.011137544 -0.03579364 0.3504419 -0.045296475 0.23699799
-0.045452863 -0.019963752 0.04018898 0.0038369251 0.10453576 -0.0010656315 0.016713414 -0.12974764
0.010450109 -0.0078706425 0.030779079 -0.04553581 0.12936077 -0.010534539 0.036748808 1.4313374
-0.13678919 0.0018756823 -0.22978565 0.00030130893 -0.020342834 -2.2549448 -0.021535257 0.02221176
0.009355785 0.029599192 -0.028558511 -0.02861938 0.057305243 0.0051755738 0.036365908 0.034322046

output.2.bias f4 [7]
00000000: 7385 f23e 43a0 bc3d e58f 0dbf c9ec a53e
00000010: 353f aebe a2ed 15be f7ce 3fbd
0.4736744 0.09210255 -0.5529769 0.32407215 -0.34032598 -0.14641431 -0.046828236
