output/models/49.68Acc_H1_OneLayer512Units_ReLU_CrossEntropyLoss_Adam_0.001lr_4236epochs_10batches.pth (torch, 31213 bytes, 4 tensors)

output.0.weight f4 [512, 6]
00000000: e547 723d 8dcf 33be a839 95bb 509c a93e
00000010: 0b5a 6e3e c684 d0be 9e1e 83be 4b61 65bd
00000020: 9a28 463e d739 c3bd 1186 063f ec91 2a3e
00000030: 53d1 05be 33db 6b3d be49 933e 71d2 f0bc
00000040: 7f79 94bd b9a0 cfbe 1b6d 4e3e 176d c5be
00000050: 09a0 66be bf0c 0c3d af8e 1abd e8ec 153e
00000060: 38d0 533d f482 c8be 2df3 94be 50ca 713d
00000070: b03e be3e 5be1 55be 6ac0 babe 27c4 10be
00000080: 5649 973d 75d1 f43d 5f26 eb3e d625 7bbe
00000090: 1927 dd3e d249 9ebe 1c7b 5d3d 3623 a1be
000000a0: 3875 833e c9f0 f53e 4375 503e 0f88 45be
000000b0: 3db9 493e da78 81bd 5aef 013e 1f4f 573e
000000c0: ca1f 89be f1c8 623e c706 babe c414 dc3e
000000d0: 7d36 88be 3a13 c23e 1118 583e c30b 223d
000000e0: 8c24 f0be ed7e 273e 9110 ddbf c74e 0f40
000000f0: b815 81be 453a 463d 8d45 f73d 9f60 223e
00000100: 2ea3 c1be ccfb 5b3e c3cc c53e 51eb 043e
00000110: 26ac 40be 12ab 9abe 8c92 ecbe b524 463e
00000120: 4ff7 bcbd e367 603d f84e 623d 2d8c 443d
00000130: f720 cd3e 774b 87be 4c54 103f c687 cabe
00000140: 03b5 39bd 38a4 fa3d 6f21 503d 7506 8fbf
00000150: c160 9fbe 20fa 35be fded 9e3e 6808 8a3e
00000160: 71af 633f c74a f0be 4534 a43e ea42 1cbe
00000170: 642f 8d3d 7150 913e 5824 ba3e 75c2 a1bd
00000180: e87f 81be 103c 9c3d e21d 1e3e a6d2 873e
00000190: 462f 843d 9dc8 4e3e f249 133e 1487 493d
000001a0: e8c4 ae3e a5bb e0bd d43e 573e 259e d63d
000001b0: cc18 16be 1452 c9bd 343c 3b3e 8341 70be
000001c0: 7735 c0be fc70 2fbf 943d 7cbe 0b14 c8be
000001d0: c614 8bbe 1443 b5be 85f5 6fbe e040 8bbe
000001e0: b94d 4c3e 8046 173e d40d c0bd 9ab6 90be
000001f0: 2664 24bf 09e9 36bf 04bb bdbd a03f 4bbc
00000200: 40c7 f0bc 26ba b2be dd4e 8fbe c033 4e3c
00000210: ca75 a13e dd39 223d 7bca 25be cb69 933e
00000220: 3e36 293f d052 2abf ba63 e03d f17f 28bc
00000230: 8e2e 553e 357b c03d 84b2 0dbd 2304 2f3e
00000240: dec8 1dbe 3e13 e2bc 01a1 fc3d d127 693e
00000250: c952 f23d 59e9 e8bd 245c 1e3e 9ec5 e63d
00000260: 63e9 a53c 981b 0d3d 3e86 fb3e 4045 923e
00000270: b0cd 103e e017 e4bd ce8a 8fbe caa6 b7be
00000280: 8438 733e 8079 423e 694b b0be a84c 5fbd
00000290: c821 b5be 64ab dcbd 804c 0e3e 0830 90bd
000002a0: eebb 1e3e a172 a9bf 5337 8f3c ee5e abbd
000002b0: 55a4 4f3f cdc6 e5be c7c0 2c3e 0bd3 cabe
000002c0: 8ce0 983d a038 373e 465b 483f 57cc 313e
000002d0: 97e7 f43e cd5b b3be 3784 b6bd 09ae 323e
000002e0: 2a05 9dbe 03f9 29bf ee55 a8be 66ec 3cbe
000002f0: 2060 91be 2b46 8bbe 6f3a aabe ac1f ce3e
00000300: f0df ff3e 2eb6 25be 339f a4be 96c9 f9be
00000310: 690d 1fc0 7b95 6dbf 2c60 4dbd 2c2f e13d
00000320: f076 913e 6fd0 4c3e 0e55 c3bc 33ed 6d3e
00000330: 5263 fe3d 0046 023e 27c8 863e 4c55 9bbe
00000340: 566f 043e 45b9 98be 5f9e 06bf c2a6 83bf
00000350: 12a8 7a3d 1c8c 83be 062a 463f 8232 1dc0
00000360: 1ac4 94be 14b6 c53d 5bd8 d9be b70e c2be
00000370: 7ffd 79c0 7cd8 3540 1063 c83d d13b 953e
00000380: 62e5 93be f907 a53e 2e0b dbbf 17cf c13f
00000390: 4d03 543e bf00 213e 736e 3bbe 958b c5be
000003a0: e8d3 2f3f a417 3fc0 6701 bbbe f712 9bbe
000003b0: 3bb3 91be 97dc c6be ec3b 943e c80e 23bd
000003c0: cbf6 2fbd 6563 ac3d 0d83 03bf 3327 d2be
000003d0: bdc3 1cc0 ff50 ab3f 95a0 87be f733 c43c
000003e0: 9eaf 973a c3e7 6a3e 7c06 10bf 1077 f1bc
000003f0: c1d4 b63e 13f5 d4be c23d b3be 1d92 0dbe
0.059150595 -0.17559643 -0.0045539923 0.3312707 0.23276536 -0.40726298 -0.25609297 -0.05600099
0.19351426 -0.095325164 0.5254832 0.16657227 -0.13068132 0.05758209 0.28767198 -0.029397221
-0.07249736 -0.4055231 0.20158808 -0.3855979 -0.22521986 0.034191843 -0.03773373 0.14641154
0.051712245 -0.3916241 -0.29091778 0.05903083 0.37157202 -0.20886748 -0.36474925 -0.14137326
0.073870346 0.11954013 0.45927712 -0.24526152 0.43193892 -0.30915695 0.054072484 -0.31472176
0.25675368 0.48035267 0.20357232 -0.19290183 0.19699569 -0.06321879 0.12688962 0.21026276
-0.26782066 0.22146966 -0.36333296 0.42984593 -0.2660407 0.37905294 0.2110293 0.039561998
-0.46902883 0.16357012 -1.7270681 2.2391832 -0.25211883 0.048395414 0.12073813 0.1585717
-0.3781981 0.21482772 0.38632783 0.12980391 -0.1881567 -0.3020864 -0.46205556 0.1934994
-0.09226858 0.054786574 0.05525109 0.047985245 0.40064213 -0.26424763 0.56378627 -0.39556712
-0.04533864 0.122383535 0.050813135 -1.1173846 -0.31128505 -0.17771196 0.31040946 0.26959538
0.8893958 -0.4693205 0.32071128 -0.152599 0.06893805 0.28381684 0.36355853 -0.07898418
-0.25292897 0.076286435 0.15441087 0.265279 0.06454329 0.20193715 0.14383677 0.049201086
0.34134603 -0.1097329 0.21020061 0.104793824 -0.14657897 -0.09830108 0.18284684 -0.2346249
-0.3754079 -0.68531775 -0.24632865 -0.39077792 -0.27164286 -0.3540274 -0.23433502 -0.27197933
0.19951524 0.14772987 -0.093776375 -0.28264314 -0.64215314 -0.71449333 -0.09264186 -0.012405306
-0.029391885 -0.34907645 -0.27989855 0.01258558 0.31535178 0.039605964 -0.16190521 0.2879165
0.6609839 -0.6653261 0.10956521 -0.01028441 0.2081854 0.093985 -0.034594074 0.17091422
-0.15408656 -0.027597066 0.123353966 0.22769095 0.11832196 -0.113726325 0.15464836 0.11268161
0.020252889 0.034450144 0.49125856 0.2856846 0.14140964 -0.11137366 -0.28035587 -0.35869437
0.23752028 0.18991661 -0.34432533 -0.054516464 -0.35377336 -0.10774878 0.1389637 -0.07040411
0.15501377 -1.3238107 0.017482435 -0.08367716 0.81110126 -0.44878235 0.16870414 -0.39614138
0.07464704 0.17892694 0.7826427 0.17363106 0.4783294 -0.35030976 -0.08911937 0.17449202
-0.30668002 -0.66395587 -0.3287806 -0.18449554 -0.2839365 -0.2720197 -0.33247706 0.4025854
0.49975538 -0.16182777 -0.3215271 -0.4878661 -2.4851935 -0.92806214 -0.050140545 0.109953254
0.28411055 0.20001386 -0.023844268 0.23235016 0.124212876 0.12722015 0.2632458 -0.30338514
0.12933096 -0.2982885 -0.52585405 -1.0285265 0.06119544 -0.25692832 0.7740787 -2.4562078
-0.29055864 0.09653869 -0.4254788 -0.37901852 -3.9060972 2.8413382 0.0978452 0.291472
-0.28885943 0.32232645 -1.7112787 1.5141324 0.20704384 0.15722941 -0.18303852 -0.38583055
0.6868272 -2.985818 -0.36524507 -0.30287907 -0.28457054 -0.38840172 0.28951967 -0.03980902
-0.04295997 0.084173955 -0.5137184 -0.41045532 -2.449447 1.3384093 -0.26489702 0.02395056
0.0011572724 0.22939973 -0.56259894 -0.029475719 0.35709193 -0.41593227 -0.35008055 -0.13825269

output.0.bias f4 [512]
00000000: b0a9 2b3f 6a5b a5be e7ab f53d 750b 093d
00000010: 9acc 59be 8207 4e3f db5c ab3e 1f4d d3be
00000020: 9c9f 043f 08dd adbf 7ce3 23bf 4751 7abf
00000030: 1328 afbe 9131 713d bf91 213e c6e6 e2be
00000040: 1129 14be c6ae 49bd 0d42 583e c864 953d
00000050: 39df cd3e d4aa 263e 225a c6bf 2af0 2abe
00000060: 6a28 19be 4a9b c4be b29d 6fbe 7760 23be
00000070: 0169 273f f683 4dbf c30c a2bf 1ef8 903e
00000080: 119a 4f3f df0a 063d 752a 61bf e130 31bf
00000090: 5bf2 40bf 0f91 4a3f 9ffc a73e 34fa 95bd
000000a0: d694 c5be 3fe5 273f a2b2 d7bd 3f61 05bf
000000b0: 3f8d c4be cbc8 cebe 6fab c73e 1930 0c3f
000000c0: af0e 4abe 49e2 05be c1d8 b4bf beec ad3d
000000d0: 608a d4bd 044e 64bf 08b7 b33e facc 273e
000000e0: 5427 333e 945e bc3d aa5d c7bc 7b76 e33d
000000f0: 930a afbe b49f a5be 1922 f53e 8a98 c43e
00000100: d687 993f c0c8 a0bc 0ac0 8fbe 61ff 0d3e
00000110: f637 39bc f458 763e f48c 873f 1581 113e
00000120: 4704 c9be dfbe 883d 466e 06be b613 923e
00000130: 54a7 a0bf 20b6 26bf 924c 373e 47f0 0d40
00000140: 7f57 423d 9c27 8abe 302b afbd 6e5f ba3e
00000150: a42a abbd aaf1 e2be b55c 99bf f916 88be
00000160: 1ce9 46bf 1f29 203f 3c54 2cbf 91d3 a8bd
00000170: 7fa4 7dbe 1839 103e a13c 54bf 39c3 81be
00000180: b0ba 2abe b606 cf3e 7aff 2e3d 7e64 083f
00000190: 34ea d93f 1251 86bd 4866 873e 7029 adbc
000001a0: 4294 49bf 8a8a c33e c0fd 71bf 1965 eb3e
000001b0: 74b3 45bf 1b57 af3f fae5 97be 8935 e83d
000001c0: 5ef9 923e 3f3f 0a3e 4a87 db3d 1841 a2bd
000001d0: 96b5 bf3d 73a9 7bbe 319a 46bf fcff 2abf
000001e0: 5c86 abbe 9455 edbe 260c 983e d5ca 85be
000001f0: f763 e13e 54df 4ebe 08d5 73bd 5ef4 26bf
00000200: d0fb 9cbe 06ba 4a3d d329 d2bd e77a 643f
00000210: 68be f9be 0ddb 0f3f a3f9 7abe c457 4d3e
00000220: c007 073e 160c 3dbf 7248 2c3f 7df7 0e3e
00000230: 544b 0d3f f7dd 6abf c0c8 4c3c cab9 523f
00000240: ff33 22bf 0223 27bf b4d2 243f 65fd 863e
00000250: 6f3d ee3e ea76 5e3e b0bf 58bd 6a81 58bd
00000260: 9493 83be e8b8 833e 2a3d 9e3e f050 953f
00000270: 2b65 bfbe 84c7 26bf 14f2 13bf a36a f9be
00000280: f32d ed3d 1b4b b3be b454 8a3e da0d b4be
00000290: 08cb 803f 3251 cebe 961e 49be 5222 393e
000002a0: f764 44be fa14 0bbe e4e5 d33e a585 9d3f
000002b0: e889 12c0 ac03 6d3e db51 273e d0cf 3b3f
000002c0: c24d b2be 71bf 673e 34fe 473f c036 433f
000002d0: 3a63 76be a93f c43e 30bf 44be a9dd 82be
000002e0: 33d1 fd3c 3389 abbf 1da9 443e 5817 d83e
000002f0: 41a3 f4be 738d 92be 4a6b e03e 8731 ce3e
00000300: 6a40 e83e 9ea1 223f ea44 b3be d95d febe
00000310: 2472 b3be ac26 45bf 7cc8 9d3e ce9a 943d
00000320: b33d 483f 14df d33e 4a79 3b3f 4502 183f
00000330: 0190 933f 2565 d83d ea90 bfbd 13cf 15bf
00000340: bab1 a63e 0e6a 073c 8877 603f aa13 a53f
00000350: dec6 8ebe 7db6 cb3e 1db4 613e 827c d2be
00000360: 3d30 513f f97a 983e 413c 21bf e808 cf3e
00000370: aa46 a33e f039 0e3e 1b49 8fbe 18eb 0dbf
00000380: 648e 5fbf 8597 3fbf 62bd c8bf cbfe 743e
00000390: ac94 1e3e b0d2 6b3f 6a17 4c3e d207 c0bd
000003a0: d259 ca3e 6ec5 4ebe b5d2 7d3e 552c 2cbf
000003b0: 09c8 c03f b110 25bf 4383 85be 32f8 24be
000003c0: a849 47bf 9ecd 16be 35ef febb 093c 8a3e
000003d0: 0bfc 08bf b826 a8be 03d8 513f 3a15 9a3e
000003e0: c5ce 69bf c615 153f 03d1 bc3e aefb 8fbe
000003f0: 140b 3fbf d6ff 89bb c081 d33f b4a0 143f
0.670558 -0.32296306 0.119956784 0.033458192 -0.21269456 0.80480206 0.3346928 -0.41269776
0.51806045 -1.3583078 -0.6401899 -0.9778027 -0.34210262 0.05888516 0.15778254 -0.4431669
-0.1446879 -0.049238943 0.21118946 0.07294613 0.40209368 0.16276103 -1.5496256 -0.16693178
-0.14956823 -0.38399726 -0.234 -0.15954767 0.653946 -0.8027948 -1.2660145 0.28314298
0.8109446 0.03272521 -0.8795541 -0.6921521 -0.75369805 0.7912759 0.32809922 -0.07323113
-0.38590115 0.65584177 -0.105321184 -0.5210151 -0.38389012 -0.40387568 0.3899798 0.5476089
-0.19732164 -0.13074602 -1.4128648 0.084924206 -0.103779554 -0.8918154 0.3510058 0.16386786
0.17495471 0.09197727 -0.024336655 0.11106583 -0.34187755 -0.32348406 0.47877577 0.38397628
1.1994579 -0.019626975 -0.28076202 0.1386695 -0.011304846 0.2405737 1.058989 0.14209397
-0.39261076 0.06677031 -0.13128003 0.28530663 -1.2551064 -0.6512165 0.17900303 2.2177904
0.047446724 -0.26983345 -0.08553159 0.36400932 -0.083577424 -0.44325 -1.1981417 -0.26580027
-0.77699447 0.62562746 -0.6731603 -0.08243478 -0.24769782 0.1408428 -0.8290501 -0.25344256
-0.16672778 0.40434808 0.04272411 0.5327834 1.7024598 -0.06558432 0.26445222 -0.021137923
-0.7874185 0.38191634 -0.94527817 0.4597557 -0.7722695 1.3698457 -0.29667646 0.11338336
0.28705877 0.13500689 0.10719164 -0.07922572 0.09360807 -0.24576358 -0.7757903 -0.6679685
-0.33500946 -0.46354353 0.2969677 -0.2613131 0.4402158 -0.2020238 -0.059529334 -0.65216625
-0.30660868 0.049493812 -0.102618836 0.89250034 -0.4877808 0.5619362 -0.24509291 0.20053011
0.1318655 -0.73846567 0.6729804 0.13961597 0.55193067 -0.9174494 0.012499034 0.8231474
-0.6336059 -0.6528779 0.6438401 0.263652 0.46531245 0.2172505 -0.052917182 -0.052857794
-0.2569853 0.2572701 0.3090604 1.1665325 -0.37381873 -0.65148187 -0.57791257 -0.4871417
0.1158103 -0.35018238 0.27017748 -0.35166818 1.006196 -0.40296322 -0.19640574 0.18079498
-0.1917914 -0.1358222 0.4138633 1.230641 -2.2896671 0.23145932 0.16339819 0.7336397
-0.3482495 0.22631623 0.7812226 0.76255417 -0.2406129 0.3832982 -0.19213557 -0.25559738
0.030983543 -1.3401245 0.19205137 0.4220531 -0.47780803 -0.28623542 0.43831855 0.4027216
0.45361644 0.6352786 -0.35013515 -0.49680975 -0.3504802 -0.77012134 0.3081702 0.07256089
0.78219146 0.41381133 0.7323195 0.59378463 1.1528322 0.10566167 -0.09353812 -0.58519095
0.3255747 0.0082650315 0.8768239 1.2896626 -0.278861 0.39787665 0.22041364 -0.41110617
0.8171423 0.2978132 -0.62982565 0.40436482 0.3188985 0.13889289 -0.27985463 -0.5543685
-0.87326646 -0.74840575 -1.5682795 0.23925321 0.15486401 0.9211836 0.19930807 -0.093764916
0.39521652 -0.20192501 0.2478741 -0.67255145 1.5061046 -0.64478594 -0.26076707 -0.16110304
-0.77846766 -0.14726874 -0.0077799805 0.26998928 -0.5350959 -0.3284204 0.8197023 0.3009432
-0.9133113 0.5823635 0.36878213 -0.28121704 -0.7462628 -0.004211406 1.6523972 0.58057714

output.2.weight f4 [7, 512]
00000000: 764d 443d 966a 1e3c c382 7fbb f051 94bb
00000010: b200 8f3c 39e0 a63d 3d46 433d a2d0 db3b
00000020: 12f6 0ebc 56f2 cfbc 3753 d3bc d0cb 28bd
00000030: d3c6 1f3c f2df 2ebe f1bd 2c3d bc3b 01bd
00000040: 98c6 20bc 98f9 dc3c f684 2f3d 5c04 44bc
00000050: cc7c 26bd 0039 553a fee8 fbbc 4082 42bc
00000060: 46d5 45bc e9b2 b7bc 687e eabb e8b2 ed3b
00000070: 4acf 4a3d 5c20 46bd 9091 583d e358 313d
00000080: 2087 0040 195f 6f3c fd35 13bd 2bfa bbbc
00000090: c3e3 783a 6fb8 1a3d 7623 e3bc a039 693c
000000a0: b449 1cbc d3f1 2fbd 984b b7bc 0c34 b3bc
000000b0: d1f5 aebb 17d9 9cbc 98b3 1e3d 554c 0b3d
000000c0: 16f6 8fbc 1870 5a3d b6b2 c9bc 39c5 a3bb
000000d0: 97d0 273b 641e 36be 0574 243b d267 273d
000000e0: a8e9 403c 7686 c6bc f726 cabc db30 6dbc
000000f0: f5d8 aebf 211b 0cbd 106f 823d 28ff 103d
00000100: 14d2 52bd 9c64 c23c e37f 253c 7c8e d43b
00000110: 0bc3 423a f9f3 353c 768f d23c 17ce 05bd
00000120: f9ae 1e3b 99a2 55bb d698 9a3c 42f6 69bb
00000130: 4dd2 12be 8fc5 683f aa51 893d 526b 903f
00000140: acf1 8bbe b0f8 173b b092 93bb 1396 fa3c
00000150: b6b8 81bd b88b a73c 5529 ea3c bca2 3ebc
00000160: 7240 cfbc b6d5 d03c 971d 903d c42f 67ba
00000170: f14f 2e3d a081 e53a e2e2 89bc 0191 78bc
00000180: df38 bcbc 2462 7b3c b454 363d a052 c33e
00000190: 7a1b 203d 281a 9cbc 9c17 243d 87f5 2b3d
000001a0: 20e9 afbf 4c14 983d 6030 e4bc b01e a73e
000001b0: 0a46 f63b fc82 a53d a0bd a13e 1460 cb3c
000001c0: e0f6 e2bb 2ca2 c6bb 1acf a1bd 9440 473c
000001d0: ce58 ce3a 9696 b53c 1f0c 1a3d fc7e 3bbf
000001e0: d0a2 c13d 3832 39ba afcf 103c 5998 0ebc
000001f0: 9fa2 a63e 69f6 bcbc fd1d bdbb 5884 113d
00000200: e6ac c93c 0d3d a83c 63f4 473d 87f5 063f
00000210: e135 bfbc eb11 f43c 1e9b ca3c 6029 c03a
00000220: 50fb 683c c0c7 e0bc c101 073d 5c56 3bbc
00000230: 3cdd 133d 7ab5 04bd bc26 89bc 79f4 353d
00000240: 3b6d 3abd e7a6 a5bc ae4d 113e 7684 2ebf
00000250: a9cf ab3c c95a d23b bdf6 0e3d fdfd 8cbb
00000260: 3903 edbc f720 05bd 914d a5b9 51c7 bc3c
00000270: 67ae c6bc 6505 9bba af94 a83b 1695 1fba
00000280: 70b0 933c 80f7 123c 86e8 423c e1bf 2b3b
00000290: 2689 2e3e f005 e53b 998c 2abd 8785 06bc
000002a0: 6ad2 aa3c 308a 7d3c baf1 2c3d e6eb 6cbe
000002b0: 0cd8 9ebc 1ef2 53bc b600 203d c6bf aa3c
000002c0: 09f4 283d c183 8a3e b2c5 6c3d 447b 0c3d
000002d0: 96cf 913b b4e1 9e3c b59a 96bc 4cc5 c1bc
000002e0: eb4d 723c 884c 203c ef63 1c3d c708 2f3d
000002f0: 1e90 1bbc 4d12 cdbc c031 1e3d b55d 183d
00000300: 8560 d63e ce3f 3b3b 77bc 223d 762f 91bc
00000310: c39a 013f 4902 113d b8fb c63f ef17 073d
00000320: 397b 6f3d ba6b 88ba dd59 fe3c 4455 663d
00000330: 707e 023f ceca b83c 64b6 f0bc 7088 3abf
00000340: 218d 9fbc f0da 493c 7f2a 13bf a3a8 913e
00000350: af09 f5ba f1e5 7abc 9e0b 16bb 3dae b1bd
00000360: a609 d63d fdb1 533c f035 08be e196 c03d
00000370: f15e 0a3d 128a 14bd 201a 303d a679 bdbc
00000380: 190d 99bd ad29 723d c3d1 54bd f32a b6ba
00000390: 00b5 9a3b aefc 83bc a29e 07bd a150 b2bc
000003a0: e862 29bd bcbe e5bc 188a 40bc 4c16 56bc
000003b0: c758 133d ef69 02bd d267 2dbd 1e9c 443b
000003c0: 324d f7bc f2c8 f8bc dc4f 7f3c 91af 1d3c
000003d0: 7360 d7bc 589d f4bc 0ebe a8bc 6068 093d
000003e0: 7694 99bd 0e44 98bc 0d5b 2a3c 18e3 8c3b
000003f0: 7a05 f1bf 6b5d 83bc a39b de3c 1cc8 5a3d
0.047925435 0.009668967 -0.0038987852 -0.0045263693 0.017456386 0.08148236 0.047674406 0.0067082206
-0.00872566 -0.02538411 -0.025796516 -0.041209996 0.009751993 -0.17077616 0.04217333 -0.031551108
-0.009812973 0.026974484 0.04285141 -0.01196393 -0.04064636 0.0008133799 -0.030750748 -0.011871874
-0.012074774 -0.022424178 -0.007156182 0.0072539933 0.049514093 -0.048370704 0.052873194 0.04329766
2.0082474 0.014610075 -0.03594016 -0.022946438 0.00094943884 0.037773546 -0.02772687 0.01423493
-0.009539057 -0.04295523 -0.022374913 -0.021875404 -0.005339362 -0.019146485 0.038745493 0.034008343
-0.017573398 0.053329557 -0.024621349 -0.004997876 0.0025606507 -0.1778503 0.0025093567 0.040870495
0.011774458 -0.024234038 -0.024676783 -0.01447698 -1.365996 -0.03420556 0.0636884 0.035399586
-0.051469877 0.023729615 0.010101291 0.006486712 0.00074295764 0.011105531 0.025703173 -0.032667246
0.0024213179 -0.0032598136 0.018871706 -0.003569976 -0.14338036 0.9092645 0.06705029 1.1282752
-0.27332819 0.0023189 -0.0045035705 0.03058914 -0.06334059 0.020452365 0.028584162 -0.011635479
-0.025299285 0.02549253 0.07036894 -0.00088190683 0.042556707 0.0017509945 -0.016831819 -0.01517129
-0.022976337 0.015343223 0.044514373 0.38148975 0.039088704 -0.019055441 0.04006158 0.0419822
-1.3743019 0.07425746 -0.027855098 0.326406 0.0075156735 0.08081624 0.31589985 0.024826087
-0.0069264024 -0.006061813 -0.079008296 0.012161393 0.0015743019 0.022166532 0.037609216 -0.7324064
0.09454882 -0.0007064673 0.008838578 -0.008703315 0.32545945 -0.023066716 -0.005771397 0.035526603
0.024618577 0.020536924 0.04881705 0.52718395 -0.023341121 0.0297937 0.024732169 0.0014660768
0.014220074 -0.027438998 0.032960657 -0.011434164 0.036099657 -0.032399632 -0.016742103 0.0444226
-0.045514327 -0.020221187 0.14189789 -0.6817087 0.020973044 0.006419514 0.034903277 -0.0043027387
-0.0289322 -0.03250214 -0.00031529044 0.02304426 -0.024253083 -0.0011827169 0.0051446776 -0.0006087584
0.018028468 0.008970141 0.011896258 0.0026206898 0.17044505 0.006989233 -0.04163799 -0.008210546
0.020852286 0.015474841 0.042222716 -0.23136863 -0.019390129 -0.012936143 0.039063178 0.020843398
0.041248355 0.27053645 0.057805724 0.034297243 0.004449795 0.019394733 -0.018384317 -0.023653649
0.014789085 0.0097838715 0.03818124 0.04273298 -0.009494809 -0.02503314 0.038621664 0.03719874
0.41870514 0.0028571966 0.039730515 -0.017722826 0.5062677 0.03540257 1.5545568 0.03298181
0.058467124 -0.0010408082 0.03104871 0.05623366 0.5097418 0.022557642 -0.029383846 -0.7286444
-0.019476475 0.012320265 -0.5748672 0.28448972 -0.0018694903 -0.015313611 -0.0022895108 -0.086758114
0.10451059 0.012920854 -0.13301826 0.09403778 0.03378195 -0.036264487 0.042993665 -0.023129296
-0.07473201 0.059121776 -0.051957857 -0.0013898298 0.004721284 -0.016111698 -0.03311027 -0.021766962
-0.04135409 -0.02804505 -0.011751674 -0.013066839 0.035973337 -0.031839307 -0.04233534 0.003000028
-0.030188177 -0.030369256 0.015583005 0.009624378 -0.026291108 -0.029860184 -0.020598438 0.033546805
-0.0749902 -0.018587139 0.010397685 0.0042995326 -1.8829796 -0.016035756 0.027173823 0.053413495

output.2.bias f4 [7]
00000000: 538b 1d3f 2d95 30be b431 ccbe 9252 bd3d
00000010: 062b c6bd 200f 24be 06db 8e3d
0.61540717 -0.17244406 -0.3988167 0.09244265 -0.09676175 -0.16021395 0.06975369
