output/models/50.33Acc_H1_OneLayer387Units_ReLU_CrossEntropyLoss_Adam_0.001lr_7116epochs_10batches.pth (torch, 24173 bytes, 4 tensors)

output.0.weight f4 [387, 6]
000000 36 7a 11 3d e6 96 29 3e b1 4a ea 3d 21 7d e7 be
       0.03551694 0.1656147 0.114400275 -0.45212653
000010 96 84 0c bf ac e5 3a 3d ea 85 0f be fc 0d 60 3e
       -0.5488981 0.04562919 -0.14015928 0.21880335
000020 6b 11 ed bd 8d f4 bb be 91 e7 0d 40 17 4e 92 3e
       -0.11575588 -0.36710015 2.2172587 0.28575203
000030 a2 fb 1a bf 09 b5 a5 3d e0 3b e1 bd d4 dc 62 be
       -0.6054021 0.0809117 -0.109977484 -0.22154552
000040 ff 4b 76 c0 55 e1 93 bd fa 66 24 3e cd 70 77 be
       -3.8483884 -0.07220713 0.16054907 -0.24164124
000050 6d 64 55 3e f5 b5 5f 3e d4 5b bf bb 1c 38 af bf
       0.2083909 0.21846755 -0.005839804 -1.3688998
000060 c8 24 0d 3f 2f 5c 03 be 35 dc d8 bd c4 36 eb be
       0.5513425 -0.12828134 -0.10588876 -0.4594022
000070 ce c9 99 bf e8 4b 75 3f 4e a3 15 bf 52 23 d0 be
       -1.2014711 0.9581895 -0.5845231 -0.40651947
000080 99 11 12 3e a7 fa 2f 3e 24 39 ec be e8 c1 24 3d
       0.14264525 0.1718546 -0.46137345 0.040223986
000090 68 c9 32 3e 47 6f e6 3d 4a 95 b3 3c d3 6b 93 bd
       0.17459643 0.11251693 0.021921773 -0.071983
0000a0 71 0a b9 be dd 72 32 3f 50 b1 a1 bd 56 6f 86 be
       -0.3614078 0.6970652 -0.07895148 -0.26256818
0000b0 47 08 95 be 92 59 c3 be e8 f0 0f bd 22 e2 83 be
       -0.29107878 -0.38154274 -0.035141855 -0.25758463
0000c0 af 91 1a 3e 12 2d cb bc 51 47 be 3d 0b 0a 98 be
       0.15094636 -0.024801765 0.09290946 -0.29695162
0000d0 68 a8 35 bf 20 68 24 3f 41 77 33 be 5f 20 15 3e
       -0.7096009 0.6422138 -0.1752596 0.1456313
0000e0 db 53 2f 3e c0 db c4 3c cf b0 74 3e b4 16 33 be
       0.17121832 0.024030566 0.23895572 -0.1748913
0000f0 8c 7c 0c 3e c1 b2 19 3d 1e a9 cf 3d 10 0c bb be
       0.13719386 0.03752399 0.101396784 -0.3653264
000100 2b a0 2d bf 3e 6c 26 bf 10 6e 0c be 54 1e 48 be
       -0.6782252 -0.65008914 -0.1371386 -0.1954282
000110 00 29 13 be bc 88 b6 bd 43 98 6a be b0 3c 9f 3e
       -0.14371109 -0.08912799 -0.22909646 0.31100988
000120 3d 31 3a be 6e 56 63 3d 6b 39 16 3e 14 d2 4a bc
       -0.18182845 0.055502348 0.1467034 -0.012379188
000130 50 80 76 3d 62 3d 9d 3e 70 b9 da bd 33 df 6a bd
       0.060180962 0.30710894 -0.10679901 -0.057341766
000140 4b fc 22 3e 62 17 1e be 58 61 3c be 52 ea 9a 3f
       0.15916555 -0.15438607 -0.18396509 1.2102759
000150 e7 c0 e1 be db 2f 16 bc 7a 6e a3 3e 94 16 85 bd
       -0.44092485 -0.009166683 0.31920224 -0.06498447
000160 8e 1e 8a 3d fe d1 34 3f 7f c7 46 3d 80 f4 44 3e
       0.06744109 0.7063292 0.048530098 0.19233894
000170 89 ef 0d be 4b 94 83 3e 14 f8 92 3f 13 f4 3d bf
       -0.13860907 0.25699076 1.1481957 -0.7420055
000180 3b 18 7c 3d 73 0b cf 3d bc dd 18 3e 49 5d a6 be
       0.061546545 0.10109606 0.14928335 -0.32493046
000190 7d 87 2e bd ec 98 3e be 45 8d 4f 3e fd 95 c5 3d
       -0.04260968 -0.18613023 0.20268734 0.096477486
0001a0 37 78 c9 be da 2b 47 3e 7d 64 22 bf ca 39 bb bf
       -0.3934953 0.19450322 -0.6343458 -1.4627011
0001b0 e9 cf 27 3e f8 8d 3e be 5e 7f 24 3e b7 de 6c 3d
       0.16387905 -0.18608844 0.16064212 0.057829585
0001c0 41 ac 19 be 75 d2 c3 3e 90 bd db 3d 24 12 10 3d
       -0.15007116 0.38246503 0.107295156 0.03517355
0001d0 86 3d 43 3e 30 4e bf be d4 5a 7b 3e f6 bc ce 3e
       0.19066438 -0.3736434 0.24546367 0.4037854
0001e0 ce df 5c be 6b 57 45 3c ba 69 7f 3e e4 ae b7 be
       -0.2156975 0.012044768 0.24942675 -0.35875618
0001f0 47 f7 82 be b0 21 18 3e 53 ca dc 3e 36 1e 42 3e
       -0.25579283 0.14856601 0.4312311 0.18956837
000200 a2 29 a3 be d4 86 84 3e 09 e9 22 c0 4a 39 d0 3f
       -0.318677 0.25884116 -2.5454733 1.6267483
000210 89 8f a4 be b6 50 42 3b 97 b5 14 be b2 86 89 bd
       -0.3214076 0.0029650158 -0.14522396 -0.06715144
000220 48 84 18 3e 38 96 76 3e 31 81 9c be 33 69 66 3e
       0.14894211 0.24080741 -0.30567315 0.22501068
000230 27 aa 04 be c1 34 cd be 16 aa 06 40 f7 49 d0 be
       -0.12955533 -0.4007931 2.1041312 -0.4068143
000240 be f9 db 3d e6 da e1 3d d0 ad 21 be 37 79 31 3e
       0.10740994 0.1102808 -0.1578896 0.17331396
000250 23 cd 9a 3e 02 5b 2b 40 3e cb 3e 3e 7f 28 ec bb
       0.30234632 2.6774297 0.18632218 -0.007206976
000260 c5 6b 01 be 6a cb d8 3e a9 f5 b1 3f af d3 c8 bf
       -0.12638767 0.42342693 1.3903095 -1.5689601
000270 e8 32 2a be d8 1b a0 3d 16 92 2b 3d 57 7c 33 bc
       -0.16620982 0.07817811 0.041887365 -0.010954938
000280 ce b7 56 3f f8 ac 32 3f 80 8e 54 bb 58 a6 0f be
       0.83874214 0.6979518 -0.003243357 -0.14028299
000290 c8 af 9b be f4 1e 35 be 58 27 f8 3d 28 60 05 3d
       -0.30407548 -0.17687589 0.12116879 0.032562405
0002a0 3a dd 62 bc e8 de 9f 3e 47 c9 7e be 90 41 65 3e
       -0.01384669 0.3122475 -0.24881469 0.22388291
0002b0 e2 cb 12 c0 7a 44 bd 3e 03 3f c8 be 83 d5 85 3e
       -2.293694 0.36966306 -0.39110574 0.2613946
0002c0 8c 6b a0 bd 69 5b 87 3e f0 b0 bd be 7a 3b ae 3e
       -0.07833013 0.26436928 -0.37049055 0.34029752
0002d0 00 9a 41 3c 95 d0 a5 be 9e bd 65 be 00 ec 4a ba
       0.011816502 -0.32385698 -0.22435614 -0.0007740855
0002e0 86 15 1c be 98 bf 9e bd 18 94 c0 3d e7 ca 5e 3d
       -0.15242586 -0.07751387 0.09403247 0.05439272
0002f0 4f 9d c8 3d c1 c6 c9 3d b9 61 64 be 81 9a 2c 3f
       0.09795629 0.098523624 -0.22302903 0.67423254
000300 23 35 73 3e 68 23 8e 3e e7 2d 5a be 25 2b 44 bd
       0.23750739 0.27761388 -0.21306573 -0.04789271
000310 45 8c a4 bf 27 94 03 c0 f2 11 cc bd 5b 61 48 3e
       -1.2855307 -2.0559175 -0.0996436 0.19568388
000320 96 90 78 3e 41 ca 37 be 0c 34 b6 bd c6 d6 8d 3f
       0.24273905 -0.17948247 -0.08896646 1.1081169
000330 f5 df b9 bd 3a d8 16 3e d4 55 0c 3e 21 78 cc be
       -0.090759195 0.14730921 0.13704616 -0.399354
000340 c1 9f 1b bf 59 87 7a bf 4f 78 65 be b0 6b 04 3e
       -0.6079064 -0.97862774 -0.22409175 0.12931705
000350 90 f3 6e 3e 7e bb b2 be cd 59 30 bf 9d 45 21 bf
       0.23335099 -0.3490867 -0.68887025 -0.62996846
000360 69 fc 86 3e aa b4 72 3e 73 d9 45 3e 01 1b a7 3e
       0.2636445 0.2370173 0.19321232 0.3263779
000370 7b 5e 46 bf 3b 16 12 bf eb 6d ba be d3 52 4e bf
       -0.77487916 -0.5706517 -0.36411986 -0.8059513
000380 a6 65 f8 bd 82 4a dc 3e 6f 79 7d bf b6 18 7d 3f
       -0.12128763 0.43025595 -0.9901342 0.9886583
000390 fd 48 e2 3e 83 1b 6e bf fb 46 50 be 12 90 e4 3e
       0.4419631 -0.9301073 -0.20339577 0.44641167
0003a0 10 b5 d7 3f a9 0e d6 bf 85 9a a3 be 92 76 9f 3e
       1.6852131 -1.6723224 -0.31953827 0.3114515
0003b0 6b 59 92 be 7a c9 4e be 6f 09 32 c0 01 a7 d5 bf
       -0.28583845 -0.20194045 -2.7818258 -1.669159
0003c0 86 42 91 3e 6a 41 c2 3d 1f 50 4b bd 6e cb 29 bf
       0.28371066 0.09485133 -0.049636956 -0.66326034
0003d0 a6 b8 1e 40 59 e8 d7 bd 0a c8 02 3f 6b 76 aa be
       2.48002 -0.10542364 0.51086485 -0.3329347
0003e0 3a 9c d9 be dd 4d 03 3f b4 6a 41 3f b9 3b 13 3f
       -0.42502004 0.51290685 0.7555344 0.57513005
0003f0 e8 95 75 be 1b 1f a5 3e 86 8a 81 bd 52 18 3b be
       -0.23982966 0.32250294 -0.063252494 -0.18270996

output.0.bias f4 [387]
000000 96 a1 b7 be b9 67 a3 3e 03 fe 1d 40 23 27 0a bf
       -0.35865468 0.31915072 2.4686286 -0.5396597
000010 ed a1 d6 bd e5 99 4e 3f 5c 6a 4b 3e d8 0d e0 3d
       -0.10480104 0.80703574 0.19864792 0.109401405
000020 fb a6 90 3d 04 bd 4c bd be 1f 07 be 72 43 b0 3e
       0.07063099 -0.049984947 -0.13195702 0.34426457
000030 ca 80 2d bf e7 dc 68 3e 18 1f d8 bd 02 5f 98 3f
       -0.6777464 0.22740518 -0.10552806 1.1903994
000040 4d a8 3f bf 78 fb 75 3f 47 e8 8a 3d 20 d3 d0 3e
       -0.7486618 0.96086836 0.06782585 0.40786076
000050 5c 14 75 bf 45 db 84 3f 6d cf a8 3e 6d 99 30 bf
       -0.9573419 1.0379416 0.32970753 -0.6898411
000060 f0 e9 6e be eb 4a 26 bc fb f8 91 3e a9 09 ac be
       -0.23331428 -0.010149698 0.2851027 -0.3360112
000070 b0 94 af 3f 6d 5c 5a be 80 85 e0 bc 6e 64 7d 3e
       1.3717251 -0.2132432 -0.027407408 0.24745342
000080 7f 20 83 3f 43 83 a5 be 9d 45 95 be 45 da 8d be
       1.0244292 -0.32326707 -0.29154673 -0.2770559
000090 4b 26 44 3e 76 81 22 bf dd 66 7c bf f4 6f 75 3f
       0.19155233 -0.6347879 -0.98594457 0.9587395
0000a0 5d c8 de bf 3d 02 30 3d ab 73 a9 3e 35 30 01 3f
       -1.7404896 0.042970885 0.3309606 0.50464183
0000b0 6b 7f 0a 3e fe e4 86 be 98 3f 72 3f 6c 8c 83 bf
       0.13525169 -0.26346582 0.94628286 -1.0277228
0000c0 5a 50 87 be b1 d6 21 bf 09 a5 ee 3e 33 70 93 3e
       -0.2642849 -0.6321822 0.46610287 0.2879654
0000d0 76 0d d2 3e ef f0 ef 3e db 6a 90 3f b9 04 b7 3e
       0.41025895 0.46863505 1.128261 0.3574579
0000e0 2f 7e 53 3f 70 48 06 3d 92 88 9d 3e 03 96 7b 3f
       0.82614416 0.032783926 0.30768257 0.98275775
0000f0 9c f4 25 3f 94 5d 8f 3e b3 43 c7 3b 9b 09 37 3e
       0.6482637 0.28001082 0.0060810684 0.17874758
000100 04 f4 4a be 09 02 b6 be 28 1c 38 be 58 00 a6 bd
       -0.19819647 -0.35548428 -0.17979491 -0.08105534
000110 ec 84 06 bf ef 48 a0 3e a4 e0 9f be e8 a7 17 40
       -0.5254657 0.31305644 -0.31226075 2.3696232
000120 ee 84 c3 3e 33 3f 81 3e 7d aa a4 3e 0d 95 f5 3d
       0.38187355 0.2524353 0.32161322 0.1199132
000130 9b 73 cc be 1c 7b 96 3f 59 37 ab 3e d7 26 43 3e
       -0.3993195 1.175632 0.33440664 0.19057785
000140 4f 73 77 bd a3 f9 5d be 14 a1 c7 3d 74 30 a0 bd
       -0.0604127 -0.2167726 0.0974752 -0.07821742
000150 52 2d d5 3f 1f 81 88 3d 13 c5 eb 3e a8 b5 57 3f
       1.6654456 0.06665253 0.46048793 0.8426156
000160 b6 d7 04 be 3b 90 1a bd 27 2c 87 3f f2 e5 74 3d
       -0.12972912 -0.037735205 1.0560349 0.059789605
000170 c4 fe b9 be 00 3b 13 c0 d2 ae 24 bf 54 60 87 3f
       -0.36327183 -2.300476 -0.64329255 1.0576272
000180 f9 ef f6 be 73 13 35 3f 7c 1f 84 be f6 e6 f2 be
       -0.4822996 0.707328 -0.2580527 -0.47441834
000190 5f 55 cc bf d1 97 49 3f f4 bc c8 3e c0 ed 60 bf
       -1.5963553 0.7874728 0.3920666 -0.8786278
0001a0 06 4e b6 3e 4a f7 2e be 82 79 2a c0 f0 06 e7 3f
       0.35606402 -0.17086521 -2.6636662 1.8048992
0001b0 8b 69 e1 bf 60 85 33 3d d9 d1 5d 3e a7 75 84 3e
       -1.7610334 0.04382837 0.21662082 0.25871012
0001c0 23 08 30 40 a3 a9 75 3f bd b9 9e 3d 2c a6 0e bf
       2.7504966 0.9596197 0.077502705 -0.5572231
0001d0 56 a7 8b 3f c0 2d 4a bc 86 fe d8 be 1d 19 05 bf
       1.0910442 -0.012340009 -0.42381686 -0.51991445
0001e0 18 27 c7 3d ce 91 36 3e 88 71 16 be 4e b5 64 3f
       0.097242534 0.17829058 -0.14691746 0.8933915
0001f0 a0 11 d9 3e ce ad a8 be 44 45 53 bf e9 53 96 bf
       0.4239626 -0.32945102 -0.82527566 -1.1744357
000200 de c0 47 3f 82 f7 06 bf 5c e8 c5 bd de 0f 64 3e
       0.78028667 -0.52721417 -0.0966346 0.22271678
000210 14 af a9 3d 4b 09 83 3e 6b 4e 54 3f c0 87 f4 3d
       0.082853466 0.25593027 0.82932156 0.11939955
000220 46 13 18 3e 40 d2 d5 3c d5 c3 4d be 7b 06 44 be
       0.14851102 0.026101232 -0.20094235 -0.19143097
000230 a3 71 30 bf 18 94 92 bd 77 be 12 bf 9d ee f9 3f
       -0.68923396 -0.07157153 -0.57321876 1.9525944
000240 0c 92 bf bf c6 9c 8a 3e 55 15 9f 3f 31 42 24 bf
       -1.4966445 0.27072734 1.2428385 -0.641635
000250 ce 8a d0 3e d7 10 73 bf 98 85 30 3d ef 0d e6 bf
       0.407309 -0.9494757 0.043096155 -1.7973002
000260 36 90 02 be 97 9e 0c bf 6a 3e 36 bf c7 23 95 3e
       -0.12750325 -0.5492949 -0.71188986 0.29128858
000270 e1 6d 41 bf 91 8a 03 bf e0 58 0d 3f d4 9f 12 3f
       -0.75558287 -0.5138331 0.5521374 0.5727513
000280 49 23 aa bf 61 f8 86 bd 0f 9f 9b bf 2f b3 16 bf
       -1.3292018 -0.06590343 -1.2157916 -0.5886716
000290 70 29 d0 3e dc 7f db bc d9 e3 23 bd b7 83 ce be
       0.40656614 -0.026794367 -0.040012214 -0.40334865
0002a0 43 0a 48 3e 38 db 1a bd 1e 51 43 bf 94 b3 d0 bd
       0.19535165 -0.03780672 -0.7629565 -0.10190502
0002b0 76 86 93 bd b9 7f 99 bf 85 00 4d bf 18 6d a5 be
       -0.07203381 -1.1992103 -0.8007892 -0.32309794
0002c0 bd 58 96 bf ec 8d 3d 3d f4 a3 3c bf df 12 c4 3e
       -1.1745831 0.046277925 -0.7368767 0.38295648
0002d0 ce a5 86 3e d9 5a 78 bf af 19 2b be 2a 63 1e be
       0.26298374 -0.9701362 -0.16709016 -0.15467516
0002e0 71 83 c1 3e 24 2a 3d 3e 66 60 6e bf 25 7a 10 3e
       0.37795594 0.18473107 -0.9311584 0.14109094
0002f0 f2 75 51 3d 37 a4 59 bf 67 d4 a8 be e5 85 9d 3e
       0.051137872 -0.85016197 -0.3297455 0.30766216
000300 10 0b 26 3e 46 20 d9 3e d9 c4 0f 3f 7e 2d 76 be
       0.16215158 0.42407435 0.5615974 -0.24040791
000310 bf ab 1e be fa 56 01 3f 5d b7 26 bf 20 f2 a3 3e
       -0.15495203 0.5052334 -0.6512354 0.32020664
000320 46 3a bd 3d 6d b3 e8 3d f7 94 d9 3e 61 10 77 be
       0.092396304 0.11362348 0.42496464 -0.24127342
000330 60 98 cb be fc 8e 85 3e 57 8d d0 bf 10 99 08 3d
       -0.3976469 0.2608565 -1.6293133 0.033349097
000340 90 0f e2 3e 6b 43 2d 3f 84 30 97 be 60 eb ac 3c
       0.44152498 0.67680997 -0.29529202 0.02110833
000350 e9 3b 06 bf 85 83 95 3c 43 f7 67 3f 0b 29 6c 3f
       -0.52435166 0.01825119 0.90611666 0.92250127
000360 5a 51 20 40 31 01 58 3e 97 15 30 bf 34 9b 1a 3e
       2.5049653 0.21094204 -0.68782943 0.15098268
000370 c8 28 ce bf ff 5d a6 3e ef 43 d3 be 30 6d a0 3d
       -1.6106195 0.32493588 -0.41262767 0.07833326
000380 66 cc d0 3e ac aa 20 3e 57 33 4c be 1f 68 f2 3d
       0.40780944 0.15690106 -0.1994146 0.11836266
000390 d8 2c 66 bf a5 84 f3 be bf cb a6 bf a8 bd 0b c0
       -0.89912176 -0.47562137 -1.3030928 -2.1834507
0003a0 a3 20 85 bf ee 04 6e 3e 9a b7 d0 bd 53 ba a3 3f
       -1.0400585 0.23244068 -0.10191269 1.2791237
0003b0 7a bc dd 3e 8d 71 8e be 79 b0 52 bf 1f 3c 46 be
       0.4330786 -0.27821007 -0.82300526 -0.19358872
0003c0 59 b6 5a be 6e e6 8f be 34 b5 83 3e f9 fc 9a 3d
       -0.21358623 -0.2810549 0.25724185 0.07567782
0003d0 88 27 ea 3d 8c be 84 bf 4a c4 94 3e 1d 2c ba be
       0.11433321 -1.037065 0.29056007 -0.3636178
0003e0 56 f2 32 be a1 51 e1 3e 23 69 a7 3e ee 81 7a 3f
       -0.17475256 0.4400759 0.326974 0.97854507
0003f0 a4 aa b0 bf f2 a7 1e c0 95 da 48 bd 7a dd 08 be
       -1.3802075 -2.4790006 -0.04903658 -0.13365737

output.2.weight f4 [7, 387]
000000 64 42 c7 bb ca d7 b4 3a a3 cf 10 3e 83 e8 cb bc
       -0.0060809124 0.001379722 0.14141707 -0.024891144
000010 58 6e 2a 3e 65 2b 4c 3e 5d e0 33 3c 11 d9 05 3d
       0.16643655 0.19938429 0.010978785 0.032677714
000020 3a 6f a8 bc 83 88 d4 bb 8b ad 81 bc 20 77 59 3b
       -0.02056085 -0.006486 -0.015829822 0.0033182576
000030 3b b5 52 bb 3b 43 2b 3c fa 59 04 3d 66 74 af bc
       -0.0032151479 0.010453041 0.03231237 -0.021417808
000040 94 d6 3f 3c f4 d8 b5 3c 2a a4 18 3d 98 d2 73 bc
       0.011708874 0.022198178 0.037265934 -0.014881752
000050 c8 cd a1 bd 61 60 e3 bb c4 bd 33 bd bc 78 16 3c
       -0.07900578 -0.0069389795 -0.043882146 0.009184059
000060 03 86 39 bc bc d8 a2 3b 1c aa 82 3d fb e8 2e 3d
       -0.011323455 0.0049696844 0.06380102 0.042702656
000070 a7 d4 50 3d 7d 5b 56 3c f6 7b ea bc 23 76 93 3b
       0.05098405 0.013083336 -0.028623562 0.004500167
000080 be eb 44 3c 4a 3e e6 3b 39 e5 ea 3c ec a7 0a bd
       0.012019096 0.0070264684 0.028673755 -0.03385155
000090 27 93 fe 3c c3 6b af bf 77 e8 32 bf 99 f4 53 3d
       0.031076027 -1.3704761 -0.69885963 0.05174694
0000a0 6f 3b f0 3c 06 b1 c2 bf 97 cb e0 3c 9c 36 09 ba
       0.029325215 -1.5210273 0.02744083 -0.00052342727
0000b0 4d 94 cb 3b 00 63 47 b9 d4 63 3f be c7 6a 8b bf
       0.006212747 -0.00019014999 -0.18690425 -1.0891961
0000c0 d6 10 e8 3c d6 10 89 3f 3d 6b b6 bd 1a d2 cf 3c
       0.02832834 1.0708263 -0.08907173 0.025368739
0000d0 c9 d5 fe 3c 7f d6 b6 3d 2e 20 07 bd 37 d8 47 3d
       0.0311078 0.08927631 -0.032989673 0.048790183
0000e0 79 12 87 bc 22 b6 ab bc 04 6e 62 3d c8 98 0b 3f
       -0.0164883 -0.020960871 0.0552807 0.5453
0000f0 66 dc 8e 3d 25 c3 d5 3c ba 74 8d bb 59 b3 09 bd
       0.069756314 0.026094029 -0.0043168934 -0.033618305
000100 4c 47 60 3c 90 b1 e9 bc 55 51 9e 3a 09 01 b8 bc
       0.0136888735 -0.028527051 0.0012078682 -0.022461431
000110 58 d6 1e bd 8d d8 eb 3d f5 c7 1d bc 83 0c 84 3d
       -0.038778633 0.11515913 -0.009630193 0.06447699
000120 9b 54 e4 bd 27 dd c1 3c eb 71 fd 3c 7a 95 75 bc
       -0.1114895 0.023665024 0.03093811 -0.014989251
000130 b6 e9 f9 3d d9 5a b8 3d 14 6d 42 3d 7a 28 fc bc
       0.1220278 0.09001703 0.047467306 -0.03078102
000140 b7 b1 43 bc 29 a4 2b 3e 6a 8e 8d 3b 26 52 74 bc
       -0.011944226 0.16761841 0.0043199556 -0.014912164
000150 b4 50 36 3d 54 6e 8e bc 1a bb d2 3b 5b e0 80 be
       0.04451056 -0.017386593 0.0064309957 -0.2517117
000160 ae ef cc 3c a0 9b ae 3d 80 a7 86 3c 6e 3f 83 bc
       0.025016632 0.08525777 0.016437292 -0.016021457
000170 63 39 a8 bb c0 d2 85 bd 3c 90 6e bc 3c 92 d2 3c
       -0.005133794 -0.06534338 -0.014560755 0.025704496
000180 e3 e7 a9 bc e4 eb d4 3d 17 c9 85 3f c6 a1 92 bb
       -0.020740455 0.10396555 1.0451993 -0.0044748513
000190 4b 92 6f bb 9b 2b 1d 3d 3b ac 2f c0 ce d5 44 3e
       -0.0036555703 0.038371664 -2.744887 0.19222185
0001a0 33 04 29 3d 2c 32 70 bb 88 e5 a1 bc 11 1f d1 3c
       0.04126377 -0.0036650999 -0.01976277 0.025527509
0001b0 ad fb 01 bd d6 a7 24 bd 96 1d 0d bc 76 c4 a3 3d
       -0.031734157 -0.040199123 -0.008613011 0.07996456
0001c0 36 71 ea 3f f9 37 2a bc 91 22 d2 3c 3f a0 39 bc
       1.8315799 -0.0103893215 0.025651248 -0.01132971
0001d0 4d 5c 44 3f 40 a6 73 3a 6e c5 08 bd f5 59 f4 bc
       0.7670334 0.00092944875 -0.03339141 -0.029828051
0001e0 f1 00 11 bd c2 a7 ca ba b0 61 e0 bb 50 a6 4a 3d
       -0.03540129 -0.0015461373 -0.0068475828 0.049475014
0001f0 9d 6b 8c 3c 2c f9 8f bc ec 9f 83 3e b4 52 33 be
       0.017141158 -0.01757487 0.25707948 -0.17512017
000200 25 7d 99 3c 07 b8 4e bd 1f 02 97 bc 49 10 c8 bc
       0.018736431 -0.05046847 -0.018433629 -0.024421828
000210 42 19 ca 3c 6d 4e 07 3d d2 fd 8f 3d 8f a6 48 3d
       0.024670247 0.033033777 0.07030834 0.048986968
000220 9b 35 06 3d 69 bb 09 bd be 2e e5 3c 39 23 b0 bb
       0.032765966 -0.033625994 0.02797639 -0.0053752926
000230 c7 0a 01 bd d4 ad 48 3c 26 3e 51 3d e1 82 54 3e
       -0.03150442 0.012248475 0.05108466 0.20753051
000240 fc be 2f 3d e0 5e b8 3a 95 0e f0 3d f0 1c 71 bd
       0.042906746 0.0014066361 0.11721531 -0.058865488
000250 69 08 01 3c f4 9d d3 bc 45 e6 07 bd ab d1 bd 3c
       0.00787554 -0.025832154 -0.033178587 0.023171267
000260 9f b1 8c bc 28 73 19 bd fb 79 a0 bc e8 34 4d 3d
       -0.01717454 -0.037463337 -0.019589415 0.050099283
000270 e1 3c 15 be 0a c0 de 3e d0 dd ad bd 0b ce 29 3e
       -0.14574005 0.4350589 -0.08489573 0.16582505
000280 c1 14 00 bd 17 5c be 3c c7 61 1b 3e 38 e2 e1 3b
       -0.031269792 0.023237271 0.15174018 0.0068934225
000290 66 36 f5 3c f0 e9 a9 bc e0 e3 21 3d e6 4d dd 3d
       0.029933166 -0.020741433 0.03952396 0.108058736
0002a0 68 6c ed 3c 44 67 58 3c 2f 61 b4 3b 9b ba 07 3d
       0.028982356 0.013208214 0.0055047492 0.033136945
0002b0 bb 9f 13 3c aa 71 50 3e 2d 6b 88 bd 38 26 1f bb
       0.009010251 0.2035586 -0.06661067 -0.0024284255
0002c0 dc c7 ec be d5 93 4d 3c d0 15 2f bf 71 90 00 3d
       -0.4624623 0.012547453 -0.6839266 0.03138775
0002d0 c7 23 12 3d 26 61 f1 bc f2 36 7b 3c 67 7c 15 3d
       0.03567865 -0.02946527 0.015332924 0.036495592
0002e0 70 ef ca 3c 5f 1d 0d 3d 07 34 3e 3c 68 7e bc 3d
       0.024772376 0.03445184 0.011609084 0.092037976
0002f0 81 b2 bd 3c a0 9d 25 bd 1f 1c 4a bd e2 ab d2 3c
       0.023156406 -0.040433526 -0.049343225 0.025716726
000300 33 78 18 bd b8 d8 8e be dc 35 df 3c 78 2a 30 3c
       -0.037224006 -0.27899718 0.027247362 0.010752313
000310 27 51 d6 3c 03 a8 f6 bd 43 93 fb bb 3c 84 3e bd
       0.026161743 -0.120437644 -0.007677467 -0.046512827
000320 44 95 08 3d a8 97 d9 3b fd 5e 51 3e 9a 88 08 bd
       0.033345476 0.0066403933 0.20446391 -0.0333334
000330 1d 41 0e bc 21 70 01 be 03 ce 12 be 40 20 c9 3b
       -0.008682516 -0.1264043 -0.143364 0.0061378777
000340 4f b8 e4 3e dd 05 08 3d 9f b7 5e 3c 36 f2 f5 3c
       0.44671866 0.033208717 0.013593583 0.030022722
000350 5c 99 8c bc f9 b9 13 3e c9 c8 03 3d ca 89 64 3b
       -0.017162971 0.14426412 0.032173906 0.0034872168
000360 80 17 ff 3e e0 76 9e 3e cf de 44 bd fb e7 98 bd
       0.49822617 0.3095007 -0.04806405 -0.07466122
000370 f3 c0 35 be 80 a4 48 3d aa a8 80 3d a5 43 3f 3d
       -0.17749386 0.048985004 0.0628217 0.04669537
000380 8a 15 a6 3c 76 49 f5 3c ed cc aa 3d a2 ef 1d bd
       0.020273943 0.029942255 0.08339868 -0.03855861
000390 b8 7b 09 bd cd c8 c0 3c 54 bf 90 3c cf 7c e8 bd
       -0.033565253 0.02353325 0.017669357 -0.1135193
0003a0 29 fc 59 bf 37 a4 de 3c 69 b1 b1 3c 92 ee 0b be
       -0.8515039 0.027177913 0.021691041 -0.13665226
0003b0 2e 04 86 3c 5b be c1 bc 33 a8 d3 3b ad 1e a4 3b
       0.016359415 -0.023650339 0.00645926 0.0050085397
0003c0 1b dc 13 3d 24 78 c5 bc f1 64 82 3a c0 28 82 3c
       0.03609858 -0.02410514 0.0009948296 0.015888572
0003d0 22 f6 c5 bc 23 11 0f 3b e0 8e e2 3b ad 3d 1e 3d
       -0.024165217 0.0021830283 0.0069140047 0.038633037
0003e0 7f b6 f6 bc 95 18 d4 3c 8b 12 aa 3d e3 ee ec 3d
       -0.030116318 0.025890628 0.08304318 0.115690015
0003f0 4a 6f b0 3c 80 4c b6 bd 17 8d c6 bc be 94 15 bd
       0.021537442 -0.0890131 -0.024237199 -0.036518805

output.2.bias f4 [7]
000000 b8 22 43 3f c1 1d 01 be 6c 4d 06 bf 4d 87 f3 3d
       0.7622485 -0.12609006 -0.52461886 0.11891041
000010 a9 ac dc 3d a1 37 90 be 23 2c 14 bd
       0.1077512 -0.2816744 -0.036174905
