output/models/50.55Acc_H1_OneLayer350Units_ReLU_CrossEntropyLoss_Adam_0.001lr_7488epochs_10batches.pth (torch, 22125 bytes, 4 tensors)

output.0.weight f4 [350, 6]
000000 60 e3 02 bc 12 47 1c bd 49 d4 66 3d 50 dd 83 3e
       -0.007988781 -0.038153715 0.056354795 0.25754786
000010 f2 8b df 3e db e0 e2 3d a2 bc 21 bc 0c af 5c bd
       0.43661457 0.11078044 -0.009871634 -0.053877875
000020 76 19 46 3e 8e 3f 24 be 69 ea 6a 3f 85 f6 ef be
       0.1934565 -0.16039869 0.9176393 -0.46867767
000030 64 1d 9c bd 1b 97 05 3c c0 a7 b6 3c 5a 5f a5 3e
       -0.07622793 0.008153702 0.022296786 0.3229931
000040 c5 10 b5 3e 57 bd 01 3e c4 90 02 3e f8 00 ed 3c
       0.35364357 0.12669884 0.12750536 0.028931126
000050 8e 23 00 bf ff 62 82 bf da 16 61 bd 9e 5d f4 3f
       -0.5005425 -1.0186461 -0.054953434 1.909107
000060 4d ed bd 3d 4f 07 11 be 34 ab 2e 3e bd b2 fc bc
       0.09273777 -0.14162944 0.17057496 -0.030846948
000070 1b 7d 1a 3f fb 22 4b 3c 42 55 c9 3d dd fd 7f 3e
       0.60347146 0.012398477 0.09830715 0.24999185
000080 90 40 60 be af da e7 be 13 2e 1e c0 72 62 81 40
       -0.21899629 -0.4528403 -2.4715621 4.0432673
000090 07 1e 26 bd 6e 4b 02 3e ee d0 40 bd d0 9c c5 3e
       -0.04055598 0.12724087 -0.04707425 0.385962
0000a0 18 90 36 3f 8a b2 74 bf bf dc 32 be 3c 25 d2 bd
       0.7131362 -0.9558493 -0.1746702 -0.10261008
0000b0 28 a1 89 bd aa 8d 5a be 00 95 5a bb 94 6e af be
       -0.06720191 -0.21343103 -0.003335297 -0.34264052
0000c0 16 e1 8e be 3e 0c 66 be c0 a2 8b bb 5c 8d 23 be
       -0.27906102 -0.22465608 -0.0042613447 -0.15971893
0000d0 84 3c b1 bd 60 5c d5 3d 77 2a 55 bf 5b 22 b0 bd
       -0.086541206 0.1041801 -0.8326792 -0.08600303
0000e0 ff 2c 03 3e 6e d1 7a be a0 05 1e be a4 96 ed 3e
       0.12810133 -0.24493954 -0.15431833 0.46403992
0000f0 3b b6 63 be cb af 63 3d af 52 b0 3d c9 bc 33 3d
       -0.22237484 0.05558757 0.08609521 0.04388121
000100 2c c4 dc 3d a4 75 36 3f dc 61 5e bd 94 7c 99 bb
       0.10779604 0.71273255 -0.054292545 -0.0046840403
000110 1b 0f e2 3c 84 37 47 bd eb 2c e1 bd 1e f6 00 3f
       0.027595093 -0.04863693 -0.109948955 0.50375545
000120 ca c2 21 3e 0d 9e a6 3e 93 e7 04 be 63 cd d2 be
       0.15796962 0.32542458 -0.12978964 -0.41172323
000130 b6 a7 cc 3d ac e3 1c 3f e4 52 73 3d 53 d4 0c 3e
       0.09992926 0.612849 0.059405223 0.1375287
000140 a6 dc 72 bc 23 a5 44 be 84 c6 0d c0 ce 30 74 bf
       -0.0148231145 -0.1920362 -2.2152414 -0.9538697
000150 70 ea 96 be 07 e4 3d bf fc 82 df 3a 80 c5 b9 3b
       -0.29475737 -0.7417607 0.0017052586 0.005669296
000160 bd 09 55 be ba 44 92 3e 1c f0 ac 3d cf b5 4e be
       -0.20804496 0.2856806 0.08444235 -0.20186542
000170 6a 36 a3 be f4 ad 8d bd 00 90 24 3c 00 9f 68 bb
       -0.31877452 -0.069179446 0.010044098 -0.0035495162
000180 39 27 83 3d 6e 51 b2 bf 22 4a 21 3e a3 06 87 3d
       0.064039655 -1.39311 0.15750936 0.06593063
000190 9c bc 46 3f 2f 07 5f bf 63 b7 1d 3e 01 90 08 3e
       0.77631545 -0.87120336 0.15401988 0.13336183
0001a0 d5 16 26 bd a5 0e 53 be 65 c3 9e bf d3 d9 44 c0
       -0.040549118 -0.20611055 -1.240338 -3.075795
0001b0 e2 ec c2 bd ee 0f b6 3d 26 56 80 3d 7b a7 ff 3c
       -0.09517838 0.08889757 0.062664315 0.03120779
0001c0 49 57 c1 3e 19 f3 ed be 5d bd 9d be a4 4f 4f be
       0.37761906 -0.4647453 -0.30808535 -0.20245224
0001d0 9f af f9 3d d1 c5 5f 3e ea 2a 45 bf 77 53 bf 3d
       0.121917 0.21852805 -0.77018607 0.093420915
0001e0 5e 7b dc 3d 4a 66 0b 3e 8a 86 c9 be f6 e1 dc 3e
       0.10765718 0.13613239 -0.39360458 0.43141145
0001f0 0f 1b 2d bf 93 ab 9c be 19 fd a6 be ec 45 0b 3c
       -0.67619413 -0.3059965 -0.32614973 0.008500557
000200 73 6a 2f 3e ac c8 1e be 10 b5 b6 3e 83 82 bf bd
       0.17130451 -0.15506238 0.35685015 -0.09351065
000210 93 20 ab be d8 e2 29 3e 52 20 b3 be 50 72 16 be
       -0.3342329 0.1659044 -0.34985596 -0.14692044
000220 c8 31 8a 40 b5 12 bc 3f 00 05 4c be 07 cd a1 3e
       4.318577 1.4693209 -0.19923782 0.31601736
000230 9f 40 c5 3b 1c 09 59 be a4 f0 31 3e 4a 7e 8d be
       0.0060196663 -0.21194881 0.17376953 -0.27635413
000240 00 56 99 bc 99 05 d1 be b0 7e cc bc 50 c3 bd bc
       -0.018717766 -0.40824583 -0.024962753 -0.023164421
000250 c0 99 b0 3b 58 c2 27 3e 31 e0 cd be 40 ab 82 be
       0.005389422 0.1638273 -0.40210107 -0.25521278
000260 a2 3a c0 be 60 ab a7 3e e8 b9 08 3e 5c b7 04 3e
       -0.37544733 0.32747936 0.13352168 0.12960571
000270 b3 8a 35 be bb ec 4e 3d 88 12 12 3e 61 dd c1 3c
       -0.17728691 0.050518733 0.14264882 0.023665132
000280 e1 fc 28 3f d9 ea 56 bf 56 1f 04 3e 89 74 5c 3e
       0.6601086 -0.839521 0.12902579 0.2152883
000290 0b 45 86 3e a1 e3 da be c6 90 1b bf 88 9c 7d be
       0.2622455 -0.42751792 -0.6076778 -0.24766743
0002a0 e5 b1 6d be 1b c9 7e be de 99 0e be 10 26 3e 3d
       -0.23212393 -0.24881403 -0.13925883 0.046423018
0002b0 00 e9 6b bc 6a 14 7f be 9e b2 21 be 3a ac 11 3d
       -0.014398813 -0.24910131 -0.15790793 0.03556464
0002c0 aa de b1 3d d4 ae d4 3d 4d 83 0a bf 8b 3e 40 3f
       0.08685048 0.10384908 -0.541066 0.75095433
0002d0 d8 00 7c be 8c 79 aa be f6 2a 21 3e ca d1 1c 3e
       -0.24609697 -0.33295858 0.15739045 0.15314403
0002e0 dd fd 54 be 5d 93 57 3f b5 c1 dc 3e e0 3e 5c 3e
       -0.20799966 0.84209234 0.43116537 0.2150836
0002f0 9d 11 9f bd 0f c2 58 3e 4d 83 bf bf a7 4e a5 3f
       -0.07767031 0.21167777 -1.4961945 1.2914628
000300 68 ca c5 bd e0 24 13 bd 54 cf a9 be 9e 96 64 be
       -0.096577466 -0.03592384 -0.3316599 -0.22323081
000310 30 7a d8 3d af ce 4f be 61 a7 f1 3e 35 44 76 be
       0.105701804 -0.20293687 0.47198012 -0.24049456
000320 38 3b 10 3e 96 a3 a9 be 21 03 a0 3f 09 27 b2 3f
       0.1408509 -0.3313262 1.2500955 1.3918163
000330 d0 94 e6 3e 3b 0e 60 3d 1e e5 ad be 06 b6 05 3e
       0.4503541 0.05470107 -0.33963865 0.13057718
000340 65 56 0e c0 80 6f 76 be 18 53 94 be 7b 69 b2 be
       -2.224023 -0.24065971 -0.28969646 -0.348461
000350 fe a4 c8 be 58 99 c5 3e fc 29 42 3e f0 f3 f3 3d
       -0.3918838 0.38593554 0.18961328 0.11911762
000360 95 aa a3 3e 73 7f 06 3c 5b bd 5e 3e 6c 4f e9 be
       0.3196608 0.008209097 0.21751921 -0.45568407
000370 ef ad 71 be 1f 3a 2f be 37 a3 f5 ba 8a da d7 3e
       -0.23601507 -0.17112015 -0.0018740658 0.4215892
000380 99 b4 02 be 64 5d 98 be 84 d7 10 3f d7 79 75 bf
       -0.12764205 -0.2975875 0.5657885 -0.9588904
000390 55 ea b3 bd 59 37 54 3e e5 63 d6 3b a1 ff 87 bd
       -0.0878493 0.20724238 0.00654267 -0.06640554
0003a0 c0 90 fb 3e 44 69 b2 bf 49 54 1f 3f 0b 0c c1 be
       0.49133873 -1.3938375 0.62237984 -0.377045
0003b0 f6 79 fe be d8 ff 19 3f a0 b7 7f 3d 21 0e 06 40
       -0.49702424 0.6015601 0.062430978 2.0946124
0003c0 62 2b 85 be 87 96 52 3d 47 81 83 bd 33 0d ec 3e
       -0.2600966 0.051413085 -0.06421142 0.4610382
0003d0 a7 8c 15 c0 a8 b0 6a 3f 69 a8 99 be 32 93 5b bc
       -2.3367097 0.91675806 -0.300113 -0.013401793
0003e0 09 51 41 3e 22 b9 38 3e 23 39 b1 bf 70 86 01 3e
       0.18878569 0.18039373 -1.3845562 0.1264894
0003f0 20 64 01 3e a4 42 de bd 56 b1 80 be 14 80 ca be
       0.12635851 -0.108525544 -0.25135297 -0.3955084

output.0.bias f4 [350]
000000 fc 9b af be c0 14 e8 be b2 5c 12 3e 48 9a 98 3f
       -0.34298694 -0.4532833 0.14293173 1.1922083
000010 77 8a 08 3f c0 5f d6 be bc 92 d0 bf c0 55 19 3e
       0.5333628 -0.41869926 -1.629478 0.14974117
000020 88 bf bc bd 4b 0c f3 3f 62 0a 80 3e 38 6a f6 3d
       -0.09216219 1.8988127 0.2500792 0.12031978
000030 f2 e7 71 be 41 11 af be 03 26 42 40 b9 64 29 be
       -0.23623636 -0.3419285 3.03357 -0.16542329
000040 35 05 f0 3c 1e 5e 99 bf 00 77 59 3e bd 67 3d 3f
       0.029299358 -1.1981847 0.21236801 0.7398642
000050 4f 08 ed 3f 8b 83 a9 3e 59 a6 9a bf f8 81 f3 3f
       1.851816 0.33108172 -1.2082015 1.9024038
000060 02 6e 0f be 65 8f 57 be c1 ec 63 bf 3b 1d 5c bf
       -0.14006808 -0.21050794 -0.8903313 -0.859821
000070 48 5c c4 bd e7 92 46 bf 19 28 07 bf c6 34 c6 be
       -0.09587914 -0.77567905 -0.5279556 -0.38712138
000080 04 90 c9 3e 57 75 ad bc ab 29 e5 3f 48 fd cb 3e
       0.39367688 -0.021174116 1.7903341 0.39841676
000090 c8 39 43 3f 99 5b a5 3f c5 2d 3f 3f bc 6d 86 be
       0.7626004 1.2918578 0.74679214 -0.26255596
0000a0 e4 eb 83 bf b8 32 29 3f 14 f4 a3 3e e4 02 19 bf
       -1.0306363 0.66093016 0.32022154 -0.59770036
0000b0 cf e6 d5 3e 3e 7f 94 be aa c8 1b be fe ad d2 bd
       0.41777655 -0.29003328 -0.15213266 -0.102870926
0000c0 6c f5 18 be f8 97 f1 bd c9 ce d0 3f 3b 51 32 3e
       -0.14937371 -0.11796564 1.6313106 0.174138
0000d0 dc 6b 91 3e a1 4b 04 3e 25 5b 9e 3f eb e7 65 3f
       0.28402603 0.12919475 1.2371565 0.89807004
0000e0 20 eb a7 3f 96 17 9c be 55 bd 2a bf f0 bd 2b 3d
       1.311863 -0.30486745 -0.6669515 0.041929185
0000f0 db 59 72 3f 82 95 8a be 9a fd dd 3e 25 09 5b 3f
       0.9466836 -0.2706719 0.43357545 0.8556083
000100 ff 7f ea 3e 67 c7 38 3e 5f fa 75 3e 5a 10 53 be
       0.45800778 0.18044816 0.2402129 -0.20611706
000110 08 1b b2 be b0 7c b7 3e 7d fc e8 3e 3b 7b ae 3e
       -0.34786248 0.35837317 0.45505133 0.34078392
000120 45 56 e3 3e a5 b5 da 3d b2 97 5a 3e 22 8c af 3e
       0.44401756 0.10679177 0.2134693 0.342866
000130 f4 ff 87 be 20 5d 0a c0 b8 fc ea 3d f4 4e 2e bf
       -0.26562464 -2.161934 0.114739835 -0.6808922
000140 57 b7 0b bf b7 86 6e 3f eb 90 c8 3e 88 b2 a5 3e
       -0.5457663 0.9317431 0.39173064 0.3236277
000150 8b 21 06 c0 c6 1c 83 bd 38 89 cc be f4 20 ca be
       -2.0957973 -0.064019725 -0.3994844 -0.39478266
000160 fe 46 41 be 43 0b ca bf cb ff 5d 3f 60 78 6b bf
       -0.18874738 -1.5784687 0.86718434 -0.9198055
000170 07 56 af 3e 58 9e a4 be 6f cc 33 bf 7c f7 0b 3d
       0.3424532 -0.32152057 -0.70233816 0.034171566
000180 30 50 ef 3f c5 e9 c6 be 90 11 00 3e b4 5a 14 3e
       1.8696346 -0.38850227 0.125067 0.14487725
000190 b4 e7 54 3f a4 35 6d bf 87 d7 81 3e de dc ab be
       0.8316605 -0.92659974 0.25359747 -0.33566946
0001a0 e6 5d 03 bf c7 97 f9 be 31 e4 d6 3e 54 75 6e bd
       -0.5131515 -0.4874861 0.4197097 -0.05821736
0001b0 2c eb 3a 3d 06 e5 f3 3d 86 f2 c2 bd a5 48 06 c0
       0.045634434 0.11908917 -0.09518914 -2.0981839
0001c0 51 0b 93 3e bc bc 71 3e 02 90 83 be 6e 7a 95 bf
       0.2871957 0.23607153 -0.25695807 -1.1677988
0001d0 80 99 39 3e 6d e6 48 be 75 77 3d 3c b1 d8 c2 bd
       0.18124962 -0.1961915 0.011564125 -0.09513987
0001e0 08 45 87 3d 80 9a 2a 3e d1 d2 ce 3e b4 d3 a5 bd
       0.066049635 0.166605 0.40395215 -0.0809702
0001f0 6d 69 00 3f cd 9d b1 3f ad f8 7b 3e 81 83 25 3f
       0.50160867 1.3876282 0.24606581 0.64653784
000200 b3 85 23 be 23 e9 70 3f 78 f1 12 3f c2 ff 46 3f
       -0.15968971 0.9410574 0.573997 0.77734005
000210 91 52 93 3d 31 85 96 3b e8 20 2c bf 6e ef 27 3f
       0.07193483 0.0045935144 -0.6723771 0.65599716
000220 a0 e7 45 bd d5 03 09 bf 0d 46 1c c0 ec 17 bd be
       -0.048316598 -0.5352147 -2.4417756 -0.36932313
000230 25 60 04 40 83 df dc 3e c0 cc 85 be 78 3a 87 bc
       2.0683682 0.43139276 -0.26132774 -0.016507372
000240 03 a0 46 3f 24 7e 41 3e f7 e4 0b 3f 43 f0 39 3f
       0.7758791 0.18895775 0.5464625 0.72632235
000250 ce b4 25 c0 13 15 25 be 3e 23 81 3d f0 ce 2d 3f
       -2.5891604 -0.1612132 0.0630555 0.67893887
000260 e5 89 68 bf a8 1b 01 3e 78 3c 46 3f ae 6a 9d 3e
       -0.9083541 0.12608206 0.7743602 0.30745453
000270 69 70 ac 3f 3b a1 48 bf d8 43 e9 3d 5c 11 00 bf
       1.3471805 -0.7837102 0.11389893 -0.5002649
000280 00 8d cb bd 71 ac 02 bf 60 98 6a 3e dc 08 b1 bd
       -0.09939003 -0.51044375 0.22909689 -0.08644268
000290 61 f1 bb 3b 78 94 48 3e 72 f7 93 3e 90 bf 1f bf
       0.0057355617 0.19587886 0.28899723 -0.62401676
0002a0 70 c9 c4 3d 05 a4 69 bf d4 21 33 3f 41 25 6a bf
       0.09608734 -0.912659 0.6997349 -0.91463095
0002b0 7f 38 c0 3e f8 79 6d c0 51 a7 dc be 30 d6 7c 3f
       0.37543103 -3.7105694 -0.43096402 0.98764324
0002c0 9a 19 66 bf df ae 5e c0 d6 ea d4 be 37 c8 56 bf
       -0.89882815 -3.4794233 -0.41585416 -0.83899254
0002d0 e7 94 54 be 7f f5 7a 3e 12 de 5f be 50 75 ff be
       -0.20759927 0.24507712 -0.21862057 -0.4989419
0002e0 65 ff 7c bf 5b 3d 5c bf 02 49 41 be 22 7b 19 bf
       -0.988272 -0.8603112 -0.18875507 -0.5995351
0002f0 2a 16 3f bf f5 4c 84 3f 48 f5 f6 3d e7 2c f3 be
       -0.74643195 1.0335985 0.120585024 -0.47495195
000300 62 bd 86 be b6 b2 26 be 3f 8e 7d bf d6 e6 74 bf
       -0.26316363 -0.1627911 -0.99045175 -0.9566473
000310 1a b5 90 bf 77 9a 67 3f 48 9b 47 be 79 94 a3 bf
       -1.1305268 0.9047007 -0.19492829 -1.2779685
000320 80 f0 98 3e 28 52 3a 3e e2 39 5a bf 77 cc 5b be
       0.29870987 0.18195403 -0.8524457 -0.21464716
000330 50 2e 8b bf ea 3c 86 3f 17 6f 92 be 6e 6d dd 3e
       -1.0873508 1.048734 -0.2860038 0.4324755
000340 d6 a5 a7 be de 98 a5 3f 2e 6f 05 bf 4b fe ad bd
       -0.3274371 1.2937276 -0.5212277 -0.08495768
000350 fc c3 ec bd 18 e4 bb 3f 90 4f a2 be b9 c9 4e bf
       -0.115608186 1.4678984 -0.31701326 -0.80776554
000360 c8 16 c3 be 4c 63 27 bf 1d bc 47 be 25 42 29 40
       -0.38103318 -0.6538589 -0.19505353 2.6446621
000370 2f 2b d3 be 5a 4e fa be 80 8d 6d bc bc e4 10 40
       -0.41243884 -0.48887902 -0.014499068 2.2639608
000380 a3 12 04 bf dd 53 8d 3d 08 2b 52 3f bc 27 c6 bd
       -0.5159094 0.06900761 0.8209691 -0.096755475
000390 83 23 f8 bf 3b d6 4d be 23 7f 20 3f 36 0e 9d be
       -1.9385837 -0.20101254 0.62693995 -0.30674905
0003a0 61 66 11 3f f0 59 c2 bd 93 4e 26 3f d9 35 3e 40
       0.5679684 -0.094898105 0.64963645 2.9720366
0003b0 b5 e2 3f 3f c4 49 cc be 00 19 01 bf 54 ae 87 be
       0.749553 -0.3990003 -0.5042877 -0.2650019
0003c0 c0 9b 54 3e 1e b4 b0 be 6d d7 ab be cb a4 8a bf
       0.20762539 -0.34512419 -0.33562794 -1.0831541
0003d0 ae c9 57 3d de b0 0f 3f 5f ef 61 bd 0f c6 d6 bd
       0.05268257 0.5612925 -0.055159923 -0.104869954
0003e0 14 1a 84 3e 7d 1a 6f 3e df 3d 0f bf 1a db f6 be
       0.25801146 0.23349948 -0.5595378 -0.48214036
0003f0 90 18 2c bf cb 3b 2c 3e 1d f4 8e bf e6 69 da 3e
       -0.6722498 0.16819684 -1.1168247 0.4265892

output.2.weight f4 [7, 350]
000000 87 54 45 bb 41 b3 82 3c b9 86 14 3d e1 eb 16 bd
       -0.0030110197 0.015954616 0.036261294 -0.036846045
000010 17 27 ce 3c 44 32 a5 3b 47 bb 65 3d dc 27 75 bc
       0.025165124 0.0050413925 0.056086805 -0.0149631165
000020 e4 5f 37 3c 9d 87 20 3e 19 51 0a bd b4 0b 0b ba
       0.011192296 0.15676732 -0.033768747 -0.0005304173
000030 fb be f3 3b 89 c0 e7 3c 15 25 12 3f 6d 58 33 3d
       0.007438538 0.02829005 0.5708783 0.0437855
000040 9e ae 19 bd 86 4b 07 3a ea 53 27 3d 1d ad fd 3d
       -0.037520044 0.0005161095 0.04085151 0.12386534
000050 72 a7 72 3d 7e 51 97 3c be 92 1c 3c 75 61 7c bc
       0.05924172 0.018471476 0.00955647 -0.015404095
000060 10 05 23 bb 98 7d d1 bb 55 51 e9 3c eb 52 5a bc
       -0.0024874844 -0.006393146 0.028481165 -0.013325433
000070 d7 65 12 3d cb 44 9b bc 4e c4 7d bc dd 14 11 3c
       0.035741653 -0.018953701 -0.015488697 0.008855072
000080 00 0e 25 b9 0b 04 06 3d cf 43 27 3d 39 94 59 bd
       -0.00015740842 0.0327187 0.04083615 -0.05311987
000090 eb b3 b1 3c 40 81 59 3a a1 5d d6 3c 1d 51 33 bf
       0.021692237 0.0008297153 0.026167693 -0.70045644
0000a0 cd e2 e1 bb 5f d9 c8 bc 78 43 15 bc 5b 07 56 ba
       -0.006893492 -0.024517713 -0.009110324 -0.0008164548
0000b0 14 05 51 3d 04 d6 98 bc 10 fb 12 3b 59 bb 99 be
       0.051030234 -0.018656738 0.0022427477 -0.30025747
0000c0 5a 49 af be 70 ba 8d bc 27 2d 11 3e 1f 02 23 bd
       -0.3423565 -0.017300814 0.1417738 -0.039796945
0000d0 00 d0 87 b8 21 ee 19 bd 7a e8 27 bc 59 2d e1 3c
       -6.476045e-05 -0.037580613 -0.010248298 0.027487444
0000e0 28 c9 20 3e 40 b9 37 bc 65 95 f8 bc 7a 15 a8 bc
       0.15701735 -0.011213601 -0.030344674 -0.020518053
0000f0 45 13 16 3d fe a5 13 3d 0d ca ee 3d ad 09 2b 3d
       0.03663947 0.036046974 0.11659632 0.041757274
000100 73 b8 0b 3d 98 13 1c bc d7 a3 b1 3c 4a bd 9f bc
       0.03411145 -0.009526156 0.02168457 -0.01949944
000110 cf 04 22 bd 65 61 e1 3c af 7c 4e 3c 24 d6 ac bc
       -0.039555367 0.027512262 0.012602969 -0.021098204
000120 f3 c6 8e 3c 9d 2b d4 3c b2 d3 31 3c 70 93 0a bc
       0.01742885 0.025899703 0.010853695 -0.008458003
000130 ea 8f fc be c1 a1 bc bd 57 07 98 3c a1 03 99 bd
       -0.49328548 -0.092105396 0.018558187 -0.07471395
000140 3c cd 23 bd 2a f7 53 3d 57 87 14 bf be 0d b6 3c
       -0.03999065 0.051749386 -0.5801901 0.02222335
000150 39 00 a7 3a d6 ed 0d bd 88 af 8a bb c0 a4 86 3c
       0.0012741155 -0.034650646 -0.0042323507 0.01643598
000160 c2 cd bd 3c a6 8e a3 bf d6 52 0e bd 03 5c 0a bc
       0.023169402 -1.2777908 -0.034746967 -0.008444789
000170 8b 17 07 bc b6 08 2c bf 90 d4 cd bc 22 43 8e bd
       -0.008245359 -0.6720079 -0.025125772 -0.06946398
000180 52 31 e0 3c 04 bd 62 3c d2 26 0d bd 1e 7b d3 3c
       0.027367268 0.01383901 -0.03446085 0.025815543
000190 c6 9a 40 3b 45 04 16 be 16 76 ad 3f fd c6 2a bc
       0.0029389127 -0.14650066 1.3551662 -0.010423419
0001a0 5b db 96 3d 29 3c 08 be e3 8a 46 3c 04 a3 86 bc
       0.073660575 -0.133042 0.012118074 -0.016435154
0001b0 c8 e9 51 bc 2f a0 3e bf d8 17 5b be 3e 0c 48 bc
       -0.012812085 -0.7446317 -0.21395814 -0.01220995
0001c0 60 84 2f 3b 63 f0 ff 3c cb 36 24 bb e8 86 59 be
       0.0026781783 0.031242555 -0.0025057073 -0.21242869
0001d0 fa 4c f4 bc 2c 1a bf bf b1 50 48 3d 82 41 17 3d
       -0.029821862 -1.4929862 0.04890508 0.036927707
0001e0 d4 9f 5a 3b 2e 34 2c bd f5 25 89 ba 1b 95 23 bd
       0.0033359425 -0.04204195 -0.0010463583 -0.03993712
0001f0 9a 47 cc 3c e4 cd ea 3e da 93 f5 3c b2 80 36 3d
       0.024936486 0.45860207 0.029977728 0.044556327
000200 3c 91 0e 3d 08 98 07 be 85 e5 81 3d fa ec 06 3e
       0.034806475 -0.13241589 0.063426055 0.13176337
000210 41 d8 42 bc 15 20 19 3d fc d4 b5 3e 73 fa 22 3e
       -0.011892379 0.03738411 0.35514057 0.15915851
000220 c5 c4 08 3d 25 fa 8a 3c 36 8d 0f 3e 1f 30 23 3c
       0.03339078 0.016964981 0.14018711 0.009960203
000230 6c 7a 25 3d 91 9d 59 3c 49 d0 1e 3d e7 b5 14 3b
       0.040399954 0.013282196 0.038772855 0.002269143
000240 8e e7 ba 3d 00 cb 45 3a 08 38 25 3c 56 76 86 3d
       0.09126197 0.0007545203 0.01008416 0.065655395
000250 09 04 83 bc e2 60 25 bd 21 b8 04 bc 91 5c 8a 3d
       -0.015993135 -0.040375598 -0.00810054 0.06755937
000260 39 80 ef 3d 62 0c a1 3c 62 7f d7 3c d2 2f e7 3c
       0.116943784 0.019659225 0.026305858 0.028221045
000270 e5 2e 26 3c b9 99 9e 3c a3 d9 55 3d 3b 9f f1 be
       0.010143016 0.01936041 0.052209508 -0.47191796
000280 ac 68 07 bc 04 2a f8 bc c1 d8 27 3d 72 19 01 bd
       -0.008264702 -0.030293472 0.040978197 -0.031518407
000290 87 52 d2 bc 7d a9 43 3c 8b 01 6b 3e a8 b4 2d be
       -0.025674118 0.011942265 0.22949807 -0.16963446
0002a0 fd 7a bb 3c 64 78 81 3c b9 85 07 bd e7 f1 26 bc
       0.022885794 0.015804477 -0.033086512 -0.01018951
0002b0 f2 a7 41 3c e8 bd 25 bd d9 f4 95 bd b1 8e aa 3d
       0.011819826 -0.04046431 -0.073220916 0.083279975
0002c0 dc 58 35 bd 9d d6 aa bd ea b8 c1 3c bd 5f 8c bc
       -0.044274196 -0.083417155 0.023647744 -0.017135495
0002d0 4e 6e a6 bc 29 81 15 3d 65 a8 54 3d c1 04 53 3c
       -0.02031627 0.03650013 0.051918406 0.012879551
0002e0 72 23 5a be 23 06 00 bc 37 25 81 3c 63 e6 25 bd
       -0.21302584 -0.007813963 0.015764816 -0.040502917
0002f0 ab e7 bf 3d 85 e0 ac 3e 08 53 59 bc 4a 68 3d bd
       0.09370359 0.33765045 -0.013264425 -0.046242036
000300 65 73 6a bc d8 28 00 c0 c0 f3 f2 3c 37 02 97 bc
       -0.014309739 -2.002493 0.029657245 -0.018433673
000310 72 e4 eb 3d e5 34 d8 3e 65 9e 4b bd 39 0e 1e bc
       0.11518182 0.42227855 -0.049711604 -0.009646946
000320 78 b1 46 bc 9c ee 0a 3c e0 f4 e0 bd 1e 03 bc 3c
       -0.012127273 0.0084797405 -0.10984206 0.022950705
000330 14 6b de 3d 00 d1 69 3d cd 28 d8 bb 6a a5 e5 3c
       0.10860267 0.057084084 -0.0065966607 0.028032977
000340 16 66 3a bd e3 7a b4 be 20 d6 26 bd 8d c1 7f 3c
       -0.045507513 -0.35250005 -0.04073155 0.015610111
000350 6d cb 04 3d 8e a1 90 3d d3 ee e0 bc 9c 3b 0f bd
       0.032420564 0.07062064 -0.02745763 -0.034968957
000360 18 b5 55 3c 19 c8 09 bd 18 7e 9d 3c dc c3 00 3d
       0.013043664 -0.033638094 0.019225165 0.031436786
000370 f1 0f aa bc 6e 29 b4 bc e0 6c a5 3a dc 48 9c 3d
       -0.020759555 -0.021992411 0.0012620948 0.07631084
000380 80 5c 14 3d 0f 5b 97 3d d6 13 3d 3d 1e 08 21 3d
       0.036221027 0.07390415 0.046161495 0.03931438
000390 a9 b0 8c bc 2a b2 bc 3c 39 26 9c 3d 05 30 2f 3d
       -0.017174082 0.023034174 0.07624478 0.042770404
0003a0 54 59 14 bb 87 7b 55 3f 28 25 5b 3f da 9e ec 3d
       -0.0022636252 0.8339161 0.8560357 0.11553736
0003b0 44 ad 31 3d 72 1a 92 3e 9c 09 21 bd 3a b2 2e bd
       0.04337813 0.285358 -0.039315805 -0.04265044
0003c0 2a 37 87 3c 1c b0 c5 bc 84 a3 cf bc 70 9e a0 bc
       0.016505796 -0.024131827 -0.025346525 -0.019606799
0003d0 5a bd 09 bd 33 de c3 bd 79 4c 0f bc 3c 49 a3 bc
       -0.033627845 -0.095638655 -0.00874626 -0.019932382
0003e0 ec 4c a3 bc db 31 47 bf 87 85 31 3c c0 11 26 3c
       -0.01993414 -0.7781045 0.010835058 0.010136068
0003f0 f1 c1 11 3c 3c 60 5e 3d 3f 0d 05 bc 43 fc 7a 3e
       0.008896337 0.054290995 -0.008120834 0.24510293

output.2.bias f4 [7]
000000 26 0a 37 3f f2 2c 58 be de a6 49 bf e8 2d 9c 3e
       0.7149986 -0.21110895 -0.78770244 0.30503774
000010 9e 89 a3 3b 59 aa 03 be e8 30 a0 3d
       0.0049907705 -0.12857951 0.07821828
