output/models/63.76Acc_H1_ThreeLayers100_100_100Units_ReLU_CrossEntropyLoss_Adam_0.001lr_6410epochs_10batches.pth (torch, 90751 bytes, 8 tensors)

output.0.weight f4 [100, 6]
000000 b2 c6 bb be ab a2 2b be c1 20 b9 be 54 05 b8 bd
       -0.3667503 -0.16761272 -0.36157802 -0.08985391
000010 37 8c 6b 3e da 72 8d 3e 94 b1 12 3e 22 ea da 3e
       0.23002706 0.27626687 0.14325553 0.42756754
000020 94 10 d7 bd c3 2d 3b 3e cd 69 a5 be 02 b3 2a c0
       -0.10501209 0.18279175 -0.32307282 -2.6671758
000030 49 cc 14 3d 4c eb ce 3d a6 16 9e bf 85 52 07 c0
       0.036327634 0.10103473 -1.2350662 -2.1144116
000040 1e 92 b5 c0 cd 41 88 40 3e a4 f4 be 4e ff eb be
       -5.6740866 4.2580323 -0.47781557 -0.4609322
000050 d9 eb 8d 3e 4c 4f 6c be a2 eb e9 3f ab 53 f0 bf
       0.27719 -0.23077124 1.8275034 -1.8775533
000060 fc f4 6f 3e c3 90 54 3e ad 66 b9 be 0c f4 49 3f
       0.23433298 0.20758347 -0.36211148 0.7888801
000070 9d c4 9a bf ab d7 cf bf cc d1 79 be b6 19 07 3f
       -1.2091252 -1.6237692 -0.24396437 0.52773607
000080 86 89 99 be 4e 68 19 3f 69 52 a1 3f 4c 83 3a 40
       -0.29987735 0.5992478 1.2603275 2.9142637
000090 c8 41 2d bd 53 75 9c be 71 15 83 be 39 f2 1e be
       -0.042299062 -0.3055826 -0.25602296 -0.15522088
0000a0 99 b0 c5 3e c9 93 a2 3e 1e 2c 86 3e 79 89 ea be
       0.38611296 0.31753376 0.26205534 -0.45808008
0000b0 74 f3 13 3d 2b 07 d2 3e 60 f5 fd 3f 64 be 07 bf
       0.036120847 0.41021094 1.9840508 -0.5302489
0000c0 f2 ba c9 be 85 e5 6b bd cd 2f 4e bd 2c 3e 8c 3c
       -0.3940044 -0.057591934 -0.050338555 0.01711949
0000d0 e9 77 9e 3e 9f d3 14 bd 37 fd 04 3f 8b 5b 1b bf
       0.3095086 -0.03633463 0.51948875 -0.6068656
0000e0 2b 88 2e 3e 59 b5 c1 be 21 18 d2 be a1 0c bc bf
       0.17044131 -0.3783367 -0.41034034 -1.4691354
0000f0 85 34 5f 3d 1b 8c 46 bd ae 82 13 3e df 87 3d be
       0.054493446 -0.04847346 0.14405319 -0.18508862
000100 dc af 1b 3f a5 98 76 40 7d e1 f5 3e a1 fa 89 3e
       0.60815215 3.8530667 0.48023596 0.26949027
000110 20 d0 44 be db 4f e7 be 26 8c 12 40 8b 52 bb bf
       -0.19220018 -0.45178112 2.289804 -1.4634565
000120 a8 75 15 bf 6c a5 21 bf 99 fd 8a 3e 93 d2 a7 be
       -0.58382654 -0.6314304 0.27146605 -0.32777843
000130 13 c3 82 3f b2 bf 02 40 fe d8 93 be 9d 50 dc 3c
       1.0215782 2.0429502 -0.2887649 0.026893908
000140 b0 02 6c be 06 51 77 3f a6 3c c0 bf cb 2d 7b 3e
       -0.230479 0.96608007 -1.5018508 0.24529187
000150 68 81 a0 be f6 d6 be be 5e c2 be be 20 7a fc bd
       -0.3134873 -0.37273377 -0.37257665 -0.12327981
000160 7d 70 ce be bb a0 bd 3d d6 90 c7 3e 53 5c b2 3e
       -0.40320197 0.092591725 0.3897769 0.34836063
000170 c1 0a b6 be 4d 5f b4 3d 53 e2 00 c0 ce d6 80 c0
       -0.3555508 0.0880724 -2.0138137 -4.0262213
000180 71 64 de 3e cb 25 1d be 47 24 f7 3c a9 50 f0 bd
       0.43436006 -0.15346448 0.030168666 -0.11734135
000190 65 83 d4 3f 44 9e 00 bf b5 27 1d 3e 58 30 50 bf
       1.6602598 -0.50241494 0.15347178 -0.81323767
0001a0 6d cd 14 3e 3a 1e 52 3e b7 80 71 3f 2b a1 af bf
       0.14531489 0.20519343 0.9433703 -1.372106
0001b0 9b 0c 1a be 9d 80 c0 be 1c 94 10 3e 4f 4c cc 3e
       -0.15043871 -0.37598124 0.14118999 0.3990197
0001c0 55 86 e2 bd 46 8d 16 40 21 dd df 3d bf 0d 87 be
       -0.11060778 2.3523726 0.10930849 -0.26377675
0001d0 e8 d6 31 3e cd 23 aa 3e 15 4e 97 bf 24 82 eb 3f
       0.17367136 0.3323044 -1.1820704 1.8399091
0001e0 06 b5 9e bd c0 0f eb 3d 96 61 06 3e 36 75 69 be
       -0.07749371 0.114776134 0.13123164 -0.22798619
0001f0 af c0 24 c0 32 0f 48 40 4e fa da be e9 53 a9 3e
       -2.5742605 3.1259274 -0.42769092 0.3307183
000200 ac 6c 82 be 00 ec 3d bc 87 c7 a0 be 64 5d 7b 40
       -0.25473535 -0.011591911 -0.31402227 3.927575
000210 be c3 e2 be d5 83 9f 3e f4 66 19 3e f9 2d d9 bd
       -0.44289964 0.31155267 0.1498068 -0.10604472
000220 b8 2b 2e c0 af bc eb bf d7 08 c5 3d 8f cb 9b 3c
       -2.7214184 -1.8416957 0.09620827 0.019017963
000230 e5 c6 a8 3c 5a 85 e9 3e c0 36 a0 bf d7 70 97 be
       0.020602653 0.45609552 -1.2516708 -0.29578277
000240 52 ba 2c 3f 7d ca 8c bf 7c 38 2c 3c 5a 02 19 3b
       0.674718 -1.0999295 0.010511514 0.002334735
000250 6c 13 83 3f d6 c1 3a bf 74 f6 21 be 3e a7 c8 3e
       1.0240302 -0.7295202 -0.1581667 0.39190096
000260 25 7a f5 3d 0e 4e af 3e 4a a0 06 bf b6 3f 21 bf
       0.11986188 0.34239239 -0.5258833 -0.6298784
000270 51 24 6e 3e 71 bd d3 3d 7f 41 11 bf b9 3b fa bd
       0.23256041 0.103388675 -0.56740564 -0.122184224
000280 83 14 65 c0 f3 98 0f 41 10 4f 43 be 3d cd 3a be
       -3.579377 8.974841 -0.19073129 -0.18242355
000290 80 22 03 be b3 08 b3 be 61 df 93 3e e2 61 b4 bc
       -0.1280613 -0.34967574 0.28881362 -0.02201933
0002a0 8d c2 fa be 88 f0 6d 3e ac 83 13 3d 93 19 f0 3e
       -0.48976555 0.23236287 0.036014244 0.46894512
0002b0 33 9e 09 bf 14 39 52 be 09 e7 06 bf a2 d2 77 3e
       -0.5375702 -0.20529586 -0.5269628 0.24201444
0002c0 19 83 67 3e cd e6 94 be f4 03 09 40 61 98 0e bf
       0.22608604 -0.29082337 2.1408663 -0.5570126
0002d0 67 ba 92 3b 42 7f 79 3d f8 18 81 3d 93 45 52 3d
       0.0044777873 0.060912378 0.063035905 0.051335882
0002e0 dc 9b 6b c0 86 a5 80 bf 90 05 17 3f 84 2d 65 bd
       -3.681388 -1.0050514 0.5899286 -0.05595161
0002f0 d1 1e ac be d2 af 52 bf ee 7e 52 3f ba ba 92 3f
       -0.3361726 -0.8229953 0.8222493 1.1463234
000300 c5 54 15 bf 28 ea 10 3f 5f 03 dd 3c 46 7c 1b 3e
       -0.58332473 0.56607294 0.026979147 0.15184125
000310 fc 1c 1d bd f1 fb d6 be f3 3a 42 bb 8f 7c 75 3e
       -0.03835772 -0.4198909 -0.0029637187 0.23973297
000320 c4 9d 8b bd 86 c7 e7 3e de 1a 32 c0 c5 79 fd 3f
       -0.06817201 0.45269412 -2.7828898 1.9802786
000330 ec 3a 90 be ab 76 bd be 75 1c 98 3c cb 83 3d be
       -0.28169954 -0.370046 0.018568257 -0.18507306
000340 8f 14 85 3e d2 51 9b 3e 9b 59 2d 3f e9 01 10 be
       0.25992247 0.3033586 0.6771485 -0.14063229
000350 6b d0 80 bc ae 89 f5 be c5 24 b7 3f 8a 7a 6c 3f
       -0.015724381 -0.47956604 1.4308096 0.9237448
000360 99 c8 cd bd e3 e1 cd 3d 19 5a 61 be bb b0 00 bf
       -0.100480266 0.1005285 -0.22007026 -0.5026967
000370 07 72 ed c0 bf 92 a8 40 3b 9c c7 be 83 9d 27 be
       -7.4201694 5.2679133 -0.38986382 -0.1636868
000380 1e 75 ab be 67 b7 4a bd 0e 28 94 3d a6 df 4b 3e
       -0.3348779 -0.049491312 0.07234202 0.19909534
000390 df 87 1f bf 58 86 32 3e a7 a3 dd be 59 80 32 bf
       -0.623167 0.1743406 -0.4328892 -0.69727093
0003a0 12 cb 25 be a8 7b 98 bf 10 ab f1 be 99 5a a4 3e
       -0.16190746 -1.1912737 -0.47200823 0.3210037
0003b0 fe c8 1a bf 08 df 3c 3e 68 94 4f 40 0a 3b 0f bf
       -0.6046294 0.18444455 3.243433 -0.5594946
0003c0 87 72 25 3f 8f 15 03 3f 95 18 39 bd 8f 7f 4d 3d
       0.6462788 0.5120477 -0.04518946 0.050170477
0003d0 66 28 e5 3f 60 96 8f 3e a7 7e df be 50 61 e4 3e
       1.7902954 0.28044415 -0.43651316 0.44605494
0003e0 8c e3 c1 be 46 9b 12 3e 6a ac 35 3f 71 c7 09 40
       -0.37868917 0.14317045 0.7096621 2.152798
0003f0 2b 4d a2 3e e5 4f 23 3e 5e c3 2f 3e fa 9a 11 bf
       0.316995 0.15948446 0.1716437 -0.568771

output.0.bias f4 [100]
000000 36 71 00 3e 38 fb 09 c0 bb 7c 37 3f b3 34 ca be
       0.12543187 -2.1559582 0.716747 -0.3949333
000010 84 c3 4f be 30 03 20 40 0f 36 5a be d9 01 a4 3e
       -0.20289427 2.5001945 -0.21309684 0.3203266
000020 e3 08 c2 be 42 04 f6 3e 60 86 02 bf da 1c 9a 3e
       -0.37897405 0.48050123 -0.5098629 0.30100137
000030 ba 0f 4b 3f 52 c9 5d 3f f4 a7 a1 3d da 13 b8 3f
       0.7932087 0.86635315 0.07893363 1.4381058
000040 81 02 b1 be c6 8d 55 bf c0 f3 0f 3f 27 a2 bd bf
       -0.34572223 -0.83419454 0.5623131 -1.481511
000050 42 44 90 bf dd 73 aa bf 4d d5 ee bd a1 d9 d8 bd
       -1.1270831 -1.3316609 -0.11661778 -0.105883844
000060 49 e3 4c 3f d2 07 bb bf 29 22 23 bf 54 3e c6 be
       0.8003431 -1.4611762 -0.63724 -0.38719428
000070 9e 6e a2 3f f6 b8 2b 3f f0 e1 99 bf e7 2e d7 be
       1.2690008 0.67079103 -1.2022076 -0.4202797
000080 44 cc b4 3f 52 e9 61 3f 9a 91 6a bd aa 34 9f 3f
       1.4124837 0.88246644 -0.057267763 1.2437947
000090 6d 09 17 3d 9c ba ab be 12 38 f6 bf bc a7 9b bf
       0.036874224 -0.3354081 -1.9235861 -1.2160563
0000a0 1c f2 1d bd 89 b7 a0 bf 13 39 23 bf 12 31 3e 3f
       -0.03856097 -1.255601 -0.63758963 0.74293625
0000b0 82 aa 98 3e 81 dc a6 3f 53 4c 1b 3f 8a 94 82 bc
       0.29817587 1.3036042 0.60663337 -0.01593997
0000c0 8d a5 18 bf ae f1 71 bf 46 8a aa bf 81 c6 bf 3f
       -0.5962761 -0.945094 -1.3323448 1.4982454
0000d0 f1 c7 68 bf cc b5 3e 3f 89 98 9f bf 39 62 a0 3e
       -0.90930086 0.7449615 -1.2468425 0.31324938
0000e0 11 07 91 bf b5 f0 ca 3f 97 68 55 3e 5e 5c 1b 3d
       -1.1330281 1.5854708 0.20840679 0.037929885
0000f0 b6 20 18 3f 00 05 a5 3e e5 77 13 3f 1f aa f8 3f
       0.5942491 0.32230377 0.5760482 1.9426917
000100 de ae b2 bf a5 d8 7e 3e 7f 5b 53 3e 39 d4 83 bc
       -1.3959615 0.24887331 0.20640372 -0.016092407
000110 0d 19 0f 3e 3c 8f da bf bf 9d ad 3f 9c 32 0a 3f
       0.139744 -1.7074962 1.3563765 0.53983474
000120 86 dc d9 bf bd 96 93 3f dd eb c9 3e e5 04 b6 3e
       -1.7020423 1.1530377 0.39437762 0.3555061
000130 cf 9c 36 3f 03 07 8e 3f c9 ef 70 bc af 2e 08 3e
       0.7133302 1.109589 -0.014705607 0.13299058
000140 9f 3c 9f be 36 15 d5 3f b4 53 9d bf 25 5d 16 bf
       -0.31100938 1.6647098 -1.2291169 -0.5873588
000150 52 40 1d 3d 20 72 c7 bf 30 4a 91 bf c2 5d b2 3d
       0.03839142 -1.5581703 -1.1350765 0.08709289
000160 a6 dd a6 3e 8d d3 61 be ad 42 a9 be f8 19 2a c0
       0.3259098 -0.22053356 -0.33058682 -2.657835
000170 b6 60 1d 3d ad e7 62 bf 9d 4d ce 3e 5e 7b 7d bf
       0.03842231 -0.8863476 0.4029359 -0.9901637
000180 21 fd 9b 3f 95 95 be 3e 02 4f 4e be e3 91 b8 3e
       1.2186624 0.37223497 -0.20147327 0.36048803

output.2.weight f4 [100, 100]
000000 5a f6 bb 3c 68 61 6f be 5a 01 86 3c aa 47 a7 3d
       0.022944618 -0.23377001 0.016358066 0.08167966
000010 bf 9b cb be f4 10 bb 3d 23 ab 29 bd c8 68 8f bb
       -0.39767262 0.09134093 -0.041422974 -0.0043765046
000020 4d 39 b3 bd c0 7f 80 bd a6 e0 09 be f9 c6 1d be
       -0.08751164 -0.062743664 -0.13464603 -0.15407933
000030 56 1c d9 3e 28 e1 10 3f f0 b0 25 3d a4 a0 a4 3f
       0.4240443 0.5659356 0.040451944 1.2861524
000040 1f 53 87 bd b7 69 28 3e fe 30 68 3d d0 4b 70 3d
       -0.06607651 0.16446577 0.056687348 0.05866605
000050 73 b6 86 bd a0 ed 87 bd 85 3e 48 be d8 2c 03 be
       -0.06577768 -0.0663712 -0.195551 -0.12810075
000060 15 10 ff 3e ec 08 88 be 1e 6c 30 be 8d 94 bc bc
       0.49816957 -0.26569307 -0.17228743 -0.023020053
000070 7a a6 65 be e1 95 71 be ca 4d 50 be df d8 a4 be
       -0.22426787 -0.2359233 -0.20342174 -0.3219671
000080 ac 98 38 3d 39 d9 8e 3d 78 16 82 3d 29 4b 83 3e
       0.045067474 0.06975026 0.06351942 0.2564328
000090 a0 4c 85 bd 9a 09 e0 3a 4a fa 82 bc 3f 9a f0 bb
       -0.06508756 0.0017092705 -0.015988488 -0.0073426063
0000a0 67 aa 37 be 9f a4 91 3d 73 64 e6 bd d2 e8 21 3e
       -0.17936097 0.07111477 -0.11249628 0.1581147
0000b0 9a 44 45 bc 11 dc 61 3e da 5d 3d 3f 08 a8 41 bf
       -0.012040282 0.22056605 0.7397133 -0.7564702
0000c0 ff 94 ea 3e bc 42 f2 3d 30 6f 3d be 34 1e 20 bf
       0.458168 0.11829135 -0.18499446 -0.62546086
0000d0 12 3f a1 bd fa 84 bd bb f3 ab f8 bd ab ff 2a be
       -0.07873358 -0.0057836743 -0.12142172 -0.16699092
0000e0 45 ec 92 bd e8 7c 02 bf 85 be 80 3f 5b c1 a9 bd
       -0.07173971 -0.5097184 1.0058142 -0.08288833
0000f0 17 01 d7 3d 53 23 f5 bc e5 a0 24 3f a2 0e c5 3e
       0.10498255 -0.02992407 0.64308006 0.38487726
000100 84 ad 45 3e 63 b1 5c bd da 40 93 3c 8c 6d f2 3c
       0.19304472 -0.053880107 0.01797526 0.029593252
000110 1a c9 bb 3d 21 ef 9d be 65 6b 1a be 25 06 9a bb
       0.091692165 -0.30846503 -0.1508003 -0.0047004395
000120 0d 76 cc 3e f8 03 30 bd f3 77 df bc 3a 1e 3b 3d
       0.39933816 -0.042972535 -0.027278876 0.045683123
000130 97 1a 02 bf d5 57 20 bd aa b6 80 bd b2 e6 2c bf
       -0.5082182 -0.039146263 -0.062848404 -0.67539513
000140 72 f8 be bd 2c 0b 37 be df 90 4d be 5f 16 b8 bd
       -0.09324731 -0.17875355 -0.20074795 -0.08988642
000150 49 09 46 3e 28 79 84 be ec cb e6 bc 00 b6 07 3b
       0.1933948 -0.25873685 -0.02817341 0.0020707846
000160 52 14 40 3f 19 cd f2 3d 20 7b 8f be 51 7c 52 bc
       0.75031006 0.118555255 -0.28023624 -0.012847022
000170 24 1e 7a 3e 90 09 63 be 30 b5 22 be 84 28 18 bf
       0.2442556 -0.22171617 -0.1588943 -0.5943682
000180 4e 37 20 be c0 c0 f8 bc cd ad a4 bc 27 65 0d bc
       -0.15646097 -0.030365348 -0.020102406 -0.008630074
000190 5a 41 90 bd fc e0 10 3d 90 97 a4 bd 6c 21 3a 3d
       -0.07043715 0.03537081 -0.08036721 0.04544203
0001a0 3a 54 b9 bd aa 9f 8a bd 4a 7d 89 3d 2f 18 b1 bd
       -0.09049268 -0.06768735 0.0671335 -0.08647191
0001b0 e7 49 53 bd 53 af 09 bd 70 f2 95 bd 42 42 da 3d
       -0.05158415 -0.033614468 -0.07321632 0.10657169
0001c0 eb e5 03 3d 90 dc f4 bd ba dc c2 3d d0 f4 37 bb
       0.03220169 -0.119561315 0.095147565 -0.0028069504
0001d0 8b e3 85 bd 0b e8 90 bd 3b 7c ec bd a9 a0 b3 3b
       -0.06537541 -0.07075509 -0.115471326 0.0054817987
0001e0 66 ec 31 3d 43 da 06 bd 0d a8 9b bd 67 ed 11 3d
       0.043438338 -0.032922994 -0.076004125 0.035626795
0001f0 04 e0 e1 3c d4 11 2b 3c 73 6f 26 3d 00 dc 67 3c
       0.02757264 0.010441262 0.04063363 0.014151573
000200 9e 0c 14 3d 93 51 07 3d 04 08 cb 3d f3 b2 71 bc
       0.036144845 0.03303678 0.09913638 -0.0147521375
000210 f4 de 1c 3d 5d 7a f5 bd 80 c2 85 bd bd 84 a0 3d
       0.038298562 -0.119862296 -0.065312386 0.07837818
000220 d2 88 be bd 33 d3 7c bc ad 83 a0 3d 33 ce 86 bd
       -0.0930344 -0.015431213 0.07837615 -0.06582298
000230 89 04 dd 3c 1a 18 b7 3c 18 bb a6 bd 4e a9 04 3d
       0.026979702 0.02235036 -0.08141154 0.032388024
000240 c8 0d dd bd df 32 dd bd ef 47 34 3d 67 d4 e6 3a
       -0.10793644 -0.108007185 0.044013914 0.0017610908
000250 19 c4 70 bd 22 61 9e 3c 33 72 f7 bd 9d a7 d0 bd
       -0.058780763 0.019333426 -0.12082329 -0.1018822
000260 9a 8d b5 3c b4 89 60 bd c3 aa ec bd 6a 63 fa bc
       0.022162247 -0.054818824 -0.11556008 -0.030564982
000270 6f 79 88 bd d7 42 bb bd 67 7a 09 bd a7 56 9a 3c
       -0.066637866 -0.09143608 -0.033563998 0.018840147
000280 6c e2 2f bd e7 1b cf 3c 64 4b 10 bd 8e d3 78 3d
       -0.042940542 0.02528186 -0.035228148 0.06074863
000290 99 4f 8e bd 53 bc 8c 3c 98 0e a9 bd 80 89 af 3c
       -0.06948776 0.017179644 -0.08254737 0.02142787
0002a0 72 b0 98 3d 27 a6 86 bc 56 f1 bb bd 9e 12 8a bd
       0.07455529 -0.01643665 -0.091768906 -0.06741832
0002b0 a8 85 d5 3a 8a 8c 5d 3d d3 0d 00 bd 57 fe 61 bd
       0.0016290443 0.054089107 -0.031263184 -0.055174198
0002c0 c6 dc d8 bd 5f 75 dc 3c 77 00 96 bd ed 79 bc bc
       -0.10588984 0.026911436 -0.073243074 -0.023007357
0002d0 e7 4e 7a bc 45 94 1c bd 24 02 43 3c 64 37 bd bd
       -0.015277601 -0.03822734 0.011902366 -0.092390805
0002e0 ca 53 1b 3d 3d a1 ed bd e7 cb 06 bc e7 27 cc 3c
       0.037921704 -0.116030194 -0.008227325 0.02492137
0002f0 64 f2 17 3c af 57 b0 bc a3 34 ab bd 00 f3 46 bb
       0.009274099 -0.021526186 -0.08359649 -0.0030357242
000300 95 7a 91 bd 9c 5d b7 bd db 58 82 3d 10 ea 77 bd
       -0.07103459 -0.089534014 0.06364604 -0.060525954
000310 0f 2f 88 bd 5d 3e 72 bd 9b 7a 89 bd 27 28 41 3d
       -0.06649601 -0.059141506 -0.06712838 0.047157433
000320 40 38 a8 bc c0 7f 8e bd d3 09 39 3d d5 a8 df bd
       -0.020534635 -0.0695796 0.045175385 -0.10920874
000330 3e b6 0b bf 3c 28 69 bf 20 a4 d5 3c be 92 17 3e
       -0.54574955 -0.9107702 0.026079237 0.14802071
000340 17 8c 0a bd b4 23 0a bd 9f b1 0c be aa 9e 58 be
       -0.033825006 -0.033725455 -0.13739632 -0.21154276
000350 44 25 0d be 9a b7 a7 be 1a c4 12 3c 32 d9 ac 3e
       -0.13783747 -0.32757264 0.008957887 0.33759457
000360 e9 04 50 3b 34 f3 48 3e d7 38 5b be bb f3 83 be
       0.0031741208 0.19624025 -0.21408401 -0.2577189
000370 66 bb 7e bc 64 05 11 bf 25 51 12 3e 8e 4f 3b be
       -0.015547609 -0.5664885 0.14288767 -0.18292066
000380 b2 8b b6 3e 16 f8 d6 bd ed e4 42 3d 73 5e 79 bc
       0.35653454 -0.104965374 0.047581602 -0.015220272
000390 f4 b3 a2 bd 7a be 29 3e 04 cc 23 bd 78 82 59 be
       -0.079444796 0.16576567 -0.039989486 -0.21241176
0003a0 97 7c 7c 3d 3d fd 0e be c7 5b ad 3c bb 39 4c 3f
       0.061642256 -0.1396379 0.021161927 0.7977559
0003b0 df aa 3d bf aa 14 33 bd 93 26 b2 bd 9e 2a 97 3d
       -0.74088854 -0.04372088 -0.08698764 0.073811755
0003c0 f5 a8 a1 ba 05 0a bf be db 30 d0 3d 9c 8c e4 bd
       -0.0012333678 -0.37312332 0.101655684 -0.111596316
0003d0 8a 4f 5e bd c6 31 00 be 35 b7 5e 40 aa f8 00 3e
       -0.054275073 -0.12518987 3.479932 0.12594858
0003e0 ad 09 58 3d 5b 68 d9 3e b7 36 8f be fb 90 aa bc
       0.052743603 0.4246243 -0.27971432 -0.020821085
0003f0 17 5a 4b 3e ef 7b 73 3d 25 14 8f be 64 55 de 3b
       0.19858585 0.059444364 -0.27945057 0.0067850817

output.2.bias f4 [100]
000000 e2 9d 46 bd 2f a8 43 3d cd cb 4a 3f 79 9d 30 bd
       -0.048490413 0.047767814 0.79217225 -0.043118928
000010 0c bb 7e be 41 6c 79 3c c0 34 58 3f 20 c4 2c 3f
       -0.2487604 0.015223564 0.8445549 0.67486763
000020 ae c1 34 be 55 4a 59 3f 3e 31 7b be 6b fb 4c be
       -0.17652008 0.84879047 -0.24530503 -0.20017783
000030 13 86 51 3f e7 1e fa 3e d2 db a0 3f 34 e5 0a 3f
       0.81845206 0.48851702 1.2567084 0.54255986
000040 da 83 42 3f de 31 13 bf a7 4d 04 3e 49 81 cc bd
       0.7598244 -0.57497966 0.12920247 -0.09985597
000050 73 82 96 bd b8 9f 5b bd bd 0e ee be 6f 32 7f 3e
       -0.073491 -0.053619117 -0.4649562 0.24921583
000060 c1 37 e8 3c da db b3 3e 62 1d cf bb 39 63 30 3f
       0.028346898 0.3512867 -0.0063206414 0.689014
000070 21 a4 fc 3c c8 3a 21 3f fe 4b a3 bd dd 5a 79 bd
       0.030839982 0.6298032 -0.07973479 -0.06087767
000080 a9 54 1e 3f fd dd c1 bd 73 9d c0 bd bc 3e 98 3d
       0.6184793 -0.09466169 -0.09405031 0.07433841
000090 28 1c d5 bd c5 e3 3b bf 60 9e 24 bf 22 46 a3 3d
       -0.10405761 -0.73394424 -0.6430416 0.07972361
0000a0 68 fa 6d 3e f3 a8 bc bf 86 d0 d2 3d 09 d9 80 3f
       0.23240054 -1.4739059 0.10293679 1.0066234
0000b0 46 58 bc 3e 7e 5d 1e 3e fc d6 68 3f 4c ff 09 bf
       0.36786097 0.15465352 0.9095304 -0.5390518
0000c0 fe 70 6b 3d 81 c8 05 be 4a 91 38 3f de a7 93 be
       0.057480805 -0.13064767 0.72096694 -0.2883901
0000d0 8a 3b 91 3f 87 a0 32 3c 73 34 4f 3f 76 41 37 3f
       1.1346295 0.0109025305 0.80939406 0.7158426
0000e0 bf 52 7a 3d 4f d7 b4 3e db 29 30 be 96 46 42 3e
       0.06111407 0.35320517 -0.17203467 0.18972239
0000f0 58 80 b0 3c 0f b7 93 be 8d 2e 03 bf 6c 28 2c bf
       0.021545574 -0.288506 -0.51242906 -0.6724918
000100 9b f6 64 be 38 b1 8f 3f 5e 90 4b be 50 f6 ab 3f
       -0.22359698 1.1225958 -0.1987929 1.3434544
000110 bd 01 37 3f 43 29 0f bd 98 3e 55 bd c6 a7 3c 3f
       0.7148703 -0.03495146 -0.052061647 0.736935
000120 1c 43 b3 3e a2 78 82 bd ac 11 3e 3f 5a e2 1a 3f
       0.35012138 -0.06370665 0.74245715 0.60501635
000130 27 3b ab bc 9b f0 47 bf 6f a0 04 3f a4 2a 41 bc
       -0.02090223 -0.7810151 0.518073 -0.0117899515
000140 fc 62 03 bf 0b 84 87 bf 41 74 5d be 16 43 1e 3d
       -0.51322913 -1.0587171 -0.21626379 0.038638197
000150 47 1c c9 bd 58 fb 13 3f 35 93 8a 3e cc 46 72 bd
       -0.098198466 0.57805395 0.27065435 -0.05914955
000160 71 8e 65 be 5c 8a 9b 3c db c5 79 3f 75 48 1e bf
       -0.22417618 0.018986873 0.9756753 -0.6182931
000170 c2 23 7a bf ab ae 48 bd 31 a5 87 3f 0a e5 04 bc
       -0.9771081 -0.0489947 1.0597287 -0.008111248
000180 bd 82 65 bc c8 76 14 be c0 05 34 3d d4 e7 c1 be
       -0.014008221 -0.14498436 0.043950796 -0.37872183

output.4.weight f4 [100, 100]
000000 4e 13 0d 3e dc 88 e4 3c 8c cc d9 3d a4 b5 cd bc
       0.13776895 0.02789729 0.10634717 -0.025111027
000010 11 ee 31 3f f5 a0 ac bd 1e b9 38 3f d5 29 03 3d
       0.69503886 -0.084291376 0.72157466 0.032022316
000020 91 9b 3e bd 41 6f 11 3e aa af 82 bf 50 aa 36 be
       -0.04653508 0.14202596 -1.0209858 -0.17838407
000030 29 4b bf 3d 3a b7 bb 3e 03 7c b0 3e 90 75 8f be
       0.093405075 0.36663228 0.34469613 -0.2801938
000040 6b 2c 29 3c 58 f6 f3 bd f1 9e 95 3f 33 71 c7 3e
       0.0103255315 -0.11912221 1.168913 0.38953552
000050 93 bd 8e 3d 5f a3 87 bc fb 43 7c bd ba c9 8d 3e
       0.06969752 -0.016557394 -0.06158827 0.27692968
000060 1b bd 6b bc d0 42 84 3d 5d 02 a4 bd b2 c3 4d bd
       -0.014388348 0.06458056 -0.08008263 -0.050235458
000070 2b 37 b0 bc f6 6a 9c be bc c4 5a 3e 9a 73 c2 bc
       -0.021510681 -0.30550355 0.2136411 -0.023736764
000080 c8 07 91 3e 20 c3 ac bd 7c 3e 2f bd d0 cc c0 3e
       0.2832625 -0.08435655 -0.0427842 0.3765626
000090 cd b2 96 3d 44 4f ed be a0 39 e6 3d bb 93 c0 bc
       0.07358322 -0.46349537 0.1124146 -0.023507943
0000a0 12 70 fc be da 22 d4 be e3 57 0d bf f4 1a b6 be
       -0.49304253 -0.4143284 -0.5521223 -0.3556744
0000b0 00 c5 e0 3d 1c 14 9e bd b8 dd a3 3e 28 44 46 bf
       0.10975075 -0.07718679 0.32005095 -0.7744775
0000c0 92 a3 c2 bb 2b f9 b4 bb b5 7c 4e be 06 0b da bd
       -0.0059399093 -0.005522867 -0.2016476 -0.10646634
0000d0 20 86 3b 3f 48 bf c4 3d 0a 72 08 3f 9d 39 1b 3e
       0.73251534 0.096067965 0.5329901 0.15158696
0000e0 42 18 e9 bd 63 a0 80 bf 7c f4 2f 3e c5 04 9c be
       -0.1138158 -1.0048946 0.17183107 -0.3047239
0000f0 88 81 b4 bd 0f d6 b2 bf 2c 9c 12 3d 24 d6 ee be
       -0.088137686 -1.3971575 0.03579347 -0.4664775
000100 a3 ce 9c 3d 57 5f bf be e5 9e 79 3d 38 10 c0 3d
       0.076566 -0.37377426 0.06094255 0.093780935
000110 b4 e3 16 bf b7 e4 91 3d e7 bc 85 3b 0d 9a 96 3e
       -0.589412 0.07123702 0.004081357 0.29414406
000120 44 4e 80 bf 31 a2 cf 3c b7 4d 10 bf c2 46 66 3c
       -1.0023885 0.025345894 -0.56368583 0.014054956
000130 47 5c 49 bd d6 70 cd 3c a9 f0 74 bd 40 88 92 bd
       -0.04916027 0.025078218 -0.059799824 -0.07154894
000140 7d a4 5e be 5e 8c 55 bf 87 05 1c 3f 84 95 b7 ba
       -0.21742435 -0.8341731 0.60945934 -0.0014006351
000150 e5 97 6c bd e7 f1 10 be 98 8c b4 bd 06 77 b1 3d
       -0.057762045 -0.14154778 -0.08815879 0.0866528
000160 11 7e cc bd 69 26 c9 3c b0 fd 8f 3e 9b 1e 0a bf
       -0.09984983 0.024554448 0.28123236 -0.5395295
000170 6e 6c d4 3c 30 f1 bd bd 11 ae 14 3e 45 51 85 3d
       0.02593061 -0.092745185 0.14519526 0.065096416
000180 ca ef a1 3d f1 4f f4 3b 3e 24 95 3c be 8f 88 bd
       0.07907064 0.007455819 0.018205758 -0.06668042
000190 03 9a 9d 3f fa 8f 89 bd 07 da 95 bf 64 cb 99 3c
       1.2312626 -0.067169145 -1.1707162 0.018773742
0001a0 dc d7 c2 3e e8 e8 f0 3c 39 51 8d be 64 ff 53 3e
       0.38055313 0.029407933 -0.2760103 0.20702893
0001b0 7c 70 b2 3e 19 da 79 be 08 4f ac 3e c1 64 4a 3e
       0.34851444 -0.24399604 0.33654046 0.19764997
0001c0 ca 47 00 3c 3c 78 1a bf 51 0f 24 3d c7 8c 15 bf
       0.007829616 -0.60339713 0.04005367 -0.58417934
0001d0 51 df d8 38 ae 0e 27 be d7 f5 0c c0 69 32 a4 be
       0.000103412785 -0.16314194 -2.2025049 -0.3206971
0001e0 6c 21 af 3b c8 cb d3 bd 36 c3 11 be f7 55 8c be
       0.0053445604 -0.103416026 -0.14234623 -0.27409336
0001f0 bb 47 26 bd 8a f7 39 be 38 5f 01 3c 39 10 b1 3d
       -0.04059575 -0.18160835 0.007896237 0.08645672
000200 66 65 3b 3d 7d bf 2b 3e 8a b6 09 3d 7d 61 b6 bd
       0.045750998 0.16772266 0.03362135 -0.08905313
000210 f5 f8 b0 3d cd 69 9c bc 4f f9 58 3d 5e 6c 36 3d
       0.08641235 -0.019093418 0.052972134 0.04453694
000220 c5 69 46 bc e5 20 9a 3e 5f f4 74 be 13 ed e4 bc
       -0.012110178 0.30103222 -0.23921345 -0.027945077
000230 d0 4a 92 3d 2f c3 f4 3b ee b8 21 3e 91 f2 4e 3d
       0.071431756 0.0074695568 0.15793201 0.050524298
000240 fc fb 17 3d c7 59 9a bd b2 bb 52 3c ca 47 94 3d
       0.037105545 -0.07536655 0.012862133 0.07240255
000250 4d 29 90 3c 71 f0 9d bd 05 8f 86 3e 6a e8 26 3e
       0.017597819 -0.07711876 0.2628099 0.16299596
000260 73 38 8a be 55 62 76 bd fb f2 d8 bd 75 7f 14 3e
       -0.26996192 -0.06015237 -0.1059322 0.14501746
000270 ba 50 20 3d a0 32 b2 3d d3 22 28 bd d7 05 1e 3e
       0.039139487 0.08701062 -0.041048836 0.15431915
000280 07 3b cf 3c 92 6e 0b 3d c2 35 5e bd 57 85 82 bc
       0.025296701 0.034040995 -0.054250486 -0.015932722
000290 b5 0a 48 be 56 13 8c 3e 47 48 03 3d 74 e9 b9 bc
       -0.19535334 0.27358502 0.03205135 -0.022694327
0002a0 62 6c c4 bd 5a fd b6 3c c8 f1 a8 bd 21 90 3b bd
       -0.09590985 0.022337604 -0.08249241 -0.04579175
0002b0 5a 5d 65 3d f4 31 45 bb bc 33 d5 3d f7 2d 3d 3e
       0.05599723 -0.0030089589 0.10410258 0.18474565
0002c0 43 bc 57 3d 3e 4b 58 be 98 2c 97 3d f0 2f ee 3c
       0.052669775 -0.21122453 0.073815525 0.029075593
0002d0 0f 99 ae 3e 6f 54 fa 3d 9f b5 20 3e 41 b6 85 bb
       0.3410115 0.12223136 0.15694283 -0.0040805642
0002e0 73 3e 90 bc 5a 85 7c 3d 66 e1 17 be b8 51 1c bd
       -0.017607903 0.06165061 -0.14832076 -0.03816387
0002f0 a3 e3 1b 3e 5a 9d 69 3d 90 79 b1 3d 6a 97 38 bd
       0.15223555 0.057034828 0.08665764 -0.045066275
000300 64 75 c3 bc a7 cf 05 3d 43 27 63 bd 01 89 59 3d
       -0.023859687 0.032668736 -0.055457365 0.053109173
000310 0b 53 33 bc b3 d8 07 3e 9b 23 3f 3e 20 ba 46 bd
       -0.010945092 0.13266258 0.18665926 -0.048517346
000320 52 6d 8c 3f 03 53 87 3d a9 cc bc be e4 c1 65 ba
       1.0970862 0.0660763 -0.36874893 -0.00087645487
000330 52 5c 48 3e 4b 59 bb bd 69 b9 a5 3e 3e 4f bf 3e
       0.19566467 -0.09147891 0.3236802 0.37365144
000340 4e 90 06 be a4 1f 94 be 45 b0 93 3e 6a 3e 0e bd
       -0.13140985 -0.2893039 0.2884542 -0.03472749
000350 f0 25 a5 be 38 bd 9a 3e 2d fe a8 be 3b cd 03 bf
       -0.32255507 0.30222487 -0.3300642 -0.5148503
000360 db 79 4d 3e 9c 73 a2 bc dc 14 f0 be 9b cd 5e 3f
       0.20066015 -0.019830517 -0.46890914 0.8703248
000370 da b5 e6 bb 32 d1 b1 3d 98 5c 9f 3d fd 3f 1f be
       -0.0070407214 0.08682479 0.07781333 -0.15551753
000380 24 d9 02 bd 9a 93 2f bd a9 3c 92 3d e6 0e fa bd
       -0.031945363 -0.042865373 0.07140476 -0.12209873
000390 ff 0a b2 bd fb 25 ee bb 27 40 90 bd ea 24 af 3d
       -0.086935036 -0.007267711 -0.07043486 0.08551963
0003a0 0c 6a 5e be ba 28 e3 bc 6d 7b 84 3d f8 ac f0 3e
       -0.21720141 -0.02772938 0.06468854 0.47006965
0003b0 8a 9d 22 3d 73 6b 06 bc 67 ae f5 bf 1b ef a1 3d
       0.039701022 -0.008204329 -1.9193848 0.07906934
0003c0 6c 19 c4 be b1 66 84 3e 8b 53 66 3c 1f 88 bc be
       -0.38300645 0.25859597 0.014058004 -0.36822602
0003d0 19 fa b7 bd 89 cb a8 3c 27 f9 5f 3d 9e 7c 89 3d
       -0.08983249 0.020604866 0.05468097 0.06713222
0003e0 4a 4d 5f 3d 5d 48 5a 3d 82 ca 3e 3d 4e af cf bd
       0.054517068 0.053291667 0.046579845 -0.101408586
0003f0 76 fb 52 3e 33 1f 58 3d 14 4e 45 be b7 1d 14 bd
       0.20603737 0.05276413 -0.19268066 -0.03616115

output.4.bias f4 [100]
000000 e1 74 46 3e 00 1b d8 bd e4 ca c0 be 59 cf 53 be
       0.19380523 -0.10552025 -0.37654793 -0.20684566
000010 4f 71 b4 bd 8e 28 20 be 5d 4f c5 3e 66 81 4e 3e
       -0.088106744 -0.1564047 0.38537112 0.20166549
000020 1b 34 f4 3d b5 9e 21 be 14 85 69 bd dc fd 65 bf
       0.11924001 -0.15783198 -0.05701168 -0.89840484
000030 92 3c 46 be 9c 1e ac be 06 f2 2d c0 52 5a f3 3e
       -0.19359043 -0.33617103 -2.717897 0.47529846
000040 18 c0 da bc ae 6c 0f 3f 4c 91 63 3e d5 79 59 3e
       -0.026702926 0.5602521 0.22223395 0.21237881
000050 24 e0 41 40 7b c0 57 3c 93 b3 02 3e 71 6b 5c 3a
       3.0293055 0.0131684495 0.12763815 0.0008408344
000060 1b 66 b1 3e 60 b7 38 bf 64 b9 ff 3c 31 20 a0 be
       0.34648213 -0.7215481 0.03121633 -0.3127456
000070 31 4c cc 3e 67 4d b2 bd ac f5 d5 bd db e8 b1 3f
       0.3990188 -0.087061696 -0.10447249 1.3899187
000080 01 d5 20 bf da 3f 5e 3e 00 14 5a 3d 0d c9 a6 3d
       -0.6282502 0.21704045 0.05324173 0.08143816
000090 88 de 94 bd b3 7b a2 bf b7 0a 28 bf 1d 3b 1d 3d
       -0.07269007 -1.2694 -0.6564135 0.038386453
0000a0 30 21 b6 bd e7 2a 6b 3e 4b 11 c5 3d 69 c5 33 be
       -0.08893049 0.22965585 0.09622439 -0.17555775
0000b0 bb 76 72 bd cc 89 ec 3d 54 42 88 3f 7a 0a c0 bd
       -0.05919526 0.1154972 1.0645242 -0.09376998
0000c0 e7 f1 9b 3d 4e 68 7c be 79 ee de 3e 9c 88 ee bd
       0.076144986 -0.24649164 0.43541315 -0.1164715
0000d0 3e 2e 21 be 11 6b 6c 40 38 f4 69 bd bc ff 2b 3f
       -0.15740296 3.6940348 -0.05711767 0.67187095
0000e0 66 6d 78 39 50 39 7d 3c f6 59 b1 3f 31 85 a9 bc
       0.00023691877 0.015455559 1.3855579 -0.020693393
0000f0 b0 9d 8e 3d fa 8c 74 3c 08 50 11 3f 94 7c b7 3e
       0.0696367 0.01492619 0.56762743 0.35837233
000100 6d 7c 50 be 00 9b 07 be 50 f1 8b bd c4 2d 9c 3e
       -0.20359965 -0.13242722 -0.06833136 0.30503666
000110 d1 5f 35 3e 02 78 8b 3c 38 00 fb bd 2c b4 56 3d
       0.17712332 0.017024998 -0.12255901 0.05241792
000120 71 4e 6a 3e f1 8e 9d bd 34 50 11 be 46 ce 99 bd
       0.22881486 -0.076932795 -0.14190751 -0.07510047
000130 79 dd 16 be dd cf 96 be 08 fa a2 bd 48 51 6a be
       -0.14732923 -0.29455462 -0.07957846 -0.22882569
000140 18 ad 2f 3d 4a 89 02 be e4 d5 d7 be 12 71 b4 3e
       0.042889684 -0.12747684 -0.42155373 0.35242516
000150 38 18 af 3d 78 cf ee be 5b a0 af bd 64 05 bc bc
       0.08549541 -0.4664266 -0.08575507 -0.02295179
000160 5f 33 ea 3c e2 ab b8 bb 17 65 cd be c7 74 25 3f
       0.028588949 -0.0056357244 -0.40116188 0.64631313
000170 69 5c 91 bc c0 f6 71 be 52 69 90 bc db 49 b9 bd
       -0.01774426 -0.23629284 -0.017628346 -0.0904729
000180 78 2c bc bd 50 8b 2c be 9e 74 b9 bd a5 7a 98 bd
       -0.09188169 -0.16850019 -0.09055446 -0.074452676

output.6.weight f4 [7, 100]
000000 d9 68 49 40 e6 41 a7 be 54 8e da 3e 84 90 83 3e
       3.1470244 -0.32667464 0.42686713 0.25696194
000010 45 5c ef 3c 19 7d ce bc 6b 2c 18 3e da 65 18 3f
       0.029218802 -0.025206136 0.14860694 0.59530413
000020 70 07 e3 bc 29 70 58 3d 26 75 2e 3d 8d be 11 3d
       -0.027713507 0.05284134 0.04259219 0.035582114
000030 2b 61 22 be 3b 41 0a bf 4f 70 97 be 35 ac 5b 3e
       -0.15857379 -0.54005784 -0.29577872 0.2145241
000040 2b 10 49 3d 31 49 96 3e cc e9 d5 3e 48 cb 42 be
       0.049087685 0.29352716 0.41779935 -0.19022858
000050 eb 51 b5 3e 1a 1f cf 3e 87 48 13 bf 1d 08 f1 bc
       0.3541406 0.40453416 -0.5753254 -0.029422814
000060 8c 6b b8 3e e9 fc d3 3e 54 70 3a bd 8e f7 8d bf
       0.36019552 0.41403893 -0.04551728 -1.1091173
000070 a0 bd 11 3f 29 fb a9 be d3 7f 95 be 6f ff a7 3d
       0.5692997 -0.33199432 -0.29199085 0.08203017
000080 b3 93 eb 3e a8 c2 cb 3e 0d 3d 33 3e b8 be b7 3e
       0.46011123 0.39796948 0.17503758 0.35887694
000090 aa d9 c8 3e 69 9d b4 bf d7 9a 4d 3d 34 6f 81 be
       0.39228565 -1.4110538 0.050196495 -0.25280154
0000a0 57 35 89 bf 59 ef fd be dc 29 d7 be b8 51 26 be
       -1.0719403 -0.4959667 -0.42024124 -0.1624211
0000b0 76 1d 86 3d 04 a4 01 3e 25 00 82 3e 8a 0a b7 bb
       0.06548588 0.12660223 0.25390735 -0.005585973
0000c0 ad 9d 08 bf bf af 7e 3f cd 2d d7 3e c3 ab 70 3d
       -0.53365594 0.9948692 0.4202713 0.058757555
0000d0 7f 5a dc 3e ac ce b5 3e 3b 01 e1 3c 89 b4 df 3d
       0.43037793 0.3550924 0.027466407 0.10923106
0000e0 03 90 f6 bd 2b 06 03 3e 0a 09 29 c0 c6 30 0c bf
       -0.12039187 0.12795322 -2.6411767 -0.5476192
0000f0 62 4f ba bd b2 91 f8 bb 17 00 22 c0 84 40 5b 3f
       -0.09097172 -0.0075857276 -2.5312555 0.8564532
000100 60 24 ea be e3 2e 83 bc 77 2c 18 bc 25 b9 9a 3e
       -0.45730877 -0.016013568 -0.009287945 0.3021938
000110 5d c0 49 bf 5d 60 4d bd 34 2f 31 bc ed da 0d 3f
       -0.7880915 -0.050140727 -0.010814477 0.5541218
000120 43 08 44 3e 6b 35 50 3c e6 b9 5b bd 1c f7 89 3c
       0.19143777 0.012708048 -0.053644083 0.016841464
000130 98 5a 85 be 85 db 23 bc b2 9e f1 bd 04 62 78 be
       -0.2604568 -0.010001068 -0.11797847 -0.2425614
000140 ba 39 92 3d 66 78 32 be 52 ad da be af 27 83 be
       0.07139917 -0.17428741 -0.42710358 -0.25616214
000150 94 8b 33 3f d4 8d e4 be 5c 96 38 3e 13 d8 41 3e
       0.70134854 -0.44639456 0.18026108 0.18930082
000160 6b c0 2b bd a5 a8 37 3c 39 69 f1 bf d3 ba 49 be
       -0.04193155 0.011209642 -1.8860236 -0.19700174
000170 98 cb 3e be de d3 72 3e 9d 1c a1 c0 42 92 ea 3e
       -0.18632352 0.23713633 -5.034743 0.4581471
000180 d6 5e 89 be 31 cf 7a be 7e 47 72 3b c3 7c 3b 3c
       -0.26830167 -0.244931 0.0036968882 0.01144332
000190 fe 56 de 3e a7 a2 08 bf 0d 72 73 bd ff d7 d1 3d
       0.43425745 -0.5337319 -0.05943494 0.10246276
0001a0 2f 3f 31 bb 8f 15 02 3d 02 8e bb bc fa fc a5 3f
       -0.0027045717 0.03175884 -0.022894863 1.2967827
0001b0 4b 54 de 3d 58 84 83 bd ea 3f 9a bd 3e ba a4 bf
       0.10855921 -0.06421727 -0.07531722 -1.2869337
0001c0 53 3b 86 3e 85 c8 7e 3e ca 7f 8f bd 7f f3 83 bf
       0.26217136 0.2488118 -0.07006796 -1.0308684
0001d0 b0 43 6e bf 08 24 de be e1 c4 d2 3d 09 bd 27 3d
       -0.9307203 -0.43386865 0.10291458 0.040951762
0001e0 b5 82 f1 bd bf 95 57 3c ce 17 bc bf 64 07 96 3d
       -0.117925085 0.013158261 -1.4694765 0.073256284
0001f0 4b ae d7 be 99 95 94 3d 46 fe b6 3d 0a f6 5b bd
       -0.42125162 0.07255096 0.089352176 -0.053701438
000200 92 83 7e 3c 70 54 91 3e e1 f7 93 3d 58 93 8c c0
       0.0155342985 0.28384733 0.072250135 -4.3929863
000210 b7 9b 8a 3e 75 75 66 3e 9b 37 78 3b f0 3c aa be
       0.27071926 0.22505744 0.003787494 -0.33249617
000220 bb 66 60 3e bf a4 89 bf 3a 40 a6 bd c9 85 95 bd
       0.21914189 -1.0753402 -0.08117719 -0.07300908
000230 f4 21 47 3e 74 cf 70 bb 7f f0 35 3f 95 7f 18 3f
       0.19446546 -0.0036744745 0.7107009 0.59569675
000240 3a cc fe bc a5 ad 19 bf 3f 8f d6 3e 6a 9c 28 3d
       -0.031103242 -0.60030586 0.41906163 0.041164793
000250 1e 2b 1e be 6c 42 42 3e 5f 2b 17 3f 09 02 4e bd
       -0.15446135 0.1897065 0.59050554 -0.05029491
000260 b1 aa b1 3d dc 00 a0 3d df 0b 57 3c 73 6c 93 3f
       0.08675135 0.07812664 0.013125389 1.1517471
000270 f5 0a 85 bd c3 41 79 bf 96 36 59 bf 1f ab af 3d
       -0.064962305 -0.9736597 -0.84848917 0.08577561
000280 5d 3e 72 bd 7e a7 98 3d d0 34 80 be ac 8f b2 3e
       -0.059141506 0.074538216 -0.25040293 0.34875238
000290 cc b6 08 3d ab f7 65 3d 70 84 e3 3d f2 93 7b bf
       0.033377454 0.056144398 0.11109245 -0.9827262
0002a0 a4 f6 28 3e 4a e1 56 3d 5f ca 9f bc 5c 7c f4 bd
       0.16500336 0.052460946 -0.019505678 -0.11937782
0002b0 8a f6 f8 be 4b b7 c0 3c f1 f2 36 bd d2 55 b3 bd
       -0.48625594 0.0235249 -0.04466528 -0.08756603
0002c0 24 12 9c 3e 9d e7 c1 be 4a ba c7 be 39 66 33 be
       0.3048259 -0.3787202 -0.39009315 -0.17519464
0002d0 d7 64 56 bd b8 e6 8a 3e 74 f8 08 3f cd a5 30 bf
       -0.052342262 0.2712915 0.5350411 -0.6900299
0002e0 d0 ca 80 3e 5a 8d 9b 3f 4b cd db bd e2 7e b3 3e
       0.25154734 1.2152512 -0.10732516 0.3505774
0002f0 c8 80 f4 3b ee be 0f 3d 4d 77 7b 3f d2 76 07 3f
       0.007461641 0.035094194 0.98228914 0.5291568
000300 e0 96 64 3c 77 7d 5b 3f d0 00 a0 c0 43 dc b7 3e
       0.013951987 0.8573832 -5.000099 0.35910234
000310 f4 68 c9 3e db d3 4d 3d 31 32 b1 bd bc 6c e8 3c
       0.39337885 0.05025087 -0.086521514 0.028372161
000320 0a c5 2b c0 45 31 46 be ec 61 3d bf 77 6a 08 bd
       -2.6839013 -0.19354732 -0.7397754 -0.033304658
000330 9c e4 af 3b 83 fe b2 bd 95 bc a6 be fa 0b 95 bf
       0.0053678285 -0.087399505 -0.32565752 -1.164428
000340 15 74 d1 3e f0 91 60 bd 4d 52 85 bc 81 e7 70 3e
       0.40908876 -0.054826677 -0.016274596 0.23525812
000350 ca 19 a5 3d 48 ff 90 bd 8f bc 2c 3e 01 5c 12 bf
       0.080615595 -0.07079941 0.16868804 -0.57171637
000360 86 03 ad 3d cb 60 b5 3d 86 bb d3 3c ad 6e 38 3e
       0.08447938 0.088563524 0.025846254 0.1801097
000370 14 5f f0 bd 78 08 8c be 0f be 73 3e 68 60 89 bd
       -0.11736885 -0.2735021 0.2380297 -0.06707841
000380 b4 0c d0 3e fc 4e 76 bd eb 4c 8d 3b 9e 2f 80 3d
       0.40634692 -0.06013392 0.004312148 0.06259082
000390 4f e5 85 be 4f bc 5d 3f f2 d0 5d bb 91 df 8e be
       -0.2615151 0.8661546 -0.0033846465 -0.27904943
0003a0 03 67 4c 3e 5e 21 8d 3e 4a 13 a7 3e 68 3d a7 be
       0.19961171 0.2756452 0.32631904 -0.32664037
0003b0 cb aa 60 3d 8e 12 22 40 19 42 e2 bc b0 3e 23 3e
       0.05485038 2.5323825 -0.027619408 0.15941882
0003c0 53 2f 8b bd 3b 35 9e be b6 e4 92 3e d2 1f 6e 3d
       -0.06796136 -0.30899987 0.28690118 0.058135815
0003d0 39 83 94 3c 40 c0 4b bd a2 e6 02 3d 54 9f b7 3b
       0.018128978 -0.04974389 0.03195823 0.00560371
0003e0 5c 94 e8 be 6e 5d 30 3f 02 75 d5 3a e7 e6 34 3c
       -0.4542569 0.6889256 0.0016285481 0.0110413795
0003f0 47 e6 06 3e 13 aa 1f be c5 77 7b 3d b0 c3 2c bf
       0.13173781 -0.15592222 0.061393518 -0.67486095

output.6.bias f4 [7]
000000 46 c8 4c 3e ef b0 65 3d 50 99 02 bd 18 f2 19 bd
       0.19998273 0.05607694 -0.03188449 -0.037584394
000010 24 e5 26 3c 0a 72 4f 3d 22 b7 13 be
       0.010186467 0.050645865 -0.14425328
