output/models/69.72Acc_H1_ThreeLayers128_128_128Units_ReLU_CrossEntropyLoss_Adam_0.001lr_6908epochs_10batches.pth (torch, 143679 bytes, 8 tensors)

output.0.weight f4 [128, 6]
0	0x3e079696	0.13241038
1	0x3e0c54c7	0.13704215
2	0x3cd0e5c0	0.025500178
3	0xbe66ad77	-0.22527109
4	0x401d6a26	2.4596038
5	0x3f26ceec	0.6515949
6	0x3f1704c7	0.58991665
7	0x3ea6c169	0.32569435
8	0xbe460795	-0.1933883
9	0x3f223dec	0.63375735
10	0xc0034bed	-2.0515091
11	0xbfee4f0d	-1.8617874
12	0x3f5c3c89	0.8602987
13	0x3e82511c	0.25452507
14	0xbe5eaf13	-0.21746473
15	0xbecd4b99	-0.4009674
16	0x3f0ae829	0.542605
17	0xc04c7047	-3.1943529
18	0x3f17de67	0.59323734
19	0xbfaf8874	-1.3713517
20	0x3ce88222	0.028382365
21	0x3f26208c	0.6489341
22	0xbf3bfa34	-0.73428655
23	0x3f0693a4	0.5256903
24	0xbcbab661	-0.022792043
25	0xbd3aea68	-0.045633703
26	0x3d4c76fd	0.049918164
27	0xbe3ed76b	-0.18636863
28	0x3f9d971b	1.2311739
29	0xbf0032fc	-0.50077796
30	0xbe089d75	-0.13341315
31	0xbcf66b58	-0.030080482
32	0xbea49004	-0.32141125
33	0xbe8641a2	-0.2622195
34	0x3e426f5b	0.18987791
35	0xbce86eb3	-0.028373098
36	0xbe95c95f	-0.29255196
37	0x3e042c84	0.12907606
38	0x3e34b134	0.17645723
39	0xbe154807	-0.14578258
40	0xbf9d7dec	-1.2304053
41	0x3fa24482	1.2677157
42	0xbe2269cc	-0.15860671
43	0x3c03c037	0.008041433
44	0x3df63cf7	0.12023347
45	0xbeaa4d03	-0.3326188
46	0x3f960570	1.1720409
47	0x3f5a763c	0.8533666
48	0x3ec9c747	0.3940985
49	0xbea0a80e	-0.31378216
50	0x3cca2b7b	0.024678936
51	0x3d5d18f5	0.05397888
52	0x4079b2bd	3.9015343
53	0x401ada5a	2.4195771
54	0xbef389a4	-0.4756595
55	0x3ee8daf3	0.45479545
56	0x3dedae9e	0.11605571
57	0xbd2f1223	-0.042741906
58	0x3f1adcf2	0.60493386
59	0xbf1816a0	-0.59409523
60	0x3f3f564c	0.74741054
61	0xbed01816	-0.40643376
62	0xbe91d7a4	-0.28484833
63	0x3ecec69b	0.403859
64	0xbfe2d411	-1.7720968
65	0x3f2bbc84	0.67084527
66	0xbe03c5a9	-0.1286837
67	0x3caad231	0.02085218
68	0x3e03b096	0.12860331
69	0xbf2da103	-0.6782381
70	0x405bc47c	3.4338675
71	0xbf90051d	-1.125156
72	0x3cea0727	0.028567864
73	0xbe8c4037	-0.27392742
74	0xbe4039b7	-0.18772016
75	0xbe894394	-0.2680937
76	0x3e6f01fc	0.233406
77	0x3d5ef7f4	0.054435685
78	0x3d249bf6	0.0401878
79	0xbcfce82f	-0.030872433
80	0x3ddf4b8c	0.10903081
81	0xbeca0c4b	-0.39462504
82	0xbfe518fb	-1.7898248
83	0x40134de6	2.3016295
84	0xbf52aab5	-0.8229173
85	0x3e878fe3	0.26476964
86	0x3e02d80b	0.12777726
87	0xbe942269	-0.28932503
88	0xc06f46c0	-3.7386932
89	0x4043c390	3.0588112
90	0x3e8474c2	0.2587033
91	0x3efce076	0.4939
92	0x3d87b44d	0.066261865
93	0xbecceb48	-0.40023255
94	0x3f85e6b0	1.0461025
95	0xbf3f9b76	-0.7484659
96	0xbf158e48	-0.5842023
97	0x3da14fd4	0.07876554
98	0x3dee1b2d	0.11626277
99	0x3f129757	0.57262176
100	0x3f2e709d	0.68140584
101	0xc01eba4c	-2.4801207
102	0xbfa04bef	-1.2523173
103	0x3f234afb	0.63786286
104	0xbd21efbc	-0.03953527
105	0x3f073065	0.5280822
106	0x3f9689cc	1.1760802
107	0x3fcf5d72	1.6200392
108	0x3d629113	0.055314135
109	0x3ec0620c	0.37574804
110	0x3b8c6572	0.004284554
111	0x3c9ff2bf	0.01952493
112	0xc02279e1	-2.538689
113	0x3d9bab65	0.0760105
114	0x3f03d79f	0.51500887
115	0x3dbf8c3f	0.09352922
116	0xbeedc9fe	-0.4644317
117	0xbe6140e0	-0.21997404
118	0x409fab1f	4.989639
119	0xbee91633	-0.4552475
120	0xbeb9314d	-0.36170426
121	0xbd2fd08f	-0.042923506
122	0xbe09748e	-0.13423368
123	0x3e2611a0	0.16217661
124	0xbe84f88f	-0.25970885
125	0x3df6290e	0.12019549
126	0xbf07bd33	-0.5302307
127	0xbbe8ac2f	-0.007100604
128	0x3e1b8a10	0.15189385
129	0x3e4784a7	0.19484197
130	0x3f8c1ea7	1.0946854
131	0x402f593d	2.7398217
132	0xbda62e7f	-0.08114337
133	0x3ec3944c	0.3819908
134	0xbed27acf	-0.4110932
135	0x3f45c389	0.7725149
136	0xbf84b056	-1.0366313
137	0x3f9f732e	1.2457025
138	0xbe653240	-0.2238245
139	0xbd137aa6	-0.03600564
140	0xbe994633	-0.2993637
141	0xbdf199f3	-0.117969416
142	0x3e8a51d0	0.27015543
143	0xbe3e0bd1	-0.18559195
144	0x3a081303	0.0005190821
145	0xbe278178	-0.16357982
146	0xbea565ff	-0.3230438
147	0xbd3bcacf	-0.04584771
148	0x3e7150fa	0.23566046
149	0x3eb3fbf5	0.35153165
150	0x3f098f30	0.5373411
151	0xbc91d0f2	-0.017799828
152	0xbf9c3d5e	-1.2206228
153	0xbfd2b3db	-1.6461138
154	0x403c5789	2.9428427
155	0x4089c996	4.3058577
156	0xbdde498d	-0.108538724
157	0xbec77b73	-0.38961372
158	0xbb2cb064	-0.0026350254
159	0xbeae69e0	-0.3406515
160	0x3da905ba	0.082530454
161	0xbde46f46	-0.11154036
162	0xbec9296e	-0.3928942
163	0xbe97ad77	-0.2962453
164	0xbda0576e	-0.07829176
165	0xbe9e893d	-0.3096408
166	0x3e9411b7	0.28919765
167	0x3e5bcc5e	0.21464679
168	0xbecba392	-0.39773232
169	0x3ebda2b2	0.3703819
170	0xbf3883af	-0.72075933
171	0x3e98840b	0.2978824
172	0x40224d9b	2.5359867
173	0xc0a86417	-5.262218
174	0x3ee5900c	0.44836462
175	0xbe9049d4	-0.28181326
176	0x3e08755a	0.13326016
177	0xbec1575b	-0.3776196
178	0x3eb40f45	0.351679
179	0x3f5c8d04	0.8615267
180	0xbf051668	-0.51987314
181	0xbedfa1f7	-0.43678257
182	0x3eae1733	0.34002075
183	0xbf0a7ab3	-0.54093474
184	0xbf563de0	-0.83688164
185	0x3ef03a47	0.46919462
186	0xbf062f68	-0.52416086
187	0x3eb69fd2	0.35668808
188	0x3e175de9	0.14781918
189	0x3ea0da9c	0.31416786
190	0xbf2fe638	-0.6871066
191	0xbe7bef34	-0.24602968
192	0x3f22cf7c	0.63597846
193	0xbe9e3254	-0.30897772
194	0xbd2840b4	-0.04107733
195	0x3ddf818e	0.109133825
196	0xbe5d13cd	-0.21589585
197	0xc02c0f8c	-2.688449
198	0x3e9ecf0f	0.31017348
199	0x3ebbaffc	0.36657703
200	0xbe2ac152	-0.16675308
201	0xbf1ece5e	-0.6203364
202	0xbf8cd6d2	-1.1003058
203	0x3ff8a3b4	1.9424958
204	0x3ebac431	0.36477807
205	0xbe9bcd29	-0.30429962
206	0x3d9ba989	0.07600696
207	0xbe31fa25	-0.17380579
208	0x3f855208	1.0415659
209	0xbf004714	-0.50108457
210	0xbbe62be2	-0.007024274
211	0x3ec004ef	0.37503764
212	0xbe892784	-0.2678796
213	0x3e74cfac	0.23907346
214	0x40b2e7fe	5.5908194
215	0x40036b2f	2.053417
216	0xbf24be0a	-0.64352477
217	0x3e71c706	0.23611078
218	0x3d74c5d4	0.059758976
219	0x3d94ecba	0.072717145
220	0x3eda509c	0.42639625
221	0x3f5c207f	0.85987085
222	0x3db5e990	0.08882439
223	0xbd7ed256	-0.06221231
224	0x3e140715	0.14455827
225	0xbf883eac	-1.0644126
226	0xbf7fbde5	-0.9989913
227	0xc02908b7	-2.641157
228	0xbec9fc36	-0.39450234
229	0x3e85062d	0.25981274
230	0x3e43367f	0.19063757
231	0xbead705f	-0.33874795
232	0x3ea1933f	0.31557652
233	0x3fc43cee	1.5331094
234	0x3f235680	0.63803864
235	0xbef1f8ca	-0.47260123
236	0x3df7f57e	0.12107371
237	0xbf4d3641	-0.8016091
238	0x3f4a89dd	0.7911661
239	0xbfb84fdc	-1.4399371
240	0x3e218b3b	0.15775768
241	0xbdc1eb76	-0.09468739
242	0x3d499bff	0.049221035
243	0x3d87ea96	0.066365406
244	0x4046e8a0	3.1079483
245	0xc007f251	-2.1241648
246	0xbe5585db	-0.20851843
247	0xbe6e0954	-0.23245746
248	0x3e2092bc	0.15680975
249	0xbd21ef4f	-0.039534863
250	0xbeb28257	-0.34865066
251	0x401adbc8	2.4196644
252	0xbea2ad04	-0.31772625
253	0x3e7675b2	0.24068335
254	0xbead104f	-0.33801505
255	0x3f6e7230	0.93142986

output.0.bias f4 [128]
0	0x3fb1d829	1.3894092
1	0x3ef12f19	0.47106245
2	0xbf6c644a	-0.9234053
3	0xbd74b84c	-0.05974607
4	0x3fe03537	1.751624
5	0x3e9c8b5b	0.3057507
6	0xbfc6ab44	-1.5521016
7	0x4007fc4d	2.1247742
8	0x3e89d927	0.26923487
9	0xbf6b9684	-0.92026544
10	0xbf29144f	-0.66046613
11	0x3fa606e5	1.2970854
12	0x3e28386e	0.16427776
13	0x3f5a2cb2	0.8522445
14	0x3f83e7bf	1.0305098
15	0x3f565694	0.8372586
16	0x3dbe8610	0.09302914
17	0xbf163b24	-0.5868399
18	0x3f914598	1.1349363
19	0x3e7a1f67	0.24426042
20	0x3e8f9f47	0.28051206
21	0xbf0f9904	-0.5609286
22	0xbe85efa2	-0.26159388
23	0x3df772cb	0.12082442
24	0x3e7396cb	0.23787992
25	0xbe956cdf	-0.29184625
26	0xbeb26a96	-0.34846944
27	0x3e52c69d	0.20583577
28	0xbf6c9a69	-0.9242311
29	0xbf8f6d25	-1.1205183
30	0xbeca83ea	-0.39553767
31	0xbfafbebe	-1.3730085
32	0x3e6b09d1	0.22952963
33	0xbe90c005	-0.282715
34	0x3f463559	0.7742515
35	0x3f9e44e5	1.2364775
36	0x4009de69	2.1541998
37	0x3fded2b3	1.740805
38	0xbfbb9516	-1.4654872
39	0x3e4999a2	0.19687513
40	0xbf62d1fc	-0.8860166
41	0xbeaeb9ba	-0.34126073
42	0x3ca01d49	0.019545214
43	0x3fa1f88c	1.2653975
44	0xbf18d679	-0.5970226
45	0xbf130863	-0.5743467
46	0xbfb280a0	-1.3945503
47	0x3f6283fc	0.8848264
48	0xbebade9d	-0.36497965
49	0xbe279af6	-0.16367707
50	0x3e3c4849	0.1838695
51	0xbefad99e	-0.48994154
52	0xbe939b34	-0.28829348
53	0x3ee3f733	0.44524536
54	0xbfaa6f7c	-1.3315272
55	0xbf19d0a2	-0.60083973
56	0x3f8d25dd	1.102718
57	0xbf94d43f	-1.1627272
58	0x3d990e38	0.07473415
59	0xbd9c51fb	-0.07632824
60	0xbe837a60	-0.25679302
61	0x3f901f61	1.1259576
62	0xbfa15d25	-1.260655
63	0x3e0f1357	0.13972221
64	0xbf8c4806	-1.095948
65	0xbe75f0e3	-0.24017672
66	0x3fcfd786	1.6237648
67	0xbfd1b1df	-1.6382407
68	0x3e5e7975	0.2172602
69	0x3f463de0	0.77438164
70	0xbf065c7b	-0.52484864
71	0x3f38b6fe	0.72154224
72	0x3fe6d150	1.8032627
73	0x3f43c9a2	0.7647954
74	0xbefb0d41	-0.4903355
75	0xbf7788d0	-0.96693134
76	0xbfc1e23d	-1.5147167
77	0xbf72b427	-0.9480614
78	0x3d3dfad3	0.046381783
79	0x40004f2d	2.0048325
80	0x3f6818df	0.9066295
81	0x3f98b4a8	1.1930132
82	0x3f6e09ad	0.92983514
83	0x3f7458cf	0.9544801
84	0x3e1154e1	0.14192535
85	0xbfe0d03f	-1.7563552
86	0x3e605826	0.21908626
87	0xbf8f16b7	-1.1178807
88	0xbfb39d8f	-1.4032458
89	0x3f8b321e	1.087467
90	0x3fcaea69	1.5852786
91	0xbf7371d9	-0.9509559
92	0xbf48e637	-0.7847628
93	0x3e84f4c5	0.25967994
94	0xbf138374	-0.57622457
95	0xbf81b965	-1.0134703
96	0xc00a414a	-2.160235
97	0x3fb962f3	1.4483322
98	0x3e600150	0.218755
99	0xbfcda644	-1.6066365
100	0x3ebb35e2	0.36564547
101	0xbf53d872	-0.82752144
102	0x3d8d1a8d	0.0688983
103	0xbfc8ba05	-1.5681769
104	0x3da72b8c	0.08162603
105	0x3e34a062	0.17639306
106	0xbc3e958d	-0.011632335
107	0xbf369ea4	-0.71335816
108	0x3e8c2a14	0.27375853
109	0xbe3a0c75	-0.18168814
110	0xbe61baaf	-0.2204387
111	0xbfd66904	-1.6750798
112	0xbde0b388	-0.10971743
113	0x3ca42eff	0.02004194
114	0x3f599d5c	0.85005736
115	0xbe2a984a	-0.16659656
116	0xbe690bb2	-0.22758368
117	0xbf9a7308	-1.2066355
118	0xbf348aca	-0.70524275
119	0x3f2f94c3	0.6858637
120	0x3e1947df	0.14968823
121	0x3f9cc637	1.224799
122	0xbf08d865	-0.5345519
123	0xbd89d89a	-0.067307666
124	0x3f4c8583	0.7989122
125	0xbfa63145	-1.2983786
126	0x3eeeac6c	0.46615922
127	0x3f277b83	0.6542284

output.2.weight f4 [128, 128]
0	0x3d1977f9	0.03746793
1	0xbf1cad1f	-0.6120166
2	0xbe03d043	-0.12872414
3	0xbe70f598	-0.23531187
4	0x3df8bd5e	0.12145494
5	0xbd7d6f7d	-0.0618739
6	0x3e152e7c	0.14568514
7	0x3e85f3fb	0.26162705
8	0xbe07fe44	-0.13280588
9	0x3db75178	0.08951086
10	0x3f0108c2	0.5040399
11	0x3ebc822e	0.3681807
12	0x3d8b3834	0.06797829
13	0xbd60c4b2	-0.054875083
14	0x3f93628c	1.1514449
15	0xbca92122	-0.020645682
16	0x3e60b235	0.2194298
17	0xbe889016	-0.2667243
18	0xbd91445d	-0.070931174
19	0xbe6bd700	-0.23031235
20	0x3c9f32eb	0.01943346
21	0x3dcc8087	0.09985452
22	0x3b7b7de3	0.0038374595
23	0x3cf63a3d	0.030057067
24	0xbd0f440a	-0.034976996
25	0x3dd1ac7b	0.10237976
26	0x3d9327bd	0.07185314
27	0x3cdb90c2	0.026802424
28	0xbe8ecb80	-0.27889633
29	0xbe197b65	-0.14988478
30	0x3e029098	0.1275047
31	0x3e11976f	0.14217924
32	0xbd9bc4ab	-0.07605871
33	0x3e46382b	0.19357364
34	0xbcbd5a32	-0.023114298
35	0x396bec8e	0.0002249947
36	0x3ee2e71d	0.4431695
37	0xbf0a345c	-0.53986144
38	0x3dce217f	0.100649826
39	0xbf4cd2fb	-0.8000943
40	0x3d8fcad9	0.07021112
41	0x3d66f9d8	0.056390613
42	0x3ed9c57d	0.42533484
43	0x3db336e1	0.08750702
44	0x3cd984df	0.026552616
45	0xbdaa384f	-0.08311521
46	0xbf0ad4ca	-0.5423094
47	0xb6a141c8	-4.805832e-06
48	0xbcadd02c	-0.021217428
49	0xbcb5a2bf	-0.02217233
50	0x3e17124c	0.14753073
51	0x3e82faa4	0.2558185
52	0x3c0d9f4f	0.008643939
53	0x3e39961d	0.1812367
54	0xbe6ac9a4	-0.22928482
55	0xbdc26525	-0.09491948
56	0xbf99ede3	-1.2025722
57	0xbe315b8c	-0.17320079
58	0xbd9e009a	-0.077149585
59	0x3da69e11	0.081356175
60	0x3e474a15	0.19461854
61	0xbef68198	-0.48145747
62	0xbdf2701e	-0.11837791
63	0x3e83fca0	0.25778675
64	0xbf1f1f0f	-0.62156767
65	0x3dbd3b46	0.09239821
66	0x3bc2fab5	0.0059502968
67	0xbe175ce9	-0.14781536
68	0xbd8c78f8	-0.068590105
69	0xbe164352	-0.14674118
70	0xbef7c5b4	-0.48393023
71	0xbe6d9373	-0.23200779
72	0xbda82500	-0.08210182
73	0x3ea18996	0.31550282
74	0xbe1776ac	-0.14791363
75	0xbda95e7f	-0.08269977
76	0x3d8abc60	0.06774211
77	0x3e8ad7d0	0.27117777
78	0xbd12a14e	-0.035798363
79	0x3d0725ce	0.032995038
80	0x3de9d226	0.11417036
81	0x3e14fa99	0.1454872
82	0x3df75e59	0.12078542
83	0xbe9b5e0d	-0.30345193
84	0x3ca6d7b4	0.020366527
85	0xba74e19f	-0.00093414815
86	0x3e996feb	0.299682
87	0xbd75e065	-0.060028452
88	0xbf0434aa	-0.5164286
89	0x3de7ce86	0.11318688
90	0x3ebc2f83	0.36755
91	0x3cba8b6e	0.022771563
92	0xbe9819d0	-0.29707193
93	0xbfa3e4dd	-1.2804219
94	0xbc9b5988	-0.01896359
95	0x3dddb2a9	0.10825092
96	0xbdcb0f66	-0.099150464
97	0xbe522b1e	-0.2052426
98	0xbf249ba7	-0.64300007
99	0xbe76331a	-0.24042931
100	0x3e43cb11	0.19120432
101	0xbe874f11	-0.2642751
102	0x3d3b8854	0.04578431
103	0x3e4bb702	0.1989403
104	0x3d392120	0.045197606
105	0x3dc30252	0.09521927
106	0x3c9ad753	0.018901503
107	0x3f91e948	1.1399317
108	0xbef3bd30	-0.47605276
109	0xbd1855b9	-0.037191126
110	0xbbf9f213	-0.0076277344
111	0x3d7f8fd5	0.06239303
112	0x3d0c20cf	0.034210976
113	0xbf018c8b	-0.50605077
114	0x3c511724	0.012761865
115	0x3d10e7b6	0.035377227
116	0xbe78aca6	-0.2428461
117	0xbd2e8bd5	-0.042613823
118	0xbca90821	-0.020633759
119	0xbdd7e145	-0.10541014
120	0xbd0c9ff2	-0.034332223
121	0xbf93d995	-1.1550776
122	0x3d08d36a	0.033404745
123	0xbd56851b	-0.052373033
124	0x3f5787fb	0.84191865
125	0xbd0b7b15	-0.034052927
126	0x3d9eabbc	0.077475995
127	0x3eda777d	0.42669287
128	0x3ca83473	0.020532822
129	0x3b4a1860	0.0030837283
130	0x3dab6b34	0.08370057
131	0x3ef52a3d	0.47883788
132	0xbf140055	-0.57813007
133	0xbd9c2de6	-0.07625942
134	0x3d1fe0fb	0.039032917
135	0xbf8a51e3	-1.080624
136	0x3ecde014	0.4021002
137	0xbe5dafc4	-0.2164908
138	0xbeb07222	-0.34462076
139	0xbece8f45	-0.4034368
140	0xbc9fb2f8	-0.019494519
141	0x3d5be71d	0.053687204
142	0xbfc54120	-1.54105
143	0xbe3877c8	-0.18014443
144	0xbdc3febc	-0.09570071
145	0xbe96342b	-0.29336676
146	0xbe0bc2bb	-0.13648503
147	0x3e8a8bb2	0.27059704
148	0x3d196b7c	0.03745602
149	0x3eb9ec2a	0.3631299
150	0x3daddfcc	0.084899515
151	0xbcb0c4cd	-0.021578217
152	0xbd55161e	-0.052023046
153	0xbde96af9	-0.113973565
154	0xbd8455e2	-0.06461693
155	0xbce090cc	-0.027412795
156	0x3c1f11fb	0.009708877
157	0x3ddbaae5	0.10725955
158	0xbf5d605c	-0.8647516
159	0xbda2e49c	-0.0795376
160	0x3d08700c	0.03330998
161	0x3eca6daf	0.39536807
162	0x3d8c5bba	0.06853433
163	0xbf104cb6	-0.5636705
164	0x3e1eff5d	0.15527101
165	0x3ed2b798	0.41155696
166	0xbf8a08e4	-1.0783963
167	0xbe8a3317	-0.26992103
168	0x3caabce1	0.020842018
169	0x3e98193f	0.2970676
170	0xbdeaf5c0	-0.11472654
171	0xbea8dd63	-0.32981405
172	0xbd26a7b9	-0.040687297
173	0x3e9bdf2d	0.30443707
174	0x3ed7ec92	0.42172676
175	0x3f44995c	0.7679651
176	0x3cfd69f7	0.030934317
177	0x3d6c6076	0.05770918
178	0x3da0b9cd	0.07847939
179	0xbeee16f2	-0.4650188
180	0x3c66947a	0.0140734855
181	0xbf2e12aa	-0.6799723
182	0x3d962a2a	0.07332261
183	0x3e057e43	0.13036446
184	0x3fb21993	1.3914055
185	0x3da935a6	0.08262186
186	0x3acf61ee	0.0015822032
187	0xbcfcd33a	-0.03086244
188	0x3f481deb	0.7817065
189	0x3f24592c	0.64198565
190	0xbdcbfcec	-0.099603504
191	0xbecdefc0	-0.40221977
192	0x3bd87efb	0.006606934
193	0xbc93fafc	-0.018064015
194	0xbe44339f	-0.19160317
195	0x3e9915b6	0.29899377
196	0x3b152d99	0.0022762774
197	0x3e28536d	0.16438074
198	0x3e83614f	0.25660178
199	0x3e783674	0.24239522
200	0xbc58b3f8	-0.013226502
201	0xbe5f8dd0	-0.21831441
202	0x3e2c5eb0	0.16832995
203	0x3dffd100	0.124910355
204	0x3cadcea7	0.021216704
205	0xbd04cc85	-0.032421608
206	0xbc98c25d	-0.018647367
207	0x3dd35fee	0.103210315
208	0xbf381e5d	-0.7192133
209	0x3fd407d8	1.6564894
210	0xbec9c7f8	-0.39410377
211	0x3d41ab9b	0.047282796
212	0xbda05ab0	-0.07829797
213	0x3f440ba3	0.76580256
214	0x3cb676c7	0.022273434
215	0x3db6b7e2	0.089217916
216	0xc0516234	-3.2716188
217	0xbdce691d	-0.100786425
218	0xbdcca9c1	-0.099933155
219	0x3d0ae987	0.033914115
220	0xbd793760	-0.060843825
221	0x3f167342	0.5876962
222	0x3d07fcf1	0.033200208
223	0xbd444181	-0.047914032
224	0x3ea6039a	0.32424623
225	0xbdaf4e09	-0.08559806
226	0x3de66ffb	0.11251827
227	0x3d93dd22	0.07219912
228	0xbe67b416	-0.22627291
229	0xbe1ac970	-0.15115905
230	0xbd97473e	-0.07386635
231	0xbcf86118	-0.030319735
232	0xbda42a0a	-0.08015831
233	0xbe8d98d9	-0.27655676
234	0x3d9471a1	0.072482355
235	0xbf139859	-0.5765434
236	0xbd45870f	-0.048224505
237	0x3c9bc2d4	0.0190138
238	0x3dba5263	0.09097745
239	0x3c9aef7d	0.018913025
240	0xbeb7e763	-0.35918722
241	0x3eab3fe2	0.33447176
242	0xbe806ded	-0.25083867
243	0xbdf13af2	-0.11778821
244	0xbd1d0e24	-0.038343564
245	0xbcd2a416	-0.025713008
246	0x3d2f470c	0.042792365
247	0x3cf91e0d	0.030409837
248	0xbd6b8ec3	-0.057509195
249	0xc006740b	-2.1008327
250	0x3e8aa4b2	0.27078778
251	0x3cfdefe8	0.030998185
252	0x3e858b7b	0.26082978
253	0xbc40800b	-0.011749278
254	0x3eafea7b	0.34358582
255	0xbdecca9c	-0.11562082

output.2.bias f4 [128]
0	0x3f1d00fd	0.61329633
1	0xbe76b399	-0.24091949
2	0x3ebe5f6a	0.3718217
3	0x3f0da58c	0.5533073
4	0x3f9b8b90	1.2151966
5	0x3f4f7543	0.810383
6	0x3e6ecf59	0.23321284
7	0x3daa493b	0.08314749
8	0xbe34612a	-0.1761519
9	0xbd72f6ef	-0.059317525
10	0xbfb31f0c	-1.399385
11	0xbd97b708	-0.07407957
12	0x3f35cb40	0.7101326
13	0x3f47e066	0.7807678
14	0x3f960bca	1.1722348
15	0x3ed33621	0.41252235
16	0x3df8e5be	0.12153195
17	0x3b56384b	0.0032687362
18	0x3d01a6f6	0.031653367
19	0x3f87621e	1.0576818
20	0xbf21c3da	-0.6318947
21	0xbe1cdaa6	-0.15317783
22	0xbf41ba99	-0.7567535
23	0x3d0fc520	0.035100102
24	0x3f6118e6	0.87928617
25	0xbdc8b9ae	-0.098010406
26	0xbedb2f10	-0.42809343
27	0xbef10f40	-0.47081947
28	0x3f99fa55	1.202952
29	0x3d0c1855	0.034202892
30	0xbf8710ab	-1.0551962
31	0xbe2f652a	-0.17128435
32	0xbcd38a91	-0.02582291
33	0x3c2923dc	0.010323491
34	0xbe84bb5a	-0.25924188
35	0xbe26c55d	-0.16286226
36	0xbdc6d5fb	-0.09708782
37	0x3d8acbf4	0.06777182
38	0x3d3cc41f	0.046085473
39	0xbf4389b7	-0.7638201
40	0x3f61b36f	0.8816442
41	0x3dfacda1	0.12246252
42	0x3d7d105f	0.06178319
43	0xbc885ac7	-0.016644849
44	0xbdb1f133	-0.08688583
45	0xbf46cfc9	-0.77660805
46	0x3e207a4e	0.15671656
47	0x3e1f2c11	0.15544154
48	0xbbdfeb8d	-0.0068334998
49	0xbf1210c2	-0.5705682
50	0x3db424a1	0.08796049
51	0x3f900728	1.1252184
52	0xbfa08e8e	-1.2543504
53	0xbeb35fcc	-0.35034025
54	0xbf246c8b	-0.64228123
55	0x3d878421	0.066169985
56	0x3d0a73b3	0.033801746
57	0x3c806b99	0.015676307
58	0xbd124943	-0.0357144
59	0x3e6bb1a7	0.23016988
60	0x3f8d27a7	1.1027726
61	0x3f3feaf5	0.7496789
62	0xbe25a7a4	-0.16177231
63	0xbef5586f	-0.47919032
64	0xbcb905fb	-0.02258586
65	0x3f07ece7	0.5309586
66	0xbd0cacff	-0.03434467
67	0x3e7e411c	0.24829525
68	0xbf02f860	-0.5116024
69	0xbc0a1105	-0.008426909
70	0xbdbc7e3b	-0.09203764
71	0x3ea530a7	0.3226368
72	0xbd0369a0	-0.032083154
73	0xbe90585f	-0.28192422
74	0x3d50b12a	0.050950207
75	0x3eebd251	0.46058896
76	0xbd5a1e58	-0.053251594
77	0x3ecdcb95	0.40194383
78	0x3f623785	0.88365966
79	0x3d4ae21c	0.04953204
80	0xbe1c8a5c	-0.15287155
81	0x3b81a8b3	0.003956878
82	0x3c3f4801	0.011674882
83	0xbeec4d28	-0.46152616
84	0x3d761686	0.060080074
85	0x3d1a3d12	0.037655897
86	0xbed62071	-0.41821626
87	0x3f8133b5	1.0093905
88	0xbf09eb19	-0.53874356
89	0x3d1f7c15	0.038936693
90	0xbcd9075b	-0.026492765
91	0xbf515580	-0.8177109
92	0x3cc89fa1	0.02449018
93	0xbf3a1ce4	-0.72700334
94	0x3e421bac	0.18955868
95	0xbc805330	-0.015664667
96	0xbd16b460	-0.036793113
97	0xbd1dc130	-0.038514316
98	0xbdc5bba3	-0.096549295
99	0x3d957454	0.072975785
100	0xbdf7d44d	-0.1210104
101	0x3cb75a39	0.022381889
102	0xbd1ff8b5	-0.039055545
103	0x3d884fe8	0.06655866
104	0xbda0b062	-0.07846142
105	0x3e84896c	0.25886095
106	0xbf20dbeb	-0.6283557
107	0xbb093131	-0.0020933861
108	0x3ee32ffc	0.44372547
109	0xbd4cf970	-0.05004257
110	0xbe082510	-0.13295388
111	0xbe448655	-0.19191869
112	0x3f39bb34	0.72551274
113	0x3e6ff930	0.23434901
114	0x3d0acee9	0.03388873
115	0x3c074849	0.00825698
116	0x3d22c58a	0.03973917
117	0xbd6eed7c	-0.05833195
118	0xbf362546	-0.71150625
119	0xbf4d342c	-0.8015773
120	0x3d34635f	0.04404008
121	0x3e9624f7	0.29325077
122	0xbe783b52	-0.24241379
123	0x3c01ffef	0.0079345545
124	0xbf2a3a74	-0.6649544
125	0xbe4a5b88	-0.19761479
126	0x3d6f9455	0.05849107
127	0xbdfc2514	-0.123117596

output.4.weight f4 [128, 128]
0	0xbe4c20e1	-0.19934417
1	0x3e1535c2	0.14571288
2	0xbd7b9125	-0.061417717
3	0xbdc4f8e7	-0.09617787
4	0x3cd527f2	0.026020024
5	0xbdacf7bd	-0.0844569
6	0x3e67797b	0.22604935
7	0xbd8bbbfa	-0.06822963
8	0xbd64b5ba	-0.05583737
9	0xbcc970f8	-0.02459
10	0x3e6efa9a	0.23337784
11	0xbdae3371	-0.085059054
12	0x3d419922	0.04726518
13	0xbd50e45e	-0.050999038
14	0xbabee153	-0.0014563001
15	0xbe9c03da	-0.30471689
16	0xbde24ec4	-0.110501796
17	0xbcfd17ce	-0.03089514
18	0x3c58c2d3	0.013230043
19	0x3db01524	0.08597782
20	0xbdd06f8a	-0.101775244
21	0xbe64f99a	-0.2236084
22	0x3c9a89fa	0.01886462
23	0xbd855431	-0.06510199
24	0xbdedfe41	-0.11620761
25	0x3e4bfa6c	0.19919747
26	0x3df3f96b	0.11912807
27	0xbd8ea25e	-0.06964563
28	0x3d3c100f	0.045913752
29	0x3be25db4	0.006908143
30	0xbd9eda34	-0.07756463
31	0xbcc4013e	-0.023926374
32	0x3d0d94e3	0.034565818
33	0xbc3c4be2	-0.011492701
34	0x3e4eb1ae	0.20184967
35	0x3e2a53aa	0.16633478
36	0x3d927280	0.071507454
37	0xbbbdaf0e	-0.0057886904
38	0xbd7b04aa	-0.061283745
39	0xbd97b727	-0.074079804
40	0xbdcb21e3	-0.09918573
41	0x3cfdd654	0.030985989
42	0x3d319f3d	0.043364752
43	0xbcd31111	-0.025764974
44	0x3daa5fb5	0.08319036
45	0xbd95a825	-0.07307462
46	0x3d576e6c	0.05259554
47	0xbd33e818	-0.043922514
48	0x3ae2395f	0.001725953
49	0x3e8e902e	0.27844375
50	0xbed0870a	-0.40728027
51	0xbead957e	-0.33903116
52	0x3cc68f60	0.024238288
53	0x3db3f0c6	0.08786158
54	0x3e937205	0.28797927
55	0xbdac8f0d	-0.08425722
56	0x3aa9eb71	0.0012963844
57	0xbd9c4d8d	-0.07631979
58	0xbd08cea2	-0.033400185
59	0xbdc6ec8f	-0.09713089
60	0xbdb4dd15	-0.088312306
61	0xbd8c1208	-0.06839377
62	0xbda9d673	-0.08292856
63	0x3d9b9805	0.07597355
64	0xbc21ad20	-0.009867936
65	0x3e05ea23	0.13077597
66	0x3ce0be88	0.027434602
67	0xc04d65a0	-3.2093277
68	0x3f91c387	1.1387795
69	0x3d78c1b3	0.0607316
70	0x3a826dbb	0.0009950915
71	0x3da1e948	0.07905823
72	0x3c90b597	0.017664714
73	0x3e68f718	0.22750509
74	0xbd618878	-0.055061787
75	0x3d6afba9	0.057368908
76	0x3e2b90b5	0.1675442
77	0xbe1d733c	-0.1537599
78	0x3e94d99f	0.29072282
79	0xbd143dd0	-0.03619176
80	0xbe397f0b	-0.1811487
81	0xbcc05dd2	-0.023482237
82	0xbdcd446c	-0.10022816
83	0xbe60207c	-0.21887392
84	0xbe1cacbe	-0.15300271
85	0xbd992826	-0.07478361
86	0x3d28fd1a	0.041257
87	0x3d328f0f	0.043593463
88	0xbed1f84e	-0.41009754
89	0xbda6ae13	-0.08138671
90	0xbf2ecf4c	-0.6828506
91	0x3d3a0dad	0.0454232
92	0x3d787abe	0.06066393
93	0xbe58a3c3	-0.2115622
94	0xbcbfd226	-0.023415636
95	0x3ca8fe7e	0.020629164
96	0xbc5a3de3	-0.013320419
97	0xbd310c90	-0.04322487
98	0x3c76c85c	0.015062418
99	0xbdada6e5	-0.08479098
100	0xbd3c6bbe	-0.04600119
101	0x3d74baba	0.05974839
102	0xbc54cad1	-0.012987808
103	0xbd87e657	-0.06635731
104	0x3d2bd921	0.041955117
105	0xbf59b805	-0.85046417
106	0xc04eb83f	-3.2299955
107	0xbd17388e	-0.03691917
108	0x3e8c2ff3	0.27380332
109	0x3f0127a0	0.5045109
110	0x3f42c468	0.7608094
111	0xbc7bfad7	-0.015379629
112	0x3e6705b2	0.22560766
113	0xbaec545f	-0.0018030516
114	0xbca4a4e2	-0.020098154
115	0xbd9224f4	-0.071359545
116	0x3e72ae30	0.2369926
117	0x3c53d1e6	0.012928462
118	0x3df54dca	0.11977728
119	0xbe1a6508	-0.15077603
120	0xbc679f2f	-0.014137073
121	0x3e0a4d3c	0.13506025
122	0x3e8ad391	0.27114537
123	0xc014e547	-2.326494
124	0x3ddd8223	0.10815837
125	0xbd1e1eed	-0.038603712
126	0x3a876d9f	0.0010332352
127	0x3c18314e	0.009289099
128	0xbf29eb7f	-0.66374964
129	0xbd99955d	-0.07499192
130	0xbf05b6ef	-0.5223226
131	0x3c57d842	0.0131741185
132	0x3e600d1d	0.21880002
133	0xbdcdeb58	-0.10054654
134	0xbd987ee7	-0.0744608
135	0x3d2d7220	0.042345166
136	0xbdea0ad5	-0.11427847
137	0x3d835148	0.064119875
138	0xbfdaf672	-1.7106459
139	0x3d9bd16e	0.07608305
140	0xbc432eba	-0.011912996
141	0x3e0bf80d	0.13668843
142	0x3de34b13	0.11098304
143	0x3a4c8f27	0.0007803314
144	0xbe17e691	-0.14834048
145	0xbd82eba0	-0.06392598
146	0xbc997e9e	-0.018737134
147	0x3df13f5d	0.11779664
148	0x3eb9f97f	0.36323163
149	0x3e94c6a4	0.290578
150	0x3e1d8a31	0.15384747
151	0xbda6dd38	-0.08147663
152	0xbcafb21b	-0.021447232
153	0x3dc19941	0.09453059
154	0x3de5af63	0.11215093
155	0x3f110278	0.5664439
156	0x3e9fbcfe	0.31198877
157	0x3d3f7f39	0.04675219
158	0xbe1a677a	-0.15078536
159	0xbe07c94f	-0.13260387
160	0xbb5d3eea	-0.0033759424
161	0xbc839079	-0.0160601
162	0xbe15ea28	-0.14640105
163	0xbcd6edf7	-0.026236517
164	0xbc94608a	-0.01811244
165	0xbb4e7de3	-0.003150814
166	0xbd0c0997	-0.034188833
167	0x3e6371fd	0.22211452
168	0xbe002488	-0.12513936
169	0xbd104692	-0.03522355
170	0xbd15ab65	-0.036540408
171	0xbd90145f	-0.070351355
172	0x3d4d2a09	0.050088916
173	0xbcc70825	-0.024295876
174	0xbd94d4b3	-0.07267132
175	0x3d3a5d36	0.04549905
176	0xbb575136	-0.0032854802
177	0xbe78cd99	-0.2429718
178	0x3ce2b22b	0.027672848
179	0xbe14415c	-0.14478058
180	0xbe3a95ba	-0.18221179
181	0x3e574380	0.21021843
182	0xbe8589fc	-0.26081836
183	0xbcdfd0bd	-0.027321214
184	0xbdb743f9	-0.08948512
185	0xbd27fda4	-0.041013375
186	0x3b9777b4	0.004622424
187	0xbed9bdab	-0.42527518
188	0x3ddb4191	0.10705865
189	0x3f0e7d2f	0.55659765
190	0x3e6d6a20	0.23185015
191	0x3e2de5ea	0.16982237
192	0xbc9944cf	-0.018709568
193	0x3e461185	0.1934262
194	0xbca53fc5	-0.02017201
195	0xbc2e944d	-0.010655475
196	0xbdb0f67b	-0.086407624
197	0xbe0b209e	-0.13586661
198	0xbceffd91	-0.029295715
199	0x3bce83e0	0.006302342
200	0xbc4934f7	-0.012280694
201	0xbea8667b	-0.32890686
202	0x3d673c03	0.056453716
203	0x3e6091f6	0.2193068
204	0xbd26ade8	-0.040693194
205	0x3e3298e1	0.17441131
206	0x3d788dee	0.06068223
207	0xbc21d93d	-0.009878454
208	0x3e6731cc	0.2257759
209	0x3d291453	0.04127915
210	0x3c115cdc	0.008872237
211	0x3bb42bd4	0.005498389
212	0xbda034c9	-0.07822568
213	0x3d1fb6d3	0.038992714
214	0x3e6ec4cf	0.23317264
215	0x3d3089f4	0.043100312
216	0xbee4a1e3	-0.4465476
217	0xbd95694d	-0.07295475
218	0x3e140132	0.14453581
219	0xbc44ac52	-0.012003975
220	0x3d650a0f	0.055917796
221	0xbf24a368	-0.6431184
222	0xbf6cbfff	-0.9248046
223	0xbc603030	-0.013683364
224	0x3d59bf8b	0.053161185
225	0x3c66fd46	0.014098471
226	0x3d83bf5b	0.064329825
227	0x3d724716	0.059149824
228	0xbd151853	-0.03640015
229	0xbbc632ce	-0.006048537
230	0xbddb352a	-0.107034996
231	0x3d8c5f7d	0.068541504
232	0x3da35509	0.079752035
233	0x3dd2285f	0.102616064
234	0x3ed8ed30	0.4236846
235	0xbe8c9f9c	-0.27465522
236	0xbe69aa02	-0.22818759
237	0xbf12f7a1	-0.574091
238	0xbea6b68d	-0.3256115
239	0x3e67464a	0.22585407
240	0x3e322b17	0.1739925
241	0xbdefd124	-0.11709812
242	0xbd15a922	-0.03653825
243	0xbc933c8b	-0.017973205
244	0x3e43b164	0.19110638
245	0x3d89e9fa	0.067340806
246	0x3dfe53f2	0.12418355
247	0xbcc92d66	-0.02455778
248	0xba0377e9	-0.00050151214
249	0x3e986f04	0.29772198
250	0x3db9f135	0.0907921
251	0xbe0c4dcb	-0.1370155
252	0xbf2adc2a	-0.66742194
253	0x3e07c335	0.1325806
254	0x3d9efb19	0.07762737
255	0x3d3e39e0	0.046441913

output.4.bias f4 [128]
0	0x3e86fcd9	0.26364782
1	0x3ea1ac4d	0.31576768
2	0x3d5c4334	0.053775027
3	0xbd39bed0	-0.04534799
4	0xbcf7caea	-0.030248124
5	0x3e10ac5f	0.14128254
6	0xbfa4e407	-1.2882088
7	0xbee77b9e	-0.452115
8	0xbe897b32	-0.26851803
9	0x3e25d884	0.16195875
10	0xbe318eb8	-0.17339599
11	0x3ee09ab8	0.4386804
12	0xbe89cd69	-0.26914528
13	0xbe7e1756	-0.2481359
14	0x3c59a6df	0.013284414
15	0xbea52712	-0.3225637
16	0xbe98dd66	-0.29856414
17	0xbf3d1b9f	-0.7387027
18	0xbf4c2c26	-0.79754865
19	0xbeada7ab	-0.33916983
20	0xbe5d15e5	-0.21590383
21	0xbe316a7e	-0.1732578
22	0xbd3352cc	-0.043780133
23	0x3c9b815f	0.018982587
24	0x3e0f16b1	0.139735
25	0x3eb376ad	0.3505148
26	0xbea22bd1	-0.31674054
27	0xbcaf983c	-0.021434896
28	0x3f63405c	0.8877008
29	0x3d9be182	0.076113716
30	0xbd4d2a1f	-0.050088998
31	0x3f38b8ae	0.721568
32	0x3ea49c0f	0.32150313
33	0x3f115807	0.56774944
34	0xbeea4d43	-0.4576207
35	0xbef9bc9e	-0.48776716
36	0xbebce75e	-0.3689527
37	0xbe587f2e	-0.21142265
38	0xbdedfec5	-0.11620859
39	0xbee1e664	-0.44121087
40	0xbca39fa7	-0.01997359
41	0xbdcbddc0	-0.09954405
42	0xbd455051	-0.0481723
43	0x3e7d81dc	0.24756569
44	0x3cd6f9bc	0.02624213
45	0x3ecb40e2	0.3969794
46	0xbe59dd3f	-0.21275805
47	0x3e9d91e1	0.3077536
48	0x3d94300a	0.07235725
49	0xbe00390d	-0.12521763
50	0xbdaf0ae3	-0.08546998
51	0x3e1ca7e1	0.15298416
52	0xbe059999	-0.13046874
53	0x3e8663ef	0.26248118
54	0x3f019e05	0.50631744
55	0xbbd8fc1d	-0.006621851
56	0xbb2644b9	-0.0025370552
57	0xbf21ac6d	-0.63153726
58	0xbec7e945	-0.39045158
59	0xbe6a47ab	-0.22878902
60	0xbe1c1780	-0.1524334
61	0x3df5fbd3	0.12010922
62	0x3ec2ce07	0.3804781
63	0x3eb2e361	0.349391
64	0x3ccff6c5	0.025386224
65	0x3e9ee587	0.3103449
66	0x3dbfabc3	0.09358933
67	0xbd3bd3b2	-0.045856185
68	0x3d469de0	0.048490405
69	0xbe72572b	-0.23666064
70	0x3ebcc77f	0.36870953
71	0x3e935d0f	0.28781936
72	0x3e2bbf93	0.16772299
73	0xbc1bc32b	-0.009506981
74	0x3f1c085e	0.6095027
75	0x3f5b2bb8	0.85613585
76	0x3ed3f6be	0.41399187
77	0x3d3a3464	0.04546012
78	0x3adb3277	0.0016723414
79	0x3e8bf0fd	0.27332297
80	0xbed6008f	-0.417973
81	0x3f012763	0.50450724
82	0x3e87ae54	0.2650019
83	0x3dd3a0c5	0.10333399
84	0xbe1b3c3b	-0.15159695
85	0xbe0688f1	-0.13138177
86	0x3f021ab3	0.5082199
87	0xbd0b8b55	-0.034068424
88	0x3e405ae8	0.18784678
89	0xbc81a9ce	-0.01582804
90	0x3d3ae400	0.045627594
91	0x3ca6c5ea	0.020358045
92	0xbdd9053e	-0.10596703
93	0xbde7b336	-0.11313479
94	0x3e8798a0	0.2648363
95	0x3da86cbd	0.08223865
96	0xbdd1c0b5	-0.10241834
97	0xbdb722ba	-0.089421704
98	0x3efff4b5	0.49991384
99	0x3e1c3582	0.15254787
100	0xbe06c436	-0.13160786
101	0x3e7ca5cc	0.24672621
102	0xbc3cf534	-0.01153307
103	0xbe0e4d40	-0.13896656
104	0xbf1444e2	-0.57917607
105	0x3e7e0a93	0.24808721
106	0xbe7e188f	-0.24814056
107	0x3e3b8819	0.18313636
108	0x3e6934b3	0.2277401
109	0x3ed60aee	0.41805214
110	0x3f163fc1	0.5869103
111	0x3eb5bfb4	0.3549782
112	0x3e8bdcf4	0.2731701
113	0x3f0d1833	0.5511505
114	0x3df783be	0.12085675
115	0x3d3f3d89	0.046689544
116	0xbe4925dd	-0.1964335
117	0xbdff0e5d	-0.124539115
118	0x3d279156	0.040910088
119	0x3ec082a1	0.37599662
120	0xbe7600d9	-0.24023761
121	0xbf3558d0	-0.7083864
122	0xbf19a8f4	-0.60023427
123	0xbe3695a8	-0.17830527
124	0x3d84eecf	0.064908616
125	0x3c08b0d7	0.008342943
126	0x3d4f4237	0.050600257
127	0x3f5b2ef0	0.85618496

output.6.weight f4 [7, 128]
0	0x3da0ebf3	0.07857504
1	0xbe2b70de	-0.16742274
2	0x3cfd0ab7	0.030888898
3	0x3d8b1d4b	0.067926966
4	0xbea95640	-0.33073616
5	0x3e41c324	0.18922096
6	0xbf9505c5	-1.1642386
7	0x3eb35b02	0.3503037
8	0x3f4165a4	0.75545716
9	0x3f5d0992	0.8634273
10	0x3eb38d2e	0.3506865
11	0x3dd3b7ad	0.10337768
12	0x3f262c3f	0.64911264
13	0xbe825622	-0.2545634
14	0x3f156d18	0.5836959
15	0xbf4d2645	-0.8013652
16	0x3e659938	0.2242173
17	0xbee97889	-0.45599774
18	0x3f8ea6a8	1.114461
19	0xbf154743	-0.5831186
20	0xbed09358	-0.40737414
21	0xbea8d459	-0.32974508
22	0x3cbbbbf1	0.022916766
23	0x3e4eaa02	0.2018204
24	0xbe8eb8a9	-0.2787526
25	0x3e7d627f	0.24744605
26	0xbe25ce8a	-0.1619207
27	0x3eb1e3c1	0.34744075
28	0x3f7039b1	0.9383803
29	0x3e79d29e	0.2439675
30	0x397cc40d	0.00024105627
31	0xbf27c71e	-0.65538204
32	0xbea0fd23	-0.31443128
33	0x3e158c73	0.14604358
34	0xbf1273d5	-0.57207996
35	0xbee3d07a	-0.44494992
36	0xbe57a85d	-0.21060319
37	0xbd0b8e56	-0.03407129
38	0x3ed94d44	0.42441761
39	0x3d04b2ea	0.03239719
40	0xbd89b480	-0.06723881
41	0x3e2c1c8a	0.16807762
42	0x3e2792a5	0.16364534
43	0xbdf3ec4d	-0.11910305
44	0xbd4cc4ea	-0.04999248
45	0x3def694b	0.11690005
46	0x3ecb2b65	0.39681545
47	0x3eb8ed68	0.36118627
48	0x3e8717bc	0.26385295
49	0x3dc6bd8a	0.097041205
50	0xbeeee99c	-0.46662605
51	0xbf3a6fd2	-0.72826874
52	0x3efd9607	0.49528524
53	0x3ed09eff	0.40746304
54	0x3e41426f	0.18872999
55	0xbe317b29	-0.17332138
56	0xb95bdc94	-0.0002096764
57	0x3e5c4f8c	0.2151472
58	0xbd8657f4	-0.065597445
59	0xbeab682c	-0.33477914
60	0x3f2c5503	0.6731722
61	0x3e9e2a51	0.3089166
62	0x3f306a78	0.6891246
63	0xbf2c8324	-0.67387605
64	0x3d1ee404	0.03879167
65	0xbebe93ed	-0.37222233
66	0x3e82ad41	0.25522807
67	0x3c9abc94	0.01888875
68	0xbe3d8eb8	-0.18511474
69	0xbe308638	-0.172387
70	0xc0268970	-2.6021385
71	0x3ecaf36f	0.3963885
72	0xbd574b6a	-0.052562155
73	0x3ecf5118	0.40491557
74	0x3eda497e	0.42634195
75	0x3f3b9cf5	0.7328637
76	0xbe360291	-0.17774417
77	0xbca936e0	-0.02065605
78	0xbec684a8	-0.38773084
79	0xbd2aa005	-0.041656513
80	0xbfb5123a	-1.4146187
81	0x3ec4a5f4	0.38407862
82	0x3eada22d	0.33912793
83	0x3d331634	0.043722346
84	0x3d37c028	0.04486099
85	0xbf091a87	-0.535561
86	0x3e767013	0.2406619
87	0x3efe9965	0.49726406
88	0x3f1e8bf3	0.61932296
89	0xc03fc8fc	-2.996642
90	0x3cc0539f	0.023477374
91	0xbed739e4	-0.42036355
92	0x3ee7d0fc	0.4527663
93	0x3e05d55c	0.13069671
94	0x3e9737e2	0.29534823
95	0x3faf8592	1.3712637
96	0x3ecaf6d0	0.39641428
97	0x3d696ce5	0.056988616
98	0x3f06cfe1	0.5266095
99	0x3ec45869	0.38348702
100	0xbc5564f9	-0.013024562
101	0xbeee3af1	-0.46529344
102	0xbd2ee7e7	-0.042701628
103	0xbe233990	-0.15939927
104	0x3e2cdaff	0.16880415
105	0xbd179820	-0.037010312
106	0xbea91581	-0.3302422
107	0x3df168be	0.11787556
108	0xbf3675ab	-0.712733
109	0x3ea91710	0.33025408
110	0xbd8650d9	-0.06558389
111	0x3e89942c	0.2687086
112	0x3ebb2d62	0.36558062
113	0xbe80a756	-0.25127667
114	0xbe2710c2	-0.16314986
115	0x3c78b8d1	0.015180782
116	0x3ea0243a	0.3127764
117	0x3efaa452	0.4895349
118	0xbee78b60	-0.45223522
119	0x3fada4d2	1.3565924
120	0xbf78ff85	-0.9726489
121	0xbe06ffb4	-0.1318348
122	0x3eb8d2d5	0.36098352
123	0x3d2a0b37	0.0415146
124	0xbd37cc7a	-0.04487274
125	0xbe8b4db3	-0.27207717
126	0x3ea4272a	0.3206113
127	0xbd42a750	-0.047522843
128	0x3ddd5994	0.10808101
129	0xbebce8ef	-0.36896464
130	0x3ceaadf5	0.028647402
131	0xbeed52d0	-0.46352243
132	0xbaa4acc8	-0.00125637
133	0x3f1b8bc0	0.60760117
134	0xbe97bb25	-0.29634967
135	0x3f1bfa0a	0.60928404
136	0xbcd100db	-0.025513103
137	0x3fb0487d	1.3772122
138	0x3f0e199f	0.55507845
139	0xbf279563	-0.6546232
140	0xbf8a3daf	-1.0800074
141	0x3e237710	0.15963387
142	0xbe872ed7	-0.26402923
143	0xbe5ffb75	-0.21873267
144	0xbff2df1c	-1.8974338
145	0xbe670b15	-0.22562821
146	0xbf07f45a	-0.53107226
147	0x3f14d048	0.5813031
148	0xbcc5b3ce	-0.02413359
149	0xbc1064f4	-0.008813132
150	0xbdb02c99	-0.08602256
151	0x3ef68de0	0.48155117
152	0x3ee5b454	0.44864142
153	0x3dbea153	0.09308114
154	0xbc8e299a	-0.017353822
155	0xbf0a8b80	-0.5411911
156	0xbe3b0fa3	-0.18267684
157	0xbd29ae45	-0.041425962
158	0xbc61ed3e	-0.013789473
159	0x3dd91c58	0.10601109
160	0x3e9eef33	0.3104187
161	0x3f196ac3	0.5992853
162	0xbe12c228	-0.14331877
163	0x3ecdc854	0.401919
164	0x3e6fb9ed	0.23410769
165	0x3f722365	0.9458526
166	0x3f064a8a	0.5245749
167	0x3e87b162	0.2650252
168	0x3cbcda82	0.023053411
169	0x3f5a095e	0.85170543
170	0xbf06a11c	-0.52589583
171	0x3dbcf8e5	0.0922716
172	0xbdaeb428	-0.08530456
173	0x3e374005	0.17895515
174	0xbe229b2a	-0.15879503
175	0xbe1b6aa9	-0.15177406
176	0x3e8f5d02	0.28000647
177	0xbf649c63	-0.8930113
178	0xbeb587eb	-0.3545526
179	0xbebc79f1	-0.36811784
180	0x3f2ea175	0.68215114
181	0x3f4f4b91	0.8097468
182	0x3f9f18f2	1.2429488
183	0xbf6df8d5	-0.9295781
184	0x3c8ee83c	0.017444722
185	0xbe8bf35a	-0.273341
186	0xbf5c4712	-0.86045945
187	0xbeb024ba	-0.3440302
188	0xbee09cd6	-0.43869656
189	0xbf9ddbd7	-1.2332715
190	0xbf6b00d5	-0.91798145
191	0xbec35cb7	-0.38156673
192	0x3d4967db	0.04917131
193	0x3ed163b5	0.40896383
194	0x3f5b0476	0.8555368
195	0xbe27249b	-0.16322558
196	0x3ea593ee	0.32339424
197	0x3efd60d9	0.4948795
198	0xc0184edc	-2.3798132
199	0x3eecba3b	0.46235833
200	0xbee61ca5	-0.4494373
201	0x3d2ac9d4	0.041696385
202	0x3dd6a5bf	0.10480832
203	0x3f0c03ce	0.54693305
204	0xbecf5706	-0.4049608
205	0xbd4f96ac	-0.0506808
206	0x3f06849e	0.5254611
207	0xbf3c60a6	-0.73584974
208	0x3fa235a5	1.2672621
209	0x3eb5b430	0.35489035
210	0xbeccc1ca	-0.399916
211	0xbe6c6a53	-0.23087434
212	0x3f0a535f	0.54033464
213	0xbeac6108	-0.3366778
214	0x3ecb0987	0.39655706
215	0x3ee86a10	0.4539342
216	0xc03e7128	-2.9756565
217	0x3e186737	0.14883123
218	0x3ce2007b	0.02758812
219	0x3e8eaf6a	0.27868205
220	0x3f2e7916	0.6815351
221	0x3e2cff16	0.16894183
222	0xbc5079cf	-0.012724354
223	0xc0003024	-2.0029383
224	0xbc182a84	-0.00928748
225	0x3d1b0a88	0.03785184
226	0x3ef280ce	0.47363895
227	0xbf039704	-0.51402307
228	0xbb410e88	-0.0029458124
229	0xbe91fcee	-0.28513283
230	0xbcb4e36e	-0.022081103
231	0xc0274fe0	-2.6142502
232	0xbf86928f	-1.0513476
233	0xbe9bf060	-0.3045683
234	0x3dc9a71d	0.098463275
235	0xbd9e5692	-0.07731356
236	0x3fe17c78	1.761611
237	0xbfae8c17	-1.3636502
238	0xbe9674d3	-0.29386005
239	0x3f0c4e44	0.54806924
240	0x3ea6cde9	0.32578972
241	0xbf35e8ee	-0.7105855
242	0x3e59f6a3	0.2128549
243	0x3d3ad3d7	0.045612182
244	0x3e7c6890	0.24649262
245	0xbe0e9e5b	-0.13927595
246	0xbebb74c0	-0.3661251
247	0x3e56ddb8	0.20983016
248	0x3e8b71ca	0.27235252
249	0x3f448876	0.7677072
250	0xbfcff144	-1.6245503
251	0x3d2a04b6	0.0415084
252	0xbd3e96d4	-0.04653056
253	0xbdd3692e	-0.10322796
254	0xbdd2cf1c	-0.10293409
255	0x3d6fd1de	0.058549754

output.6.bias f4 [7]
0	0x3ed99339	0.42495134
1	0xbc2afb7a	-0.010435933
2	0xbf4209cc	-0.757962
3	0x3e9e365f	0.30900857
4	0xbbf103ec	-0.007355204
5	0xbda67876	-0.08128445
6	0x3b055f67	0.0020351054
