output/models/72.42Acc_H1_FourLayers128_128_128_128Units_ReLU_CrossEntropyLoss_Adam_0.001lr_7268epochs_10batches.pth (torch, 210635 bytes, 10 tensors)

output.0.weight f4 [128, 6]
-0.24793816 -0.54188603 -0.13809457 0.5751145 -0.7083541 0.16877224 0.5049265 0.13454208
-0.33074695 -0.9112799 2.7107494 0.056136865 0.1155716 -0.07749795 0.17632253 -0.7690123
-2.099394 0.3538345 -0.5441389 0.2530928 0.10201707 0.1945085 1.2526748 -1.87739
-0.021279622 0.19894531 0.060897812 -0.08260881 -3.382052 0.82081205 -0.08503167 0.35471892
-0.26419348 0.64817566 3.532744 0.52935547 -0.2566095 0.3091339 0.035990763 0.017092688
-0.6582584 0.15727377 -0.14869031 0.37097466 0.020402597 -0.0017463686 1.5117501 -0.031066526
-0.4018699 0.23213515 0.25332326 -0.63263404 -0.09955169 -0.7449039 0.42622456 -0.8447006
-0.029548429 0.062528655 -1.4465103 0.9175369 0.27479944 0.4581706 0.076763496 -0.32609808
0.06930763 0.7218981 0.04826904 -0.23047377 -0.038964983 -0.13984099 0.2938235 0.32929137
-0.05404925 0.013583898 0.17165117 -0.46265456 2.3941665 -2.8469326 0.08288407 -0.18269004
-0.26392376 -0.26397404 -0.07389654 -0.29965615 0.031403255 -0.027733954 -0.30625325 0.46019542
0.8949317 1.0366104 -0.17965938 0.004951974 0.10711926 -0.08499407 0.9195071 -1.2910975
0.26029527 0.12165687 0.14262092 -0.6761578 1.6901194 2.243547 -0.9358477 0.24590848
0.1730945 -0.1529891 0.64793134 2.8090875 0.617301 0.17001235 -0.45892835 0.39874354
-1.7729743 0.22724529 -0.21454814 -0.234675 -0.20161454 0.21124895 0.33931035 -0.014717384
0.18186583 -0.32924828 0.13273022 -0.053684615 1.1129109 3.6261759 -0.15804169 0.42226347
0.0051614456 0.44458336 0.20483805 -1.6999996 -0.37926322 -0.021164058 -0.16948733 0.08784299
0.36401498 0.09969292 -0.6328482 -0.49487484 0.29114673 -0.19361536 -0.31981903 -1.1768181
0.077561885 -0.016668804 0.15496378 -0.31620672 0.04945805 2.3043518 -0.46573687 0.33088902
0.14282215 -0.20538443 1.6807442 1.8146172 -0.36384705 -1.0052787 0.24760932 -0.51058185
-0.607222 -0.40188468 -0.042842086 -0.21108703 -0.3699412 0.045952637 0.18964145 -0.19405971
-0.30689982 -0.52873147 0.2521855 0.08557418 -1.6944884 0.49291486 0.6018368 -0.37690273
-0.2077905 0.16927978 -0.048898716 -0.050340224 -0.32696295 -0.07247483 -0.28734705 0.19822684
0.13938144 -0.07088143 0.58019114 -0.37100008 0.023147829 0.12916921 -0.7491694 0.26029
-0.5136659 -1.2973242 -0.006866143 0.64025176 1.3186177 0.7937891 -0.15690644 -0.010612205
0.069327354 -0.07940993 -1.5559137 -1.9340641 -0.043058656 -0.06209076 -0.086083435 -0.057528324
0.22544326 -0.3821613 -0.29949304 -0.18056197 -0.057717495 -0.074099876 -0.18845844 -0.14297861
0.45642713 0.5950478 -0.079933 -0.67138416 -2.348242 -2.017782 0.33324707 0.16213791
-0.5091325 0.2948082 1.2021778 -0.1569128 0.5659964 -0.4012886 -0.16748832 -0.24004681
-2.1138864 0.002320518 0.12628305 -0.22505935 -0.2795761 0.5348592 1.4403123 -0.86861986
0.042543348 0.0064341016 0.11510825 0.11375718 -0.08859402 0.5997053 -0.0867796 0.21526675
0.08222001 0.2138636 -1.3869364 1.0605505 -0.14829062 -0.2582933 0.2668264 -0.4003671
00000000: 80e3 7dbe 0bb9 0abf aa68 0dbe b43a 133f
00000010: b256 35bf a1d2 2c3e dd42 013f 66c5 093e
00000020: aa57 a9be a449 69bf eb7c 2d40 c5ef 653d
00000030: ceb0 ec3d 3fb7 9ebd e58d 343e fddd 44bf
00000040: 795c 06c0 cc29 b53e b04c 0bbf 6195 813e
00000050: 53ee d03d 3c2d 473e a657 a03f 514e f0bf
00000060: 9a52 aebc 52b8 4b3e fc6f 793d cf2e a9bd
00000070: 8a73 58c0 bd20 523f 1625 aebd b89d b53e
00000080: 5e44 87be d7ee 253f 7a18 6240 d783 073f
00000090: 5262 83be cc46 9e3e 0d6b 133d f705 8c3c
000000a0: 9f83 28bf 600c 213e 4642 18be 64f0 bd3e
000000b0: 5923 a73c 68e6 e4ba 0781 c13f 3a7f febc
000000c0: e4c1 cdbe d6b4 6d3e 96b3 813e 4ef4 21bf
000000d0: c2e1 cbbd 06b2 3ebf 1b3a da3e 4c3e 58bf
000000e0: 8c0f f2bc 060f 803d 4027 b9bf b3e3 6a3f
000000f0: 83b2 8c3e 5695 ea3e 2e36 9d3d 54f6 a6be
00000100: 29f1 8d3d 50ce 383f c2b5 453d 5101 6cbe
00000110: bf99 1fbd 7a32 0fbe 0970 963e e198 a83e
00000120: bf62 5dbd ff8e 5e3c 53c5 2f3e 0fe1 ecbe
00000130: 063a 1940 2534 36c0 20bf a93d 1913 3bbe
00000140: 0421 87be 9b27 87be 1257 97bd 886c 99be
00000150: b3a0 003d 5132 e3bc 3acd 9cbe bc9e eb3e
00000160: 3e1a 653f a6af 843f a1f8 37be 2b44 a23b
00000170: 5861 db3d 5f11 aebd d164 6b3f af42 a5bf
00000180: 6c45 853e 3d27 f93d 380b 123e ad18 2dbf
00000190: d555 d83f 4696 0f40 b793 6fbf 6fcf 7b3e
000001a0: af3f 313e 2da9 1cbe d4de 253f 17c8 3340
000001b0: 7007 1e3f b817 2e3e a8f8 eabe 1d28 cc3e
000001c0: d2f0 e2bf fdb2 683e 82b2 5bbe a54e 70be
000001d0: 0b74 4ebe a551 583e 16ba ad3e 2f21 71bc
000001e0: 093b 3a3e 3b93 a8be 6eea 073e 66e4 5bbd
000001f0: dd73 8e3f 4413 6840 aed5 21be eb32 d83e
00000200: 5821 a93b 6ea0 e33e 11c1 513e 9699 d9bf
00000210: ca2e c2be 3f60 adbc 168e 2dbe 07e7 b33d
00000220: 2c60 ba3e cd2b cc3d 5702 22bf 3c60 fdbe
00000230: 2f11 953e 1b43 46be 52bf a3be faa1 96bf
00000240: c4d8 9e3d 048d 88bc d3ae 1e3e d9e5 a1be
00000250: 8694 4a3d 807a 1340 1075 eebe 496a a93e
00000260: f83f 123e 4c50 52be a022 d73f 6045 e83f
00000270: 294a babe f9ac 80bf 4c8d 7d3e 7eb5 02bf
00000280: e772 1bbf d4c3 cdbe 2f7b 2fbd 3327 58be
00000290: ef68 bdbe d538 3c3d 5e31 423e 97b7 46be
000002a0: f921 9dbe f25a 07bf 751e 813e 8441 af3d
000002b0: ffe4 d8bf 565f fc3e fa11 1a3f 65f9 c0be
000002c0: 08c7 54be ae57 2d3e 054a 48bd 8d31 4ebd
000002d0: b067 a7be af6d 94bd 271f 93be fafb 4a3e
000002e0: 02ba 0e3e 482a 91bd 6887 143f b9f3 bdbe
000002f0: 84a0 bd3c ef44 043e 91c9 3fbf bb44 853e
00000300: 9c7f 03bf b80e a6bf 62fd e0bb 8ae7 233f
00000310: 77c8 a83f c335 4b3f 15ac 20be d0de 2dbc
00000320: 80fb 8d3d aca1 a2bd 2e28 c7bf 6a8f f7bf
00000330: 465e 30bd e152 7ebd 834c b0bd d2a2 6bbd
00000340: 99da 663e a5aa c3be 2757 99be 3de5 38be
00000350: 2e69 6cbd adc1 97bd 40fb 40be fc68 12be
00000360: d1b0 e93e 0d55 183f eab3 a3bd d5df 2bbf
00000370: 9949 16c0 5723 01c0 5c9f aa3e 7b07 263e
00000380: 8256 02bf 1af1 963e f6e0 993f c0ad 20be
00000390: 24e5 103f b375 cdbe 0f82 2bbe d5ce 75be
000003a0: ea49 07c0 d513 183b 5850 013e f575 66be
000003b0: 9924 8fbe 88ec 083f 275c b83f df5d 5ebf
000003c0: ef41 2e3d 28d5 d23b e0bd eb3d 86f9 e83d
000003d0: c870 b5bd 4986 193f 81b9 b1bd e36e 5c3e
000003e0: f762 a83d 0fff 5a3e 2287 b1bf 1ec0 873f
000003f0: 7fd9 17be 053f 84be 789d 883e ebfc ccbe

output.0.bias f4 [128]
1.3366996 0.28802356 0.33145955 0.37693334 1.2957666 1.26788 0.9175819 1.0428255
-0.41585833 0.57160676 -1.1447201 0.32596713 0.46868542 -0.30038416 -0.14022735 -1.2388145
0.4167852 -2.0409417 0.049932294 0.38509843 -0.6806295 -0.6150014 0.09018397 0.6525325
-0.9024108 0.04625801 0.22701582 -0.15994558 0.959413 0.59971875 0.12303726 -0.3782495
0.8749653 0.93230224 0.1943305 -0.2952757 -0.7285885 0.49365965 -0.30329114 -0.06407069
-1.2821367 -1.2419832 0.19563228 -0.09431635 -1.1362536 0.82435197 1.1836782 0.3565996
1.3860343 0.72718805 0.46078354 -0.17899495 -0.62916803 -0.31221157 1.1600792 0.19872937
0.6506991 -0.07286787 0.15716034 -0.4537894 -0.07012621 -0.42998415 -0.32152945 0.050759476
-0.113792375 -0.46594855 0.06454622 -0.023046546 0.1823082 1.0094589 0.98415977 0.6564634
1.5225558 0.4110428 -0.22802354 1.2259711 0.53593904 -0.30869272 -0.7444528 0.018603286
0.00032314326 -0.5871208 -0.78522986 1.260844 -0.9496996 -0.46231088 -0.3018598 -0.022220736
-0.65118414 -0.08293409 0.21397875 0.38063592 -0.72825545 0.45037293 -0.43713358 -0.45139858
-0.36822104 0.08953592 1.239975 0.39626318 -0.4459692 -0.16327396 -0.89089215 0.24872886
0.21397737 -0.00677004 0.2994126 0.22998182 -0.28865135 -0.122916944 1.2740439 -0.9135074
-0.31699082 0.13907464 -1.4261557 0.13222542 -0.60686356 -0.6245574 -0.5775657 -1.3721628
1.118415 -0.14248376 -1.4022875 1.1232189 0.59796226 -1.0856819 -1.3430771 0.83785945
00000000: f918 ab3f d377 933e 11b5 a93e 68fd c03e
00000010: aedb a53f e449 a23f a6e6 6a3f 4e7b 853f
00000020: 62eb d4be d254 123f 3086 92bf 2ae5 a63e
00000030: 89f7 ef3e f4cb 99be c297 0fbe 7991 9ebf
00000040: df64 d53e ca9e 02c0 ce85 4c3d 9f2b c53e
00000050: bc3d 2ebf bb70 1dbf 60b2 b83d 5f0c 273f
00000060: 6504 67bf 0a79 3d3d d676 683e c6c8 23be
00000070: 179c 753f 2b87 193f f5fa fb3d eba9 c1be
00000080: bafd 5f3f 5cab 6e3f 93fe 463e 602e 97be
00000090: c784 3abf f5c0 fc3e fa48 9bbe 7e37 83bd
000000a0: 0e1d a4bf 4ef9 9ebf d453 483e ee28 c1bd
000000b0: c270 91bf bb08 533f c482 973f 3994 b63e
000000c0: 9269 b13f ff28 3a3f d2eb eb3e 744a 37be
000000d0: 2811 21bf 32da 9fbe 7a7d 943f b67f 4b3e
000000e0: 3794 263f c03b 95bd a4ee 203e 1657 e8be
000000f0: 559e 8fbd e226 dcbe 829f a4be 2be9 4f3d
00000100: fa0b e9bd cf90 eebe cf30 843d 1ccc bcbc
00000110: 00af 3a3e f335 813f e5f1 7b3f fc0d 283f
00000120: 1ce3 c23f 3474 d23e 017f 69be 9fec 9c3f
00000130: 4d33 093f f90c 9ebe 7594 3ebf eb65 983c
00000140: 8e6b a939 8c4d 16bf d304 49bf 5663 a13f
00000150: 831f 73bf 03b4 ecbe 5e8d 9abe 4308 b6bc
00000160: 01b4 26bf 59d9 a9bd 3f1d 5b3e b6e2 c23e
00000170: f36e 3abf 4897 e63e f9cf dfbe b71d e7be
00000180: 7887 bcbe 9c5e b73d 80b7 9e3f 02e3 ca3e
00000190: 1356 e4be 4a31 27be 8211 64bf c7b2 7e3e
000001a0: e21c 5b3e 36d7 ddbb 9c4c 993e 5b80 6b3e
000001b0: 1cca 93be e1bb fbbd df13 a33f 9fdb 69bf
000001c0: 9f4c a2be 9569 0e3e 458c b6bf 1a66 073e
000001d0: 695b 1bbf fee2 1fbf 59db 13bf 08a3 afbf
000001e0: 3928 8f3f 43e7 11be 287e b3bf a3c5 8f3f
000001f0: 0e14 193f a0f7 8abf f3e9 abbf f57d 563f

output.2.weight f4 [128, 128]
0.43209955 -0.17888373 -0.11126706 0.06941185 -0.07456217 0.07040204 0.0077310964 0.048596647
-0.6413295 -0.27574563 -0.03994096 -0.08543241 -0.49283588 -0.0094441185 -0.85266113 0.03461485
-0.10260363 -0.972925 0.14960447 -0.08563154 -0.024299594 -0.055782296 -0.07499866 0.124649115
-0.02325101 -0.35967338 -0.04543229 0.083682306 0.116356246 0.27268153 0.021679843 -0.119458534
0.39963028 -0.109975435 0.022183899 0.037689146 0.02891332 0.014663807 0.47757542 -0.07651109
-0.17379758 -0.12462927 -0.10543451 0.1939207 -0.11893122 -0.51068014 -0.033182465 0.06353954
0.14578405 -0.039995078 -0.07515931 -0.045797396 -0.06682112 -0.005243368 0.22164084 -0.05534787
0.27780387 0.08607072 -0.059905466 -0.10070145 -0.033226497 0.26329482 0.2447079 0.0031032935
0.028135508 -0.10928947 -0.50664455 -0.019623814 -0.06025718 -0.12116407 0.15491106 -2.0142734
-0.020922124 -0.11066492 0.022328354 0.19839066 -0.21132188 -0.21277094 -0.052456643 0.021175323
-0.14025228 0.16313854 -0.17727706 0.31006327 -0.28358856 0.16329983 0.061488014 -0.08624945
-0.16646966 -0.012890986 -0.12407913 0.7457201 0.07465541 0.32713297 -0.04804395 -0.027981797
-0.12677634 0.012730108 -0.07388179 -0.08265045 0.010543348 0.06224572 -0.16437079 -0.015327744
0.010717723 -0.3715356 -0.07774457 -0.022706201 -0.07787732 0.23991399 0.08843119 -0.05183595
0.02706346 -0.024371512 -1.6176419 -0.7392704 -0.08027533 -0.2623865 0.13347065 0.6191311
0.046988886 -0.086846426 -0.67407477 0.040576167 0.22858591 -0.04996477 -0.0977812 -0.982403
0.41380996 0.019953797 -0.4228914 0.09985771 -0.755274 0.055628315 -0.27092034 -0.23088826
-0.43582442 0.35856768 -0.10689416 -0.025891546 -0.26525006 0.08087275 -0.81652063 0.57806945
0.01215971 -0.52185905 -0.100045554 0.025501868 -0.10100458 -0.0311099 -0.009312252 -0.16203713
-0.13546321 -0.5347279 0.046480075 -0.083491966 0.074179895 -0.025969313 -0.0834958 -0.0148829855
0.24236843 -0.0028604646 -0.083020166 -0.058756415 0.18583307 0.8455063 0.07850969 0.012525549
-0.0039074416 -0.06161656 -0.30187097 0.15248366 0.09616827 -0.33060533 0.46117702 -0.07809667
0.15075576 0.19226043 -0.07834467 0.06544799 -0.02253874 0.016524136 0.13844034 0.052044246
-0.9289206 0.14712262 -0.18671466 -0.20774178 0.066895805 0.5858658 0.2694593 -0.037226595
-0.05885665 -0.3243461 -0.65842366 -0.017153924 0.06877748 -0.06806313 0.15357517 -2.1322849
0.055175394 0.041123405 -0.07339079 -0.82088053 -0.118304275 -0.041399512 0.062163416 0.15417463
-0.039599556 0.30631635 0.05002529 0.22432667 -1.4042025 -0.16387077 -0.07249322 -0.094474204
-0.119903274 0.36213833 0.07910493 0.67725164 -0.19978338 0.2096611 -0.16113596 -0.033514496
-0.15910302 -0.007273703 -0.0093646925 0.01338941 0.1116544 -0.073800415 -0.008005014 0.00044129856
0.039192922 -0.06469099 -0.04292763 -0.0052519785 0.08658226 -0.14581802 0.10220967 -0.05520941
-0.07572131 0.016601507 -1.5789729 -0.4711314 -0.31759438 -0.068970926 -0.30057353 0.83299285
0.007946439 -0.08551687 -0.97253644 0.08695948 0.5298504 -0.08734263 -0.048258718 -0.693706
00000000: 273c dd3e 4c2d 37be fcdf e3bd cd27 8e3d
00000010: 0db4 98bd f22e 903d 2355 fd3b 470d 473d
00000020: 2c2e 24bf 882e 8dbe 2299 23bd 30f7 aebd
00000030: fc54 fcbe 81bb 1abc 0048 5abf 4dc8 0d3d
00000040: da21 d2bd 9d11 79bf ea31 193e 975f afbd
00000050: f10f c7bc fa7b 64bd e698 99bd 0948 ff3d
00000060: e778 bebc 1c27 b8be 3517 3abd a161 ab3d
00000070: 2f4c ee3d ea9c 8b3e ed99 b13c ada6 f4bd
00000080: 579c cc3e cd3a e1bd 02bb b53c ef5f 1a3d
00000090: a0db ec3c 7740 703c c484 f43e d9b1 9cbd
000000a0: fef7 31be a13d ffbd 0cee d7bd 2693 463e
000000b0: 3692 f3bd efbb 02bf 56ea 07bd 0521 823d
000000c0: 6a48 153e e1d1 23bd 20ed 99bd 0d96 3bbd
000000d0: 83d9 88bd 8fd0 abbb d1f5 623e 73b4 62bd
000000e0: 4f3c 8e3e d845 b03d 6f5f 75bd 903c cebd
000000f0: 8218 08bd 94ce 863e b594 7a3e a060 4b3b
00000100: 707c e63c 28d3 dfbd 75b3 01bf 1fc2 a0bc
00000110: 3cd0 76bd de24 f8bd 01a1 1e3e dbe9 00c0
00000120: e064 abbc 4aa4 e2bd f4e9 b63c ec26 4b3e
00000130: c364 58be a0e0 59be c7dc 56bd df77 ad3c
00000140: 4b9e 0fbe ca0d 273e 1e88 35be 9dc0 9e3e
00000150: 8532 91be 1238 273e dbda 7b3d 8da3 b0bd
00000160: 0677 2abe b734 53bc 331d febd 83e7 3e3f
00000170: f0e4 983d f97d a73e bcc9 44bd 153a e5bc
00000180: a8d1 01be f191 503c 564f 97bd a444 a9bd
00000190: 02be 2c3c 5ef5 7e3d d150 28be 3821 7bbc
000001a0: 6399 2f3c ea39 bebe 8c38 9fbd 5b02 babc
000001b0: 257e 9fbd 03ac 753e 691b b53d ef51 54bd
000001c0: 30b4 dd3c c4a6 c7bc e40e cfbf d340 3dbf
000001d0: 6467 a4bd 8657 86be 88ac 083e 607f 1e3f
000001e0: 6b77 403d 8adc b1bd 2a90 2cbf 3233 263d
000001f0: 6d12 6a3e dca7 4cbd 8341 c8bd c37e 7bbf
00000200: e6de d33e 2576 a33c 3985 d8be 3382 cc3d
00000210: a359 41bf 84da 633d 12b6 8abe f96d 6cbe
00000220: 6124 dfbe 2f96 b73e 53eb dabd 821a d4bc
00000230: dbce 87be 9da0 a53d 7f07 51bf 5cfc 133f
00000240: 8539 473c 8e98 05bf afe4 ccbd 4be9 d03c
00000250: 7ddb cebd 30da febc 6a92 18bc 10ed 25be
00000260: deb6 0abe ede3 08bf e461 3e3d d6fd aabd
00000270: a1eb 973d 99bd d4bc d9ff aabd c4d7 73bc
00000280: 6e2f 783e a276 3bbb 7a06 aabd 91aa 70bd
00000290: 064b 3e3e 1a73 583f b0c9 a03d f637 4d3c
000002a0: ff09 80bb a561 7cbd d58e 9abe ad24 1c3e
000002b0: dff3 c43d 1a45 a9be 651f ec3e 26f1 9fbd
000002c0: b85f 1a3e ebdf 443e 2c73 a0bd 9909 863d
000002d0: 2aa3 b8bc a05d 873c 4ec3 0d3e 592c 553d
000002e0: becd 6dbf 50a7 163e 2132 3fbe 43ba 54be
000002f0: ab00 893d 4dfb 153f 92f6 893e ea7a 18bd
00000300: ac13 71bd b110 a6be 748e 28bf 6386 8cbc
00000310: 35db 8c3d af64 8bbd cf42 1d3e 5b77 08c0
00000320: 98ff 613d 0471 283d e94d 96bd 3a25 52bf
00000330: 8349 f2bd 8992 29bd 119f 7e3d f4df 1d3e
00000340: 2533 22bd 7fd5 9c3e 52e7 4c3d e4b5 653e
00000350: e8bc b3bf bdcd 27be 5377 94bd b17b c1bd
00000360: d98f f5bd 326a b93e c401 a23d 5d60 2d3f
00000370: 0494 4cbe 66b1 563e d300 25be 7f46 09bd
00000380: e7eb 22be 3e58 eebb 5e6e 19bc 425f 5b3c
00000390: 10ab e43d ac24 97bd 7627 03bc 175e e739
000003a0: c288 203d b67c 84bd e2d4 2fbd ca18 acbb
000003b0: 0a52 b13d 5251 15be 4e53 d13d 4323 62bd
000003c0: c613 9bbd e2ff 873c c91b cabf 2338 f1be
000003d0: bb9b a2be a140 8dbd c6e4 99be 053f 553f
000003e0: c831 023c 7823 afbd 26f8 78bf d017 b23d
000003f0: 47a4 073f b1e0 b2bd efaa 45bd b796 31bf

output.2.bias f4 [128]
0.35010546 -0.23117833 -0.39634204 0.8111259 0.12518884 1.1681472 -0.8731019 -0.010321617
0.68526125 -0.020055417 -0.09491143 -0.35762456 0.18180998 -0.91830814 -0.70899886 -0.6234482
0.2693313 0.0077160452 -0.97110254 -0.32254854 -0.24261306 -0.15678297 -0.06973613 -0.19331186
-0.21060106 0.29873785 -0.02553514 0.11751611 -0.2520749 -0.052573692 0.009188116 -0.08869923
-0.10344415 -0.041451726 0.056255843 0.9235418 -0.035238482 0.005808355 1.3840368 0.12734264
-0.05517086 0.63818717 -0.65498567 0.043596055 -0.5505511 -0.03312608 -0.11860177 0.024356738
-0.14656845 0.0194193 0.23197566 0.8239549 -0.033959195 0.9072713 -0.008865162 0.40893498
0.3187149 0.020367948 0.042806003 -0.08874875 -0.0621533 -0.4904105 0.067181334 -0.26723906
-0.068973705 -0.8977941 -1.0640069 0.7001716 0.7041967 -0.07734103 0.06485404 -0.04032646
-0.5610296 1.0889883 0.038203754 -0.06973686 0.88959146 0.08564622 -1.0512553 0.45396385
0.06228499 0.44866395 0.669085 -1.1099975 -0.5622972 -0.08084787 -0.12641002 -0.50729334
0.35946316 0.2586653 0.289263 -0.47735766 -0.10592809 -0.22998846 1.2026429 0.2705453
-0.5027577 0.045442976 0.7774949 -1.4041872 -0.4639251 -0.046219423 -0.0010252468 -0.076838724
-0.009474773 0.07471551 0.6316198 -0.085220344 -0.063654 -0.033420786 -0.55228215 -0.079117015
-0.19186443 -1.2847873 -0.10311716 -0.071765095 1.2583126 0.9155241 -0.77822244 0.2850947
-0.04763907 1.2816515 -1.1165482 -0.009989319 0.056879785 -0.075635344 0.33738208 -0.6642295
00000000: 0641 b33e 03ba 6cbe 58ed cabe f2a5 4f3f
00000010: 8131 003e d985 953f 9b83 5fbf 001c 29bc
00000020: 486d 2f3f 424b a4bc ec60 c2bd 911a b7be
00000030: 652c 3a3e 3e16 6bbf f380 35bf 4d9a 1fbf
00000040: cbe5 893e e1d6 fc3b 2d9a 78bf 1525 a5be
00000050: 8f6f 78be b78b 20be d1d1 8ebd 8bf3 45be
00000060: cea7 57be 2bf4 983e 122f d1bc 49ac f03d
00000070: f60f 81be 8357 57bd c089 163c f1a7 b5bd
00000080: 87da d3bd 49c9 29bd 876c 663d 3c6d 6c3f
00000090: 3a56 10bd 0354 be3b 1e28 b13f 1c66 023e
000000a0: d7fa 61bd 3c60 233f 24ad 27bf c791 323d
000000b0: ebf0 0cbf 36af 07bd 7ce5 f2bd c887 c73c
000000c0: 0a16 16be 3915 9f3c 078b 6d3e b5ee 523f
000000d0: cc18 0bbd ef42 683f 2f3f 11bc ed5f d13e
000000e0: 992e a33e afda a63c 5955 2f3d e8c1 b5bd
000000f0: 7594 7ebd 1617 fbbe 5e96 893d 8fd3 88be
00000100: 1642 8dbd d6d5 65bf 6131 88bf 723e 333f
00000110: 3c46 343f f964 9ebd 32d2 843d 5c2d 25bd
00000120: a39f 0fbf f863 8b3f 8a7b 1c3d 33d2 8ebd
00000130: 44bc 633f 4967 af3d 898f 86bf f36d e83e
00000140: 8c1e 7f3d 48b7 e53e 2849 2b3f 6614 8ebf
00000150: b6f2 0fbf 9193 a5bd a171 01be fadd 01bf
00000160: 8e0b b83e c76f 843e 481a 943e 3968 f4be
00000170: d4f0 d8bd 1882 6bbe 34f0 993f ea84 8a3e
00000180: bbb4 00bf 6a22 3a3d e809 473f 68bc b3bf
00000190: 9787 edbe 9450 3dbd 9361 86ba 9f5d 9dbd
000001a0: 143c 1bbc 7204 993d d6b1 213f 0188 aebd
000001b0: 075d 82bd 3ce4 08bd 5d62 0dbf 1a08 a2bd
000001c0: 1c78 44be e973 a4bf 172f d3bd 94f9 92bd
000001d0: 6310 a13f ca5f 6a3f 9639 47bf eff7 913e
000001e0: 2f21 43bd 280d a43f 0deb 8ebf 3eaa 23bc
000001f0: c7fa 683d b4e6 9abd 58bd ac3e f20a 2abf

output.4.weight f4 [128, 128]
0.02276694 -0.08783058 0.0039046528 0.0351091 -0.0075785415 0.024660662 -0.067659415 0.027754268
0.033790722 0.07440186 -0.07549493 -0.078744166 -0.0983526 -0.0101245465 -0.11581421 -0.10071718
-0.057636417 0.057144694 -0.028770912 -0.07595281 -0.026743703 -0.08707379 0.04133394 -0.032158762
-0.07990964 -0.015059298 -0.08942093 -0.01865819 -0.03198636 0.04574972 -0.05731413 -0.06478101
-0.015577186 0.06918455 0.012673188 -0.105876684 -0.040232103 -0.00090923393 0.007795177 -0.001555896
0.023612065 0.024020579 -0.020405857 0.02568826 -0.020098206 0.058665358 -0.077367686 -0.07976499
0.015020682 0.043689717 -0.06257321 -0.054872595 -0.04329736 -0.06549591 -0.0031231972 -0.09304761
0.045510784 -0.032162156 0.04155672 0.005996429 0.06379883 -0.11085059 -0.018886741 -0.06933406
0.01575734 -0.09782283 -0.10230792 -0.044985324 0.023180272 -0.02113596 0.060669497 -0.02757298
-0.105266355 -0.08017799 -0.11284053 0.065013506 -0.04288057 -0.020812303 -0.06824036 0.03596412
-0.058218 0.023043897 0.000674988 -0.07015926 -0.049798068 0.08130572 0.082351364 -0.052947316
-0.009680641 -0.013924927 0.024522495 -0.09355295 0.059128836 0.01542147 -0.12309202 0.021647237
-0.10845005 0.0751247 -0.03879381 -0.057096504 -0.056584734 -0.077469885 -0.048334043 -0.087202914
0.0806621 -0.046439864 0.012614189 0.02737306 -0.06321537 0.040466327 0.036163993 0.027330725
-0.086164095 0.006745476 0.017242422 -0.09900755 0.036175445 -0.0969017 -0.04969858 -0.03135854
0.073083565 0.014866024 -0.07895739 -0.036214106 0.009744878 -0.047833297 -0.037607443 -0.091535695
0.15602005 0.037600163 -0.266945 0.17658173 0.13377368 0.18736054 0.106744014 0.08998557
-0.15639718 -0.020469693 -0.033394717 -0.032487586 -0.18701515 -0.0677674 0.63403356 -0.19648537
-0.031859096 -0.044666637 -0.17344679 0.38415033 -0.084836334 0.105106436 0.07872124 0.08906906
-0.59966564 0.29574034 -0.083346084 -0.050459437 0.48294052 0.22068581 0.011402474 0.04448895
-0.23964185 -0.06602077 -0.010124922 0.33697185 0.021920027 -0.045485444 0.005628228 0.08931591
-0.02014015 -0.09045395 -0.047275763 0.034481104 -0.54666066 -0.020101355 -0.02696912 -1.0267595
0.3726599 0.06190459 -0.36817208 0.20191762 -0.10603122 0.06510237 0.016171819 0.08499595
-0.06430566 -0.3274657 -0.036791835 -0.0038834277 0.078423224 -0.26237166 -0.07761447 0.03722682
0.03877094 -0.35255462 0.029990254 0.011056544 -0.0257573 0.023307618 0.07498816 -0.014863891
-0.14585228 0.090038195 -0.12214801 0.043640673 -0.30444542 0.08133856 -1.088504 0.2516653
-0.023777755 0.09240488 -0.11249612 -0.4703312 -0.45637333 -0.0067575052 0.05353595 -0.11863172
-0.06775963 0.22885086 0.09104424 -0.2093936 -0.030838171 -0.033825327 -0.22815304 0.31569105
-0.62238145 -0.01763917 0.189209 -0.12963335 0.040452488 -0.052219756 0.19117115 -0.067564145
-0.00722479 -0.027515337 0.014154034 0.0279498 -0.16587894 -0.07281962 -0.29973686 -0.050765473
-0.6023754 0.32648832 -0.015658671 -0.17215891 0.07391151 -0.13156487 -0.6022487 0.20528859
0.022606188 -0.115454555 -0.4361113 -0.04886788 0.053755045 -0.025333185 -0.0397918 -0.12587382
00000000: bc81 ba3c 85e0 b3bd 34e5 7f3b 8fce 0f3d
00000010: 6a55 f8bb 2805 ca3c 0591 8abd eb5c e33c
00000020: 2468 0a3d 0160 983d 169d 9abd 9f44 a1bd
00000030: 176d c9bd 6de1 25bc 0030 edbd cf44 cebd
00000040: 2a14 6cbd 8e10 6a3d fab0 ebbc 268d 9bbd
00000050: 9c15 dbbc be53 b2bd c74d 293d e8b8 03bd
00000060: aaa7 a3bd 46bb 76bc 5222 b7bd 0fd9 98bc
00000070: 2104 03bd 0f64 3b3d 39c2 6abd e8ab 84bd
00000080: 7437 7fbc a1b0 8d3d 34a3 4f3c e0d5 d8bd
00000090: 6bca 24bd a859 6eba af6e ff3b 35ef cbba
000000a0: 176e c13c cec6 c43c 2f2a a7bc 3070 d23c
000000b0: fea4 a4bc 164b 703d f372 9ebd d45b a3bd
000000c0: 4e19 763c fdf3 323d 6226 80bd 16c2 60bd
000000d0: 9358 31bd b822 86bd 8eae 4cbb bf8f bebd
000000e0: 8469 3a3d 77bc 03bd 6137 2a3d b17d c43b
000000f0: f6a8 823d a205 e3bd 5eb8 9abc 04ff 8dbd
00000100: 8915 813c 5657 c8bd d186 d1bd 8842 38bd
00000110: 8ee4 bd3c 5225 adbc 9480 783d bbe0 e1bc
00000120: e395 d7bd 5c34 a4bd f018 e7bd cd25 853d
00000130: 89a3 2fbd 907e aabc 9ac1 8bbd 1d4f 133d
00000140: ff75 6ebd 8ec6 bc3c aef1 303a a8af 8fbd
00000150: 0ff9 4bbd 9d83 a63d d5a7 a83d 49df 58bd
00000160: 8d9b 1ebc 6125 64bc 66e3 c83c b098 bfbd
00000170: 1431 723d 55aa 7c3c ab17 fcbd 8c55 b13c
00000180: 0f1b debd fbda 993d 42e6 1ebd 06de 69bd
00000190: 65c5 67bd 88a8 9ebd ebf9 45bd 7197 b2bd
000001a0: 2c32 a53d ba37 3ebd beab 4e3c 783d e03c
000001b0: 0f77 81bd 05c0 253d b220 143d afe4 df3c
000001c0: cd76 b0bd 2709 dd3b fb3f 8d3c 78c4 cabd
000001d0: b42c 143d 6674 c6bd bd90 4bbd d071 00bd
000001e0: d6ac 953d a090 733c 69b4 a1bd 3e55 14bd
000001f0: fba8 1f3c d9ec 43bd 430a 1abd 1177 bbbd
00000200: b8c3 1f3e a102 1a3d 04ad 88be d7d1 343e
00000210: f8fb 083e 71db 3f3e 9b9c da3d 5b4a b83d
00000220: 9526 20be 0fb0 a7bc e6c8 08bd b411 05bd
00000230: e680 3fbe a2c9 8abd 0650 223f 7633 49be
00000240: af7e 02bd 5df4 36bd 099c 31be 5aaf c43e
00000250: acbe adbd 0b42 d73d 9a38 a13d d769 b63d
00000260: b083 19bf 476b 973e 5ab1 aabd 8eae 4ebd
00000270: fb43 f73e 76fb 613e 71d1 3a3c 0c3a 363d
00000280: ac64 75be e635 87bd 00e3 25bc 9387 ac3e
00000290: a191 b33c f24e 3abd 006d b83b 43eb b63d
000002a0: f5fc a4bc ec3f b9bd 3ba4 41bd 0f3c 0d3d
000002b0: f4f1 0bbf 99ab a4bc 58ee dcbc db6c 83bf
000002c0: 47cd be3e ab8f 7d3d 0d81 bcbe 7ec3 4e3e
000002d0: e526 d9bd 6454 853d c37a 843c 5b12 ae3d
000002e0: b0b2 83bd 96a9 a7be 09b3 16bd 1b81 7ebb
000002f0: 5b9c a03d 9455 86be 56f4 9ebd 267b 183d
00000300: 47ce 1e3d 0a82 b4be 1fae f53c 8226 353c
00000310: f900 d3bc 9eef be3c 6493 993d ad87 73bc
00000320: 4d5a 15be f265 b83d bc28 fabd 90c0 323d
00000330: 45e0 9bbe d594 a63d 1954 8bbf 46da 803e
00000340: 91c9 c2bc c53e bd3d 5e64 e6bd 40cf f0be
00000350: c4a9 e9be 106e ddbb 8348 5b3d 30f5 f2bd
00000360: 90c5 8abd e157 6a3e 6775 ba3d 476b 56be
00000370: 55a0 fcbc 6d8c 0abd f3a0 69be 42a2 a13e
00000380: 6454 1fbf 0580 90bc 01c0 413e 9bbe 04be
00000390: 82b1 253d 62e4 55bd 5fc2 433e 125f 8abd
000003a0: eebd ecbb d867 e1bc 52e6 673c fbf6 e43c
000003b0: 2bdc 29be 7422 95bd 1c77 99be 75ef 4fbd
000003c0: 4635 1abf 7a29 a73e 9d46 80bc 6d4a 30be
000003d0: eb5e 973d f1b8 06be f92c 1abf 2c37 523e
000003e0: 9d30 b93c 7073 ecbd fb49 dfbe b029 48bd
000003f0: 402e 5c3d 8a87 cfbc bafc 22bd 11e5 00be

output.4.bias f4 [128]
-0.013259966 0.63426805 0.32534927 -0.016976373 -0.19605516 -0.5789205 0.51357234 0.031069271
-0.10797888 0.6748337 -0.33209234 -0.29160693 0.74087495 -0.34296113 -0.83737576 -0.67307484
-0.089798674 0.26525646 -1.3533523 -0.31980473 -0.3244966 -0.82765007 0.050759356 0.6647125
0.3840296 0.9115807 -0.08552776 -0.19758126 0.74535954 1.046683 -0.17634918 0.14202556
-0.32381877 -1.5650465 -0.5085534 -0.70809555 -0.12266988 -0.016331522 -0.028375933 0.48602182
-0.008044359 -0.07834042 0.18269312 0.0009269417 0.41117713 0.3533136 0.032106552 0.4913067
0.03335882 0.43455818 0.90812236 -0.17845865 -0.072181545 0.09190906 -0.84494835 -0.0018712766
-0.77941227 -0.1761241 0.149921 0.61961 0.07587903 -0.17093134 0.08553938 -0.27515784
-0.44396022 -0.44441563 0.033102922 0.3268322 0.15033361 -0.09611496 -0.6486417 0.8041258
-0.015081379 -0.6210883 -0.5991908 -0.14512861 0.59423965 -0.12573941 0.0015284707 1.3459591
-0.016132018 -0.47967857 -1.6941805 -0.19745839 0.24349992 -0.32858983 -0.070804216 0.12335884
-0.6632547 -1.4413809 0.5411426 -0.3413133 -0.9537779 -0.23859377 0.50545996 -0.053356096
0.34718812 -0.5051639 0.20070653 -0.7388299 0.20188178 0.7155624 0.2581576 0.28342935
-0.103629224 -0.13741137 -0.012701026 -0.01189212 0.39865324 0.12854962 1.3278176 0.80407894
0.08362579 0.42950904 -0.06404998 -0.15371573 -0.1056895 -0.17229931 0.18881927 0.51333416
0.16413762 -1.3585999 0.07278109 0.09646048 0.3723164 -0.46258307 -0.05995821 0.47950676
00000000: 5440 59bc 645f 223f 2e94 a63e 0912 8bbc
00000010: afc2 48be 2234 14bf 7a79 033f fc84 fe3c
00000020: 0824 ddbd e7c1 2c3f 0208 aabe 814d 95be
00000030: fba9 3d3f 9a98 afbe 425e 56bf a24e 2cbf
00000040: 5ee8 b7bd b2cf 873e a63a adbf 72bd a3be
00000050: 6b24 a6be e0e0 53bf 0be9 4f3d 992a 2a3f
00000060: 879f c43e 5a5d 693f 2e29 afbd be52 4abe
00000070: e2cf 3e3f b5f9 853f e194 34be 266f 113e
00000080: 93cb a5be 7253 c8bf 8e30 02bf c045 35bf
00000090: 593a fbbd afc9 85bc a574 e8bc dad7 f83e
000000a0: 7dcc 03bc f170 a0bd e813 3b3e 01fe 723a
000000b0: cf85 d23e 85e5 b43e 2982 033d 8d8c fb3e
000000c0: 42a3 083d 697e de3e b57a 683f ddbd 36be
000000d0: ebd3 93bd d13a bc3d 894e 58bf a045 f5ba
000000e0: 9087 47bf e059 34be e484 193e c39e 1e3f
000000f0: 7766 9b3d a008 2fbe 452f af3d 7de1 8cbe
00000100: c14e e3be 728a e3be ee96 073d 8d56 a73e
00000110: 0ef1 193e ecd7 c4bd 620d 26bf 30db 4d3f
00000120: e317 77bc a5ff 1ebf 9164 19bf 989c 14be
00000130: 1720 183f d5c1 00be f756 c83a 6348 ac3f
00000140: 4b27 84bc 6e98 f5be e8da d8bf 8832 4abe
00000150: 0b58 793e ed3c a8be cd01 91bd 8fa3 fc3d
00000160: 0fcb 29bf 2b7f b8bf 5288 0a3f 9ec0 aebe
00000170: ca2a 74bf ed51 74be d365 013f ec8b 5abd
00000180: a4c2 b13e 6c52 01bf 0386 4d3e f523 3dbf
00000190: 19ba 4e3e 192f 373f 3c2d 843e a71d 913e
000001a0: 8f3b d4bd 91b5 0cbe f717 50bc 2bd7 42bc
000001b0: 471c cc3e 83a2 033e edf5 a93f 1ed8 4d3f
000001c0: 0044 ab3d 9ce8 db3e a32c 83bd a867 1dbe
000001d0: bd73 d8bd 3b6f 30be d759 413e de69 033f
000001e0: b113 283e 9ae6 adbf 410e 953d 128d c53d
000001f0: 41a0 be3e b0d7 ecbe bd96 75bd e981 f53e

output.6.weight f4 [128, 128]
-0.045506597 1.1274686 0.121834345 -0.016570862 -0.5772953 0.07936031 0.06827241 0.07762103
0.07877212 -1.0787716 0.02853351 -0.03465315 -0.023109317 0.109832324 0.008333498 0.17496082
-0.00836674 0.13085926 0.6558741 -0.0024324001 0.21621987 -0.0934805 0.05337557 0.043580487
0.91806734 0.14904346 -0.042919468 -0.38286638 -0.19794224 0.0036951546 0.36710167 0.009613371
0.18646699 0.067097194 1.1876433 0.024515022 -0.028352365 0.03246141 0.085833654 -0.18902542
-0.07121202 -0.027296346 0.037830196 -0.050680637 0.08973241 -0.4779808 0.0007650337 -0.096348576
0.048714496 -0.9111654 -1.2130792 0.04870139 0.0093996255 -0.00036810653 -0.018908417 0.051145654
-0.15228814 -0.042675395 -0.06685714 0.045347963 0.05923922 -0.009465653 0.08186841 0.080576785
0.00696416 -0.16381073 -0.05572789 0.09674031 0.069602765 0.056755032 -0.13551441 -0.89469665
-0.047760334 -0.042461473 -0.09474952 0.110476576 -0.16805275 -0.061129067 -0.109047964 -0.034912247
0.01118869 -0.13233039 -0.60784316 -0.20966356 -1.0760565 0.11285133 -0.124350205 0.662261
0.090775184 0.18810797 -0.7574332 0.075310655 -0.07593941 0.93342423 0.5210215 -0.06362689
0.14868517 0.046351433 -0.10986445 0.12965979 -0.02030973 0.1434855 0.017170018 -0.060351156
-0.035127226 -0.022849852 -0.064485885 -0.009136311 0.006058344 0.14822055 0.0123340795 -1.0566245
0.052417006 -0.16681114 0.06894707 -0.085852206 0.058522906 -0.109180145 0.5987615 0.13421167
0.27502778 -0.15801671 -0.028206784 0.10894687 0.20273374 0.044581953 -0.09077724 0.16704597
0.005940759 0.045512907 0.20745184 0.0570141 0.54942596 -0.45750776 0.26069063 0.034297787
0.08971234 0.23565283 -0.35179743 0.163945 -0.23390977 -0.24648139 -0.08161375 0.12467014
0.016725956 -0.38253534 -0.09039935 0.043724176 0.51359767 0.089103885 -0.03851426 0.14077088
-0.112701826 0.07631266 -0.0063684387 -0.08384514 -0.060978584 -0.13043082 0.40162504 0.6444854
-0.23112625 -0.79718924 0.2162346 0.05972704 -0.09747815 -0.029078925 -0.060942195 0.20373154
0.059565075 0.04096078 0.24207142 0.03811439 0.017880814 -0.012722919 -0.05001356 0.16817573
0.07007442 -0.1356132 0.15676442 0.083605744 0.19374582 -0.005212503 -0.12913498 0.073273815
0.19060633 -0.10821523 0.0017622869 -0.77293706 -0.002075098 -0.090561844 0.07824986 0.095377736
-0.18264695 -0.12525943 -0.18704338 0.12762976 0.17031331 -0.0943924 -0.28024364 0.24564195
-0.033223715 0.071850196 0.081497826 0.04037679 -0.023931662 0.03110469 -0.031100608 -0.050201826
-0.044920433 0.369312 0.0075451746 0.2546394 0.16497229 -0.24464948 0.05102229 -0.5035738
-0.17263581 0.05349491 0.17496876 -0.54397 0.34939748 -0.38463676 0.15773338 -0.18199745
0.10265242 0.22981623 -0.312372 -0.28964448 -0.035695612 -0.10406601 0.12665603 -0.03304104
0.058672987 0.103729375 -0.056095324 -0.0761642 -0.054470178 -0.3110513 -0.12546925 -0.21231441
0.09672878 -0.08798526 0.020978373 -0.009912505 -0.086046055 0.15123299 -0.39843658 0.073389664
-0.0054097786 0.018890144 0.048891217 -0.45955953 -0.076883405 0.0841677 -0.06601871 0.22349831
00000000: 2065 3abd e450 903f 4984 f93d 9ebf 87bc
00000010: a0c9 13bf a987 a23d 68d2 8b3d c6f7 9e3d
00000020: 4753 a13d 3015 8abf 1cbf e93c 76f0 0dbd
00000030: c04f bdbc c5ef e03d 3989 083c ee28 333e
00000040: a714 09bc f8ff 053e 5de7 273f e768 1fbb
00000050: be68 5d3e b472 bfbd 57a0 5a3d 7481 323d
00000060: 7606 6b3f d99e 183e 53cc 2fbd 1007 c4be
00000070: 5fb1 4abe 682a 723b c0f4 bb3e 6781 1d3c
00000080: 34f1 3e3e 416a 893d b204 983f bad3 c83c
00000090: 3843 e8bc 41f6 043d 8ec9 af3d e18f 41be
000000a0: 9cd7 91bd 969c dfbc d6f3 1a3d 8096 4fbd
000000b0: a0c5 b73d e6b9 f4be 8b8c 483a 6752 c5bd
000000c0: da88 473d 2342 69bf 2e46 9bbf 1c7b 473d
000000d0: e300 1a3c 6cfe c0b9 d3e5 9abc 1b7e 513d
000000e0: 6cf1 1bbe 65cc 2ebd 65ec 88bd c9be 393d
000000f0: d3a4 723d d415 1bbc a0aa a73d 7105 a53d
00000100: 9c33 e43b 00be 27be ee42 64bd c91f c63d
00000110: e58b 8e3d f777 683d 4ac4 0abe d70a 65bf
00000120: 57a0 43bd 15ec 2dbd 090c c2bd 8b41 e23d
00000130: 0516 2cbe 7962 7abd 8a54 dfbd 2500 0fbd
00000140: c450 373c 9e81 07be 9c9b 1bbf 0bb2 56be
00000150: 38bc 89bf 991e e73d 52ab febd f089 293f
00000160: 57e8 b93d 609f 403e 24e7 41bf 793c 9a3d
00000170: 1f86 9bbd e4f4 6e3f aa61 053f d14e 82bd
00000180: ed40 183e 00db 3d3d 9d00 e1bd 89c5 043e
00000190: 9760 a6bc dded 123e 23a8 8c3c c632 77bd
000001a0: 91e1 0fbd 9d2f bbbc 2d11 84bd 77b0 15bc
000001b0: 1385 c63b 21c7 173e e114 4a3c 793f 87bf
000001c0: 37b3 563d 8ad0 2abe 1f34 8d3d 48d3 afbd
000001d0: b7b5 6f3d d799 dfbd 6f48 193f c96e 093e
000001e0: 71d0 8c3e 22cf 21be ea11 e7bc 891f df3d
000001f0: 6f99 4f3e 919b 363d 6be9 b9bd 190e 2b3e
00000200: b3aa c23b be6b 3a3d 416e 543e 9e87 693d
00000210: 2ea7 0c3f 753e eabe 3e79 853e d67b 0c3d
00000220: 1abb b73d fa4e 713e cb1e b4be 33e1 273e
00000230: 0b86 6fbe 9e65 7cbe 1c25 a7bd 0f53 ff3d
00000240: df04 893c acdb c3be 4b23 b9bd 1f18 333d
00000250: 237b 033f 197c b63d 21c1 1dbd 3e26 103e
00000260: 37d0 e6bd d049 9c3d 56ae d0bb 00b7 abbd
00000270: aec4 79bd a88f 05be cca1 cd3e fffc 243f
00000280: 5cac 6cbe 9814 4cbf 9a6c 5d3e 57a4 743d
00000290: a0a2 c7bd ed36 eebc 869e 79bd 009f 503e
000002a0: 82fa 733d 7ec6 273d 92e1 773e d61d 1c3d
000002b0: c97a 923c ca73 50bc 05db 4cbd 4236 2c3e
000002c0: 2d83 8f3d 30de 0abe da86 203e 7d39 ab3d
000002d0: 4e65 463e a5cd aabb f63b 04be 9510 963d
000002e0: 4e2e 433e f29f ddbd 89fc e63a 34df 45bf
000002f0: 5efe 07bb 7d78 b9bd 7641 a03d 6755 c33d
00000300: cd07 3bbe 0244 00be 4d88 3fbe 60b1 023e
00000310: 9d66 2e3e cd50 c1bd 187c 8fbe 9089 7b3e
00000320: 9715 08bd 3226 933d 55e8 a63d 2262 253d
00000330: 550c c4bc 43cf fe3c b4c6 febc 6ea0 4dbd
00000340: 7dfe 37bd 7616 bd3e 833d f73b 1860 823e
00000350: 7fee 283e 6585 7abe c0fc 503d 36ea 00bf
00000360: 71c7 30be 7b1d 5b3d 032b 333e 9e41 0bbf
00000370: 3ae4 b23e 1cef c4be dc84 213e 8a5d 3abe
00000380: 6f3b d23d f254 6b3e 39ef 9fbe 484c 94be
00000390: 9035 12bd 8f20 d5bd 1eb2 013e 0b56 07bd
000003a0: 1653 703d 1170 d43d 36c4 65bd fafb 9bbd
000003b0: 1f1c 5fbd 1e42 9fbe 037b 00be f368 59be
000003c0: bd19 c63d 9e31 b4bd d6da ab3c 0f68 22bc
000003d0: ea38 b0bd d2dc 1a3e e1ff cbbe 524d 963d
000003e0: 8344 b1bb 81bf 9a3c 2842 483d 634b ebbe
000003f0: 0c75 9dbd 1d60 ac3d d134 87bd bedc 643e

output.6.bias f4 [128]
0.27860543 -0.3030488 0.5512179 -0.06710839 0.39873254 0.47345716 0.034365926 -0.09038895
0.3988263 -0.5721485 0.06601878 -0.41318744 0.2123958 0.0646652 0.14460921 -0.20181452
0.40371212 -0.6668696 0.62517446 -0.32109696 0.31167263 0.42772567 0.3768953 0.59850127
-0.13464646 -0.013638231 0.15095055 -0.14898914 -0.06204037 0.031734202 0.82381386 -0.2953168
-0.2140838 -0.027529161 0.20411661 -0.6564886 0.39088497 -0.06598238 0.45836636 0.2819156
-0.086410314 0.4880152 0.4423632 0.02220149 -0.119325325 -0.23128179 -0.0740768 0.1280106
0.4178509 -0.053362355 -0.09680806 -0.20956446 0.28120214 -0.05182878 -0.22639209 0.19642825
0.5098704 -0.0935644 -1.23786 0.3423989 -0.3723904 -0.09632184 0.33244574 0.29930046
0.4063065 0.5939535 0.7666229 0.0003541527 -0.644418 0.050182287 0.7513274 -0.5173036
0.04942061 -0.10642389 -0.17144153 0.14537273 -0.8948343 -0.9478245 0.42677405 -0.056921583
0.29338044 -0.069394596 0.36965406 -0.23192579 -0.3680652 0.056328513 -0.22765265 -0.13471474
-0.010049724 -0.0016054614 -0.7410489 -0.041905228 0.032413162 -0.13264206 -0.5462233 0.5875136
0.47297642 0.119303554 0.40871304 -0.030943958 0.35043716 -0.15431888 0.20769079 0.10393959
0.39153334 -0.32659677 -0.3223603 0.009362408 -0.12996288 0.12898988 0.63336164 -0.25910375
0.0005040943 -0.19295016 -0.10013202 -0.42094064 -0.41524854 -0.095448926 0.03620162 0.0895862
-0.010620852 0.046464946 -0.09015407 -0.0042640893 0.51676726 0.0674755 -0.114796594 0.11014292
00000000: 5fa5 8e3e 3629 9bbe 9e1c 0d3f 2070 89bd
00000010: ac26 cc3e fa68 f23e 49c3 0c3d d81d b9bd
00000020: f632 cc3e 5378 12bf db34 873d 4e8d d3be
00000030: 497e 593e 306f 843d 7014 143e 77a8 4ebe
00000040: 5bb3 ce3e f7b7 2abf 6f0b 203f d266 a4be
00000050: 8e93 9f3e dcfe da3e 6cf8 c03e 6137 193f
00000060: c3e0 09be e372 5fbc c892 1a3e 9c90 18be
00000070: 0b1e 7ebd b9fb 013d 77e5 523f c333 97be
00000080: c938 5bbe d684 e1bc f203 513e a30f 28bf
00000090: 1322 c83e c521 87bd ffae ea3e 3e57 903e
000000a0: e4f7 b0bd 21dd f93e 6e7d e23e e6df b53c
000000b0: d660 f4bd 22d5 6cbe 94b5 97bd 3615 033e
000000c0: 8ef0 d53e 7c92 5abd 4e43 c6bd 1198 56be
000000d0: baf9 8f3e 6a4a 54bd 54d3 67be 7d24 493e
000000e0: de86 023f b19e bfbd 3272 9ebf e94e af3e
000000f0: f4a9 bebe 6344 c5bd 5436 aa3e e93d 993e
00000100: 6807 d03e 560d 183f 6641 443f 92ad b939
00000110: 94f8 24bf f18b 4d3d fe56 403f 026e 04bf
00000120: 446d 4a3d c5f4 d9bd 5e8e 2fbe 97dc 143e
00000130: dc13 65bf a0a4 72bf 2182 da3e 9b26 69bd
00000140: f635 963e c11e 8ebd 4c43 bd3e f47d 6dbe
00000150: 0b73 bcbe bab8 663d c71d 69be a9f2 09be
00000160: 99a7 24bc 586e d2ba 61b5 3dbf d1a4 2bbd
00000170: aac3 043d 52d3 07be 4ad5 0bbf 4b67 163f
00000180: f729 f23e 6c55 f43d d642 d13e 2f7e fdbc
00000190: 806c b33e c505 1ebe e5ac 543e 48de d43d
000001a0: 0f77 c83e b137 a7be 690c a5be c964 193c
000001b0: fd14 05be ec15 043e fd23 223f 3fa9 84be
000001c0: 3225 043a ba94 45be 0412 cdbd 8885 d7be
000001d0: 759b d4be ba7a c3bd 2648 143d f878 b73d
000001e0: 1503 2ebc 0752 3e3d b2a2 b8bd c6b9 8bbb
000001f0: dc4a 043f 9830 8a3d 7a1a ebbd 9c92 e13d

output.8.weight f4 [7, 128]
0.13633986 -1.024807 -0.04392119 -2.638366 -0.12950069 0.48295367 -0.035330046 -0.0483133
-1.8609775 -0.07744894 0.030142933 -0.12318035 -0.08190763 0.45051372 0.12795483 0.10272788
0.38689032 -0.47897682 -0.026353696 0.6300699 0.21951737 -0.08257832 0.42617223 0.34640434
-0.59792405 -0.010367058 -0.05349253 -0.3099384 0.37892553 -0.15508428 0.22960877 0.014459304
-0.7484028 1.1341083 0.17009549 -1.0652598 0.16792533 0.056096666 0.2624143 0.38745648
-0.06567258 0.054924596 0.13145614 -0.1047792 0.0070721125 -0.510189 -1.1867939 0.09182986
0.31468254 0.942118 0.010594685 -1.2508569 0.34490255 -0.04077448 -0.0060967105 0.13775477
0.12333123 0.013861723 -0.015079307 0.26525903 -0.018926075 -0.04463014 0.8500417 0.41384172
-0.14128393 0.59117 0.81611377 -0.04685436 -0.019067157 -0.64985627 -0.4417159 -0.8908238
0.01890157 -0.035061385 -0.3098231 0.42246017 0.08579544 -1.7849944 0.12266771 0.18991143
0.13117214 -0.05887129 0.5339168 -0.15345486 0.05249319 -1.2017281 0.18867789 0.5687219
0.54909754 0.30187345 -0.35422584 0.024300605 0.05356521 0.3633334 0.21006408 -1.0321212
0.21589212 -0.5082598 -0.22113375 -0.022287458 0.49368644 0.6379871 0.4910862 -0.43419585
-0.119957946 -0.24070032 -0.23726454 -0.113829724 0.030948633 0.06804753 0.31152537 -0.2627635
-0.070787944 0.20998776 -0.0037405048 -0.1445835 -0.4126423 -0.03720551 0.13541517 0.17202698
-0.06834006 0.6145763 -0.3053552 -0.15583327 0.24120688 -1.1313332 0.031421494 -0.08244097
0.4346119 -0.0091828825 -0.094724976 1.918372 -0.8931862 0.8973673 0.020450832 -0.013378533
0.34673724 0.26094824 0.7574068 -0.36417675 0.8839842 1.0039579 -0.24142131 0.17615576
-0.37055144 0.16825463 0.25165647 0.124342315 -0.23593575 0.56114405 0.052510794 0.19090089
0.271442 0.06467202 -1.2444233 0.083138846 -0.051963426 -0.18923633 -2.3086803 -0.30964684
1.4544595 -0.9315551 -0.4994817 -0.021596635 -0.07604525 -0.044967 -0.074542746 -0.4248213
-0.06777045 -0.9574515 -0.95078313 0.0028584094 -0.11938512 0.11090313 0.17958906 -0.8213961
0.073407665 0.35073468 -0.03362003 0.10560622 0.6839118 -0.08332065 0.30912083 -1.360466
-0.06725793 -0.0055623865 -0.5706451 0.004272362 0.94418097 0.02484395 0.35484877 -0.0263485
0.11090343 0.2116346 -0.49227646 -0.056586698 -0.056926448 -0.10167304 -1.7938799 0.38679475
-0.060123704 -0.010952276 -0.030255059 0.49024582 -0.867213 -0.8781321 0.46963352 -0.20177901
-0.082477085 0.024983412 -0.37197822 0.75307363 1.0183412 -0.24124937 -0.53439075 0.63133144
-0.30000252 0.036822118 0.2731894 0.0774154 -0.06632863 -0.71459734 0.3554043 1.4566376
0.22094779 0.123317696 0.12385811 -0.047673073 -0.23038623 -0.04422681 -0.3323019 -0.43406996
-0.16995597 -0.78208154 0.280442 0.58662516 -0.044881586 0.17890057 -0.2636155 0.23894897
-0.05761432 -1.0493021 0.047017734 0.23836811 0.24939328 -0.13067178 1.0290711 0.29261768
0.02538505 0.6069313 0.06060044 0.01972314 -0.48370582 -0.69624126 0.016783698 -0.097636886
00000000: ad9c 0b3e e02c 83bf b5e6 33bd fdda 28c0
00000010: d49b 04be b445 f73e 3db6 10bd 2be4 45bd
00000020: 8334 eebf 8d9d 9ebd 50ee f63c fb45 fcbd
00000030: 30bf a7bd bca9 e63e 9706 033e ff62 d23d
00000040: 7d16 c63e 733c f5be b5e3 d7bc 434c 213f
00000050: 29c9 603e d21e a9bd 3f33 da3e e95b b13e
00000060: 8d11 19bf 98da 29bc fc1a 5bbd 3fb0 9ebe
00000070: 8702 c23e 6ace 1ebe 901e 6b3e b7e6 6c3c
00000080: 5397 3fbf 762a 913f 832d 2e3e 6f5a 88bf
00000090: 9ef4 2b3e 9ec5 653d 2b5b 863e b260 c63e
000000a0: 587f 86bd 9df8 603d 709c 063e 7a96 d6bd
000000b0: 2ebd e73b bf9b 02bf dde8 97bf 4b11 bc3d
000000c0: 121e a13e a52e 713f 5495 2d3c 141c a0bf
000000d0: 1197 b03e 2403 27bd eac6 c7bb 960f 0d3e
000000e0: 1595 fc3d 481c 633c 330f 77bc 08d0 873e
000000f0: db0a 9bbc 18ce 36bd 559c 593f 10e3 d33e
00000100: bcac 10be eb56 173f d5ec 503f 5bea 3fbd
00000110: ba32 9cbc fb5c 26bf 9628 e2be 070d 64bf
00000120: 77d7 9a3c 879c 0fbd 22a1 9ebe b34c d83e
00000130: 85b5 af3d b27a e4bf 3539 fb3d 2478 423e
00000140: fd51 063e 0623 71bd c5ae 083f 4523 1dbe
00000150: 1903 573d 3ad2 99bf c734 413e c297 113f
00000160: a891 0c3f 288f 9a3e 175d b5be 1012 c73c
00000170: 3267 5b3d d606 ba3e 0a1b 573e 8c1c 84bf
00000180: d312 5d3e 501d 02bf e370 62be 3094 b6bc
00000190: 78c4 fc3e 1f53 233f a76f fb3e eb4e debe
000001a0: 83ac f5bd 257a 76be 7af5 72be 8f1f e9bd
000001b0: fd87 fd3c 815c 8b3d 4180 9f3e f088 86be
000001c0: 45f9 90bd 0807 573e 4223 75bb b20d 14be
000001d0: da45 d3be ce64 18bd 46aa 0a3e d727 303e
000001e0: e0f5 8bbd df54 1d3f 8457 9cbe c292 1fbe
000001f0: f0fe 763e 87cf 90bf d3b3 003d d0d6 a8bd
00000200: 7385 de3e cd73 16bc 2bff c1bd 378d f53f
00000210: daa7 64bf ddb9 653f 8188 a73c a231 5bbc
00000220: 8b87 b13e 029b 853e 69e5 413f 6075 babe
00000230: ca4c 623f b181 803f 2637 77be 2d62 343e
00000240: ebb8 bdbe f14a 2c3e 1ed9 803e 2fa7 fe3d
00000250: 2499 71be 23a7 0f3f 8f15 573d 867b 433e
00000260: 72fa 8a3e c472 843d 4349 9fbf b344 aa3d
00000270: 9ad7 54bd 2bc7 41be 6bc1 13c0 088a 9ebe
00000280: bb2b ba3f 657a 6ebf 11bc ffbe 6deb b0bc
00000290: 9dbd 9bbd 512f 38bd dea9 98bd 2d82 d9be
000002a0: 3ccb 8abd 8b1b 75bf 8666 73bf 2754 3b3b
000002b0: 3080 f4bd 2e21 e33d 32e6 373e 0447 52bf
000002c0: c256 963d 7f93 b33e 28b5 09bd 1348 d83d
000002d0: d814 2f3f 04a4 aabd 1645 9e3e c023 aebf
000002e0: 87be 89bd ae44 b6bb cc15 12bf 2cff 8b3b
000002f0: d8b5 713f 8a85 cb3c bdae b53e cfd8 d7bc
00000300: 5621 e33d beb6 583e a90b fcbe 74c7 67bd
00000310: b52b 69bd f439 d0bd db9d e5bf f609 c63e
00000320: 4644 76bd 2d71 33bc 75d9 f7bc 8001 fb3e
00000330: ac01 5ebf 44cd 60bf ce73 f03e 289f 4ebe
00000340: bfe9 a8bd 03aa cc3c ee73 bebe 6fc9 403f
00000350: 0159 823f 130a 77be d5cd 08bf f09e 213f
00000360: ee99 99be cad2 163d 7bdf 8b3e f78b 9e3d
00000370: 4ed7 87bd daef 36bf 8df7 b53e 1a73 ba3f
00000380: 2340 623e fd8d fc3d 52a9 fd3d d744 43bd
00000390: 5eea 6bbe 2c27 35bd 7a23 aabe 6b3e debe
000003a0: f008 2ebe 7f36 48bf 1896 8f3e 112d 163f
000003b0: c1d5 37bd b631 373e 9cf8 86be 0aaf 743e
000003c0: fefc 6bbd 884f 86bf ab95 403d c516 743e
000003d0: f460 7f3e d3ce 05be 9ab8 833f fcd1 953e
000003e0: 4ff4 cf3c da5f 1b3f 2b38 783d 6c92 a13c
000003f0: 4aa8 f7be de3c 32bf f77d 893c d9f5 c7bd

output.8.bias f4 [7]
0.45402634 -0.16411372 -0.16872567 0.2029241 -0.20080721 0.06222022 -0.08755288
00000000: 2476 e83e 6d0d 28be 6cc6 2cbe 56cb 4f3e
00000010: 68a0 4dbe a1da 7e3d ed4e b3bd
