output/models/73.08Acc_H1_FourLayers128_128_128_128Units_ReLU_CrossEntropyLoss_Adam_0.001lr_9396epochs_10batches.pth (torch, 210635 bytes, 10 tensors)

output.0.weight f4 [128, 6]
0.6181126 -0.5196286 -0.008744437 -0.09367012 0.12800127 -0.2638415 -0.33506843 -0.29772192
-0.027094908 -0.36946958 0.3904648 -0.041388646 0.008756981 -0.2792307 0.008238335 0.1431314
-2.9137795 -0.63451403 -0.14755026 0.010471363 0.092639394 0.15667635 0.78590584 -1.0789713
0.2654008 0.2634356 -0.08506065 -0.70387155 -0.4178834 0.4162475 0.13361917 -0.33122298
-0.23142229 -0.21233438 0.26259542 0.09013517 0.5220379 -0.25481254 -0.02666709 0.13127209
0.8840902 0.7633475 -0.0037723628 0.14175656 -0.06106539 0.39393082 0.9397178 -0.75161487
-0.23704553 -0.29683843 0.13694912 0.18063854 0.24268915 1.408501 -0.38556615 -0.5564972
-0.0025513438 0.34008738 0.21332069 0.337666 0.52405554 -0.031116633 -0.09272059 -0.55197453
0.6197453 1.0254428 -0.3488093 -0.28666893 -0.39349526 -0.11026125 -0.0450759 0.108433075
0.19350867 0.023096982 0.08988396 -0.4758032 -1.8665538 0.6562572 -0.23381786 -0.45846808
0.20846353 -0.504962 0.9847122 -0.6958883 -0.28570578 0.06665374 -0.042937543 0.5585841
0.53850687 2.604865 0.43478882 0.09229346 -0.17885827 0.008530866 -2.1692007 -1.5930986
-0.13695554 -1.4317483 -0.009923381 0.37987697 1.2738128 0.8051354 -0.6886038 -0.30730638
0.18324985 -0.56720346 0.8660476 0.342771 -0.3737506 -0.28788993 -0.18207937 0.18111971
-0.32093012 0.36338308 -0.3391533 -0.3844939 -0.35979855 0.35242984 -0.27672324 0.3479288
0.08902105 -0.12729186 0.13818388 -0.17425764 -1.0146946 -1.0926431 -0.38665172 0.45443013
0.13069154 -0.48424545 0.013336881 0.3540984 -0.13967986 -0.28006378 -0.051938336 -0.24607329
0.038036123 0.31345314 0.25828248 -0.09101135 0.0724926 -0.7723429 -0.05541531 -0.456237
-0.28703356 -0.06340543 0.11781215 0.22963183 -0.72888625 -0.5291245 0.3622276 -0.78541833
0.07579044 -0.09069925 0.6874208 -0.12853837 -0.07679955 0.33097702 -0.35155204 -0.67918813
1.1290872 -1.3337187 -0.41529998 -0.16212636 0.24236402 -0.3203972 -0.67049766 -1.0294157
0.32908735 0.31708717 -0.1513674 -0.42548513 -0.15070759 -1.0581236 0.04456282 0.13510942
-0.26658297 0.19464222 -1.3522987 0.11824198 -0.23359862 -0.19881995 0.16422328 -0.24171619
0.80107725 1.940964 -0.00472072 -0.0033439072 0.040771894 0.15802327 1.1310406 1.4562634
-0.02605801 -0.2326272 -0.30907184 0.11229421 0.045341283 -0.22386621 0.11463078 -0.7867574
0.07419217 0.020470694 1.6318302 -0.27152127 -0.044136513 0.2632233 0.21607053 -0.6089339
-1.0196761 -0.5213917 -0.0049379934 -0.039104566 0.1617809 -0.6931998 -0.17084084 2.0063865
0.24878015 -1.2470438 0.08689089 -0.023367329 -0.47358963 -0.5862517 0.21216719 0.22140989
-0.40677235 -0.70374393 -0.41254345 0.58109826 -0.03158442 -0.14578913 0.07150459 0.1664573
0.9694203 -0.7603567 -0.40991122 -0.8348751 0.14496332 -0.4552199 0.26006764 -1.2779317
0.08254723 -0.0006502325 -0.1641623 0.5184274 -0.7641465 -0.5106736 -0.5791812 0.22431551
0.122627355 -0.104487605 -1.8290304 0.37396854 -0.13410725 -0.19718045 -0.23612109 0.095396355
00000000: a13c 1e3f 6106 05bf d444 0fbc 1fd6 bfbd
00000010: c412 033e 3c16 87be 178e abbe 026f 98be
00000020: 24f6 ddbc 1e2b bdbe 01eb c73e 2487 29bd
00000030: 7179 0f3c 54f7 8ebe 15fa 063c 0a91 123e
00000040: 5d7b 3ac0 836f 22bf 6a17 17be 1490 2b3c
00000050: b9b9 bd3d c46f 203e 2031 493f bb1b 8abf
00000060: 9de2 873e 08e1 863e 4734 aebd ed30 34bf
00000070: d0f4 d5be 641e d53e 77d3 083e 0f96 a9be
00000080: f7f9 6cbe 2f6e 59be e872 863e ca98 b83d
00000090: 47a4 053f ca76 82be f174 dabc 316c 063e
000000a0: bc53 623f be6a 433f bf39 77bb a228 113e
000000b0: b41f 7abd 4db1 c93e 5991 703f d569 40bf
000000c0: 10bc 72be 35fb 97be 643c 0c3e 4ff9 383e
000000d0: 8183 783e c349 b43f ed68 c5be 9a76 0ebf
000000e0: 7234 27bb ef1f ae3e bd70 5a3e 8fe2 ac3e
000000f0: 8128 063f 4fe8 febc 4be4 bdbd 344e 0dbf
00000100: a1a7 1e3f b641 833f 2297 b2be 45c6 92be
00000110: 3678 c9be a6d0 e1bd 82a1 38bd 2912 de3d
00000120: 2327 463e e235 bd3c 1515 b83d 7a9c f3be
00000130: 3ceb eebf 7900 283f f36d 6fbe 54bc eabe
00000140: 7777 553e 3145 01bf 1916 7c3f bc25 32bf
00000150: 0748 92be c281 883d 47df 2fbd 5eff 0e3f
00000160: 96db 093f 1cb6 2640 a49c de3e 5b04 bd3d
00000170: 9f26 37be 0cc5 0b3c 2fd4 0ac0 a8ea cbbf
00000180: 133e 0cbe 8743 b7bf ad95 22bc 3c7f c23e
00000190: 4c0c a33f 5b1d 4e3f 5748 30bf 4357 9dbe
000001a0: d9a5 3b3e 3f34 11bf 4cb5 5d3f ae7f af3e
000001b0: 3d5c bfbe 4f66 93be 0473 3abe 7277 393e
000001c0: f450 a4be 590d ba3e 80a5 adbe 62dc c4be
000001d0: 8437 b8be af71 b43e abae 8dbe b923 b23e
000001e0: ab50 b63d cc58 02be 1380 0d3e 9870 32be
000001f0: 83e1 81bf bbdb 8bbf 37f7 c5be 11ab e83e
00000200: 01d4 053e 05ef f7be ef82 5a3c 634c b53e
00000210: 3d08 0fbe 8564 8fbe 4bbd 54bd a3fa 7bbe
00000220: c4cb 1b3d ee7c a03e 9a3d 843e 2964 babd
00000230: 0077 943d 44b8 45bf 2afb 62bd e597 e9be
00000240: 10f6 92be b5da 81bd 7f47 f13d 9b24 6b3e
00000250: 4a98 3abf b474 07bf e575 b93e 2d11 49bf
00000260: 0538 9b3d 87c0 b9bd cffa 2f3f 909f 03be
00000270: 1549 9dbd d275 a93e a1fe b3be 46df 2dbf
00000280: ee85 903f 4bb7 aabf 33a2 d4be 7404 26be
00000290: 462e 783e 1a0b a4be bca5 2bbf e5c3 83bf
000002a0: 237e a83e 4059 a23e 0e00 1bbe 30d9 d9be
000002b0: 1753 1abe 9870 87bf 8187 363d 205a 0a3e
000002c0: 907d 88be 4a50 473e 2018 adbf da28 f23d
000002d0: 7a34 6fbe 7597 4bbe 262a 283e 7384 77be
000002e0: 6613 4d3f 8271 f83f 45b0 9abb 7425 5bbb
000002f0: 6e00 273d dad0 213e f0c5 903f d766 ba3f
00000300: 9c77 d5bc d335 6ebe aa3e 9ebe 82fa e53d
00000310: c8b7 393d 2f3d 65be 8bc3 ea3d ef68 49bf
00000320: 10f2 973d 28b2 a73c d0df d03f d604 8bbe
00000330: 7dc8 34bd 34c5 863e 9841 5d3e 18e3 1bbf
00000340: bf84 82bf ed79 05bf e4ce a1bb 1c2c 20bd
00000350: e4a9 253e 8b75 31bf e7f0 2ebe a368 0040
00000360: 39c0 7e3e 229f 9fbf daf3 b13d d76c bfbc
00000370: 577a f2be 9714 16bf 5b42 593e 46b9 623e
00000380: 7744 d0be 9028 34bf e538 d3be dbc2 143f
00000390: aa5e 01bd bf49 15be 0071 923d c873 2a3e
000003a0: ee2b 783f bda6 42bf e2df d1be 60ba 55bf
000003b0: 4471 143e 9512 e9be 9627 853e 4493 a3bf
000003c0: 860e a93d 5d74 2aba 291a 28be a8b7 043f
000003d0: 1b9f 43bf 81bb 02bf 3845 14bf f7b2 653e
000003e0: 0d24 fb3d 99fd d5bd ab1d eabf ce78 bf3e
000003f0: 6953 09be ace9 49be bac9 71be 2a5f c33d

output.0.bias f4 [128]
0.124463655 0.22737715 -0.4227393 -0.65235144 -0.02429091 -0.22852129 -0.972638 -0.17629766
-0.9866635 -0.044692446 -0.12518144 -0.2452863 -1.3220464 0.26957408 0.17287676 0.16476022
0.92926264 0.51651025 0.13071667 0.11270662 -1.2944734 1.1567286 0.34666944 0.095559694
-0.31611317 -0.6582984 -0.4018275 -0.8805474 -0.2931964 -0.17548256 0.63225365 -0.9100297
0.15048607 0.34990144 -1.3348082 -0.7384413 -0.45846274 -1.0898981 -0.7229668 0.60170037
0.091378026 -0.08837057 -0.15519893 0.71019477 0.23014536 -0.9000506 0.3387804 -0.27772975
-0.08515823 -0.35977876 -1.6543152 -0.20522435 0.6867698 0.00831269 0.031575773 -0.6799977
1.0990466 -0.45282272 0.0152340885 0.04806006 -0.44154647 -0.8638791 1.003806 0.19793203
-0.1262995 -1.130974 0.16674402 0.23405218 -1.4072125 0.13958895 -0.058722083 0.5703479
-0.1365254 0.016999388 0.39842498 -2.277606 -1.053101 0.2899758 0.54659504 0.6867638
0.46763068 1.1877282 -0.10993635 -1.1961263 -0.1636593 -0.7131307 0.3097617 -0.052093197
-0.1440462 0.5988659 -0.95305645 0.24340239 1.0882252 -1.5319504 0.81960666 -0.13632536
0.4914422 0.581027 0.3569965 -0.59908646 0.19988799 0.68321043 -0.4561917 0.22353773
-0.17416616 -1.1377296 -1.7921509 0.20680064 0.4186244 -0.22418652 0.20926583 0.9695251
-0.23182346 -1.2637019 -0.61432624 -0.18877463 -0.778813 -0.10260162 -0.20546456 -0.023841923
-0.38792983 0.27065077 0.81958115 0.1960118 0.6710847 0.14528467 0.0060046795 -1.2115
00000000: cde6 fe3d 8ed5 683e 4971 d8be 8100 27bf
00000010: bbfd c6bc 7c01 6abe cefe 78bf 6087 34be
00000020: fb95 7cbf 6d0f 37bd 902f 00be 552c 7bbe
00000030: d138 a9bf 9d05 8a3e 9b06 313e e7b6 283e
00000040: 28e4 6d3f 043a 043f 97da 053e bad2 e63d
00000050: 4eb1 a5bf af0f 943f a87e b13e cdb4 c33d
00000060: 96d9 a1be 3e86 28bf 56bc cdbe 8e6b 61bf
00000070: d71d 96be b3b1 33be 60db 213f b5f7 68bf
00000080: 0519 1a3e 4826 b33e ffda aabf 7d0a 3dbf
00000090: a1bb eabe c881 8bbf 5a14 39bf 0909 1a3f
000000a0: 6724 bb3d a1fb b4bd 78ec 1ebe 53cf 353f
000000b0: 3aab 6b3e b769 66bf a074 ad3e 9832 8ebe
000000c0: 7067 aebd ec34 b8be 9ac0 d3bf 5526 52be
000000d0: 25d0 2f3f f331 083c 9955 013d 5414 2ebf
000000e0: 8fad 8c3f 61d8 e7be 6698 793c a0da 443d
000000f0: 6112 e2be 2e27 5dbf b77c 803f b2ae 4a3e
00000100: a854 01be c2c3 90bf f2be 2a3e 60ab 6f3e
00000110: 8a1f b4bf 68f0 0e3e 9186 70bd 5202 123f
00000120: 51cd 0bbe 4d42 8b3c 5cfe cb3e 4cc4 11c0
00000130: 03cc 86bf b577 943e a7ed 0b3f c1cf 2f3f
00000140: 4a6d ef3e 7a07 983f 4f26 e1bd ab1a 99bf
00000150: 4e96 27be bc8f 36bf 1699 9e3e ad5f 55bd
00000160: d980 13be 474f 193f 82fb 73bf 7a3e 793e
00000170: f74a 8b3f f316 c4bf bed1 513f e098 0bbe
00000180: 509e fb3e 2fbe 143f 3fc8 b63e bb5d 19bf
00000190: 70af 4c3e e1e6 2e3f f591 e9be 13e7 643e
000001a0: 9d58 32be 20a1 91bf 3365 e5bf 8cc3 533e
000001b0: f055 d63e 2791 65be c849 563e cc32 783f
000001c0: 2163 6dbe fcc0 a1bf 7c44 1dbf 234e 41be
000001d0: 4a60 47bf cc20 d2bd 4d65 52be 2350 c3bc
000001e0: bd9e c6be bd92 8a3e 12d0 513f 51b7 483e
000001f0: 35cc 2b3f 81c5 143e e7c2 c43b 6f12 9bbf

output.2.weight f4 [128, 128]
0.01499289 -0.032226745 0.6042819 -0.11761731 0.21634397 -0.060245905 0.031456977 -0.15999126
0.010689443 0.116128266 0.104480036 0.084629014 -0.074723125 0.14736664 0.050219942 0.5267875
0.46676207 -0.28408903 -0.01441556 0.04997183 -0.09164603 -0.62630326 0.07362908 -0.06640456
-0.10510713 0.045686632 -0.058233343 0.07609862 -0.11727265 -0.23055443 -0.045197118 -0.04116277
0.0375143 0.096310064 -0.18367 -0.290057 0.0736592 -0.013615843 -0.034042444 0.5813034
-0.18675081 -0.54795355 0.070230305 0.018308016 0.05154787 -0.28256992 0.04358987 -0.15729044
-0.05928682 -0.13488926 0.020316474 -0.25322047 -0.48936087 0.2951484 1.4009075 -0.26209876
0.0014866998 -0.1458521 -0.5017865 -0.055779345 -0.07646046 -0.013238667 0.10665768 0.42702457
-0.03778578 -0.22102544 0.016243417 -0.0718662 -0.09973504 -0.029059578 0.016723156 -0.093691565
-0.283875 0.50522184 -0.15733597 0.06579959 -0.15934147 0.22054803 0.09294875 -0.9422689
-0.13109565 0.3734265 0.12980638 -0.31983542 0.21469401 0.15542784 0.02616763 -0.018260164
-0.13949113 0.12187428 -0.08366023 0.22950241 -0.009392992 0.0027062385 -0.07162977 0.14502501
0.25199798 -0.0074376813 0.0049761096 -0.31377468 0.16793789 0.06320458 0.10891244 -0.20362704
-0.08470662 -0.3646685 -0.027975328 0.11444947 0.18114612 -0.04022135 -0.07229182 0.12920354
0.07707783 0.03665211 -0.11902439 0.0843248 -0.3859197 -0.59644216 -0.31964606 -0.04761751
0.025002437 0.07423158 0.08417699 -0.42296496 -0.01924361 0.07424141 -0.046582393 0.06944878
0.2501977 0.07284491 0.030081475 -0.03313881 -1.1188378 0.064825326 0.11510393 0.049054228
0.019238858 -0.99918354 -0.19723946 0.085073136 0.12282763 -0.75705147 0.2602146 0.22202036
-0.0008342857 0.036361545 -0.050234206 0.0030216444 0.0412088 -0.52141774 0.0755369 0.12028725
0.03362914 0.04762403 0.062985234 -0.27624482 -0.28151035 -0.00573399 0.20090902 0.11056929
-0.00052556064 0.056013737 -0.25073525 0.28562707 -0.35287023 0.057713367 0.030170012 -0.16528004
0.097569026 0.5449199 0.026154531 -0.23101416 0.080634266 0.021655673 -0.086149745 0.07442676
-0.07002699 -0.14927286 0.023102306 -0.317011 -1.2244114 -0.13713904 0.11185699 -0.4740525
-0.44186404 -0.57615954 -0.14158759 -0.047152318 0.008096607 -0.13536315 -1.708642 -0.0730961
0.07885602 -0.081909776 -0.09067695 -0.4583725 0.024919381 -0.05070132 0.0071366397 0.102671385
-0.7844759 0.09789241 -0.36921242 0.045667965 0.07289383 -0.08204704 -0.119630314 -0.21733956
-0.011471295 -0.77293044 -0.32816526 0.4386415 0.20783181 0.0121528 0.016313054 0.0106056435
-0.013979435 0.10309763 -0.0057590157 -0.14628495 0.06359359 -0.15446062 -0.32692236 0.03249845
-0.15321648 -0.17119154 -0.00012317416 -0.10019479 -0.025578173 -0.44110194 0.061666828 -0.73651147
0.08057669 -0.0075659035 -0.085830435 -0.413833 0.2780888 -0.40563726 -0.03641663 -0.16438234
-0.015745547 0.04796011 0.0961735 -0.02752894 -0.25814965 -0.33739564 0.12476942 -0.09301891
0.17598853 0.25219437 -0.18672445 -0.09239563 -0.5444461 0.22328395 -0.02963663 0.25574812
00000000: bda4 753c 3100 04bd 38b2 1a3f 58e1 f0bd
00000010: 4689 5d3e 69c4 76bd 08d9 003d c0d4 23be
00000020: c622 2f3c a8d4 ed3d a1f9 d53d fa51 ad3d
00000030: 7008 99bd 48e7 163e 6db3 4d3d 8cdb 063f
00000040: 70fb ee3e 1e74 91be 3e2f 6cbc 43af 4c3d
00000050: eab0 bbbd 6955 20bf d8ca 963d 1dff 87bd
00000060: 6842 d7bd e821 3b3d 1686 6ebd 98d9 9b3d
00000070: a52c f0bd 7616 6cbe 9d20 39bd 4b9a 28bd
00000080: 98a8 193d 363e c53d fd13 3cbe 5a82 94be
00000090: a2da 963d fc14 5fbc 1770 0bbd 4dd0 143f
000000a0: 9b3b 3fbe af46 0cbf e8d4 8f3d b1fa 953c
000000b0: dc23 533d 01ad 90be 4b8b 323d bf10 21be
000000c0: bdd6 72bd 6920 0abe bc6e a63c 1da6 81be
000000d0: 828d fabe b11d 973e f050 b33f cf31 86be
000000e0: 5edd c23a 415a 15be 1475 00bf e278 64bd
000000f0: 4d97 9cbd fee6 58bc 576f da3d f7a2 da3e
00000100: 43c5 1abd 7e54 62be ea10 853c 962e 93bd
00000110: e241 ccbd 5a0e eebc 00ff 883c 5de1 bfbd
00000120: 1058 91be 3856 013f ae1c 21be efc1 863d
00000130: 692a 23be 58d7 613e ea5b be3d 8938 71bf
00000140: f03d 06be c231 bf3e f7eb 043e 78c1 a3be
00000150: bfd8 5b3e 7a28 1f3e 7f5d d63c 5796 95bc
00000160: c3d6 0ebe 3999 f93d 0e56 abbd ae02 6b3e
00000170: 10e5 19bc 265b 313b a1b2 92bd 7081 143e
00000180: e105 813e cbb7 f3bb a20e a33b 13a7 a0be
00000190: e9f7 2b3e 6771 813d 7c0d df3d 9b83 50be
000001a0: aa7a adbd d4b5 babe 842c e5bc 7c64 ea3d
000001b0: 5e7e 393e 24bf 24bd bc0d 94bd ef4d 043e
000001c0: fbda 9d3d 8620 163d 0fc3 f3bd 7bb2 ac3d
000001d0: 4497 c5be 6fb0 18bf a6a8 a3be 940a 43bd
000001e0: e9d1 cc3c ba06 983d fc64 ac3d dd8e d8be
000001f0: c6a4 9dbc e10b 983d 2ecd 3ebd 293b 8e3d
00000200: ea19 803e b62f 953d 6d6d f63c 90bc 07bd
00000210: 1436 8fbf 24c3 843d 9cbb eb3d 16ed 483d
00000220: cf9a 9d3c 7eca 7fbf 24f9 49be d33a ae3d
00000230: 0d8d fb3d 20ce 41bf d93a 853e 4e59 633e
00000240: f7b3 5aba d8ef 143d 62c2 4dbd c806 463b
00000250: 8fca 283d a27b 05bf 17b3 9a3d 2959 f63d
00000260: b6be 093d 6a11 433d 67fe 803d f66f 8dbe
00000270: 2022 90be 32e4 bbbb 18bb 4d3e 2772 e23d
00000280: c7c5 09ba a96e 653d 5f60 80be b63d 923e
00000290: 68ab b4be da64 6c3d 1a27 f73c 2c3f 29be
000002a0: 45d2 c73d df7f 0b3f 0742 d63c fa8e 6cbe
000002b0: 9423 a53d 3d67 b13c 476f b0bd 0f6d 983d
000002c0: 4f6a 8fbd fcda 18be 0c41 bd3c 444f a2be
000002d0: 83b9 9cbf 2d6e 0cbe 4715 e53d 02b7 f2be
000002e0: 013c e2be 317f 13bf 56fc 10be ca22 41bd
000002f0: a2a7 043c a39c 0abe c8b4 dabf 68b3 95bd
00000300: 447f a13d 50c0 a7bd d6b4 b9bd cdaf eabe
00000310: bb23 cc3c 30ac 4fbd 79da e93b 6045 d23d
00000320: 6ad3 48bf d17b c83d 6909 bdbe 550e 3b3d
00000330: 5c49 953d 4708 a8bd bd00 f5bd 438e 5ebe
00000340: 19f2 3bbc c5de 45bf 4705 a8be 9e95 e03e
00000350: ddd1 543e 8a1c 473c f4a2 853c 4bc3 2d3c
00000360: 000a 65bc da24 d33d 20b6 bcbb b9cb 15be
00000370: 5b3d 823d ed2a 1ebe 5e62 a7be 181d 053d
00000380: c8e4 1cbe d64c 2fbe 5028 01b9 ed32 cdbd
00000390: 5189 d1bc 1dd8 e1be 5b96 7c3d 048c 3cbf
000003a0: 6405 a53d 66eb f7bb dec7 afbd ebe1 d3be
000003b0: a861 8e3e b0af cfbe 9b29 15bd d853 28be
000003c0: cefc 80bc d271 443d 9df6 c43d 5f84 e1bc
000003d0: 312c 84be 1fbf acbe 1c87 ff3d b380 bebd
000003e0: 5636 343e 9f1f 813e b234 3fbe ec39 bdbd
000003f0: d260 0bbf 8ca4 643e 85c8 f2bc 6bf1 823e

output.2.bias f4 [128]
-0.04384869 -0.0217164 0.008030405 0.0895058 -0.13006382 -0.09272398 0.030984635 -0.12269577
0.02328402 0.43113583 0.00020763086 -0.18729292 -0.32214314 -1.1786847 0.1937433 0.11719718
0.051407136 -0.117822126 0.08479621 -0.0673464 0.008071331 -0.08450266 -0.0066726524 0.48279622
0.16304669 -0.18942432 -0.056330446 -0.18341929 -0.100683495 -0.10133126 -0.13146567 -0.1269104
-0.4919123 0.053165115 -0.09159835 0.038502004 0.049791686 0.05412134 0.069584705 0.062421326
-0.09618942 0.08040387 0.2767062 -0.095026106 -0.01659597 -0.03944622 0.17617735 -0.029364677
-0.15770392 0.011086263 0.08803495 0.2141936 0.30850533 0.07744059 0.122844025 -0.11152103
0.38357317 -0.5409608 -0.019251749 0.28012833 0.030471666 -0.011697322 -0.066421986 0.17530255
-0.3768621 -0.5345171 0.45445094 -0.040586807 -0.017563328 0.3060383 -0.38401386 0.018798908
0.0077742925 -0.08566957 0.3674513 0.034852542 -0.41669643 0.00813828 -0.004710713 -0.38588634
0.07260746 0.035813227 -0.082085684 0.39715755 0.03246154 -9.735329e-05 -0.0878795 -0.066613965
-0.33411285 -0.014384558 -0.041343093 0.045664404 -0.058768414 -0.101772346 -0.12533373 -0.18163706
-0.036167894 0.033577204 -0.15262118 -0.016665263 -0.5243005 0.22777802 -0.14125346 -0.013795988
-0.13467504 0.04493375 -0.0031706358 -0.0706629 -0.19417636 -0.051514614 0.060381353 -0.05018009
-0.26088145 0.07381173 -0.04997314 0.3175496 0.12006552 -0.4721252 -0.45476162 -0.019011188
0.10940046 -0.10758827 -0.06146884 -0.028853772 0.03078212 -0.024425974 -0.09236959 0.07664044
00000000: af9a 33bd 97e6 b1bc f691 033c d14e b73d
00000010: 732f 05be 12e6 bdbd 7dd3 fd3c eb47 fbbd
00000020: 21be be3c d6bd dc3e 7cb7 5939 b7c9 3fbe
00000030: f2ef a4be 24df 96bf a564 463e 1305 f03d
00000040: 4a90 523d ba4c f1bd a3a9 ad3d e9ec 89bd
00000050: 9e3d 043c bb0f adbd 44a6 dabb 1131 f73e
00000060: b6f5 263e 73f8 41be c1ba 66bd 44d2 3bbe
00000070: 2633 cebd c386 cfbd f09e 06be cdf4 01be
00000080: eedb fbbe aac3 593d ea97 bbbd 47b4 1d3d
00000090: 5ef2 4b3d 57ae 5d3d 6d82 8e3d 81ad 7f3d
000000a0: f5fe c4bd c9aa a43d 6fac 8d3e 0c9d c2bd
000000b0: 46f4 87bc 5c92 21bd d667 343e 318e f0bc
000000c0: 237d 21be 28a3 353c ab4b b43d 9155 5b3e
000000d0: 69f4 9d3e 2c99 9e3d a695 fb3d 2365 e4bd
000000e0: b463 c43e 687c 0abf d8b5 9dbc fb6c 8f3e
000000f0: b79f f93c 20a6 3fbc 4008 88bd 8382 333e
00000100: 12f4 c0be 1dd6 08bf cbad e83e 5a3e 26bd
00000110: f8e0 8fbc 0db1 9c3e 779d c4be 2b00 9a3c
00000120: 7ebf fe3b 8773 afbd 9422 bc3e 8ac1 0e3d
00000130: 3c59 d5be 6c56 053c 535c 9abb e592 c5be
00000140: 38b3 943d e4b0 123d 8a1c a8bd 3c58 cb3e
00000150: 64f6 043d 262a ccb8 2bfa b3bd e76c 88bd
00000160: d710 abbe 36ad 6bbc 6057 29bd 990a 3b3d
00000170: 26b7 70bd 056e d0bd 7c57 00be 11ff 39be
00000180: c924 14bd 4088 093d ba48 1cbe 9785 88bc
00000190: 8f38 06bf a43e 693e bfa4 10be 9108 62bc
000001a0: 41e8 09be 740c 383d 71ca 4fbb b6b7 90bd
000001b0: 2bd6 46be fd00 53bd 7052 773d a389 4dbd
000001c0: 4192 85be 9b2a 973d a3b0 4cbd dc95 a23e
000001d0: e9e4 f53d 65ba f1be 84d6 e8be 5abd 9bbc
000001e0: 590d e03d 3d57 dcbd c0c6 7bbd bf5e ecbc
000001f0: c92a fc3c fb18 c8bc 452c bdbd aaf5 9c3d

output.4.weight f4 [128, 128]
0.83543354 0.12140189 -0.0072124097 0.16913277 -0.07548796 -0.088701755 -0.036867533 -0.045437753
0.018007778 0.22404952 0.0560664 -0.018793173 -0.2364094 -0.03547126 0.0897831 -0.047208644
0.045546994 -0.074640214 0.2458379 0.06814837 0.30342832 0.011186995 0.056762066 -0.27991122
0.05834838 0.023561655 -0.08800476 0.6000764 0.06354482 -0.011104405 -0.0020885882 1.0043384
-0.07349066 0.3608646 -0.04433328 -0.014864793 -0.0472396 0.08297605 -0.022834206 -0.17128085
0.07047948 0.095942184 0.21352911 -0.04584831 -0.112394445 -0.11221655 0.31781057 0.036037013
-0.056171354 -0.21464325 -0.015143533 0.15679003 0.13418211 0.23118983 0.19167766 0.1027795
0.018205272 -0.31223986 -0.05583173 -0.6768986 -0.039880507 -0.06160043 0.0013307051 -0.09405125
-0.015266113 0.014308241 0.25183943 0.03738651 -0.041466206 0.05552195 -0.28331795 0.004056219
-0.06151036 0.5046752 0.17916003 -0.09196794 0.38718727 0.04399025 0.030140093 0.39494663
-0.048450403 -0.16753025 -0.69092894 -0.28165847 -0.08130555 0.39128765 -0.100812994 0.016426751
0.3405222 0.5614376 0.08828272 -0.027879728 0.008193455 0.5180347 -0.4368987 -0.11667308
-0.060740553 -0.06992553 -0.2638421 -0.0399707 -0.0092411535 -0.007842613 -0.3952459 0.20740888
0.066287816 -0.03244873 -0.045932226 0.043425452 -0.26778615 -0.0032215281 -0.11605733 0.037931755
0.05391899 -0.07616128 0.049698655 0.17800234 0.27878553 0.07590286 -0.35127866 -0.06574968
0.18449047 0.046622843 0.0071757617 0.55758744 0.015443995 0.034254123 0.09920758 -0.30470884
-0.3063998 -0.43021837 0.123207696 0.15251304 -0.01603772 -0.023218341 -0.08096745 -0.015643949
-0.065852426 -0.5365958 0.036618598 -0.08225161 0.08253745 0.16321419 -0.014450587 -0.09933386
0.07290207 -0.0717904 -0.102469996 0.04896458 -0.08759512 0.0593504 -0.002325866 0.073836654
0.28554812 0.05353868 -0.06958176 -0.24661629 -0.021392876 -0.05323622 -0.048915435 0.27431348
-0.0038564287 0.13565594 -0.10031695 0.045082316 0.01938996 0.0152237555 -0.15967473 0.5599461
0.07412583 0.0082215965 0.02064507 0.01450606 0.18040664 -0.048360296 0.2680323 0.057547443
-0.05388204 -0.17396086 -0.01182719 -0.21268888 0.059592176 0.4585524 -0.22287469 -0.25412142
0.044365667 0.13777031 -0.06723325 -0.3057372 -0.018799728 -0.10988193 -0.0052662496 0.18532863
0.053355113 0.017660463 -0.10292352 -0.027264958 -0.056506436 0.04614989 -0.45971045 0.03516769
0.03315566 0.11846267 -0.48005942 -0.026350306 0.10869611 -0.04437675 0.081460066 0.008534141
0.017472787 -0.5838577 0.19279121 -0.19836299 0.018648101 0.1988357 0.005716493 -0.069448315
-0.15558022 0.04363042 -0.017432326 0.058419272 -0.025050247 0.25801772 -0.037038222 -0.0025437393
-0.07033369 -0.1090375 -0.1313516 -0.0790287 -0.0237208 -0.094408326 -0.016648902 0.32525608
-0.06374438 -0.056028303 0.098654754 0.023156008 0.051472995 0.003054435 0.17736152 -0.064244576
-0.16364482 -0.04617064 -0.057155173 0.059978038 -0.14147435 -0.030263167 0.060198586 0.07469202
-2.1056414 -0.025735129 -0.040484123 0.13167787 0.044627093 0.033750407 -0.08760864 -0.112006366
00000000: f9de 553f 8ea1 f83d 1456 ecbb 2431 2d3e
00000010: 6e99 9abd 44a9 b5bd 6902 17bd f01c 3abd
00000020: 0c85 933c 3d6d 653e e2a5 653d 24f4 99bc
00000030: 4e15 72be 504a 11bd 34e0 b73d da5d 41bd
00000040: 7c8f 3a3d f8dc 98bd eebc 7b3e 5f91 8b3d
00000050: f55a 9b3e a849 373c 577f 683d 8650 8fbe
00000060: b6fe 6e3d 5f04 c13c d73b b4bd 9b9e 193f
00000070: c923 823d 40ef 35bc b2e0 08bb 298e 803f
00000080: 4582 96bd 3fc3 b83e d096 35bd 768b 73bc
00000090: 507e 41bd 59ef a93d cd0e bbbc 3f64 2fbe
000000a0: 8c57 903d 567d c43d 60a7 5a3e 70cb 3bbd
000000b0: 0f2f e6bd cad1 e5bd 11b8 a23e 8c9b 133d
000000c0: ef13 66bd 71cb 5bbe 951c 78bc 918d 203e
000000d0: 0967 093e 07bd 6c3e 2647 443e 0f7e d23d
000000e0: 3923 953c e7dd 9fbe d0af 64bd 3a49 2dbf
000000f0: be59 23bd bc50 7cbd 0e6b ae3a f19d c0bd
00000100: b81e 7abc 1d6d 6a3c 19f1 803e 9922 193d
00000110: 78d8 29bd fc6a 633d 0d0f 91be 08ea 843b
00000120: 4af2 7bbd 6532 013f ba75 373e b059 bcbd
00000130: 693d c63e 1f2f 343d 5be8 f63c 7236 ca3e
00000140: ee73 46bd 0d8d 2bbe b8e0 30bf 8a35 90be
00000150: 8683 a6bd db56 c83e 0b77 cebd 6591 863c
00000160: ed58 ae3e 60ba 0f3f 92cd b43d 0764 e4bc
00000170: d73d 063c ec9d 043f 30b1 dfbe 4cf2 eebd
00000180: 16cb 78bd 1e35 8fbd 5016 87be 51b8 23bd
00000190: 3568 17bc 4e7e 00bc ac5d cabe fe62 543e
000001a0: e8c1 873d f6e8 04bd 6e23 3cbd e3de 313d
000001b0: 441b 89be 4620 53bb 77af edbd 545e 1b3d
000001c0: 29da 5c3d 72fa 9bbd d190 4b3d 3f46 363e
000001d0: fabc 8e3e f572 9b3d ccda b3be c5a7 86bd
000001e0: 12eb 3c3e 98f7 3e3d a722 eb3b 0dbe 0e3f
000001f0: cf08 7d3c 0d4e 0c3d 582d cb3d cc02 9cbe
00000200: 6fe0 9cbe 9545 dcbe 5154 fc3d 612c 1c3e
00000210: 8961 83bc 6434 bebc 43d2 a5bd bd27 80bc
00000220: a3dd 86bd 585e 09bf 62fd 153d 8873 a8bd
00000230: 6509 a93d 9f21 273e 28c2 6cbc 8d6f cbbd
00000240: ae4d 953d d806 93bd cadb d1bd 158f 483d
00000250: 1265 b3bd 6819 733d 8e6d 18bb ac37 973d
00000260: 5d33 923e 604b 5b3d e280 8ebd fb88 7cbe
00000270: 1d40 afbc 390e 5abd 8d5b 48bd d172 8c3e
00000280: 23bc 7cbb 64e9 0a3e f972 cdbd 3ca8 383d
00000290: b2d7 9e3c 0f6d 793c c681 23be a158 0f3f
000002a0: 48cf 973d e0b3 063c da1f a93c d3aa 6d3c
000002b0: 85bc 383e 7215 46bd 883b 893e deb6 6b3d
000002c0: 6ab3 5cbd cc22 32be d5c6 41bc 1dcb 59be
000002d0: ed16 743d 61c7 ea3e 4339 64be 341c 82be
000002e0: c6b8 353d a913 0d3e 96b1 89bd 9689 9cbe
000002f0: e301 9abc c709 e1bd 8190 acbb cac6 3d3e
00000300: e48a 5a3d adac 903c 91c9 d2bd c35a dfbc
00000310: 4b73 67bd ab07 3d3d 2b5f ebbe ff0b 103d
00000320: 3bce 073d 8e9c f23d 59ca f5be 99dc d7bc
00000330: 119c de3d 65c4 35bd 89d4 a63d c8d2 0b3c
00000340: 1723 8f3c b377 15bf 0f6b 453e ab1f 4bbe
00000350: e7c3 983c 969b 4b3e 6b51 bb3b eb3a 8ebd
00000360: 6c50 1fbe d0b5 323d 3dce 8ebc 0c49 6f3d
00000370: 2d36 cdbc e61a 843e 64b5 17bd ddb4 26bb
00000380: 1c0b 90bd 0e4f dfbd 0981 06be cdd9 a1bd
00000390: 2052 c2bc 2759 c1bd 4763 88bc f787 a63e
000003a0: 6a8c 82bd ef7d 65bd 810b ca3d abb1 bd3c
000003b0: 59d5 523d ea2c 483b 429e 353e a992 83bd
000003c0: 8292 27be 6d1d 3dbd 8b1b 6abd 88ab 753d
000003d0: a7de 10be 76ea f7bc cb92 763d 21f8 983d
000003e0: d4c2 06c0 7ad2 d2bc aed2 25bd 90d6 063e
000003f0: e6ca 363d de3d 0a3d 296c b3bd 9863 e5bd

output.4.bias f4 [128]
-1.63993 -1.4605384 -0.8304885 -1.3145852 -0.5101634 0.082352675 0.10038886 -0.5616571
-0.3311495 0.5441758 -0.20688802 0.13885364 -0.27036095 -0.26388264 -0.15070309 0.39970192
0.62018865 0.9049903 -0.4098966 -0.3997317 -0.008313634 -0.90340316 -0.35910764 0.4493654
0.04601304 1.1850327 -0.6302438 -0.49842852 0.72398275 0.54262096 1.1492639 -0.116082326
0.56868833 0.36876494 -1.4875059 -0.29053053 -0.0076831523 -0.046598658 1.288161 -0.047092795
-0.49749705 1.0227438 -0.031624306 -1.3956965 -0.7800987 -0.82639605 -1.633698 -0.8316319
0.0014563865 -0.639611 0.031831283 -0.50157726 -0.4437557 -0.50343496 0.41790083 -0.3724033
-0.13591924 -0.007452668 0.11021676 0.9946059 0.41747287 -0.9259033 0.63300365 0.557187
-0.1437488 0.18720432 -0.33163792 0.27527657 0.87944114 -1.5572569 0.24945463 -0.027852492
0.2701467 1.4869953 -1.4842912 0.3265334 -1.0068426 -0.31113288 1.0647519 0.9483676
0.4560529 0.9873013 -0.049249873 -0.70153195 -0.053473603 1.203768 0.23318055 -0.7382414
1.346698 0.020830033 -0.25596625 0.4819722 0.029601928 -0.31930503 0.18787326 -1.0170506
-0.67703635 0.071643144 -0.85229385 -0.5482811 -0.4132229 0.23408593 -0.17010202 0.22773148
0.17503576 0.8071249 -0.9640554 -0.20189625 -0.6202559 -0.19185375 0.21498448 0.6952638
-0.36839104 0.56955045 -0.29190323 -0.48908195 -0.35424393 -0.019257598 -0.23599626 1.3672639
-0.3346119 -0.63844264 0.020452172 0.5917212 0.13981245 0.044675987 -0.11255188 -0.93938935
00000000: 3ae9 d1bf ecf2 babf e59a 54bf 5444 a8bf
00000010: 129a 02bf 85a8 a83d ad98 cd3d c2c8 0fbf
00000020: 6d8c a9be 1b4f 0b3f 74da 53be a62f 0e3e
00000030: c06c 8abe a01b 87be e951 1abe bba5 cc3e
00000040: afc4 1e3f 72ad 673f f8dd d1be a2a9 ccbe
00000050: e935 08bc 6e45 67bf f5dc b7be 3913 e63e
00000060: 2b78 3c3d 27af 973f a857 21bf 0632 ffbe
00000070: ef56 393f 35e9 0a3f 141b 933f 92bc edbd
00000080: 8f95 113f c2ce bc3e 9866 bebf 6bc0 94be
00000090: f4c2 fbbb 3cde 3ebd 76e2 a43f 60e4 40bd
000000a0: efb7 febe 45e9 823f 7d88 01bd 2fa6 b2bf
000000b0: 8cb4 47bf b18e 53bf 041d d1bf d4e5 54bf
000000c0: 39e4 be3a 8cbd 23bf 8561 023d 5e67 00bf
000000d0: f233 e3be 1de1 00bf 19f7 d53e a5ab bebe
000000e0: 6a2e 0bbe 8335 f4bb 53b9 e13d 7e9e 7e3f
000000f0: 01bf d53e 0008 6dbf 870c 223f cfa3 0e3f
00000100: e332 13be 7db2 3f3e 72cc a9be 0df1 8c3e
00000110: 0e23 613f 3254 c7bf 0971 7f3e e92a e4bc
00000120: ab50 8a3e dd55 be3f 41fd bdbf 632f a73e
00000130: 38e0 80bf cf4c 9fbe ca49 883f 38c8 723f
00000140: c47f e93e c7bf 7c3f 3cba 49bd 9997 33bf
00000150: 2307 5bbd 1215 9a3f e2c6 6e3e 63fd 3cbf
00000160: 9a60 ac3f bfa3 aa3c 020e 83be 0fc5 f63e
00000170: be7f f23c f37b a3be d961 403e b72e 82bf
00000180: 4152 2dbf a4b9 923d ee2f 5abf 265c 0cbf
00000190: f491 d3be 39b4 6f3e 392f 2ebe 7132 693e
000001a0: 933c 333e bd9f 4e3f 56cc 76bf e4bd 4ebe
000001b0: 17c9 1ebf 4f75 44be e424 5c3e cffc 313f
000001c0: c09d bcbe 0fce 113f 5774 95be f368 fabe
000001d0: 765f b5be 1cc2 9dbc 01a9 71be 8102 af3f
000001e0: 4052 abbe fa70 23bf 508b a73c 0a7b 173f
000001f0: ff2a 0f3e 2bfe 363d 9a81 e6bd d27b 70bf

output.6.weight f4 [128, 128]
-0.9026007 -0.04663514 -0.7666561 -0.28823668 -0.48405892 0.12937494 -1.6002092 -0.27449766
0.27003512 0.12963568 0.35832083 0.13994956 -0.500041 0.6897243 0.28903458 0.20257676
-0.021318767 0.3551653 -0.30876356 0.05101496 -0.3319807 -0.18077013 0.39423943 -0.36266184
-0.50202304 -0.36527786 -0.15961905 0.18250431 -0.1318421 -1.0520791 -0.0280779 0.09672694
-0.1401327 -0.7143639 -0.07726006 -0.913051 0.09610777 0.13928945 -0.19910629 -0.5618795
-0.16973911 0.27058974 0.36717185 -0.01139428 -0.18137942 -0.14986226 0.0036500117 -0.52164644
-0.28538775 -0.207142 0.2605273 0.13125904 0.42046133 -0.6922223 0.47388992 -0.80957353
0.16825286 -0.120709345 0.3189451 -0.35991848 -0.16823816 -1.5748017 -0.4346144 0.3047531
-0.2649838 -0.56679624 0.36430165 0.09648551 -0.015980085 0.01793172 -1.2890859 0.13341361
-1.0254066 -0.023777166 -0.0988179 -0.11648128 0.1798789 0.5393265 0.19293529 0.31147617
-0.15419507 -0.21233384 0.012471781 0.26728746 0.1201196 -0.10121881 0.20271365 -0.1337419
-0.117588475 0.5776987 0.12974705 0.8537528 0.5016209 -1.2924315 -0.111814424 0.021067483
-0.262533 -0.85529655 0.27398077 0.00804852 -0.008261864 0.7337579 0.37712398 0.52652043
0.09889746 -0.59625524 -0.016206948 0.34243935 0.4532264 -1.2851894 -0.045964874 0.823632
0.22901984 -0.03215256 0.07703226 0.06890687 -0.034155488 0.6370351 -0.0022913215 -0.2054814
0.688876 0.42481557 -1.6536865 -0.4820863 0.17242607 0.1210233 -0.7709401 -0.61791986
0.009962985 0.11229264 0.26418608 -0.4716743 0.29034108 -1.5810237 -0.23328851 -0.13929015
-0.3140781 0.16302487 0.16143197 0.18012044 -0.48176616 0.092595965 -0.028424993 0.33284223
-0.21450494 -0.27014306 -0.09037919 0.33359593 0.078653 -0.023928689 0.8355158 -0.03663409
-0.43031797 0.00792523 -0.07838034 -0.017333647 -0.47826055 -0.6259274 0.11722984 -0.0014863334
-0.15510838 -0.077702016 0.17742237 -0.30822238 -0.40331346 -0.17216289 -0.035057735 -0.29591125
0.15378132 -0.09624866 0.05320434 -0.015680928 -0.11521284 0.0064833392 0.22425142 -0.112826526
0.44116244 0.15503514 0.20775844 -0.09806726 0.73730016 -0.24844298 -0.74459994 -0.28439698
0.058386236 0.14034294 0.55545336 -0.003570967 -0.43516007 -0.122079216 0.107768245 -0.18076073
-0.13298672 0.15188316 0.068010606 -0.17689928 0.09043932 0.006152304 -0.26254764 0.07698393
0.3217371 -0.11118117 -0.14593169 0.2911958 0.10755179 -0.16166088 0.12581728 0.34649232
0.079937294 0.08516347 0.0061354213 0.19556208 0.5291381 0.42556852 -0.08379123 0.07104389
-0.015281417 -0.075967364 -0.13763434 -0.5568976 -0.02694594 -0.1550064 -0.5455379 -0.06660659
0.2169109 -0.861144 0.16655394 0.6780209 -0.319125 0.46451294 -0.20682628 0.50900126
0.26961824 0.08406533 0.28782505 -0.3036766 -0.65611625 0.24957399 0.39754948 0.033616625
-1.4729671 0.4056662 0.46811992 0.12439106 -1.3367398 0.13824652 -0.062080935 -0.13718216
-0.46304306 0.17853962 -0.6999165 0.055279773 -0.09535695 -0.10547228 0.0037798465 -0.17682052
00000000: d710 67bf 7d04 3fbd 9343 44bf c293 93be
00000010: 92d6 f7be dd7a 043e a8d3 ccbf f58a 8cbe
00000020: 0b42 8a3e 37bf 043e d475 b73e f04e 0f3e
00000030: b002 00bf c691 303f 57fc 933e 4870 4f3e
00000040: b2a4 aebc 3ad8 b53e 4216 9ebe 10f5 503d
00000050: 60f9 a9be ce1b 39be c0d9 c93e d0ae b9be
00000060: 9584 00bf b305 bbbe 2d73 23be 69e2 3a3e
00000070: 9e01 07be 87aa 86bf a003 e6bc c618 c63d
00000080: f27e 0fbe 8de0 36bf 863a 9ebd b6bd 69bf
00000090: 27d4 c43d e5a1 0e3e 85e2 4bbe 56d7 0fbf
000000a0: 17d0 2dbe bd8a 8a3e f3fd bb3e 13af 3abc
000000b0: 87bb 39be 7e75 19be 0935 6f3b 9f8a 05bf
000000c0: 581e 92be 081d 54be d663 853e c568 063e
000000d0: b546 d73e 7b35 31bf b3a1 f23e 3640 4fbf
000000e0: 7a4a 2c3e 7636 f7bd c64c a33e 3c47 b8be
000000f0: a046 2cbe 1a93 c9bf c785 debe 9908 9c3e
00000100: f5ab 87be 8f19 11bf bf85 ba3e 329a c53d
00000110: abe8 82bc 8be5 923c c400 a5bf 949d 083e
00000120: 8640 83bf 55c8 c2bc 0a61 cabd bd8d eebd
00000130: 2d32 383e 4d11 0a3f d490 453e ce79 9f3e
00000140: 50e5 1dbe 0b6e 59be 7156 4c3c e7d9 883e
00000150: 4401 f63d cf4b cfbd 2b94 4f3e a3f3 08be
00000160: 3ad2 f0bd 10e4 133f 69dc 043e 8b8f 5a3f
00000170: 3a6a 003f 656e a5bf f6fe e4bd b795 ac3c
00000180: ba6a 86be b7f4 5abf 3547 8c3e f1dd 033c
00000190: c55c 07bc 8fd7 3b3f 6516 c13e 0bca 063f
000001a0: c08a ca3d 2fa4 18bf 6fc4 84bc 3654 af3e
000001b0: 4a0d e83e 1681 a4bf aa45 3cbd 8cd9 523f
000001c0: 2d84 6a3e 67b2 03bd 17c3 9d3d 0c1f 8d3d
000001d0: a0e6 0bbd bb14 233f ff29 16bb b769 52be
000001e0: 2d5a 303f 6d81 d93e 00ac d3bf 04d4 f6be
000001f0: 7690 303e 10db f73d 555c 45bf ff2f 1ebf
00000200: ca3b 233c aff9 e53d 6643 873e 4b7f f1be
00000210: 96a7 943e fc5e cabf 2fe3 6ebe 14a2 0ebe
00000220: d8ce a0be feef 263e 6c4e 253e 7e71 383e
00000230: 0eaa f6be f4a2 bd3d 88db e8bc 4c6a aa3e
00000240: 2fa7 5bbe 3150 8abe ba18 b9bd 16cd aa3e
00000250: d314 a13d 1906 c4bc 5de4 553f a10d 16bd
00000260: a352 dcbe d3d8 013c df85 a0bd 4bff 8dbc
00000270: 91de f4be c73c 20bf 3316 f03d 13d1 c2ba
00000280: bbd4 1ebe 3c22 9fbd 36ae 353e 53cf 9dbe
00000290: 1a7f cebe 784b 30be b398 0fbd ae81 97be
000002a0: da78 1d3e 041e c5bd cbec 593d 4a75 80bc
000002b0: b6f4 ebbd 3172 d43b 2aa2 653e 9811 e7bd
000002c0: 0be0 e13e 88c1 1e3e a1be 543e 7dd7 c8bd
000002d0: b4bf 3c3f d667 7ebe 1a9e 3ebf 7b9c 91be
000002e0: 6826 6f3d 0fb6 0f3e 3132 0e3f e206 6abb
000002f0: 4dcd debe ab04 fabd 99b5 dc3d 5719 39be
00000300: ac2d 08be 4287 1b3e 2549 8b3d 1625 35be
00000310: 4038 b93d 4499 c93b a56c 86be c0a9 9d3d
00000320: baba a43e f4b2 e3bd 1e6f 15be 9e17 953e
00000330: 1d44 dc3d 6e8a 25be 3fd6 003e 7167 b13e
00000340: 2ab6 a33d 2f6a ae3d a50b c93b 6d41 483e
00000350: 9875 073f 1ee4 d93e bd9a abbd 767f 913d
00000360: e95e 7abc c794 9bbd 04f0 0cbe d790 0ebf
00000370: bbbd dcbc ffb9 1ebe 5fa8 0bbf 0969 88bd
00000380: e41d 5e3e ef73 5cbf 1e8d 2a3e c792 2d3f
00000390: 5a64 a3be a4d4 ed3e 45ca 53be e84d 023f
000003a0: 670b 8a3e 722a ac3d ce5d 933e 807b 9bbe
000003b0: 3cf7 27bf 5390 7f3e 9b8b cb3e 96b1 093d
000003c0: 308a bcbf 7bb3 cf3e 6aad ef3e bdc0 fe3d
000003d0: 4a1a abbf 7f90 0d3e 9448 7ebd 7b79 0cbe
000003e0: fb13 edbe 17d3 363e ba2d 33bf 0b6d 623d
000003f0: 814a c3bd da01 d8bd 4db7 773b 7010 35be

output.6.bias f4 [128]
-0.26202306 0.08966796 0.5453198 0.16950826 0.49164012 -0.23135203 0.7053469 -0.63135815
0.1137849 -0.10154924 -0.21522318 0.48231936 0.11237738 -0.23142664 0.49262968 0.211908
0.38422513 0.7416004 -0.15867817 -0.0899355 0.059130725 0.23105787 0.7748896 0.017394507
0.014023465 0.6051712 -0.10434057 -0.08178912 0.47039935 0.23190558 0.104857944 -0.6731903
-0.0879367 0.18766473 -0.032132946 0.20723443 -0.6075365 0.09575994 -0.13683298 0.7329767
0.27161103 0.1131876 -0.66159713 0.25182086 -0.026276154 0.83477485 0.050250445 -1.0977497
-0.2103057 -0.13128197 -0.27233297 -0.24658346 -0.088462785 -0.17023611 0.2338024 -0.035270654
-0.04435875 0.09064409 -0.508212 0.9049369 -0.021476215 -0.05835257 0.031480573 0.7420045
0.18216918 -0.44093305 -0.2369768 -0.08801305 0.20694391 -0.343431 -0.01708142 0.11581341
0.27645877 0.22444047 0.13789335 0.5477967 -0.49236965 -0.17704274 -0.049871814 0.4006055
-0.038312063 -0.14380252 0.20139766 0.5923615 0.61794937 0.7834868 0.21644428 0.6709493
0.01861408 -0.99373674 0.06814984 0.5576558 -0.38523355 0.62174994 -0.1995427 0.6411461
-0.13732532 0.10420524 0.42980513 0.31267303 0.045819364 0.9887145 -1.1289306 0.07126636
0.15358941 -0.12617601 0.27776784 0.48798862 -0.4585793 -0.60523504 -0.46796674 0.4293329
0.55102754 1.0533984 -0.4376217 -0.31260613 0.07583648 0.016256448 0.63922465 0.32192072
0.6067687 0.4447402 0.025849134 -0.3016797 -0.29910755 0.79272974 0.362343 0.7735195
00000000: e327 86be d6a3 b73d 149a 0b3f 9393 2d3e
00000010: 41b8 fb3e 8ce7 6cbe 9d91 343f b0a0 21bf
00000020: 0f08 e93d 0cf9 cfbd 7763 5cbe 90f2 f63e
00000030: 1d26 e63d 1bfb 6cbe f539 fc3e 69fe 583e
00000040: 28b9 c43e 86d9 3d3f 887c 22be 1a30 b8bd
00000050: 0f33 723d 6f9a 6c3e 2a5f 463f ed7e 8e3c
00000060: adc2 653c 80ec 1a3f 82b0 d5bd 0e81 a7bd
00000070: 2fd8 f03e a878 6d3e c3bf d63d 3356 2cbf
00000080: 2818 b4bd 2f2b 403e d69d 03bd 4335 543e
00000090: 8387 1bbf ca1d c43d f21d 0cbe 5ca4 3b3f
000000a0: 9a10 8b3e e7ce e73d 6e5e 29bf aaee 803e
000000b0: 1741 d7bc ceb3 553f 69d3 4d3d 1083 8cbf
000000c0: 615a 57be c86e 06be 3a6f 8bbe 6080 7cbe
000000d0: fa2b b5bd 6052 2ebe e569 6f3e f677 10bd
000000e0: 85b1 35bd 9ca3 b93d 2e1a 02bf f2a9 673f
000000f0: e3ee afbc 1b03 6fbd c6f1 003d 02f4 3d3f
00000100: 8f8a 3a3e fac1 e1be 0caa 72be 3040 b4bd
00000110: 1be9 533e 30d6 afbe 56ee 8bbc 952f ed3d
00000120: 018c 8d3e b9d3 653e ea33 0d3e 683c 0c3f
00000130: e017 fcbe b14a 35be 6346 4cbd 2a1c cd3e
00000140: 1ced 1cbd f840 13be 303b 4e3e 01a5 173f
00000150: ee31 1e3f 9792 483f 92a3 5d3e 55c3 2b3f
00000160: 8e7c 983c 8865 7ebf 2592 8b3d 88c2 0e3f
00000170: 553d c5be 012b 1f3f ec54 4cbe 2722 243f
00000180: 029f 0cbe 8f69 d53d 6b0f dc3e ae16 a03e
00000190: 16ad 3b3d 651c 7d3f cc80 90bf 19f4 913d
000001a0: 8b46 1d3e 4934 01be 9637 8e3e a5d9 f93e
000001b0: e8ca eabe aff0 1abf 5699 efbe 86d1 db3e
000001c0: 2410 0d3f c2d5 863f f40f e0be e90d a0be
000001d0: 2850 9b3d 3e2c 853c 3aa4 233f cbd2 a43e
000001e0: 3255 1b3f fdb4 e33e 90c1 d33c c375 9abe
000001f0: a024 99be 56f0 4a3f 0685 b93e 6005 463f

output.8.weight f4 [7, 128]
0.56096584 -0.14632896 0.048141096 0.43785217 0.06496073 -0.17291576 0.18640567 -0.06106298
-0.44632375 -0.38032484 0.0779803 -0.7340575 -0.1249367 -0.40587053 -0.11612331 0.14362638
0.08574183 0.14971155 0.020290542 0.15890783 -0.12813124 -0.99646765 0.30085734 -0.22080918
-0.143248 0.021355392 0.06748522 -0.21908955 0.23693813 -0.44231266 -0.025189403 0.09905333
0.0020822834 -0.44736496 -0.75312364 -0.41094255 0.036609165 -0.30017546 -0.07944262 -0.14660683
0.07294413 0.08685335 -0.016183 0.4098619 0.08782017 0.0848026 -0.9944211 0.279543
0.30020422 -0.042928156 -0.14384572 0.20908582 0.5059537 -0.2623228 -0.3214855 0.08611163
-0.047114816 0.24720776 -0.18542612 0.07549993 0.64196104 0.013331214 0.079681 0.05799068
-0.21956344 0.05951218 0.03176986 0.06278217 -0.6358632 -0.032470994 0.11726031 -1.1995169
-0.1273536 -0.19228292 -0.9839161 -0.34200278 -0.055010665 0.5335703 -0.19553615 0.02296838
0.30499768 -0.96896803 -0.00081922195 0.26995653 -0.0405599 0.37476352 -0.02252865 -0.11315595
-0.42333636 -0.33478454 0.14958066 0.09755599 0.7994971 -0.009617191 0.10426023 0.41431794
-0.122278586 -0.012286574 -0.054263115 0.19568089 -0.32150516 0.2405676 0.06744074 0.19329317
0.26627928 0.113927595 -0.94731224 -0.09913265 -0.13452032 -1.1988958 -0.54103214 -0.61136013
-0.2832308 0.25594708 -1.9699819 0.2859127 -0.23692621 -0.08544174 0.039589413 -0.14815097
0.11854586 0.08166023 -0.050310254 0.08637821 -0.6553573 0.054460157 -0.18315397 0.22439598
-0.39450926 0.23590326 0.20721969 -0.08934642 0.56020814 0.43122786 -0.26562753 0.18420252
-0.69251657 -0.3217806 0.06592134 -0.1876329 0.31749696 0.2270728 -0.6541965 -0.09627761
0.029388525 -0.16421227 -0.12085749 -0.50341684 -1.215493 0.11468781 -0.91721904 0.21833523
-0.8828973 -0.2150772 -0.10283808 0.08121958 0.041065026 -0.6631207 -0.8278732 -0.30100432
-0.0047216653 0.22979334 0.5117077 0.62206215 -0.27626866 -0.00878434 -0.09679832 -0.3873178
-1.1061321 -0.7289187 -0.25283206 -0.28961083 0.46108726 0.19566055 -0.4022472 -0.00773325
-0.41088215 0.2336494 -0.56820935 -0.19250469 -0.06186765 -0.11139265 -1.2835432 0.6377313
0.3729242 0.5282339 -0.10097942 0.4613179 -1.5782534 -0.039999746 0.62065184 -0.9491676
0.3877796 0.5388088 0.2247598 -0.11228557 -0.51155996 0.014028419 0.08429948 -0.14343011
0.08368229 -0.665041 -1.7069801 -0.6239813 0.2652206 -0.0061211693 -0.063529275 0.06858878
-1.5493168 -0.70037097 -0.78572804 0.37080014 0.5795665 0.5036267 -0.19392751 0.3319016
-0.25262928 0.7040231 0.23446096 0.014032749 -0.60951924 -0.27010414 -0.13876604 -0.45517388
-0.11235614 0.5257957 -0.2329897 -0.52111924 0.5411619 -0.9291394 -0.3321469 -0.61815965
0.74092644 -0.22312482 -0.5131121 0.114779316 -0.087629445 -0.12124477 0.043238204 0.8673421
0.15270482 -0.50538206 -0.26586652 0.21719679 -0.044981208 0.47676882 -0.5733119 -1.3762498
-0.25384068 0.26570573 0.29746634 0.020860717 0.19634056 -0.5021975 0.06800968 -0.2139926
00000000: 759b 0f3f 42d7 15be 992f 453d 292e e03e
00000010: 220a 853d d410 31be 21e1 3e3e 2d1d 7abd
00000020: 8c84 e4be f0b9 c2be 23b4 9f3d 31eb 3bbf
00000030: d0de ffbd 43ce cfbe 0fd2 edbd cb12 133e
00000040: 6a99 af3d fc4d 193e 5a38 a63c bcb8 223e
00000050: d634 03be 8118 7fbf f909 9a3e cd1b 62be
00000060: 9baf 12be 81f1 ae3c b135 8a3d 0359 60be
00000070: e99f 723e ce76 e2be 025a cebc 79dc ca3d
00000080: eb76 083b 050d e5be b6cc 40bf 1067 d2be
00000090: 7ef3 153d 99b0 99be d0b2 a2bd 1a20 16be
000000a0: bb63 953d 2be0 b13d 3692 84bc 6bd9 d13e
000000b0: 10db b33d fcac ad3d 6292 7ebf 4320 8f3e
000000c0: 5eb4 993e 6fd5 2fbd 4b4c 13be 981a 563e
000000d0: 2f86 013f 2d4f 86be bf99 a4be 4b5b b03d
000000e0: 77fb 40bd 0824 7d3e 58e0 3dbe b59f 9a3d
000000f0: 8f57 243f 2a6b 5a3c cb2f a33d a387 6d3d
00000100: 3dd5 60be 0bc3 733d 1d21 023d f093 803d
00000110: eec7 22bf 4e00 05bd 2c26 f03d c589 99bf
00000120: fb68 02be d0e5 44be ede1 7bbf fd1a afbe
00000130: dd52 61bd 1098 083f a13a 48be 2f28 bc3c
00000140: a828 9c3e 4a0e 78bf 0ec1 56ba be37 8a3e
00000150: 2322 26bd 01e1 bf3e 018e b8bc 4fbe e7bd
00000160: 8bbf d8be e168 abbe ac2b 193e 6fcb c73d
00000170: d8ab 4c3f 6c91 1dbc 6386 d53d 7b21 d43e
00000180: 326d fabd a04d 49bc 0043 5ebd 9260 483e
00000190: 539c a4be 5a57 763e 5f1e 8a3d a5ee 453e
000001a0: c255 883e df52 e93d 0e83 72bf 0f06 cbbd
000001b0: b2bf 09be 6b75 99bf 1581 0abf 1982 1cbf
000001c0: a103 91be 7f0b 833e 5e28 fcbf 2663 923e
000001d0: c99c 72be 14fc aebd 8228 223d e3b4 17be
000001e0: 2cc8 f23d 7b3d a73d 2012 4ebd 0fe7 b03d
000001f0: 7fc5 27bf 9d11 5f3d b78c 3bbe 0fc8 653e
00000200: 1efd c9be a090 713e 6631 543e 41fb b6bd
00000210: cd69 0f3f e6c9 dc3e 5500 88be 969f 3c3e
00000220: c448 31bf 6dc0 a4be c401 873d d722 40be
00000230: f68e a23e c685 683e 6c79 27bf 322d c5bd
00000240: 34c0 f03c 4327 28be 2284 f7bd eddf 00bf
00000250: 4695 9bbf 71e1 ea3d dece 6abf 4593 5f3e
00000260: 8f05 62bf 333d 5cbe c59c d2bd 7356 a63d
00000270: cd33 283d 47c2 29bf 7fef 53bf 3d1d 9abe
00000280: 33b8 9abb f24e 6b3e 47ff 023f 773f 1f3f
00000290: 1673 8dbe 31ec 0fbc 333e c6bd 854e c6be
000002a0: bd95 8dbf 6a9a 3abf 3473 81be df47 94be
000002b0: a113 ec3e 3d5b 483e 58f3 cdbe 3467 fdbb
000002c0: 255f d2be ca41 6f3e 2b76 11bf f31f 45be
000002d0: ef68 7dbd d421 e4bd 254b a4bf 5c42 233f
000002e0: ecef be3e 563a 073f 4cce cebd dc31 ec3e
000002f0: 3504 cabf c6d6 23bd 0ae3 1e3f a6fc 72bf
00000300: 0c8b c63e 60ef 093f 6f27 663e faf5 e5bd
00000310: 98f5 02bf 74d7 653c 35a5 ac3d 58df 12be
00000320: 9f61 ab3d 2140 2abf 537e dabf 3dbd 1fbf
00000330: ffca 873e 1794 c8bb a31b 82bd 4678 8c3d
00000340: 0350 c6bf 834b 33bf 7925 49bf 84d9 bd3e
00000350: 785e 143f aeed 003f ef94 46be 02ef a93e
00000360: a058 81be dc3a 343f 8916 703e 9ee9 653c
00000370: 7409 1cbf 174b 8abe af18 0ebe 8d0c e9be
00000380: fa1a e6bd 8c9a 063f da94 6ebe 1268 05bf
00000390: 9689 0a3f 14dc 6dbf 290f aabe b63f 1ebf
000003a0: 5bad 3d3f d57a 64be 515b 03bf 6b11 eb3d
000003b0: 1177 b3bd 2e4f f8bd 8b1a 313d 220a 5e3f
000003c0: a75e 1c3e b860 01bf a81f 88be d668 5e3e
000003d0: 373e 38bd 0b1b f43e 92c4 12bf f428 b0bf
000003e0: 68f7 81be 950a 883e 824d 983e 18e4 aa3c
000003f0: 800d 493e 0490 00bf a948 8b3d e020 5bbe

output.8.bias f4 [7]
0.29228583 0.037811343 -0.43912458 0.1155279 -0.03783953 0.14642134 -0.29933167
00000000: 7da6 953e 11e0 1a3d f0d4 e0be e499 ec3d
00000010: 9ffd 1abd 7aef 153e 0042 99be
