output/models/73.52Acc_H1_ThreeLayers450_10_512Units_ReLU_CrossEntropyLoss_Adam_0.001lr_200000epochs_10batches.pth (torch, 72009 bytes, 8 tensors)

output.0.weight f4 [450, 6]
00000000: 0033 8d3e 849d c1be 94b0 bd3c f8a2 b53d
00000010: 22d4 32be c12d 55be 9ea1 6b3d f164 97bc
00000020: 06ae e43c 1f58 9fbe c334 73be c73d 4e3e
00000030: ef6f ac3e e0e0 bbbe 60c4 903e 615e 63bd
00000040: 441f 8f3d 4613 b2be 2be0 503e 322d 843d
00000050: 52af af3e 293a bbbe 90b1 99bd e251 2e3e
00000060: aad5 673e 119c bbbd 938c 7cbe 6dc0 af3e
00000070: 5701 e03d a065 93bd bc5e 4f3e 3634 433d
00000080: 0dd2 a23d b797 993d 68c7 a3be c8b3 843e
00000090: 2cfb d3be 5def 203d 3001 9dbe 9cb7 ba3e
000000a0: 817c f7bc 053d b8be f1eb 15be 78b4 ca3e
000000b0: 09a4 50be 9d4a a0bc 553b d93d b900 a9be
000000c0: 7af3 3f3e 9c60 cb3d 38e9 7d3e 7bd8 963d
000000d0: a275 493d 0ecc 2dbe 9753 6b3d 976e 45be
000000e0: 5492 52be a03e 7b3e 8f1e a6bc 6c1b cbbe
000000f0: 5d27 af3e 3cc6 4f3e e840 eabd ce57 ab3e
00000100: b207 fbbe c55b df3e f23f bcbe 3564 bfbe
00000110: f362 a83e ecc3 083d 06e0 bbbd 3cfb ac3e
00000120: 11e8 bebe 9cef 083e 6baf 02ba 6b05 743e
00000130: 0562 023e 263b 5fbe 306a 4f3e 6627 b03e
00000140: a2bf 83be 4cfb 3ebd 8da6 ea3e ab24 5dbe
00000150: ed8a 9f3e 9d8e e7bd e458 cc3e a792 d1bd
00000160: 3be8 c43e 51f5 c43e c092 943e 0547 ae3d
00000170: 0c25 7fbc ee24 683d 19c4 943e 0b54 04be
00000180: af66 c3be bf78 eebe f809 443e 9597 72be
00000190: 4777 70be b5ee f23d b4c5 4d3d 655c adbe
000001a0: cdda 953e 2094 a63d 3e29 9b3e 11ca 4b3e
000001b0: 7389 aebe a8bb 34bd ff20 c9be a01e 56bd
000001c0: 2a7b c4be 14da 69be 0f5a a23e 9b94 9dbc
000001d0: 0d6b b53e 35f8 5ebe b06a a63e df28 a6be
000001e0: 1f60 a63e f022 513e d2ed 193e 5a34 a53e
000001f0: 9d86 0e3d db08 c03c 9351 d8bd 59a0 bcbe
00000200: 0c62 7c3e 37ff 523e c3ae 4a3e f7c9 813e
00000210: 5933 6abe ac05 9fbe 5914 6a3e 3c71 bebe
00000220: 8518 b13e 9cba cf3d bfee 6c3e 63d4 fcbe
00000230: 6c57 dabe e98e 0e3e d3da 8a3e 4226 2ebf
00000240: f5d8 af3e 8048 c93d bc9d 813e f648 abbd
00000250: 5984 5b3e f309 a3bd 1552 8cbe 233c ca3d
00000260: 1375 bc3e e7f2 c73e bfe5 48be 4a10 24bd
00000270: 0a57 303e 6fcf b0bc 963c ee3b 0cd2 c63c
00000280: 6945 0f3c 7835 b93e 8143 95be 2682 053e
00000290: 9f97 853e b8f5 4fbe 5ccf fdbe 0535 863e
000002a0: f9fa d4be 07b0 503e cd15 c13d 7eac d8be
000002b0: 5279 4e3e 7b66 91be d58b 6cbd 5cce 2a3e
000002c0: 18aa 75be 3bd7 6f3e af85 64be fce0 243e
000002d0: a7d4 903e be36 723e 6353 e13d 17b6 a2be
000002e0: 2af5 99be 27bc 473e 7d3d babe 68ea 7fbe
000002f0: 613b 3ebe 9e2a bc3e 110a 8abe eac4 4a3c
00000300: be96 b93d bcdc ad3e 720c dc3d 1a2b 24bd
00000310: 7a26 8abd 195b c5be 5153 9a3e 23b5 23bf
00000320: 3490 61bd 7a45 1a3e 03bd c0bb 5671 03bf
00000330: 149c 5abe 4207 b2bd 8a0f aa3e c995 d4bb
00000340: 61a2 ef3d 970b 3b3e f10b d1bc e73d 693e
00000350: 524a 40ba 2ec1 8f3e 0553 633b 38cb 7bbe
00000360: 1334 3cbe 5008 92bc a854 48bd 2741 b0be
00000370: bb59 a5be e636 8d3e 72b9 c33d ec5e ca3d
00000380: a59e f7bd 884f 53be 9f97 993e ad9f 8ebe
00000390: d8f9 003e 24c4 f23d b056 f73d fb82 a7be
000003a0: 4dd9 573d e3e2 47be 1e48 3fbe 4a96 0b3d
000003b0: e33f bb3d 8733 2bba 7f37 f2bc 393b 6f3b
000003c0: 80c9 7dbe 7222 b3be b36f b73d fd76 acbe
000003d0: 771c 013f ba65 f63e 3d60 b23e 9590 84bd
000003e0: 25cf db3b fad5 d23e c615 dcbd aa63 213e
000003f0: 20b2 87be 6172 43be 09ed 7f3e e3c5 bdbd
0.27577972 -0.37815487 0.023155488 0.088689744 -0.17463735 -0.20818235 0.057527177 -0.01848075
0.027915012 -0.3112192 -0.23750596 0.20140754 0.3367915 -0.36695004 0.28274822 -0.05550993
0.06988385 -0.3478033 0.20398013 0.06453933 0.34313446 -0.3656781 -0.075045705 0.17023423
0.226401 -0.09160627 -0.24663 0.34326497 0.109377556 -0.07197118 0.20250982 0.047657214
0.0795022 0.074996404 -0.31988072 0.25918412 -0.41402566 0.039290775 -0.30664968 0.36468208
-0.030210735 -0.35984054 -0.14640786 0.39590812 -0.20375074 -0.019566828 0.1060702 -0.33008364
0.18745223 0.09930536 0.24795997 0.07365509 0.04918445 -0.16972372 0.057452764 -0.19280468
-0.20563632 0.24535608 -0.020278243 -0.3966936 0.3420972 0.20290464 -0.11438161 0.33465427
-0.4902931 0.43624702 -0.36767536 -0.3738114 0.32887992 0.03338997 -0.091735885 0.33785427
-0.37286428 0.13372654 -0.0004985246 0.23830192 0.12732704 -0.21799907 0.20255351 0.3440506
-0.25732142 -0.046626374 0.45830193 -0.21596019 0.3116068 -0.11306498 0.39911568 -0.1023305
0.38458428 0.38468412 0.2901821 0.0850964 -0.0155727975 0.056675844 0.2905586 -0.12922685
-0.3816428 -0.46576497 0.19144428 -0.23690636 -0.23483 0.11861936 0.050237373 -0.33859554
0.29268494 0.08133721 0.30304903 0.19901301 -0.3408924 -0.044124275 -0.39282987 -0.0522753
-0.38375217 -0.22837096 0.31709334 -0.0192359 0.35433236 -0.21774371 0.3250327 -0.32453057
0.3249521 0.20423484 0.15032127 0.32266504 0.034796346 0.023441723 -0.10562434 -0.36841086
0.24646777 0.20605169 0.19793229 0.253494 -0.2287115 -0.31059015 0.22859325 -0.37195766
0.3458902 0.10143015 0.2313795 -0.49380788 -0.42644823 0.13921703 0.27120075 -0.68027127
0.34345213 0.098282814 0.25315654 -0.083635256 0.21437205 -0.07960882 -0.27406374 0.098747514
0.3680807 0.39052507 -0.19618891 -0.040054597 0.17220703 -0.021583287 0.007270406 0.02427008
0.008744576 0.36173606 -0.29153064 0.13037929 0.2609224 -0.20308578 -0.49572265 0.26212326
-0.41597727 0.20379649 0.09427986 -0.423191 0.20163468 -0.283985 -0.05775054 0.16680282
-0.23990667 0.23421948 -0.22316621 0.1610145 0.2828724 0.23653695 0.11002233 -0.3177955
-0.30069858 0.19505368 -0.36375037 -0.24991763 -0.18577339 0.36751264 -0.26960805 0.0123760495
0.09061955 0.3395747 0.10744561 -0.040080167 -0.0674562 -0.38546064 0.3014169 -0.6394827
-0.055069163 0.15065566 -0.005881907 -0.5134481 -0.21348602 -0.086927906 0.3321498 -0.0064875823
0.11700893 0.1826614 -0.02551839 0.2277752 -0.00073352933 0.28077072 0.0034686935 -0.2458924
-0.1837924 -0.01782623 -0.04890886 -0.34424707 -0.3229502 0.27580947 0.09556855 0.09881386
-0.12090806 -0.20635808 0.2999849 -0.27856198 0.12595308 0.11853817 0.12077081 -0.32717118
0.05269747 -0.19520144 -0.18679854 0.034078874 0.09143045 -0.00065308105 -0.029567478 0.0036503805
-0.24783897 -0.34987217 0.08956852 -0.3368453 0.5043406 0.48124486 0.3483905 -0.06472889
0.006708043 0.41178876 -0.107463405 0.15760675 -0.26503086 -0.19086601 0.24992765 -0.092662595

output.0.bias f4 [450]
00000000: da94 cabe a33e 08bf 6333 7abe 6f35 e4be
00000010: bfd2 963b d16d 3ebc 7359 3f3e 8d9d e83d
00000020: 0643 6cbe 2924 42bb 3b97 37be 4deb 133f
00000030: 2987 f13c 720a cb3c 8a2c 183f 8caa d8be
00000040: 1882 09bf 2dd7 e53e e027 833e 6e3f d13e
00000050: 9e12 e53e 7906 48bd 736b 203f 599b ccbe
00000060: 98a5 cbbe 543a 95be 8209 e13c b7a5 cbbd
00000070: f32f 9dbe f721 563e aefd a6bd 53cb 913e
00000080: e4e3 a93d 8874 0b3f 5e99 b93e 4474 753e
00000090: c85c 513e e76c ce3d d7e2 c63e 5cc4 0fbf
000000a0: 601b 4b3e f0fa 4bbf 2b3c c2be b740 113e
000000b0: f494 e6bc ef91 86be 134f 2fbd 20fc cbbe
000000c0: 8c23 1a3e 016c 283e 5add 23bf fbe5 31be
000000d0: cf13 93bc 095a 89bd 967c e2be 6853 7e3e
000000e0: b7e5 37be b72e 853e 2f3f af3e d929 ecbe
000000f0: d300 853e c12a 77bd 91e3 0e3f 5573 3ebf
00000100: e957 ffbd 07b2 c7be 97b0 2bbf 68b6 b1be
00000110: 6249 563e 3b05 9a3e d89c 1abc f5f3 c53c
00000120: a3ec fcbe a147 11be 57e2 05be 9137 903e
00000130: a7a9 da3e 3696 03bf c8f3 47be cd23 19bf
00000140: f96f afbe f47f 95be a345 94be 9d0e 09be
00000150: 76c3 abbd e3e9 893e 611a 70be d79e 233e
00000160: ac7a 773e 61d2 12bf 51e6 4a3e f09f a8be
00000170: d8da 40be 0811 2c3e 6da4 edbe dd0f 02be
00000180: 0242 6a3c 804b af3e 496a 3f3e f8ba 7bbd
00000190: 091e 65be ce55 abbe 41d3 02be 0eb4 c8be
000001a0: 47df 34bf f85d f13e 4c47 f83d 6bd7 bcbe
000001b0: a0d6 97bc 25e3 943e 9311 17bd 148d a83c
000001c0: fc77 a5bd 6637 15bf 2bc4 f4bd 9f38 00bf
000001d0: d4ac 36bf 3b15 f5be 9e5d e33e 0007 3abc
000001e0: 73b5 5fbe 60a0 11bf 50f2 783d 1f5c 61be
000001f0: 3c3c 083f b443 96bd d7b2 20bd ec90 f33e
00000200: ca83 67be fc87 413e 0cbc 723e 08fd 08be
00000210: 6e57 e33e 5640 bdbe 17cb 03bf 32cf bd3e
00000220: 2db3 ecbd e779 593d 3c10 7abe cd38 c4be
00000230: 1b7b 28bf b00f a93e c95b 623e 753b 39be
00000240: c409 60bd 6c55 9b3e 51fd 9cbe 7b90 bbbd
00000250: e1f5 993d 6ebc 033f 9214 a5bd 6282 5bbe
00000260: 999b f13e e303 fd3d 7a1b 93be 8caa 403e
00000270: afdc 97bc 14b1 f43e d8df e63d a328 8f39
00000280: 6921 a63e 0458 813d e004 7b3e 6c75 07bf
00000290: 571a f5be c24b 75be dbdb 7e3e 9fcf 213d
000002a0: 3e4d 253f 9465 e7bc e104 3bbc c2ea 91be
000002b0: 0a3a ee3e 044f 4fbe 04d1 eb3d f3ee c53e
000002c0: 561e b13e 266a 383e 706e de3e d8a5 123f
000002d0: e09c 86bd a06a bbbe 68ea 433f f3e7 d03e
000002e0: fb25 3d3f bef3 903d 542f cf3e c392 1e3f
000002f0: d68f 633e 09f4 30be 1ef8 40be 295e 43bf
00000300: ee83 ce3e be0a 023f 0128 37bf 4278 20bd
00000310: a5be d53d 82c2 673d 38b8 a23e 6875 373d
00000320: 9b09 d63d 6217 bc3e 9764 c5be eb9e c6be
00000330: e8a0 9bbe 8a36 75be 2de9 9b3e 35b2 b4bd
00000340: 4047 5d3e af96 863e 311f 6fbd aaf8 bdbd
00000350: 2038 973c e044 c63e 1532 b23e 76e7 433e
00000360: 7a2e c63e 8b75 a33d 03d8 c0bd 6543 e13e
00000370: 474b fbbd b612 f13e daa8 4fbe 6914 22bf
00000380: 2ae1 92be dbf4 193f 0986 59bd 58e1 81be
00000390: a921 8ebe 24cf 41be 48c1 63be f137 94be
000003a0: c08f 483d 9a07 a8bd f92c d73e f424 9a3e
000003b0: 454a 20be 54ae a2bc 5a1e 523e 3ff4 1a3f
000003c0: e2fa e5be ba19 e5bc 0071 3d3d 8a64 343e
000003d0: 53fa 60bd 17da b23e e295 7a3e 15fa 563e
000003e0: b516 e63e 3437 6fbe de7e 1c3e 6813 dc3e
000003f0: d4f3 2b3e 5433 5e3e 0381 fe3e 2f3f 5cbe
-0.3956669 -0.53220576 -0.24433665 -0.44572017 0.0046027596 -0.011622862 0.18686466 0.113581754
-0.23072442 -0.0029623604 -0.17928784 0.57780915 0.029483395 0.024785254 0.5944296 -0.42317617
-0.5371413 0.4489073 0.2561636 0.40868706 0.44740766 -0.048834298 0.62663954 -0.3996227
-0.39774776 -0.29146063 0.027470354 -0.09943717 -0.30700645 0.20911394 -0.08153854 0.28475437
0.0829542 0.5447469 0.36249822 0.23970133 0.2044555 0.10079365 0.3884494 -0.56158996
0.19834661 -0.79679775 -0.3793653 0.14184843 -0.028147198 -0.26283213 -0.04280002 -0.39840794
0.15052623 0.1644745 -0.6400963 -0.17372887 -0.017953781 -0.06706626 -0.44235677 0.24836504
-0.17958723 0.26012203 0.34227893 -0.46125677 0.2597719 -0.060343508 0.5581599 -0.7439473
-0.124679394 -0.39003012 -0.6706633 -0.34709477 0.20926431 0.30082116 -0.0094368085 0.02416418
-0.4939929 -0.1418748 -0.13074623 0.28167394 0.4270756 -0.5140108 -0.19526589 -0.5982025
-0.34265116 -0.29199183 -0.2895938 -0.13384481 -0.083868906 0.26936254 -0.23447563 0.15978561
0.2416789 -0.5735226 0.19814421 -0.32934523 -0.18833482 0.16803372 -0.4641451 -0.12701364
0.014297964 0.3423729 0.18692888 -0.061457604 -0.22374739 -0.334639 -0.127759 -0.3919987
-0.70653194 0.47142005 0.12122974 -0.368831 -0.018534958 0.29079548 -0.036881994 0.020575084
-0.08079526 -0.58287656 -0.119514786 -0.50086397 -0.71357465 -0.4786776 0.44407362 -0.011354208
-0.21846561 -0.5688534 0.060777962 -0.22007798 0.5321691 -0.07337132 -0.039233055 0.47571504
-0.22608867 0.1889953 0.23704547 -0.13377774 0.4440264 -0.36963147 -0.51481766 0.3707214
-0.115576126 0.05309477 -0.24420255 -0.38324586 -0.65812844 0.3301978 0.22105326 -0.18089087
-0.054696813 0.3033861 -0.30662015 -0.09158417 0.07517601 0.51459396 -0.08060564 -0.21436456
0.47189024 0.12354257 -0.287319 0.18815058 -0.018537847 0.4779135 0.112731636 0.00027305362
0.32447365 0.06315616 0.24513578 -0.52913547 -0.47871658 -0.2395468 0.24888556 0.039504644
0.6457099 -0.028246678 -0.011414737 -0.28499418 0.46528655 -0.20244986 0.11514476 0.38658866
0.34593457 0.18009242 0.43443632 0.5728431 -0.0657289 -0.36604786 0.7652955 0.40801963
0.7388608 0.0707774 0.40465796 0.6194269 0.22222838 -0.17280592 -0.18844649 -0.7631555
0.4033503 0.5079764 -0.71545416 -0.039177187 0.10436753 0.05658198 0.31781173 0.0447897
0.10451051 0.3673659 -0.38553306 -0.3879312 -0.303962 -0.23946586 0.30451337 -0.08823053
0.21609211 0.26286837 -0.058379356 -0.092759445 0.01845938 0.38724422 0.34803835 0.19131264
0.38707334 0.07981404 -0.09416201 0.4399673 -0.122702174 0.47084588 -0.20279256 -0.63312393
-0.28687412 0.60139245 -0.05310634 -0.25367236 -0.27760056 -0.18926674 -0.222417 -0.2894893
0.048965216 -0.08204575 0.420265 0.30106318 -0.15653332 -0.019858517 0.2051939 0.6052894
-0.4491797 -0.027966369 0.046250343 0.17616478 -0.054926228 0.34932014 0.24471238 0.20993836
0.449392 -0.23360902 0.15282771 0.42983556 0.16792232 0.21699268 0.49707803 -0.21508478

output.2.weight f4 [10, 450]
00000000: 1f4a e8bc 4b8e a33c a975 14bd a9d1 75bd
00000010: ff8f 04bd 66cb 8f3c 45d3 b73b c755 4bbd
00000020: cb91 a03c 9d39 af3c 265d 233d ce0a cbbc
00000030: faa7 e9bc e55b b8bc 9101 3fbb 8f5a 5ebd
00000040: 3ef3 15bc 89dc 6b3c a00c 573c 66c4 be3c
00000050: b1a3 013c a201 67bd 3d26 913c dbca 41bc
00000060: 6054 80bd bcda 86bd 5059 95bc 41ed 93bc
00000070: 4822 a13c ddb3 94bc 3264 91bc 0126 8a3c
00000080: 0e7b b63c d1f6 453d fa33 66bd 4b13 283c
00000090: 6475 3abc 1c42 18bc 418d 0e3c fd86 2d3c
000000a0: 52dc 65bc 7662 a33b 18d8 32bd 28d2 453c
000000b0: eacd 9abc 21e6 ee3c f1ff 46bb 61c3 56bd
000000c0: 96f1 e1bc 218b 80bd 1fa0 693b 260d c93c
000000d0: 7c45 053d d9b8 23ba 8464 3abd 4ff1 1b3d
000000e0: 0849 493d e7f6 22bd 828e e03c 5883 d6bc
000000f0: 796f 4cbd a3a4 51bc 8446 17bc f631 edbc
00000100: d53d ee3c bc21 7abc f9d5 1fbd 10b3 cc3c
00000110: 2240 3bbd e502 c4bd 8aad f33a 618f eb3c
00000120: b46e 59bd a6a8 c3bc a212 e1bc ebdd 4dbd
00000130: e920 fcbc aff5 de3c 4877 52bd 2df0 18bd
00000140: 6ceb 2bbc 9045 043c 723a 34bd cc46 2ebd
00000150: 7a6b 333c b030 8abc a9d2 41bd 71d8 c23c
00000160: a6d4 68bc 60f1 433d 0ed0 f33b 0a32 123d
00000170: a40d 69bc 4fc5 0fbd 92eb 54bb 4d8b 5e3d
00000180: c6c3 a33c c3f8 dc3c 6784 d0bc dfb5 14bd
00000190: b31e d5bc b561 1a3d d5f0 47bd f389 18bd
000001a0: b30c 1fbd 7ffa 68bc ce55 bdbb 55fe 973b
000001b0: 71e2 0fbd 4b7d 1ebc c70d d53c f92d 9dbc
000001c0: 8cd8 1bbc d30c 65bd 39c3 633c e430 bebc
000001d0: 1200 1a3c 0260 17bd 7ef6 673c 4a7d 20bc
000001e0: a4fe 87bd f5d8 21bd aa6b 25bd 8c20 f6bc
000001f0: 2c10 1fbd 4106 49bd 887e 34bb d4d5 963c
00000200: 2b45 3bbd 5fa8 fc3c c434 babb 4efa d33c
00000210: a20e d9bc 65f8 39bc 0ca3 813d 0291 1bbd
00000220: 72a1 6dbc 8d5e 0a3d 0afd 88bc b9d5 fc3c
00000230: f459 51bc 00c1 273c 07b2 ab3c dff3 3e3d
00000240: 1cb3 243d 34e4 a13c 7d41 2ebc cca1 d03c
00000250: d72c 963c 1059 01bd bba1 24bd a685 f73c
00000260: 45b1 04bd 4d4d 263c 894a 83bc 9c65 d9bc
00000270: 8666 dcbc 6b07 8e3c 97d5 203d aeff 103d
00000280: 2a20 42bd 4bfe d03b dca6 7a3d dc00 233c
00000290: e6d0 403c fc27 4dbc bc7a 8bbd 95ba 003d
000002a0: e546 00bd 4ba5 f6bb 5da7 d53c 3671 cebc
000002b0: 0e44 483c 8020 4a3c 15ff ad3b bb6f 66bd
000002c0: 215b 033d dc03 a53c cb7c 6f3c 594a 42bd
000002d0: f134 353d 1a5b 963c 4609 4abd e334 913c
000002e0: 4368 12bd e814 c9bc af42 1fbb 4fcf 49bd
000002f0: edaf d33b 48b7 1c3d 91f6 ca3c a266 b13c
00000300: 23e6 1f3d 64b2 88bd ee96 1dbd 20e7 69ba
00000310: 09e9 b4bc ba8f 05bd dfa8 0fbd 416c 383d
00000320: be49 04bd 5062 c9bc 5044 e43c a416 143c
00000330: 199a edbc db86 38bd 72be bdbd 8773 9b3c
00000340: bc38 9cbc ab4c edbb 9948 a13c 7a95 27bd
00000350: da05 bd3c 3a20 ac3c 56a5 1dbd f18e 15bd
00000360: 1050 4abd 9327 b13b 98ce c33c c961 c6bb
00000370: be48 d5bc 90d5 60bc ef69 c63c 5962 24bd
00000380: 76e3 94bc b1b8 44bd 2788 ddbc 4fb8 983c
00000390: 46e9 b73c bcbd 8a3c dc16 973d e3fc d7bc
000003a0: 96eb f13c 7c17 68bc 7aa2 2cbd 70f1 d03b
000003b0: 785e edb8 430c 42bb c40c cb3b 8aa8 9fbb
000003c0: 077e a9bc 1191 333d 06dc f2bc 23d1 a83c
000003d0: 5b00 80bd ee98 943b 09c7 19bd d548 1abd
000003e0: d74b 60bd 7e72 da3c dd64 0cbc b74e 2fbd
000003f0: 3398 14bc 2e57 a43c c196 94bc 40af af3c
-0.028355656 0.019965312 -0.036245022 -0.0600144 -0.032363888 0.017553043 0.005609902 -0.04964235
0.01960077 0.021389777 0.039883755 -0.024785426 -0.02852248 -0.022504756 -0.002914522 -0.054285582
-0.009152232 0.014395841 0.013125569 0.02328701 0.007912562 -0.05639804 0.017718429 -0.01182815
-0.06266093 -0.06584689 -0.018231064 -0.018057467 0.019669667 -0.018152172 -0.017747972 0.016863825
0.022275474 0.048331086 -0.056201912 0.010258506 -0.011380527 -0.009293105 0.00870067 0.010591266
-0.014029579 0.0049861027 -0.043663114 0.012074031 -0.018897016 0.029162468 -0.0030364955 -0.05243242
-0.027581017 -0.06276537 0.0035648418 0.024542402 0.03253697 -0.0006245501 -0.045506015 0.038071927
0.049141914 -0.039786246 0.027411703 -0.026185676 -0.049910996 -0.0127956 -0.009233121 -0.028954487
0.029082218 -0.015266832 -0.03902242 0.024987727 -0.04571546 -0.095708646 0.0018591147 0.028754892
-0.05308409 -0.023884129 -0.027474705 -0.050260466 -0.030777412 0.02721676 -0.051383287 -0.037338424
-0.010493141 0.008073226 -0.04400105 -0.042547986 0.010950917 -0.01686892 -0.04732004 0.023784848
-0.014210856 0.047837615 0.0074405735 0.035692252 -0.014224444 -0.035100278 -0.0032489044 0.054332066
0.019990813 0.026974088 -0.02545376 -0.03630626 -0.026015615 0.037690837 -0.04881366 -0.037240934
-0.03883047 -0.014219879 -0.005778051 0.004638473 -0.03512806 -0.009673427 0.026007546 -0.01918696
-0.009512078 -0.055920433 0.013901525 -0.023216672 0.009399431 -0.036956795 0.014157889 -0.009795496
-0.06640366 -0.039513547 -0.04038588 -0.030044816 -0.038833782 -0.04907823 -0.0027541239 0.018412508
-0.04572026 0.030842004 -0.0056825597 0.02587619 -0.026496235 -0.011350726 0.06329927 -0.037980087
-0.014503824 0.033781577 -0.01672222 0.03086363 -0.012777794 0.010238886 0.020958913 0.046619292
0.040209875 0.019762136 -0.010635731 0.025467776 0.018331928 -0.031579077 -0.0401933 0.030215096
-0.03239562 0.010150266 -0.016026752 -0.026537709 -0.026904356 0.017337522 0.039266195 0.035400085
-0.047393955 0.0063779703 0.061194286 0.009948935 0.011768555 -0.01252174 -0.06810519 0.03142794
-0.03131761 -0.0075270287 0.026080782 -0.025200468 0.012223257 0.01233685 0.005309949 -0.0562589
0.03206933 0.020143442 0.014617155 -0.047434185 0.044239942 0.018353987 -0.04932525 0.017725414
-0.035743963 -0.024546102 -0.002430122 -0.04926997 0.006460181 0.038260728 0.024775775 0.021655384
0.039037835 -0.0667465 -0.038474016 -0.0008922685 -0.022083776 -0.03260777 -0.035073157 0.045025114
-0.03229689 -0.024583012 0.027864605 0.009038601 -0.029004144 -0.045050483 -0.0926484 0.018975986
-0.019070022 -0.0072418055 0.019687938 -0.040914036 0.02307408 0.02101146 -0.038487755 -0.036513273
-0.04939276 0.005406329 0.023902223 -0.0060541374 -0.026035663 -0.013722792 0.024220435 -0.040132854
-0.018174868 -0.048027698 -0.027042462 0.018642573 0.0224501 0.016936176 0.07377407 -0.026365703
0.029531281 -0.014165755 -0.042147137 0.006376438 -0.00011318637 -0.002960936 0.00619659 -0.0048723863
-0.020689977 0.043839518 -0.029645931 0.020607537 -0.06250068 0.004534832 -0.03754333 -0.037667114
-0.054759827 0.026665922 -0.00856897 -0.042799678 -0.00906949 0.020061102 -0.018138291 0.02144587

output.2.bias f4 [10]
00000000: 378e bfbc c4f0 e3bc 4888 3dbd 209c 1abc
00000010: 69ad 8b3c a751 13bd ebc6 a3be 31f2 42bb
00000020: 2766 043c 54d4 48bd
-0.023383243 -0.027824767 -0.046272546 -0.009436637 0.017050462 -0.03596654 -0.319877 -0.0029746408
0.008080996 -0.049030617

output.4.weight f4 [512, 10]
00000000: fb8f 40be 704f df3d 7667 93be 68d4 c83d
00000010: fba4 24be 207e 6bbc c8e4 ed3d 68b7 6c3d
00000020: a020 10be 72df 01be 917e d7bd afe3 27be
00000030: 0d7f 84be b912 79be eb8f 87be 0674 5b3e
00000040: 81a0 0abe 2cf6 03be 4990 a53d 0663 1b3e
00000050: 4483 2cbd 55b0 32be 1153 2e3d a85c 02bd
00000060: 3afc 083c c2a5 563e 60a7 bfbd fbd3 8cbe
00000070: 08d6 ff3d 9b96 8a3b c791 a93d 8b3a 153e
00000080: 1fea 76be 75d9 e0bd c730 903e 79b2 a03e
00000090: 5aa3 9f3d 85f0 0bbe e71f 49be 747c 953e
000000a0: 554f 7bbe b3dc 03be 4e48 80be 5034 5abe
000000b0: baf9 963e 28d9 83be 16be 6bbe f8d2 47bd
000000c0: 2210 483e 25ed 1bbe e462 29bc 0b58 89be
000000d0: 3090 3fbe 751e 843e a603 083e 4a84 4a3e
000000e0: 3f31 1cbe c67a febd b317 8b3e 038b 903e
000000f0: af7d 0bbe fa31 4abe 3218 52be be7a 5a3e
00000100: 8080 22bd 94f2 0b3e 4e12 69be ec45 6abe
00000110: 7639 7b3e 6fe5 9abe 6abd 8d3d 6f8b 903e
00000120: 26eb 6bbc 8808 e0bd 3699 093e acea 85be
00000130: 8b08 38bd 72cc 82be 7ef2 023e 7f74 bfbb
00000140: c26a 2d3e 5690 16be 34c9 2d3e c467 7d3e
00000150: acb8 a5bd 6fd3 35be c4cb 053d bf3e 8a3e
00000160: 6169 0d3d 4d87 143e 787e e23d 9ba2 b63d
00000170: 6a40 973e 1bf7 adbd 9927 88be 62bd 503e
00000180: 0cfd 3a3e 979c aabd 687a 913e 745c 943e
00000190: 2e1b 6a3e 6eaa 4c3e 3d5e 71be ba28 70be
000001a0: 6d4d 78be 6406 d33d 3eb1 ad3d 244f 163e
000001b0: 5246 e9bd c364 58be f003 4cbd b375 233c
000001c0: b2e3 ce3d 6fb7 503e 2653 dfbd 96d8 0e3e
000001d0: f7b9 0ebd afd5 1bbe 8b8e ed3d 12e6 813e
000001e0: db2e 4d3e abe7 7e3e 722c 29be 1f3c 3cbe
000001f0: 1f89 463e abea 883e c6f6 8cbd d0b4 513e
00000200: 5803 d8bd 2a25 7a3c c621 213e 0cff 8c3e
00000210: 6ced d7bd 00b3 91be 74a4 eabd 4cde d73d
00000220: bcac 9dbe d4b5 393e d096 13bd 869f 933e
00000230: 5f1c 923e 20b4 e33d 2b22 9dbe 4aac 1e3e
00000240: 4f65 64be 3af8 cfbd 636f 16bd abe9 95be
00000250: 70d5 a63e d6b1 0a3e f4cb 0cbe 5cff 82bd
00000260: 1328 a3bd 8d28 83be a6c8 7b3e d6d3 f8bd
00000270: 0372 0bbe 47c7 0d3e 3904 9abc 7ff9 9ebe
00000280: 2fc6 99be 4233 4abe 0d80 193d 790e 9f3e
00000290: f455 5c3e 8ca0 8fbe 4216 15be 40e3 41bd
000002a0: d9cf 973d bdcf 113e ce4c 923e f316 fc3c
000002b0: a724 d9bd 76e3 763e 8577 d1bd 8014 60bc
000002c0: 5ff9 45be a124 03be 1415 783e f773 193e
000002d0: 4821 943e 0b29 363e 2f64 71be a57d 00be
000002e0: 29fb 9bbe d854 be3d c302 953d e85d 9c3e
000002f0: 397f 5abd 789a 973e 6bd6 0ebe 2ffa 703e
00000300: b257 02bd 43f7 013d 2f5d 203b f8ca 493d
00000310: 0584 8b3b b92a 00be 6c03 d03a 3d08 333e
00000320: 13d7 f33d ea3b 223e b21a 3d3e 00b3 cabd
00000330: 5be8 433c d870 603d 6ca2 58be 5a1c 83be
00000340: c3fa 2bbe 03be 9fbd 5068 02bd e0a1 59be
00000350: 682b 72bd 11c3 a0be a7fb dfbc 0076 29ba
00000360: 7f0f f33d 19e5 603e bbbd a03e 7bb0 2dbe
00000370: 9779 403e 30bc 383e 43fc d1bd 4056 e6bb
00000380: a70a 783e 1202 4e3e 8a4a 283d 76f2 18be
00000390: bf5b 403d 955e 52be d605 41be 6fdd 203e
000003a0: 54ce 423e c2eb 023e 9fd7 4ebe ae79 6ebe
000003b0: 51b2 183e 1b2d 4ebe ee88 2f3e 6c3a 7c3e
000003c0: 0480 42bd 8bb5 a03e e93d 203e 588b 7abd
000003d0: bd2f 963e 084e b53d 268b d3bd cdd1 7abe
000003e0: 2099 e8bc 938b 80be a73d b1bd 05e3 23be
000003f0: e4d2 093e 2964 9abe ff47 2abc 2478 163e
-0.18804924 0.109038234 -0.28789872 0.09806138 -0.1607856 -0.014373332 0.11615902 0.057792097
-0.14074945 -0.12682894 -0.105221875 -0.16395448 -0.25878182 -0.24323548 -0.26476988 0.21430978
-0.1353779 -0.12886876 0.08084161 0.15174493 -0.042117372 -0.17450078 0.042559687 -0.031826645
0.008360917 0.20961669 -0.09358096 -0.27505478 0.12491995 0.0042293794 0.08279758 0.14573114
-0.24112748 -0.10978977 0.28162214 0.31386164 0.07794829 -0.1366597 -0.19641076 0.29196513
-0.24541982 -0.12877159 -0.25055164 -0.21309018 0.294874 -0.25751615 -0.23021731 -0.04878518
0.19537404 -0.15227182 -0.010338519 -0.26824984 -0.18707347 0.25804487 0.13282642 0.19777027
-0.15253161 -0.12425761 0.2716652 0.28231058 -0.13622163 -0.19745627 -0.20517042 0.21335885
-0.03967333 0.13666755 -0.22760889 -0.22878236 0.24533638 -0.3025317 0.069208935 0.2823138
-0.0143993255 -0.10939127 0.13437352 -0.26155603 -0.044930022 -0.25546604 0.12787816 -0.005842745
0.16935256 -0.14703497 0.16971284 0.24746615 -0.08091864 -0.17756437 0.03266503 0.27000996
0.034524325 0.14504738 0.11059278 0.08917733 0.29541332 -0.08494397 -0.2659271 0.20384744
0.18260592 -0.083306484 0.284137 0.28976786 0.2286193 0.19986889 -0.23571105 -0.23453036
-0.24248286 0.10303953 0.08481072 0.14678627 -0.11390366 -0.21132188 -0.049808443 0.009976792
0.10102023 0.20382474 -0.10904531 0.13949808 -0.03484532 -0.15218233 0.115994535 0.25370842
0.20037405 0.24893062 -0.16520861 -0.1838231 0.19388245 0.26741537 -0.06883006 0.2047913
-0.10547513 0.01526765 0.1573554 0.27538335 -0.105433315 -0.2845688 -0.11457148 0.10540447
-0.30795848 0.18135768 -0.036032498 0.28832644 0.2853727 0.111183405 -0.3069013 0.1549541
-0.22304271 -0.10154767 -0.03672732 -0.29279837 0.32584715 0.13544402 -0.13749677 -0.06396362
-0.07966628 -0.25616875 0.2458826 -0.121497795 -0.13617711 0.1384555 -0.018800842 -0.31049725
-0.30034015 -0.19746116 0.037475634 0.3106573 0.21517164 -0.28052175 -0.14559272 -0.047335863
0.07412691 0.14239402 0.28574222 0.030772662 -0.10602694 0.24110207 -0.10227875 -0.013676763
-0.19333409 -0.12806942 0.2422679 0.14985643 0.28931642 0.17789094 -0.23573373 -0.1254793
-0.30465057 0.092935264 0.072759174 0.30540395 -0.053343985 0.29610038 -0.13948981 0.23532937
-0.031821914 0.031729948 0.0024469604 0.04926583 0.0042576813 -0.12516297 0.001587016 0.17483611
0.119062565 0.15843168 0.18467215 -0.09897423 0.011957253 0.054795116 -0.21155709 -0.25607568
-0.16794877 -0.07799914 -0.03183776 -0.21253157 -0.059123427 -0.31398824 -0.027341677 -0.0006464422
0.1186819 0.21962394 0.31394753 -0.16961853 0.18796383 0.18040538 -0.10253193 -0.007029325
0.24222814 0.20117977 0.04108671 -0.14936242 0.046962496 -0.20543893 -0.18849882 0.1570947
0.1902402 0.12785247 -0.2019944 -0.23288605 0.14911772 -0.20134394 0.17142078 0.24631661
-0.047485366 0.31388506 0.15648617 -0.061168045 0.29333296 0.08852774 -0.10329275 -0.24494095
-0.028393328 -0.25106487 -0.086543374 -0.1600457 0.13459355 -0.3015454 -0.010393142 0.14694268

output.4.bias f4 [512]
00000000: 2581 0bbe 7aec 9ebd 32de ab3e bb41 d23d
00000010: 3fa0 73bd d70d 68be 492c 77be 20bf 053e
00000020: e4b7 fabe e767 9f3e 415d 04bf 59be b7be
00000030: 0427 583e 8eff 6cbe 06f4 a03e ecbf 19bb
00000040: 8486 00be 13cd 1bbe 6e17 c2be dd8f 90bc
00000050: 4830 8ebe 619b 5f3e d4ae 6b3d 46f7 a7bc
00000060: c805 b8be 0ec2 64be efa9 6c3e ef92 c93d
00000070: 3669 77be 30ba 86be e460 8cbe 1876 9aba
00000080: 01cc 72be d782 813e 25a5 cfbd f278 c3bd
00000090: dfeb ccbe b8a3 54be 1d66 a2be cdab ed3d
000000a0: 9bd6 e73d 2c11 d03d 164a 9d3d 760b 663e
000000b0: 93a6 8abe fc75 6d3e d1ff 1ebd 1d54 14be
000000c0: fa12 903e d114 fb3d 77fb 7f3e 40be 193e
000000d0: 30c8 50be 31b4 22be 762b 2b3c a78a 953d
000000e0: 2274 ecbe cbec 783e c0a1 b7bd 45e1 8bbe
000000f0: 94f8 e23d 3399 cdbd 9799 e2bb 117e 88be
00000100: 154d a33e f2b5 4abc 540f 283e c068 2f3d
00000110: 41bb dc3c 002b 7fbe 122b 483d e182 4abe
00000120: cd8f d33d b0ee a0be 3db4 0d3e d381 9ebe
00000130: e883 aabe 5875 803d dd08 7fbe ad6a d6bd
00000140: 0e11 c0bd ff58 3fbe ac86 833e c05d 393e
00000150: 4d77 e93d c470 ccba d5a4 ecbe 0637 6e3e
00000160: 9267 813d a86f 713e 8518 55be 951b 32bd
00000170: 7856 463e 7131 3c3e fe7b 353e 8c87 75be
00000180: 6df8 633e 90c1 abbe 4b5f 463e dde7 cc3d
00000190: f994 6fbe 1d61 9c3e b586 8c3e f3b1 433c
000001a0: b3be d1bb a1b7 c6be 9b8a 683d b145 fabd
000001b0: 392c dcbd 58dd 0d3e 7900 cebd 4fc6 99be
000001c0: 4515 fb3c f24f 08bc 6ed8 983d d139 963e
000001d0: 0c91 1dbe e2de 22bd a7d1 583e 500c 9ebe
000001e0: fcf0 36be 98a3 9fbe a022 32be 7c62 ad3d
000001f0: 9d37 ccbd 6348 15bf 8ac3 85be c480 e4be
00000200: 5eed 9c3d 4818 cfbe ac9f 823e f2f6 23be
00000210: 866d 0a3e 9c22 eb3d b460 7ebe 34fc 5b3e
00000220: d2cd f3be 13d4 213e 2b1a 4c3e 0c26 413e
00000230: 3ad7 0abe f46d 353e 4566 733e e2fe 5ebe
00000240: ca0d 753e fba8 30be 4e0e 573e 3584 243e
00000250: 951d 563c 90ca a5be 18e5 afbd 228b f6bd
00000260: de42 a2bb 7461 633e e02e 383e a02f a2be
00000270: ea3a 603e 889e 603e 2cf8 3a3e ac3a d2be
00000280: 4199 ff3d c0a9 2ebe bacf afba a065 1f3e
00000290: aed3 943e 61c8 f0bd 8e76 e2bd a910 15bc
000002a0: d028 623d f602 343e 1b4c b83e 7f6d 89be
000002b0: 754f c53d acf7 61be c7bc b13e 24f0 96bd
000002c0: c9d4 2fbe 3f73 1abd e0c3 7bbe 81db e3be
000002d0: 5783 7f3e 65b4 373e b1ea 4bbe 04b7 b3bd
000002e0: 05c8 ff3c c53e a03e cd45 26be 555a 59be
000002f0: a767 663e e86e 2cbe a018 6a3e e69e 7abd
00000300: 8b1a eabb d0ca 453e 6b7a 22bc 96a5 4bbe
00000310: 1730 623c 8ba7 833e 212e 20bf b851 0ebc
00000320: c4ec 31be 0458 4abe a493 2cbe cf49 993e
00000330: 17d2 7bbe d1d6 873e 4431 3dbe cb53 b4bd
00000340: 0197 113d d9b2 43be 409f 8abe 37ba 6aba
00000350: e110 86be 6efb 94bd 05b9 90bd 3762 c73e
00000360: 0c08 4abe 336f f6bd 7506 f9be 178c 7dbe
00000370: f91a 333e 2223 2ebd 8aab 05be 0d09 b6be
00000380: c880 a2bd 74b0 203e 7100 223e 47d8 5a3e
00000390: 4633 0a3e fabd 2cbd 9c6e 21be e970 a03d
000003a0: 92d9 643c a411 a0bd 07d6 563e e64d b9be
000003b0: daf6 43bb 0345 2dbd a5e6 3cbd 9346 273e
000003c0: abb3 5abe 0dda 083e 3e10 40be 40d7 253e
000003d0: 0851 7ebe 388b 463e 846f 763e 65dd edbe
000003e0: 359e b73d bcc2 e7bd 1944 a8bd 7d59 80be
000003f0: 8bab 2a3d adbf 4fbe 1e4f 65be 7e49 883e
-0.13623483 -0.07759948 0.3356796 0.10266443 -0.059478994 -0.2266153 -0.24137987 0.1306119
-0.48968422 0.3113396 -0.51704794 -0.3588741 0.21108633 -0.23144361 0.31436175 -0.0023460342
-0.12551314 -0.15214948 -0.379085 -0.017646724 -0.2777121 0.21836616 0.057539776 -0.020503651
-0.3594191 -0.22339651 0.231117 0.098424785 -0.24161229 -0.26313925 -0.27417672 -0.0011784462
-0.23710634 0.25295135 -0.10138921 -0.09544553 -0.40023705 -0.20765579 -0.3171853 0.11605034
0.113202296 0.10159525 0.076801464 0.2246531 -0.2708021 0.23189539 -0.038818184 -0.14485212
0.28139478 0.1225983 0.2499827 0.15013981 -0.20388865 -0.1588905 0.010447374 0.073018365
-0.46182352 0.2430908 -0.08966398 -0.27320305 0.11082569 -0.10038986 -0.006915282 -0.2665868
0.31894746 -0.012372481 0.16412097 0.042824507 0.026944758 -0.24918747 0.0488692 -0.19776489
0.10330162 -0.31432104 0.13838287 -0.30958423 -0.3330376 0.062723815 -0.24905725 -0.104695655
-0.09378253 -0.18686293 0.25688684 0.18102169 0.11399708 -0.0015597572 -0.46219507 0.23263177
0.063185826 0.2357775 -0.20810135 -0.043483336 0.19368923 0.18378235 0.1772308 -0.23977488
0.22262736 -0.33546114 0.19372289 0.10005162 -0.23396672 0.30542842 0.27446523 0.011944282
-0.006400907 -0.38811973 0.05677281 -0.12220324 -0.10750622 0.13853967 -0.10058684 -0.3003411
0.03064979 -0.008319842 0.07463156 0.29340985 -0.15387362 -0.03976334 0.21173726 -0.3086877
-0.17865366 -0.311795 -0.17396021 0.0846605 -0.09971545 -0.5831358 -0.26125747 -0.4462949
0.07662462 -0.40448213 0.25512445 -0.16012171 0.13518342 0.114812106 -0.24841577 0.21482927
-0.47617966 0.15803556 0.19931857 0.1886217 -0.13558665 0.17717725 0.23769481 -0.21776918
0.23931041 -0.17251961 0.2100155 0.16066058 0.013068576 -0.32381105 -0.08588618 -0.12038256
-0.004951819 0.22205144 0.17986631 -0.3167696 0.21897474 0.21935475 0.18258733 -0.41060388
0.12480403 -0.17056942 -0.0013413348 0.1556611 0.2906775 -0.11756969 -0.11057769 -0.00909821
0.055214703 0.17579255 0.35995564 -0.2684135 0.09634296 -0.22067136 0.34714338 -0.07370022
-0.17171015 -0.037707563 -0.24586439 -0.44503406 0.24952446 0.17939909 -0.19913746 -0.08775142
0.031223306 0.3129789 -0.16237564 -0.21225865 0.22500478 -0.16839182 0.22860956 -0.061186694
-0.0071442774 0.19315648 -0.009916882 -0.19887385 0.013805411 0.25713763 -0.6257039 -0.008686475
-0.17375475 -0.19760138 -0.16853195 0.29939124 -0.24591862 0.2653108 -0.18475825 -0.08805045
0.0355444 -0.19111194 -0.27074623 -0.000895414 -0.26184753 -0.07274519 -0.0706654 0.3894212
-0.19729632 -0.12032928 -0.4863774 -0.24760471 0.17490758 -0.042513974 -0.13053718 -0.3555378
-0.07934719 0.15692312 0.15820481 0.21371566 0.13496122 -0.042173363 -0.1576485 0.07834036
0.013967888 -0.07815865 0.20980082 -0.36192244 -0.0029901774 -0.042302143 -0.046118397 0.16335516
-0.213576 0.1336443 -0.18756196 0.16195393 -0.24835598 0.19389045 0.24065977 -0.46457973
0.089657225 -0.113164395 -0.082161136 -0.25068274 0.041667502 -0.20287962 -0.22393462 0.2661857

output.6.weight f4 [7, 512]
00000000: 9389 fcbb a5a9 79bc f4a4 073d 1cbc 16bc
00000010: 97f2 b4bc d758 e43a 32e3 4abd 3781 a23c
00000020: 2fa6 cf3b 825e 5a3b ec3b ca3d 3e89 ee3c
00000030: fae1 e93c 959d 2ebd 0560 f1bc ae38 1e3c
00000040: 78c0 5b3d 768e 8d3c 39ac c53d a632 1a3b
00000050: c295 0c3b 8cd2 e2bc 3e6c 1dbd 3c7d 403b
00000060: e88c adbc 1410 d3bc 6c28 183c 5c6f a73c
00000070: 5ea4 4c3d 8e48 253d 2cd5 053d 9f89 3fbc
00000080: 8bfa 1cbd 45c0 943b 1e18 123c 6ea6 52bc
00000090: c9d8 62bc dcbb ad3c 2ac1 f43b 8297 a73c
000000a0: 77ce efbb 8693 bfbc 71e3 e0bb 3739 9b3c
000000b0: 9a23 a63c 4058 27bd 34a3 8c3c 7d4b e7bc
000000c0: 7fd3 163d 2fd8 323d 44ec 84bc 3907 e53c
000000d0: 35a3 cc3a 7daf 3c3d 0686 e3bb 6e80 e839
000000e0: cd18 8b3d 4ef6 0bbb d057 113d 8287 83bc
000000f0: a5ef b13c 931b bbbb 1f1a 24bc 8bc7 d6bc
00000100: abd5 2ebc 8a59 903c dc28 a53b 3a36 e6bc
00000110: c18c 643c 0fff 523c a4ed c93b 8648 723d
00000120: 0831 073c 6cb6 0dbc 7cad a9bc fdd3 5e3d
00000130: 64fa 673d 514f c9bc 619e 9abc 27c7 88bc
00000140: 3915 1c3c a21e c23c 60b8 003c ba1a f7bc
00000150: 340f b3bc 3670 0e3d 553d 523d 8219 d23c
00000160: b758 ed3b 3c77 bc3c 3520 07bd 55a3 823c
00000170: be2c ee3c 2675 bdbb dc53 fe3c 2bd3 263c
00000180: 50b1 043d 7259 973d f9dc 2b3d 3222 8abc
00000190: 9838 7b3d 8ae4 41bc ec13 a73c 2cc5 a43b
000001a0: 5e42 b5bc 23f8 eabb 9b0c 783c b0d6 2f3d
000001b0: 511d 39bc 7a36 1bbc c007 bf3c 21ca ce3b
000001c0: db89 463b 62d3 edbb 0b6c 193d 2155 0fbc
000001d0: 905e 003d f0ad 24bb f131 c7bb 2710 c33d
000001e0: b607 653c b44c 733d c261 68bc ebc4 2dbc
000001f0: a5ea 6c3d 6e7c b63d 37b0 153d 3177 bd3d
00000200: aaca 343c 9739 903d 2af8 873c 8eeb 4e38
00000210: a487 fe3b 95e5 f63c d49f fc3c 0d78 cf3c
00000220: 1bbe 343d deb2 e03b b864 cb3b aee9 30bc
00000230: 0696 863d a516 913c b933 2b3d 2fd5 d03c
00000240: 9f1e 513c 3196 3abd 3ef3 893c 9da2 8c3c
00000250: 0377 4a3d 971f 553d ead4 193d 8430 183d
00000260: 4094 173d 5652 abbc 8fdf 25bb d9a5 2b3d
00000270: acf5 933c eb3d f3bc 4f57 213c aaa8 593d
00000280: fd21 1abd 6bd8 583b e4be e1bc b047 5d3d
00000290: 640b b83c c1f9 f73c 2d06 0c3d 6222 a8bc
000002a0: dae2 173d 6e7e 5f3d d8c5 58bd bcf1 eb3c
000002b0: 31f0 143d 67af 03bd d0c1 2e3d fe04 51bd
000002c0: ca56 7c3c 2a78 003d 7e28 09bd 0834 7a3d
000002d0: 8ecf 323d 5d06 eebb dc3f 94bd 4b2a 4e3c
000002e0: 503a abbc 7e27 e73c 8992 a8bc 8043 ddbc
000002f0: e0c0 753d fd7e 15bd 71c1 7f3d f72b ab3c
00000300: 2422 a83c 766c 18bc 043c ab3c bcf8 d63b
00000310: 3664 f53c 2649 b2ba 29ec 993d 156d 21bd
00000320: 537a bfbc 6090 7a3a c588 8abc a808 b73c
00000330: f253 153d 1f27 debb d348 cb3b 4e50 fdbb
00000340: 5725 d33c 1202 463d 6bf2 263c 0549 d1bc
00000350: 2292 23bc 0d83 49bc ccd5 053d 84b7 473c
00000360: d95c 493d 9069 98bc 01d4 083e 2c8d 8d3c
00000370: 84c7 bf3c 6e2e 8cbc f4b7 33bc a743 313d
00000380: 6f8b a43b c5d6 003d 99cf 4a3d 32dd 143d
00000390: 5133 703d 5723 9abc 46c3 9ebd 4710 8ebc
000003a0: 9f7f 193d 4e46 46bd 422a f8bc cba3 bebb
000003b0: 6c47 523c 0d13 c53c 8920 62bb 16d3 e3bb
000003c0: 76bd 9dbc 81a5 a03c de2f d5bc 9c4e a33c
000003d0: 9b05 173d 42cd 3bbc 2e78 c0bc a4d2 063b
000003e0: 2fd5 b0bb b018 0e3c 34a6 063d 18a2 f73a
000003f0: 8a2d 2b3d 84e5 e03c 11b8 79bb 6aad 843d
-0.00770683 -0.0152382 0.033116296 -0.009200122 -0.022088332 0.0017421496 -0.049533077 0.019837005
0.0063369493 0.0033320491 0.098747104 0.029118177 0.028550137 -0.04263075 -0.029464731 0.009657068
0.05365035 0.017279845 0.096519895 0.0023528724 0.0021451567 -0.027688287 -0.038433306 0.002937152
-0.021185353 -0.025764503 0.009286981 0.020438842 0.04996144 0.040352397 0.032674 -0.011690526
-0.038324874 0.004539522 0.008916883 -0.012857063 -0.013845631 0.021207742 0.007469316 0.020457987
-0.0073183137 -0.023385774 -0.0068630506 0.01894818 0.020280648 -0.040855646 0.017167665 -0.028234238
0.036822792 0.0436632 -0.016225941 0.027957546 0.0015612604 0.046065796 -0.006943467 0.00044346176
0.0679184 -0.0021356526 0.035484135 -0.016055826 0.021720717 -0.005710074 -0.010015993 -0.026218196
-0.01067106 0.01762082 0.005040271 -0.02810203 0.013949574 0.0128781935 0.006162362 0.059151195
0.008251436 -0.00864945 -0.020712607 0.054401387 0.056635275 -0.024573954 -0.01887435 -0.016696526
0.009526544 0.023696247 0.007856458 -0.030164111 -0.021857835 0.03477498 0.051328022 0.025646929
0.0072432416 0.023006074 -0.0329897 0.015947023 0.02907407 -0.0057817874 0.031045847 0.010182182
0.03239566 0.07390107 0.041958783 -0.016862009 0.06133327 -0.011834273 0.020395242 0.0050283875
-0.022126373 -0.0071706935 0.015139724 0.04292935 -0.0112984935 -0.009473437 0.023319125 0.0063107167
0.003029457 -0.007257865 0.037456553 -0.008748324 0.03134018 -0.002512809 -0.0060789515 0.09524565
0.013978889 0.05939932 -0.0141834635 -0.010606031 0.057840962 0.08910452 0.036545005 0.092512496
0.011034647 0.070422344 0.016597826 4.9333605e-05 0.0077676345 0.03013877 0.03083793 0.0253258
0.04412661 0.00685726 0.006207075 -0.010797901 0.065715834 0.017710993 0.041797373 0.025492279
0.012763648 -0.04555339 0.01683962 0.017167384 0.049429905 0.05203208 0.037556566 0.037155643
0.037006617 -0.020913284 -0.0025310253 0.04190621 0.018061481 -0.02969261 0.009847476 0.053139366
-0.03763007 0.003308798 -0.027556844 0.054023445 0.022466369 0.03027046 0.034185577 -0.020524208
0.037081577 0.054563932 -0.052923054 0.028801791 0.036361877 -0.0321497 0.042665303 -0.05103015
0.0154015515 0.031364597 -0.033485882 0.061084777 0.04365497 -0.007263942 -0.07238743 0.012583326
-0.020901829 0.028217074 -0.020577686 -0.027009726 0.059998393 -0.03649806 0.06244034 0.020894988
0.020524092 -0.009303203 0.020902641 0.006560413 0.02995501 -0.0013602122 0.07515747 -0.03941067
-0.023373758 0.0009558257 -0.01691092 0.022342995 0.03645701 -0.006779566 0.0062037497 -0.0077305203
0.025774641 0.04834182 0.010189633 -0.025547514 -0.009983571 -0.012299311 0.032674596 0.01218975
0.049160812 -0.018605024 0.13362123 0.01727923 0.023410566 -0.017111983 -0.010969151 0.04327741
0.0050215046 0.03145482 0.049514387 0.03634376 0.05864269 -0.01881568 -0.07752089 -0.017341746
0.037475225 -0.04840689 -0.030293588 -0.0058178655 0.012834411 0.024056936 -0.0034504256 -0.0069526536
-0.019255381 0.019610168 -0.026023801 0.019934945 0.03687058 -0.0114625115 -0.023494806 0.002057233
-0.005396507 0.008672878 0.032873347 0.0018892912 0.041791476 0.027453192 -0.0038104097 0.064783886

output.6.bias f4 [7]
00000000: ca42 e9bc cbbf 8a3c 46eb cbbd 7b09 67bb
00000010: 3e20 8a3c 294d df3b fc5d 6e3c
-0.02847423 0.016937157 -0.09956984 -0.0035253454 0.016861077 0.006814618 0.014548775
