output/models/73.91Acc_H1_ThreeLayers450_10_512Units_ReLU_CrossEntropyLoss_Adam_0.001lr_200000epochs_10batches.pth (torch, 72009 bytes, 8 tensors)

output.0.weight f4 [450, 6]
0.39679614 -0.07888548 0.3719294 -0.04936498 -0.20039956 0.35227683 0.099085905 0.2715292
-0.0096572675 -0.19126222 -0.18120956 -0.2625938 -0.06763974 -0.1180549 0.32021162 -0.055025667
0.11921461 -0.32265642 -0.049574528 0.059154775 0.37767485 0.029972764 -0.09403716 -0.314477
0.35394585 0.11635907 -0.22140218 0.18482597 0.2064943 0.009818908 0.2522284 -0.33976254
0.30758855 0.34657604 -0.31755173 -0.011884249 0.05964376 -0.02311749 0.13383009 -0.39109385
0.3879928 0.31202284 0.018074986 0.3058506 0.22665037 -0.01589183 -0.3280923 0.19904937
-0.34780526 0.32561192 -0.332808 -0.20104204 -0.048390385 0.21790856 -0.019891258 0.14636329
-0.0023375547 0.369014 -0.1808318 -0.25977728 0.13225289 0.020205028 -0.067360304 0.41424793
-0.53611684 0.0013734816 -0.08126985 0.27092224 0.3504394 -0.32610643 0.23101687 0.36333296
-0.059281368 -0.34571382 0.23375109 0.04527924 0.24574931 -0.10796249 0.13345578 -0.33038718
-0.31866258 0.024324832 -0.29722986 0.09669716 0.3525742 -0.19608828 0.014940865 -0.24951492
0.27517137 0.13602017 0.21741742 0.29143107 0.14610334 -0.067247786 -0.03801315 -0.048497427
0.37535232 0.3008234 -0.09587628 0.27689126 0.042033277 -0.017183093 0.022193193 0.26690277
0.23505887 -0.13675839 -0.17828757 -0.17902288 -0.04494939 0.06737253 0.016404578 0.010679503
-0.23234992 -0.27660036 0.17110357 0.32292306 -0.2017106 0.045392696 0.25590178 -0.08861205
0.18239133 0.31716156 0.30925748 -0.3755674 0.23922618 0.18350606 -0.107528955 -0.2680243
0.11354254 -0.37720072 0.42090556 0.40761003 -0.1367256 0.23765011 -0.47563955 -0.037770018
0.27149412 0.4233728 0.11730017 -0.40403497 0.22691505 0.25300786 0.06639514 -0.06553129
0.047555704 0.05567021 0.039684378 -0.04764916 0.08163707 0.220958 -0.34937948 -0.31565917
0.19912602 -0.28563917 -0.45560426 -0.0010345224 0.36559486 0.10750533 0.3000517 -0.23823097
0.39550006 0.42482817 -0.04909447 -0.103496045 -0.059045434 -0.33089602 0.28129053 0.34067667
0.021262808 0.038750883 -0.052790064 0.40307605 0.017167721 -0.36610553 -0.34827903 -0.14204153
-0.18916412 -0.39987266 -0.19682537 -0.13741815 -0.2517341 0.093685485 -0.10498728 0.24640374
-0.22206943 -0.19017005 0.096880175 0.070742205 -0.19672601 0.32800677 0.12873909 0.22552392
-0.13145319 -0.1303781 0.15131895 -0.050837483 0.003124756 0.034744408 -0.3455364 0.0006305231
-0.11874803 -0.2465298 0.22909223 0.08438452 0.1812125 0.04659327 -0.10442023 0.124291055
-0.27927262 0.14359307 0.15486568 -0.027952073 -0.30985233 -0.26961663 0.15389651 -0.36345932
0.099313885 0.19637944 0.20892945 0.40217438 -0.45129803 -0.20013538 0.39561245 0.06852406
-0.082785316 0.05954401 -0.24642532 0.04090512 0.28787094 -0.31336063 -0.05849593 0.36373204
-0.20728995 -0.29312712 0.37805077 -0.080816284 0.30882832 0.056329906 0.24708419 0.22550994
-0.22535956 -0.32407415 0.005614257 0.20526016 0.15629905 0.21325809 0.29992643 -0.12200589
-0.2663589 0.23869802 -0.35413745 -0.26674178 0.30786818 0.24002448 0.33845967 -0.35270745
00000000: dd28 cb3e b68e a1bd 886d be3e ef32 4abd
00000010: 8b35 4dbe a15d b43e 8ded ca3d e005 8b3e
00000020: 8439 1ebc 3eda 43be 008f 39be b272 86be
00000030: b486 8abd c4c6 f1bd c7f2 a33e 9862 61bd
00000040: ca26 f43d 3933 a5be a90e 4bbd 474c 723d
00000050: 995e c13e 7189 f53c 8e96 c0bd 2103 a1be
00000060: 6438 b53e aa4d ee3d 41b7 62be 0543 3d3e
00000070: 3e73 533e 7cdf 203c 1524 813e 5bf5 adbe
00000080: 3f7c 9d3e 6a72 b13e 2496 a2be 27b6 42bc
00000090: 044d 743d e460 bdbc c10a 093e 743d c8be
000000a0: fea6 c63e 75c1 9f3e fe11 943c 7398 9c3e
000000b0: 0917 683e 952f 82bc b7fb a7be 99d3 4b3e
000000c0: 8813 b2be 9bb6 a63e cf65 aabe f7dd 4dbe
000000d0: ff34 46bd 6c23 5f3e fef2 a2bc 42e0 153e
000000e0: a931 19bb 67ef bc3e f92b 39be 8701 85be
000000f0: 4d6d 073e 0485 a53c 33f4 89bd 4e18 d43e
00000100: f43e 09bf 6506 b43a cf70 a6bd 52b6 8a3e
00000110: cb6c b33e 6cf7 a6be b08f 6c3e c706 ba3e
00000120: 05d1 72bd 6701 b1be 725c 6f3e b976 393d
00000130: b5a5 7b3e 701b ddbd a2a8 083e 8228 a9be
00000140: be27 a3be df44 c73c 832e 98be 2909 c63d
00000150: 9b84 b43e 5ecb 48be 88ca 743c d780 7fbe
00000160: 43e3 8c3e df48 0b3e aca2 5e3e 7436 953e
00000170: 1d9c 153e 35b9 89bd adb3 1bbd 3da5 46bd
00000180: 2e2e c03e 8605 9a3e c85a c4bd b1c4 8d3e
00000190: 162b 2c3d 8fc3 8cbc 80ce b53c 7ba7 883e
000001a0: 46b3 703e 640a 0cbe 0491 36be c651 37be
000001b0: da1c 38bd 9cfa 893d e562 863c 15f9 2e3c
000001c0: 23ed 6dbe 909e 8dbe c635 2f3e 2c56 a53e
000001d0: 398d 4ebe b1ed 393d 8f05 833e 3c7a b5bd
000001e0: cbc4 3a3e 0063 a23e ff56 9e3e 5f4a c0be
000001f0: b5f7 743e 03e9 3b3e 2438 dcbd 7b3a 89be
00000200: fe88 e83d 7420 c1be ef80 d73e 43b2 d03e
00000210: cc01 0cbe 8d5a 733e 0787 f3be bcb4 1abd
00000220: 4701 8b3e 52c4 d83e 123b f03d acdd cebe
00000230: 6b5c 683e 3f8a 813e 2dfa 873d 4535 86bd
00000240: c5c9 423d 7206 643d 168c 223d c42b 43bd
00000250: 5631 a73d d042 623e dee1 b2be 149e a1be
00000260: b1e7 4b3e 4c3f 92be f644 e9be d098 87ba
00000270: 402f bb3e c12b dc3d 60a0 993e d2f2 73be
00000280: fc7e ca3e 1483 d93e 4817 49bd bcf5 d3bd
00000290: a0d9 71bd 346b a9be 5005 903e 2c6d ae3e
000002a0: 572f ae3c 3fb9 1e3d 653a 58bd fc5f ce3e
000002b0: 52a3 8c3c 2f72 bbbe a151 b2be 5673 11be
000002c0: 3db4 41be 1cbc ccbe 978c 49be 58b7 0cbe
000002d0: 4be3 80be 2dde bf3d 9203 d7bd 4351 7c3e
000002e0: 2b66 63be f0bb 42be 1d69 c63d 4ae1 903d
000002f0: 8b72 49be 81f0 a73e 2ed4 033e beef 663e
00000300: aa9b 06be d681 05be 5bf3 1a3e f73a 50bd
00000310: b5c8 4c3b 2750 0e3d 26ea b0be b049 253a
00000320: 2b32 f3bd 4f72 7cbe 2797 6a3e cbd1 ac3d
00000330: c58f 393e 96d8 3e3d 46da d5bd 4f8c fe3d
00000340: d2fc 8ebe 100a 133e 1c95 1e3e bffb e4bc
00000350: f7a4 9ebe 310b 8abe 0c97 1d3e 5717 babe
00000360: 1465 cb3d b117 493e 9af1 553e cde9 cd3e
00000370: 8910 e7be 4af0 4cbe b78d ca3e 5856 8c3d
00000380: 598b a9bd 6be4 733d eb56 7cbe 218c 273d
00000390: d263 933e ce70 a0be 6e99 6fbd 163b ba3e
000003a0: d143 54be c214 96be df8f c13e 0283 a5bd
000003b0: bf1e 9e3e 30ba 663d a303 7d3e 14ec 663e
000003c0: a8c4 66be 0ced a5be cdf7 b73b b82f 523e
000003d0: dc0c 203e 5460 5a3e f58f 993e 39de f9bd
000003e0: 3260 88be 416d 743e 8151 b5be 6192 88be
000003f0: e6a0 9d3e fac8 753e 964a ad3e 1296 b4be

output.0.bias f4 [450]
-0.10185682 0.4826991 -0.31435722 -0.0629784 -0.13576554 -0.16555616 0.33250883 -0.3058167
-0.020989953 -0.05078512 -0.27874652 -0.28276435 0.20672859 0.039669745 -0.07149049 -0.26995215
-0.09071429 -0.10678811 0.17939332 0.015953962 -0.2771233 -0.14459865 -0.002749578 0.24198948
-0.043956444 0.2827882 0.13885097 -0.2767853 -0.15832092 -0.15303856 -0.34179422 -0.10682824
-0.07461461 0.019991368 0.21346399 0.13786843 -0.17833844 0.0141875455 -0.23788969 0.17994562
-0.2737831 0.21182768 0.45190376 -0.3113252 0.107483104 -0.4491886 -0.27477932 0.21865836
0.17096744 0.10628721 0.006808813 0.20947719 0.2682594 0.4227379 -0.381869 0.17079662
-0.28085762 -0.044615656 -0.2975043 -0.24326187 0.25535008 0.36804476 -0.3729718 0.24853054
-0.22672752 0.009218992 -0.23745732 -0.23791188 0.25608426 -0.06874594 0.19621153 -0.25272366
0.1999572 -0.3019757 0.45655787 0.3427886 0.36723804 0.028266015 -0.056232058 -0.11734066
0.24874778 0.12763016 0.37333968 -0.36843547 0.40852663 0.38525194 0.16038464 0.069290884
0.18087041 0.4523901 0.2155001 0.017903848 0.31291667 0.33706102 0.026160697 -0.19917499
0.18618754 0.398009 0.21068162 0.19047138 0.25013682 0.36170778 0.11900076 0.13390191
0.25358623 -0.37052754 0.012274295 0.042586144 0.12944993 -0.27467105 0.3768453 0.23991282
0.09849846 -0.094984636 0.008269161 -0.10498116 0.38809818 0.35659698 0.18754524 -0.22810984
0.035192866 -0.035922006 0.27732283 -0.29407206 -0.06804372 -0.3374026 0.30143985 -0.11876724
-0.41867748 0.40808582 -0.33101875 -0.18048851 0.45343095 0.25311178 -0.0101670325 0.37076458
0.19322735 -0.10252311 -0.38753867 -0.22057423 -0.36780313 -0.35943794 0.17663296 -0.3019515
0.080270864 -0.20186143 0.009207386 -0.348159 0.2407579 -0.3143621 0.20840697 0.40124983
0.000769859 -0.1523283 -0.31122342 0.037935197 -0.26988083 0.21711586 -0.3899286 0.07559539
-0.19268776 0.23879296 -0.004412492 -0.037789434 0.5226039 0.09305317 -0.22204523 0.2366391
-0.28394556 0.39226145 0.1502699 0.023513952 0.07662716 -0.28280926 -0.3108852 -0.31145185
-0.42174795 -0.13462457 -0.23144785 0.09731192 0.23650855 -0.35858184 -0.21848607 -0.27088597
-0.005450479 0.26840112 -0.4958734 -0.2275505 -0.095421046 -0.30828312 -0.32734197 0.13038757
0.31345475 0.053573824 -0.122557454 -0.050622057 0.47632477 0.11200453 0.37768003 0.34587947
-0.16968136 0.28195202 0.13757019 0.25688785 -0.102080315 -0.05468117 0.27022788 -0.04350496
-0.09622774 0.40939572 0.050684787 -0.21028341 -0.52441424 0.336343 -0.14359021 -0.2090166
-0.015600443 -0.24046773 0.36835355 0.40590757 -0.3793004 0.35478613 0.5388817 -0.016468724
-0.34470692 0.105595395 0.10729562 0.11909929 -0.017069416 0.23871213 0.06604074 0.10807257
-0.06313391 -0.2646982 0.13473976 0.43348825 0.24895112 0.22548786 -0.07673833 0.312515
-0.08508641 0.20583224 0.24543609 -0.35246328 -0.24594916 0.14160396 -0.2791386 -0.08546915
-0.34705576 0.38865528 -0.29940468 -0.24181162 -0.08179189 0.38265526 -0.04828359 0.029120978
00000000: 4f9a d0bd 5624 f73e 6ef3 a0be d2fa 80bd
00000010: 1f06 0bbe 8e87 29be 993e aa3e 0294 9cbe
00000020: 1ff3 abbc 0f04 50bd ddb7 8ebe 7dc6 90be
00000030: a9b0 533e be7c 223d 9b69 92bd 2b37 8abe
00000040: 6ac8 b9bd bab3 dabd e2b2 373e e2b1 823c
00000050: 1be3 8dbe ab11 14be 4432 34bb 17cc 773e
00000060: ac0b 34bd 9dc9 903e f32e 0e3e ceb6 8dbe
00000070: e11e 22be 24b6 1cbe a7ff aebe c4c8 dabd
00000080: 8bcf 98bd f0c4 a33c 4e96 5a3e 622d 0d3e
00000090: 5a9e 36be e172 683c 5b99 73be aa43 383e
000000a0: 4c2d 8cbe 5be9 583e ee5f e73e 0466 9fbe
000000b0: 1a20 dc3d 0cfc e5be e0af 8cbe fae7 5f3e
000000c0: 1712 2f3e 1cad d93d 771c df3b 3081 563e
000000d0: 4c59 893e 1a71 d83e 5584 c3be 4fe5 2e3e
000000e0: 92cc 8fbe e8be 36bd 7c52 98be a419 79be
000000f0: 3fbd 823e 5d70 bc3e 29f6 bebe ca7e 7e3e
00000100: 422b 68be 410b 173c 0328 73be 2c9f 73be
00000110: 7a1d 833e acca 8cbd adeb 483e ff64 81be
00000120: 95c1 4c3e 8f9c 9abe f4c1 e93e fd81 af3e
00000130: a006 bc3e 218e e73c 9653 66bd 4d50 f0bd
00000140: bdb7 7e3e 7bb1 023e 6126 bf3e 93a3 bcbe
00000150: 672a d13e be3f c53e df3b 243e 61e8 8d3d
00000160: 1836 393e ad9f e73e 0fac 5c3e 17ab 923c
00000170: 9d36 a03e 4393 ac3e f54e d63c 87f4 4bbe
00000180: f2a7 3e3e d6c7 cb3e ecbc 573e ee0a 433e
00000190: ef11 803e c331 b93e acb6 f33d 951d 093e
000001a0: 0ed6 813e c9b5 bdbe 201a 493c cf6e 2e3d
000001b0: 868e 043e afa1 8cbe def1 c03e b5ab 753e
000001c0: 90b9 c93d 4e87 c2bd 607b 073c 5d00 d7bd
000001d0: ceb4 c63e e193 b63e dc0b 403e a095 69be
000001e0: 6526 103d f422 13bd 42fd 8d3e 9d90 96be
000001f0: 825a 8bbd 09c0 acbe 5356 9a3e 3d3c f3bd
00000200: e55c d6be a0f0 d03e 4a7b a9be fbd1 38be
00000210: 1a28 e83e de97 813e a093 26bc dbd4 bd3e
00000220: 64dd 453e a3f7 d1bd 786b c6be 36de 61be
00000230: b150 bcbe 4008 b8be 45df 343e 6399 9abe
00000240: 0d65 a43d c3b4 4ebe 93da 163c e541 b2be
00000250: 3d89 763e 12f4 a0be a368 553e 9e70 cd3e
00000260: 5dd0 493a f3fb 1bbe ad58 9fbe f061 1b3d
00000270: d22d 8abe 9f53 5e3e b9a4 c7be c1d1 9a3d
00000280: f14f 45be 2486 743e aa96 90bb 18c9 1abd
00000290: 5fc9 053f a992 be3d d35f 63be 8551 723e
000002a0: 5061 91be 7ed6 c83e 5ae0 193e 55a0 c03c
000002b0: b3ee 9c3d 60cc 90be 582c 9fbe 9e76 9fbe
000002c0: 59ef d7be 06db 09be aa00 6dbe 794b c73d
000002d0: 4c2f 723e 0a98 b7be d0ba 5fbe 91b1 8abe
000002e0: ef99 b2bb df6b 893e 1ee3 fdbe 0003 69be
000002f0: 1c6c c3bd 49d7 9dbe 5e99 a7be 5284 053e
00000300: 247d a03e 3a70 5b3d 67ff fabd 1359 4fbd
00000310: d7e0 f33e a262 e53d 475f c13e 1d17 b13e
00000320: f3c0 2dbe 045c 903e 33df 0c3e ce86 833e
00000330: 7c0f d1bd 5df9 5fbd 4f5b 8a3e 4232 32bd
00000340: 0d13 c5bd 519c d13e da9a 4f3d 8954 57be
00000350: 0340 06bf 2635 ac3e 5009 13be 7308 56be
00000360: 0099 7fbc 2c3d 76be d698 bc3e 1ed3 cf3e
00000370: a933 c2be 87a6 b53e 27f4 093f 6be9 86bc
00000380: 6d7d b0be 6642 d83d cebd db3d 54ea f33d
00000390: 29d5 8bbc f470 743e 5e40 873d 2755 dd3d
000003a0: 5a4c 81bd 8686 87be 38f9 093e 2cf2 dd3e
000003b0: 0bed 7e3e 4ae6 663e fc28 9dbd f701 a03e
000003c0: c941 aebd b0c5 523e 9953 7b3e 1176 b4be
000003d0: 19da 7bbe a100 113e 41eb 8ebe 730a afbd
000003e0: 4bb1 b1be d3fd c63e 924b 99be 779d 77be
000003f0: 8282 a7bd 64eb c33e 03c5 45bd 1e8f ee3c

output.2.weight f4 [10, 450]
-0.026169017 0.043488797 -0.0028158007 -0.020889716 0.026850846 0.015811238 0.028066713 0.028522259
-0.0023572557 -0.02686877 0.021101054 0.03248917 0.023080088 -0.046537865 -0.030147448 -0.046750993
-0.017286014 -0.04195419 -0.02379722 -0.016767876 0.02284588 0.007676976 0.02505054 -0.051806703
0.028661255 0.025666157 -0.029532544 0.019075993 -0.0010283247 0.019145463 -0.0008534454 -0.045249395
-0.013288357 0.04259037 -0.009698629 0.006149631 -0.024250494 -0.044891942 0.033877995 0.0320181
0.021616878 -0.009674005 0.022346348 -0.0097161345 0.031450335 0.034896772 0.0005347766 0.0027368367
-0.013455313 0.0071129804 -0.03882856 0.0305187 0.02725574 0.02504455 0.011399977 0.03228246
-0.044671856 -0.0066498555 0.029016417 -0.024610141 -0.031753544 0.037621807 -0.014733825 -0.023229005
0.040877316 0.029771999 -0.035333414 0.016430575 0.012935728 0.03197879 0.021767717 0.034199443
-0.007799426 -0.0138763115 0.018508602 -0.010188106 -0.0056623654 -0.033715766 0.014384083 -0.026664434
0.021392731 -0.035181504 -0.037734892 0.016812999 -0.04590166 0.027797405 -0.049137156 0.00015285835
-0.012418757 -0.00643906 -0.025494145 -0.004196788 0.03218484 0.010270957 -0.04733649 -0.0053659193
-0.025813345 0.037057 -0.006896641 -0.044644974 -0.031267356 -0.037194893 0.020849563 0.0021544406
0.009825563 -0.02607425 0.04673304 0.011511419 -0.037380897 -0.027668929 0.024835702 -0.03079595
-0.032055646 0.013151675 0.00018828362 0.004598856 0.024234902 -0.0013723943 0.04016919 0.010298041
-0.021971712 0.011967424 0.0045587644 0.01568087 -0.048320033 -0.0086218035 -0.019159874 -0.039598357
-0.025474202 0.021394026 -0.02412291 -0.02181263 -0.033896934 0.00022001151 -0.011208352 -0.0071887895
-0.018673398 0.029010927 0.033009645 -0.0052087717 0.018205177 -0.01952165 0.03768656 0.006274458
0.003490974 0.0064804703 -0.03475357 -0.031111524 0.045485754 0.023371372 0.021403959 0.03910352
0.021863474 -0.009242262 -0.026490705 0.03310143 -0.04249254 0.016206034 0.027558487 0.023337558
-0.03654882 0.026672844 0.036936555 -0.03249853 -0.033574075 0.0401428 -0.014759524 -0.025935913
-0.014677306 -0.03925862 -0.039839994 -0.035485074 0.036378372 0.0049026124 0.03882203 -0.050375696
-0.01628038 -0.016156223 0.007417515 -0.03507722 0.012321063 -0.02287895 -0.0073757297 -0.03720773
0.019026026 0.0037556738 0.037056085 -0.008776828 -0.022291362 0.011189725 0.025849123 -0.013643172
0.015641201 0.02062882 -0.029946078 0.025284972 -0.01726925 0.012132257 0.022110978 0.015832987
-0.01591161 -0.034621377 -0.025495674 0.042114995 0.042897444 -0.024791729 -0.012377489 -0.0072502196
-0.022752622 -0.035410665 0.038895782 0.014816597 -0.017331466 0.007380914 -0.0268007 -0.03215943
0.027829792 0.002444587 -0.03998844 -0.025677327 0.02939519 -0.051999092 -0.031681173 0.026050858
0.035195123 -0.018823687 -0.024454942 0.03745586 -0.04472005 -0.04210028 0.0026155822 -0.021038078
-0.0021190743 -0.022998732 -0.024836335 0.023901988 0.007428119 -0.03663755 0.014579739 -0.04341182
-0.050272472 0.008567959 0.036833 -0.004257061 0.024333347 -0.009484343 0.045663457 0.036577635
0.021599788 -0.03382291 -0.009003234 0.008511724 -0.038797557 0.011354637 -0.03273467 -0.0050346144
00000000: 6860 d6bc 4f21 323d 4c89 38bb e920 abbc
00000010: 4ef6 db3c 9286 813c 2aec e53c 83a7 e93c
00000020: 307c 1abb e51b dcbc 1edc ac3c 5d13 053d
00000030: 7412 bd3c 7d9e 3ebd c8f7 f6bc f87d 3fbd
00000040: 669b 8dbc 28d8 2bbd 63f2 c2bc c95c 89bc
00000050: 4827 bb3c 248f fb3b ca36 cd3c 4433 54bd
00000060: 02cb ea3c d541 d23c 3cee f1bc 4245 9c3c
00000070: dac8 86ba f2d6 9c3c c0b9 5fba 6e57 39bd
00000080: 69b7 59bc 3d73 2e3d 00e7 1ebc d882 c93b
00000090: f9a8 c6bc 9de0 37bd a7c3 0a3d 6925 033d
000000a0: e115 b13c b87f 1ebc b00f b73c 6c30 1fbc
000000b0: 11d2 003d ebef 0e3d 4030 0c3a 805c 333b
000000c0: ac73 5cbc 0114 e93b b20a 1fbd 5a02 fa3c
000000d0: 6e47 df3c 3a2a cd3c f8c6 3a3c 9d3a 043d
000000e0: d6f9 36bd 08e7 d9bb d6b3 ed3c 359b c9bc
000000f0: 0110 02bd 5319 1a3d 2466 71bc c14a bebc
00000100: f96e 273d 68e4 f33c c5b9 10bd 6a99 863c
00000110: 60f0 533c 31fc 023d 3652 b23c b714 0c3d
00000120: 5492 ffbb 7859 63bc 5a9f 973c 04ec 26bc
00000130: 5d8b b9bb 8b19 0abd 38ab 6b3c 5f6f dabc
00000140: cf3f af3c 7b1a 10bd e78f 1abd 6abb 893c
00000150: 6103 3cbd 62b7 e33c 0b44 49bd 9a48 2039
00000160: 0b78 4bbc c0fe d2bb 19d9 d0bc 3685 89bb
00000170: 40d4 033d 8447 283c e8e3 41bd 98d4 afbb
00000180: 8276 d3bc 15c9 173d 38fd e1bb a6dd 36bd
00000190: 3312 00bd ac59 18bd b4cc aa3c 8431 0d3b
000001a0: 66fb 203c aa99 d5bc 256b 3f3d 649a 3c3c
000001b0: b61c 19bd f3a9 e2bc 3e74 cb3c ca47 fcbc
000001c0: c84c 03bd 207a 573c 006e 4539 00b2 963b
000001d0: 4688 c63c e9e1 b3ba 7388 243d 1db9 283c
000001e0: 05fe b3bc 0413 443c b061 953b 2b75 803c
000001f0: 3aeb 45bd 7742 0dbc 2bf5 9cbc e331 22bd
00000200: 46af d0bc 8642 af3c 699d c5bc 67b0 b2bc
00000210: 83d7 0abd e4b2 6639 3ca3 37bc f08f ebbb
00000220: f4f8 98bc 53a8 ed3c 1f35 073d 58ae aabb
00000230: 0623 953c deeb 9fbc 395d 1a3d f899 cd3b
00000240: d3c8 643b 205a d43b c259 0ebd 98dd febc
00000250: 454f 3a3d 5275 bf3c 5b57 af3c 032b 203d
00000260: 071b b33c db6c 17bc 0903 d9bc 5d95 073d
00000270: a80c 2ebd 84c2 843c 56c2 e13c 682e bf3c
00000280: 37b4 15bd 0281 da3c c94a 173d 2e1d 05bd
00000290: f884 09bd c76c 243d eed1 71bc 8d77 d4bc
000002a0: 1579 70bc a6cd 20bd 432f 23bd cc58 11bd
000002b0: 7d01 153d 18a6 a03b d903 1f3d bf56 4ebd
000002c0: 6e5e 85bc 0e5a 84bc a00e f33b 22ad 0fbd
000002d0: 49de 493c a36c bbbc 1bb0 f1bb 2267 18bd
000002e0: 78dc 9b3c c021 763b 1fc8 173d afcc 0fbc
000002f0: 609c b6bc 1c55 373c 8ac1 d33c 9c87 5fbc
00000300: fa21 803c c5fd a83c 7a51 f5bc 6e22 cf3c
00000310: 3e78 8dbc 60c6 463c 1522 b53c 2eb4 813c
00000320: 1159 82bc 25cf 0dbd 4edc d0bc c680 2c3d
00000330: 3bb5 2f3d 0618 cbbc f4ca 4abc 4093 edbb
00000340: b563 babc c60a 11bd 2f51 1f3d 50c1 723c
00000350: b8fa 8dbc 98db f13b 248d dbbc 9bb9 03bd
00000360: 4efb e33c 5d35 203b ebca 23bd 4259 d2bc
00000370: 2ece f03c 00fd 54bd 1ec4 01bd 9c68 d53c
00000380: c328 103d 2234 9abc bb55 c8bc 516b 193d
00000390: 5f2c 37bd 5871 2cbd 306a 2b3b 0c58 acbc
000003a0: 2be0 0abb d667 bcbc 9275 cbbc 1ace c33c
000003b0: 9467 f33b 4111 16bd dcdf 6e3c 98d0 31bd
000003c0: 82ea 4dbd a060 0c3c 33de 163d d17e 8bbb
000003d0: ba56 c73c 3864 1bbc 9b09 3b3d 6ed2 153d
000003e0: 0af2 b03c e489 0abd 4d82 13bc c274 0b3c
000003f0: 30ea 1ebd cd08 3a3c ca14 06bd 68f9 a4bb

output.2.bias f4 [10]
-0.048366863 0.0034624052 0.031096667 -0.018578324 0.017857466 0.0766916 0.032404892 0.10053692
0.011005136 0.01187307
00000000: 551c 46bd 85e9 623b 70be fe3c 9231 98bc
00000010: d249 923c 7c10 9d3d feba 043d 4de6 cd3d
00000020: e34e 343c 4487 423c

output.4.weight f4 [512, 10]
-0.124855936 -0.014031915 -0.14384302 -0.056248423 0.03331125 -0.043552782 0.18118641 -0.24192105
0.29291114 0.31437048 -0.15449755 0.13491191 0.31085226 0.018410683 0.13315979 -0.19537425
-0.26710826 0.1467402 0.27107692 -0.3177124 0.08233628 0.13648178 -0.18375246 0.1812783
0.031936474 0.15958357 -0.078421645 -0.25609004 0.31402007 0.19257294 0.22620319 -0.25740278
-0.119225174 -0.19304502 -0.15889353 -0.01034188 0.05810554 -0.049112514 -0.2363632 -0.22249402
-0.2538144 -0.13475364 0.2183464 0.2963517 -0.2518888 0.0698238 -0.22986366 0.041531045
0.20995 -0.07765044 0.03354106 0.27846682 -0.048103273 0.21242115 0.12051497 -0.22618899
-0.13748902 0.3007434 0.061145276 -0.24998935 0.24057369 -0.15919304 0.10699931 0.069138795
-0.25852516 -0.28202212 0.18991038 -0.09162208 0.04789409 -0.28471008 0.30618024 -0.11507359
-0.20307106 -0.23001625 0.29637387 -0.14423826 0.21740776 -0.07683255 -0.18742703 0.22399445
0.16029316 -0.117577545 0.009010375 -0.14345889 -0.28148758 -0.21521395 0.19668464 -0.3039208
-0.022663746 -0.013062984 0.2105744 0.048178528 0.0038811062 -0.288065 0.026076136 0.15931588
0.22586296 -0.19969697 0.0037694275 0.2083176 0.18217601 0.18528548 0.07838562 0.2953218
0.3243737 -0.0504304 0.20805866 -0.06872504 -0.07292129 -0.279903 0.1262822 0.23341708
0.22241941 -0.17675859 0.17615162 -0.04487235 -0.30962738 0.248549 -0.2688292 -0.24874851
-0.04105687 -0.019764038 0.059915278 0.00910978 -0.07907366 0.18910709 0.14343412 -0.10866064
0.099880815 0.041236337 0.26647553 -0.00936462 0.012204647 -0.19389898 -0.20303662 -0.24695025
-0.1294831 0.20455523 0.28119358 -0.2008644 0.25065863 -0.02988569 0.08259544 0.00036767125
-0.066354506 -0.25380963 0.28043234 0.010700752 0.22466096 -0.16865799 -0.24593137 -0.11180552
0.16223186 -0.28016913 0.33715615 0.21994798 -0.28179774 0.17637257 -0.10304108 -0.24231584
-0.07258831 0.28009015 0.30973616 -0.29944175 -0.16744518 -0.3180162 0.28635147 0.013746541
-0.026528627 0.13646957 -0.23004763 0.0035923063 0.12016001 0.06869182 -0.10083602 -0.03429612
0.2836877 -0.051856924 0.018826272 -0.07180391 -0.15673967 -0.10744939 0.15558854 -0.19619955
0.305478 -0.28018907 -0.22204134 -0.26843095 -0.233595 0.0035436826 0.065368414 0.035282128
-0.07966284 0.1228846 0.120833606 0.12694965 -0.23555474 0.18966144 -0.1420435 0.25972372
0.24738526 -0.2824161 -0.04256752 0.1701816 0.2420741 0.071676485 0.24155168 0.04063541
0.22627251 -0.24881853 0.10125592 -0.29270265 -0.2336957 0.13372877 0.3190605 0.08957417
-0.1732599 -0.16965806 0.076983415 -0.009955083 -0.06653687 0.07468741 0.051229 -0.04847303
-0.21656613 0.18552454 -0.20488521 0.054428034 -0.31308517 -0.1405045 0.117335334 0.2542147
-0.030358845 0.092770696 0.06963513 0.10851236 -0.16290621 -0.20675068 -0.20868756 0.12301504
-0.0597325 -0.050535087 0.061239097 0.16779599 -0.02957513 0.06354684 0.09359034 0.022382831
0.033699423 0.070287526 0.14549123 0.24219479 -0.039566398 -0.19331014 0.19429699 -0.2470392
00000000: 78b4 ffbd 1ee6 65bc 964b 13be bf64 66bd
00000010: 6171 083d 6764 32bd ee88 393e 27ba 77be
00000020: 73f8 953e 2bf5 a03e 9b34 1ebe 5926 0a3e
00000030: 0728 9f3e 00d2 963c 0a5b 083e 3010 48be
00000040: 6ac2 88be 1043 163e 98ca 8a3e 33ab a2be
00000050: ec9f a83d e1c1 0b3e 9b29 3cbe 05a1 393e
00000060: d2cf 023d e069 233e 879b a0bd 3c1e 83be
00000070: 3dc7 a03e d731 453e cfa1 673e 4cca 83be
00000080: 542c f4bd 98ad 45be fcb4 22be fd70 29bc
00000090: 1300 6e3d 342a 49bd 3209 72be 79d5 63be
000000a0: f6f3 81be dcfc 09be 3396 5f3e 69bb 973e
000000b0: 92f7 80be c8ff 8e3d 6161 6bbe 751c 2a3d
000000c0: 22fd 563e 3207 9fbd 5a62 093d 3493 8e3e
000000d0: f007 45bd ee84 593e 8dd0 f63d 169e 67be
000000e0: ecc9 0cbe 0afb 993e 7873 7a3d 35fd 7fbe
000000f0: f358 763e 8003 23be 7422 db3d a498 8d3d
00000100: 695d 84be 3465 90be de77 423e 5ba4 bbbd
00000110: 982c 443d 85c5 91be a8c3 9c3e b4ab ebbd
00000120: dcf1 4fbe 6189 6bbe 51be 973e 32b3 13be
00000130: 24a0 5e3e 625a 9dbd dfec 3fbe cd5e 653e
00000140: e423 243e 7fcc f0bd 40a0 133c e3e6 12be
00000150: 241f 90be 0c61 5cbe b367 493e 829b 9bbe
00000160: 52a9 b9bc 2006 56bc d1a0 573e d956 453d
00000170: 285a 7e3b 417d 93be 9f9d d53c b423 233e
00000180: 9f48 673e 5d7d 4cbe 8008 773b 3551 553e
00000190: 598c 3a3e 7abb 3d3e a488 a03d 6b34 973e
000001a0: 4f14 a63e 1b90 4ebd 540d 553e b7bf 8cbd
000001b0: c257 95bd 724f 8fbe 1f50 013e e304 6f3e
000001c0: eac1 633e 3400 35be 1761 343e 12cc 37bd
000001d0: 7b87 9ebe a183 7e3e fba3 89be eeb7 7ebe
000001e0: 402b 28bd 31e8 a1bc b969 753d 3041 153c
000001f0: 5ff1 a1bd 4aa5 413e 65e0 123e 7889 debd
00000200: 508e cc3d 6fe7 283d 7b6f 883e 106e 19bc
00000210: 00f6 473c 748d 46be d5e8 4fbe 87e0 7cbe
00000220: 3897 04be ed76 513e 9bf8 8f3e 66af 4dbe
00000230: 5456 803e d6d2 f4bc cc27 a93d 00c4 c039
00000240: dfe4 87bd 56f3 81be d494 8f3e 3552 2f3c
00000250: 860d 663e aeb4 2cbe 6fd5 7bbe 4bfa e4bd
00000260: 1c20 263e 5472 8fbe bb9f ac3e 0b3a 613e
00000270: cb47 90be 039b 343e 3407 d3bd a521 78be
00000280: 2ea9 94bd fa67 8f3e bd95 9e3e 6e50 99be
00000290: c076 2bbe 05d3 a2be a99c 923e 2c39 613c
000002a0: 9052 d9bc aebe 0b3e 9b91 6bbe e66c 6b3b
000002b0: 7416 f63d 4cae 8c3d 1e83 cebd 177a 0cbd
000002c0: 843f 913e ed67 54bd 8e39 9a3c ee0d 93bd
000002d0: 5d80 20be 6d0e dcbd 9a52 1f3e 89e8 48be
000002e0: 9d67 9c3e f174 8fbe ce5e 63be c86f 89be
000002f0: 8733 6fbe 213d 683b e0df 853d fe83 103d
00000300: 4526 a3bd ecaa fb3d 9c77 f73d 17ff 013e
00000310: 4335 71be 9c36 423e da73 11be 82fa 843e
00000320: 9052 7d3e d898 90be 485b 2ebd 1644 2e3e
00000330: 46e2 773e 1fcb 923d 5359 773e 5171 263d
00000340: fbb3 673e 49ca 7ebe 445f cf3d 1fdd 95be
00000350: ed4d 6fbe 32f0 083e e65b a33e aa72 b73d
00000360: 0b6b 31be d8ba 2dbe 7ba9 9d3d a51a 23bc
00000370: 7c44 88bd b6f5 983d 80d5 513d a88b 46bd
00000380: 83c3 5dbe 25fa 3d3e 6ecd 51be eeef 5e3d
00000390: b34c a0be 69e0 0fbe 824d f03d 6e28 823e
000003a0: 1db3 f8bc 90fe bd3d dd9c 8e3d ba3b de3d
000003b0: e3d0 26be 73b6 53be 31b2 55be 4fef fb3d
000003c0: 11aa 74bd e1fd 4ebd d9d5 7a3d b6d2 2b3e
000003d0: 8b47 f2bc d824 823d 4bac bf3d 335c b73c
000003e0: 6808 0a3d e8f2 8f3d a7fb 143e e901 783e
000003f0: 6010 22bd 18f3 45be caf5 463e d8f7 7cbe

output.4.bias f4 [512]
-0.08869417 0.17554839 -0.29557714 -0.010977604 0.28315774 -0.1606099 -0.18682879 0.25808904
0.22897588 -0.29536328 -0.15517204 0.31068766 -0.35984823 0.13487768 -0.08846099 -0.3036327
-0.15534833 0.45427054 0.16195065 0.18839128 0.21537575 0.25797516 0.36004996 0.358241
-0.03922118 -0.14044046 -0.0188578 0.2765484 -0.280517 0.19436078 0.33324766 0.005967183
-0.18376389 -0.30037567 -0.095420174 0.3993876 0.1316026 -0.14119549 0.02173112 -0.20523639
0.101735696 0.28886735 -0.0033817762 0.14329137 -0.25727424 -0.10599829 -0.1828173 0.012755947
-0.28974593 -0.15053137 0.31728742 -0.14597827 0.033276122 0.081650965 0.33862177 0.37695795
0.011844068 0.013870551 0.020981345 0.1863396 -0.06376268 0.341545 0.07444371 -0.22941019
-0.20836194 0.32362652 -0.09784414 -0.10983583 0.12037458 -0.3675048 0.40505013 0.160784
-0.1718333 0.06028604 0.17419805 -0.23158117 0.16119912 -0.20065022 0.026605073 -0.2784023
0.33826277 -0.28923196 -0.17431083 -0.29079434 -0.22333328 -0.18241775 -0.0016048299 0.1755781
-0.14651212 -0.40618885 -0.28469014 -0.25281215 -0.07089302 -0.29131585 0.26434624 -0.054115336
0.043080945 0.05117111 -0.048311792 0.052969996 0.09905143 0.04040112 0.06487641 -0.2030442
0.34203976 -0.108453706 0.2563369 -0.23343953 -0.27318868 0.08992682 0.26287836 0.18556528
0.27403226 -0.3425953 0.32534236 -0.087464035 -0.26214617 -0.14284909 0.38069746 0.099947445
-0.33870548 0.09664547 0.29028413 0.011286474 -0.25767198 0.2627369 0.2558537 0.07701011
-0.053284403 -0.080252476 -0.0057338797 0.06324824 -0.25778088 0.37738958 0.35839993 0.29298502
0.09866208 0.05632546 -0.017101213 -0.27220562 -0.20820121 0.14269625 0.21439685 -0.2208169
-0.299677 0.38762048 -0.14520821 -0.01440837 0.0416713 0.01924451 0.17789552 0.21240538
-0.15572755 -0.025455147 0.32062352 -0.17074887 0.06801417 0.33639586 -0.13479947 -0.29676932
0.16606629 0.12895778 -0.3595038 -0.26355904 -0.21587713 -0.14238945 0.30696383 -0.0009102563
-0.012220057 -0.06222177 0.16122875 -0.19967301 -0.15180585 -0.22957325 -0.19278924 -0.26286978
-0.33473957 0.01607636 -0.2834052 0.14618789 0.044591453 0.2537122 -0.09955852 -0.32666576
-0.004689951 0.40038493 -0.0063258465 -0.0077451295 -0.10806612 -0.16828054 0.18721223 -0.2926887
0.06225281 -0.11328482 -0.3501054 0.105077684 0.23855923 0.22343042 -0.23409231 -0.1204361
-0.048446305 -0.06631498 0.18198562 -0.19588873 0.011311325 0.4174689 -0.009242085 0.20210819
0.15513174 0.09003414 -0.15937927 0.19001333 0.16321993 0.21134883 0.041398037 0.092700675
0.042131577 0.18868893 0.34754792 -0.15253873 0.14371282 -0.17692515 0.05590234 -0.19410406
-0.0044345357 0.021673199 -0.12427029 0.013960413 -0.2306681 0.13446194 0.23457794 -0.00586122
-0.0010305741 -0.054671988 0.09402287 0.14701456 0.33057103 0.33536348 0.20118435 -0.09350295
0.22174625 0.012878991 0.39174783 0.16297421 0.21434614 0.15799303 0.32743114 0.036665216
-0.2705494 0.1677874 -0.31052068 0.35599706 -0.11721864 -0.0070935264 -0.17112021 0.22622281
00000000: 4aa5 b5bd f5c2 333e e355 97be 69db 33bc
00000010: 0dfa 903e ec76 24be 0c50 3fbe 3f24 843e
00000020: a778 6a3e db39 97be 6be5 1ebe 7412 9f3e
00000030: 073e b8be 601d 0a3e 092b b5bd bf75 9bbe
00000040: a213 1fbe 2696 e83e 64d6 253e a5e9 403e
00000050: 768b 5c3e 5215 843e 7858 b83e 5d6b b73e
00000060: 63a6 20bd a0cf 0fbe ac7b 9abc c097 8d3e
00000070: ed9f 8fbe 8306 473e 709f aa3e 5c88 c33b
00000080: 9a2c 3cbe d7ca 99be a76b c3bd 887c cc3e
00000090: d5c2 063e 8d95 10be 7605 b23c 7d29 52be
000000a0: ce5a d03d 6ce6 933e caa0 5dbb f9ba 123e
000000b0: 73b9 83be a215 d9bd 7534 3bbe 52fe 503c
000000c0: 9459 94be e524 1abe 7f73 a23e 547b 15be
000000d0: 8b4c 083d 9f38 a73d d55f ad3e a200 c13e
000000e0: 9f0d 423c 4f41 633c 12e1 ab3c cfcf 3e3e
000000f0: 0296 82bd fcde ae3e f275 983d 81ea 6abe
00000100: d55c 55be 60b2 a53e 8262 c8bd 9cf1 e0bd
00000110: f386 f63d 9729 bcbe bb62 cf3e 90a4 243e
00000120: 12f5 2fbe 7fee 763d f960 323e 9d23 6dbe
00000130: 6211 253e 4077 4dbe e2f2 d93c bf8a 8ebe
00000140: c730 ad3e 3616 94be 8a7e 32be ffe2 94be
00000150: 7bb1 64be b8cb 3abe 2859 d2ba bfca 333e
00000160: 4607 16be fcf7 cfbe e8c2 91be 9870 81be
00000170: 5c30 91bd 5a27 95be 6458 873e 0ba8 5dbd
00000180: a575 303d cc98 513d 96e2 45bd 11f7 583d
00000190: 7adb ca3d a57b 253d ecdd 843d d2ea 4fbe
000001a0: d61f af3e fa1c debd 973e 833e c60a 6fbe
000001b0: 63df 8bbe 8d2b b83d fe97 863e d304 3e3e
000001c0: f54d 8c3e a768 afbe 4693 a63e 5820 b3bd
000001d0: 0638 86be 0847 12be c7ea c23e 3fb1 cc3d
000001e0: ce6a adbe 0fee c53d 1fa0 943e e7ea 383c
000001f0: 95ed 83be 7385 863e 42ff 823e 7ab7 9d3d
00000200: bf40 5abd 695b a4bd 45e3 bbbb 4b88 813d
00000210: dbfb 83be 3539 c13e 3280 b73e 2202 963e
00000220: 580f ca3d 87b5 663d d817 8cbc 895e 8bbe
00000230: b332 55be f71e 123e d98a 5b3e d31d 62be
00000240: 446f 99be 3176 c63e 76b1 14be 1511 6cbc
00000250: 86af 2a3d aaa6 9d3c 3e2a 363e cc80 593e
00000260: 0b77 1fbe 5087 d0bc c428 a43e cbd8 2ebe
00000270: 034b 8b3d 143c ac3e df08 0abe 26f2 97be
00000280: 480d 2a3e 820d 043e e210 b8be 36f1 86be
00000290: e50e 5dbe 8ace 11be 5d2a 9d3e 449e 6eba
000002a0: a236 48bc 41dc 7ebd 2619 253e 1577 4cbe
000002b0: fe72 1bbe 4015 6bbe 8b6a 45be de96 86be
000002c0: fc62 abbe 92b2 833c 7d1a 91be 47b2 153e
000002d0: 87a5 363d 91e6 813e 56e5 cbbd bc40 a7be
000002e0: 29ae 99bb 41ff cc3e 0c49 cfbb dbca fdbb
000002f0: c551 ddbd bc51 2cbe 90b4 3f3e 4bdb 95be
00000300: cdfc 7e3d df01 e8bd 0441 b3be f832 d73d
00000310: df48 743e f2ca 643e e5b5 6fbe 34a7 f6bd
00000320: a26f 46bd 26d0 87bd 705a 3a3e 0e97 48be
00000330: 2353 393c 7cbe d53e 1d6c 17bc 73f5 4e3e
00000340: dbda 1e3e d263 b83d 5234 23be db92 423e
00000350: 2023 273e d46b 583e fd90 293d dad9 bd3d
00000360: 2992 2c3d ac37 413e cdf1 b13e 1d33 1cbe
00000370: 7429 133e de2b 35be daf9 643d 37c3 46be
00000380: 954f 91bb fe8b b13c 6c81 febd 37ba 643c
00000390: 4234 6cbe 64b0 093e 3335 703e 7a0f c0bb
000003a0: 5414 87ba bcef 5fbd 108f c03d fc8a 163e
000003b0: 9b40 a93e c3b4 ab3e 4503 4e3e 7a7e bfbd
000003c0: 7311 633e 6702 533c 2c93 c83e b6e2 263e
000003d0: 8e7d 5b3e edc8 213e 0ea5 a73e 442e 163d
000003e0: 7385 8abe 76d0 2b3e 91fc 9ebe 3f45 b63e
000003f0: 5410 f0bd d070 e8bb 233a 2fbe f4a6 673e

output.6.weight f4 [7, 512]
0.007054775 -0.01044559 -0.015819311 0.008441232 0.040058117 0.027820729 0.03066105 0.02011784
-0.07287 -0.060010333 -0.0136032645 0.0020063722 -0.060366206 0.04214462 -0.032761626 -0.03699079
0.01510131 0.073382415 0.00834184 0.018969353 -0.017012702 0.05473948 0.054108236 0.023041297
-0.006399881 -0.025123226 -0.011416082 0.054170642 -0.012453788 -0.021471199 0.0062780376 -0.011708935
-0.04934224 -0.05914952 -0.044560075 0.074675255 0.060296174 -0.06310798 -0.0029901993 -0.038292885
-0.027818818 0.053153746 -0.014888034 0.05022219 -0.06524516 -0.032826126 -0.07909843 -0.030682024
-0.05762424 -0.06418948 0.021408342 -0.043129135 0.018437339 -0.16795635 0.05744585 0.041823845
-0.041350357 -0.011280093 0.0044784923 0.011401613 -0.028865056 0.038993783 0.00829277 -0.031524032
0.0128834415 0.03334766 -0.04690922 0.008416519 -0.005699982 -0.032287277 0.13623562 0.045049135
-0.046439167 0.01463705 -0.00929616 -0.05236789 -0.033246364 -0.015533476 -0.0026246593 -0.032682214
0.035194643 -0.071610056 -0.031450238 -0.04672535 0.005635427 -0.009735917 -0.021642791 0.047295727
-0.014010994 -0.043196257 -0.036396675 -0.107983716 0.013332511 -0.0417746 0.04049176 -0.035630833
-0.016162753 0.018901017 -0.037795488 -0.028586151 0.022633327 0.037091613 -0.0016975312 -0.03730858
0.08085608 -0.012036208 0.020145183 -0.016693665 -0.011196425 -0.025250131 0.012186985 0.06455733
0.028341824 -0.06469977 0.061403707 -0.021666795 -0.033549644 -0.0050669834 0.03569325 -0.015427206
-0.059686 0.03620942 0.015290775 -0.008402418 -0.040441792 0.11446615 0.04272922 0.0070643635
-0.04666342 -0.03340725 -0.027409142 0.02939611 0.003597487 0.040179055 0.020198813 0.014813421
-0.0341029 0.0017234853 0.0061904546 -0.004713086 -0.0056518754 -0.019045431 0.0114195915 -0.024016848
-0.070567615 0.074272364 0.011241411 -0.021837078 -0.00035807534 -0.04454422 0.07193895 0.007684225
-0.06073773 0.016848922 0.053442374 0.026052447 -0.008535506 0.08311594 0.025778469 -0.0032694193
0.051660195 0.037635613 -0.040093534 -0.08777031 0.016810004 -0.045386937 0.0522625 -0.015961323
-0.0123691885 0.009960111 0.009763348 -0.039625965 0.017409718 -0.017034095 -0.055305365 -0.014903306
-0.058506362 -0.023291482 0.008826126 -0.005988412 -0.001656862 0.06729056 0.00042843877 -0.016952408
0.014371686 0.070180304 -0.013547848 -0.0103207035 0.010022255 -0.01602379 0.03603445 -0.012635982
-0.0005329736 -0.045859694 -0.074054815 0.010532638 0.05098649 0.041541517 -0.040077344 -0.05246923
0.030471878 -0.021759301 0.024878595 0.018798072 0.0033359707 0.10024925 -0.015811235 0.018150434
0.008173719 -0.0065361788 -0.07419414 -0.005655471 -0.0005209122 0.017327348 -0.08622898 -0.02924184
0.04040991 -0.014656663 0.039039876 0.0028403436 -0.0005519547 0.011567752 -0.043988455 -0.0036871622
-0.033363245 0.00051460974 -0.06696659 -0.030729394 0.010036771 0.044267863 0.07121405 -0.01266927
-0.023630336 0.010120857 0.009861413 0.013660473 0.056986023 0.03447924 -0.010036632 0.029549824
0.00085833156 0.010831694 0.06997571 0.036247667 0.01719594 0.012346503 0.05088494 -0.0047298744
-0.046203103 0.009163435 0.01664419 0.06997163 -0.043064144 -0.0077788336 0.006873699 0.012143973
00000000: be2b e73b fb23 2bbc 8097 81bc 184d 0a3c
00000010: fb13 243d 4ce8 e33c e22c fb3c 2bce a43c
00000020: de3c 95bd 65cd 75bd 3ae0 5ebc 577d 033b
00000030: 8e42 77bd d69f 2c3d 0e31 06bd a883 17bd
00000040: 7c6b 773c 8549 963d 36ac 083c 9e65 9b3c
00000050: 395e 8bbc 8136 603d 99a0 5d3d 1ac1 bc3c
00000060: 18b6 d1bb 39cf cdbc 850a 3bbc 09e2 5d3d
00000070: f90a 4cbc 5ee4 afbc ffb7 cd3b d5d6 3fbc
00000080: 171b 4abd c446 72bd a084 36bd 57ef 983d
00000090: 1ff9 763d c23e 81bd 38f7 43bb 00d9 1cbd
000000a0: 4ae4 e3bc beb7 593d f1ec 73bc c8b5 4d3d
000000b0: 419f 85bd b074 06bd 5cfe a1bd de58 fbbc
000000c0: 6507 6cbd c675 83bd 8c60 af3c 2da8 30bd
000000d0: e709 973c c0fc 2bbe 574c 6b3d 7b4f 2b3d
000000e0: fe5e 29bd 24d0 38bc 51c0 923b d5cd 3a3c
000000f0: 6976 ecbc f2b7 1f3d 66de 073c 581f 01bd
00000100: 1215 533c 8e97 083d e223 40bd 70e5 093c
00000110: eac6 babb aa3f 04bd 5a81 0b3e 7185 383d
00000120: ff36 3ebd 3dd0 6f3c ec4e 18bc b67f 56bd
00000130: 572d 08bd 1f80 7ebc 7a02 2cbb c9dd 05bd
00000140: 4228 103d 4ba8 92bd f7d1 00bd 1563 3fbd
00000150: 63a9 b83b 6583 1fbc 394c b1bc 2ab9 413d
00000160: 5e8e 65bc 8fee 30bd ae14 15bd 9126 ddbd
00000170: 9b70 5a3c d81b 2bbd b0da 253d a3f1 11bd
00000180: c067 84bc 4ed6 9a3c 71cf 1abd 812d eabc
00000190: 8769 b93c 60ed 173d b27f deba e2d0 18bd
000001a0: df97 a53d 8433 45bc 8307 a53c 27c1 88bc
000001b0: 3671 37bc 5dd9 cebc ecab 473c a236 843d
000001c0: 1d2d e83c 5081 84bd 7482 7b3d 907e b1bc
000001d0: 5a6b 09bd f008 a6bb 1633 123d 64c2 7cbc
000001e0: 4f79 74bd 5450 143d 2986 7a3c 4caa 09bc
000001f0: 4ba6 25bd 3b6d ea3d d604 2f3d 2d7c e73b
00000200: 2422 3fbd 0ad6 08bd 2389 e0bc 1cd0 f03c
00000210: d1c3 6b3b cb92 243d fb77 a53c feb3 723c
00000220: 7caf 0bbd 92e6 e13a 4cd9 ca3b 3b70 9abb
00000230: 5e33 b9bb 2a05 9cbc 3d19 3b3c fbbe c4bc
00000240: c185 90bd 1c1c 983d e52d 383c ace3 b2bc
00000250: 0fbc bbb9 0074 36bd ba54 933d f4cb fb3b
00000260: 20c8 78bd c006 8a3c 64e6 5a3d f16b d53c
00000270: 82d8 0bbc b138 aa3d 5e2d d33c c143 56bb
00000280: a499 533d cd27 1a3d 1e39 24bd ecc0 b3bd
00000290: 22b5 893c a7e7 39bd 3411 563d 52c1 82bc
000002a0: 23a8 4abc bc2f 233c 73f6 1f3c d64e 22bd
000002b0: d39e 8e3c 168b 8bbc e187 62bd ff2c 74bc
000002c0: 5ea4 6fbd c7cd bebc 759b 103c 713a c4bb
000002d0: 102b d9ba a2cf 893d 14a0 e039 c7df 8abc
000002e0: 3877 6b3c b1ba 8f3d cbf7 5dbc 2b18 29bc
000002f0: 6234 243c 5344 83bc dc98 133d 2607 4fbc
00000300: 41b7 0bba 60d7 3bbd 0daa 97bd 1691 2c3c
00000310: 36d7 503d 7027 2a3d 2428 24bd fae9 56bd
00000320: 29a0 f93c 9040 b2bc 32ce cb3c 6afe 993c
00000330: 4da0 5a3b 7b4f cd3d 9086 81bc 38b0 943c
00000340: 10eb 053c 712d d6bb 19f3 97bd 8751 b9bb
00000350: d38d 08ba 15f2 8d3c d298 b0bd 958c efbc
00000360: dd84 253d 8022 70bc 47e8 1f3d 0f25 3a3b
00000370: 0eb1 10ba ab86 3d3c 3d2d 34bd 51a4 71bb
00000380: e6a7 08bd e0e6 063a c825 89bd 36bc fbbc
00000390: 4571 243c 3852 353d acd8 913d c592 4fbc
000003a0: 6894 c1bc f3d1 253c c491 213c 2dd0 5f3c
000003b0: 2d6a 693d 1b3a 0d3d b070 24bc 7912 f23c
000003c0: a801 613a 6b77 313c 6d4f 8f3d 6f78 143d
000003d0: 80de 8c3c fd48 4a3c ba6c 503d 10fd 9abb
000003e0: 773f 3dbd 3b22 163c 6559 883c 494d 8f3d
000003f0: 0764 30bd 96e5 febb c43c e13b 84f7 463c

output.6.bias f4 [7]
0.10951578 -0.06828791 -0.112650596 -0.024919277 -0.12613489 -0.041175146 -0.052144933
00000000: cf49 e03d 88da 8bbd 5bb5 e6bd 8323 ccbc
00000010: 8129 01be 45a7 28bd ed95 55bd
