output/models/77.57Acc_H1_FourLayers128_128_128_128Units_ReLU_CrossEntropyLoss_Adam_0.001lr_8409epochs_10batches.pth (torch, 210635 bytes, 10 tensors)

output.0.weight f4 [128, 6]
0	0xbdc8190c	-0.09770402
1	0x3e29785a	0.16549817
2	0xbf246fd9	-0.64233166
3	0xbed273a0	-0.4110384
4	0x40660a82	3.5943913
5	0xbfc3bb0f	-1.5291461
6	0x3f2c2e84	0.6725848
7	0xbed6d2e8	-0.41957784
8	0xbedec9a0	-0.43513203
9	0x3ee771d1	0.45204023
10	0x3ea0cede	0.31407827
11	0xbe856ca1	-0.2605944
12	0xbe56cb3b	-0.20975964
13	0xbebab461	-0.36465743
14	0xbdcde79e	-0.10053943
15	0xbcbdaf18	-0.02315478
16	0x3dc56e36	0.09640162
17	0xbd03848b	-0.032108825
18	0xbd2db698	-0.042410463
19	0x3ec580fd	0.38574973
20	0x3d4cfe0b	0.05004696
21	0xbc08a8ff	-0.008341073
22	0xbfd8671b	-1.6906465
23	0x3f748d98	0.95528555
24	0x3ea2e3e6	0.31814498
25	0x3d36fee0	0.04467666
26	0xbf05b8df	-0.52235216
27	0x3f36aaab	0.7135417
28	0xbe6c4603	-0.23073582
29	0x3f011a8a	0.5043112
30	0xbd367af6	-0.04455086
31	0xbd629eb6	-0.05532714
32	0x3e1e9979	0.15488233
33	0x3e1a1d8b	0.15050332
34	0xbceb8e54	-0.02875439
35	0x3ff4c9ca	1.9124081
36	0x3f248eb7	0.64280266
37	0xbe98812d	-0.29786053
38	0x3d6f1448	0.05836895
39	0xbe21c71a	-0.15798607
40	0xbe366645	-0.1781245
41	0xbdcbe82c	-0.09956393
42	0xbe828895	-0.2549483
43	0x3e9bd920	0.3043909
44	0xbda8ac62	-0.082360044
45	0xbf9a9c6a	-1.2078984
46	0xc02b5d7d	-2.677581
47	0x3f009344	0.5022471
48	0xbcd8a319	-0.026444959
49	0xbf083c83	-0.53217334
50	0x3e8b37fe	0.27191156
51	0xbeb5fc42	-0.3554402
52	0xbf4b91ad	-0.7951916
53	0x3fd22f20	1.6420631
54	0xbee827e1	-0.45342925
55	0x3eb48836	0.3526017
56	0x3e8cb63f	0.27482793
57	0x3be477bf	0.0069722827
58	0xbee234f0	-0.44181013
59	0x40189473	2.3840606
60	0x3e7c3d7d	0.24632831
61	0xbf8a9c7c	-1.0829005
62	0x3dae5e9c	0.08514139
63	0x3eb21c03	0.34786996
64	0x3fce3f41	1.6113054
65	0x3fa2c041	1.2714921
66	0x3ed85286	0.4225046
67	0x3e3f8cef	0.18706106
68	0x3cfa1fee	0.030532803
69	0x3e355b6d	0.17710657
70	0xc0504d77	-3.254728
71	0xc03b0010	-2.9218788
72	0x3ef2f0e0	0.47449398
73	0xbe2878e7	-0.1645237
74	0xbea5910a	-0.3233722
75	0x3d84d23f	0.06485414
76	0x3f4a2ba2	0.7897283
77	0x405f6b17	3.4909112
78	0x3e85b8b7	0.2611749
79	0xbe8c5d35	-0.2741486
80	0x3c952d85	0.018210182
81	0x3e8e5c07	0.27804586
82	0x3ffcd5be	1.9752729
83	0xbffdf6b2	-1.984091
84	0xbcec1444	-0.028818257
85	0x3f28bc97	0.65912765
86	0x3d3a81c3	0.045533907
87	0xbe7a6f3c	-0.24456495
88	0x3e95c8f0	0.29254866
89	0x3ec5d228	0.386369
90	0xbf0da48e	-0.55329216
91	0x3e58d81f	0.21176194
92	0xbf14f096	-0.58179605
93	0xbf14b087	-0.5808186
94	0x3f2dfe6d	0.6796635
95	0x40870704	4.2196064
96	0x3dd923e7	0.10602551
97	0xbe2b8606	-0.16750345
98	0x3dae995d	0.085253455
99	0xbd5af8ca	-0.05345992
100	0x3fa98fda	1.3247025
101	0xbfbccd66	-1.4750183
102	0x3ded73ec	0.11594376
103	0x3e3097fe	0.1724548
104	0xbedd57ab	-0.43230948
105	0x3f0506c8	0.5196347
106	0xbf9ee4e2	-1.24136
107	0x3f27a810	0.6549082
108	0xbd87c1b1	-0.066287406
109	0x3c006dd1	0.007838682
110	0x3d4db44b	0.05022077
111	0x3eb36a8a	0.3504222
112	0x402b8d58	2.680502
113	0x3e5f9d7f	0.21837424
114	0xbea968e1	-0.3308783
115	0x3cc30c45	0.023809562
116	0x3df28e60	0.11843562
117	0x3e3bddba	0.183463
118	0xbfccdefc	-1.600555
119	0xbe7cd4d0	-0.24690557
120	0xbf157ce6	-0.58393705
121	0x3efc10c6	0.49231547
122	0x3e5ac7a9	0.21365227
123	0x3e167c7e	0.14695928
124	0x3f63ad70	0.8893652
125	0x3f852f81	1.0405122
126	0xbd6a6d8e	-0.057233386
127	0xbe6bfe98	-0.23046339
128	0x3e3b86b0	0.18313098
129	0x3ed0898f	0.4072995
130	0xbd6180a1	-0.05505431
131	0x401e7cb8	2.4763622
132	0xbf0f7473	-0.5603706
133	0xbba75f0c	-0.005107766
134	0x3e79f43c	0.24409574
135	0xbe591c5f	-0.21202229
136	0x3eb76bb2	0.35824353
137	0x401bb1c4	2.432725
138	0x3e4efacf	0.20212863
139	0x3e89d72f	0.26921985
140	0x3e52c832	0.20584181
141	0xbebeedc0	-0.37290764
142	0xbf1a5027	-0.6027855
143	0xbfe8e842	-1.819588
144	0x3d912280	0.070866585
145	0xbdff8d00	-0.124780655
146	0xbe0800db	-0.13281576
147	0xbeb84ff3	-0.35998496
148	0x3eb36d1f	0.3504419
149	0x3df20c84	0.118187934
150	0xbf22fac1	-0.6366387
151	0xbeb97471	-0.3622165
152	0x3e01152c	0.12605733
153	0x3ee1482f	0.44000384
154	0xc02849f4	-2.6295137
155	0xbfa0084f	-1.2502536
156	0x3ead8f91	0.33898595
157	0x3e2207f4	0.15823346
158	0xbd4adcbb	-0.04952691
159	0x3f1cf086	0.6130451
160	0x3e6a9130	0.22906947
161	0x4038688c	2.881381
162	0x3dc107c7	0.094253115
163	0xbe1469dc	-0.14493507
164	0xbe8fef0d	-0.2811207
165	0xbdab7eb1	-0.08373774
166	0xbed0761c	-0.4071511
167	0x3d34279b	0.043983083
168	0xbe88e7c6	-0.2673933
169	0xbe89bdc1	-0.26902583
170	0xbeac2343	-0.33620653
171	0xbe002d02	-0.12517169
172	0xbe518303	-0.20460133
173	0x3e1a3181	0.15057947
174	0x3ee2fcfe	0.44333643
175	0xbf04bd7f	-0.5185165
176	0x3e361446	0.17781171
177	0xbec2860c	-0.37992895
178	0x3ef33c19	0.47506788
179	0x3f223b2b	0.63371533
180	0x3efbf99b	0.4921387
181	0xbeb6066d	-0.35551777
182	0x3dcc7163	0.09982564
183	0xbe261044	-0.16217142
184	0xbfa8eeb4	-1.3197846
185	0x402a3460	2.6594467
186	0x3e8aa04a	0.27075416
187	0xbf589d4a	-0.84615004
188	0x3e585e52	0.2112973
189	0x3d837778	0.06419271
190	0x3fabc208	1.3418589
191	0xbe8ee543	-0.27909288
192	0xbf33b454	-0.70197034
193	0x3e8f54df	0.2799444
194	0x3e81c0ff	0.25342557
195	0xbee4dd7c	-0.4470023
196	0x3f87518f	1.0571765
197	0xbe276eb8	-0.1635083
198	0xbf049101	-0.5178376
199	0x3e846444	0.25857747
200	0x3e692ee7	0.22771798
201	0xbebb8752	-0.3662668
202	0xc094a484	-4.6450825
203	0x4020fef5	2.5155613
204	0x3f18c894	0.5968106
205	0xbf4c5520	-0.7981739
206	0x3cc19ed9	0.023635315
207	0x3eb034c5	0.3441526
208	0x3fa3cc69	1.2796756
209	0xbd89c07c	-0.067261666
210	0x3ef658bc	0.48114574
211	0xbc4567f6	-0.012048712
212	0x3d54650a	0.05185417
213	0xbf266d5c	-0.6501062
214	0xbf8ae389	-1.0850688
215	0x3f9b5586	1.2135475
216	0x3e87e9e0	0.2654562
217	0xbe7789ef	-0.24173711
218	0xbe7900a3	-0.24316649
219	0xbe5fe7ef	-0.2186582
220	0xbea5e6f1	-0.32402757
221	0xbde02675	-0.10944835
222	0xbe625d99	-0.22106017
223	0xbe481d6f	-0.19542478
224	0xbdce8ad1	-0.10085071
225	0x3e068d22	0.13139775
226	0x3ec8bec2	0.39208037
227	0x3dd1ec88	0.10250193
228	0x3f26a7e3	0.65099925
229	0xbe836bce	-0.25668186
230	0xbb1143c4	-0.0022165636
231	0x3b455252	0.0030108881
232	0xbfaa36fd	-1.3298031
233	0xbfe4f07d	-1.7885891
234	0x3f115316	0.56767404
235	0x3e9df26a	0.3084901
236	0xbe8ca4a9	-0.27469376
237	0x3ee9b59a	0.45646363
238	0xc051ce68	-3.278223
239	0xbf34e5ce	-0.70663154
240	0xbe0510e8	-0.1299473
241	0xbfb3fb3d	-1.4061047
242	0x3e276f23	0.16350989
243	0x3d2a13e9	0.041522894
244	0x3f4daef7	0.803451
245	0xbfc7fc29	-1.5623828
246	0xbd794b4d	-0.060862828
247	0xbf414040	-0.7548866
248	0x3e900b19	0.28133467
249	0xbe87dd10	-0.26535845
250	0xbe2e9a84	-0.1705113
251	0x3e1971df	0.14984845
252	0x3e217b39	0.15769662
253	0xbe95de48	-0.2927115
254	0x3e2135fb	0.15743248
255	0x3e00b8dc	0.12570518

output.0.bias f4 [128]
0	0x3e802665	0.25029293
1	0x3e3ab53f	0.18233202
2	0xbe1edffe	-0.15515134
3	0xbef37889	-0.475529
4	0xbe8a7c3c	-0.27047908
5	0x3fb0894d	1.3791901
6	0xbf4e4ae8	-0.8058305
7	0xbf1cd009	-0.61254936
8	0x3f4d6021	0.80224806
9	0xbf99882e	-1.1994684
10	0xbedbcd10	-0.42929888
11	0x3f003f7f	0.5009689
12	0xbe8abf55	-0.270991
13	0x3f96c652	1.1779273
14	0x3e3167cb	0.1732475
15	0xbf7fcc80	-0.9992142
16	0xbfbfb34b	-1.4976591
17	0xbf5661a3	-0.8374273
18	0xbf9d2f27	-1.2280015
19	0xbcd5b7c7	-0.026088608
20	0x3f00ff52	0.5038959
21	0x3f473248	0.778111
22	0x3f941fea	1.1572239
23	0xbfa581d8	-1.293025
24	0xbd53dd37	-0.05172464
25	0x3f7bf160	0.98415184
26	0x3db43d24	0.08800724
27	0xbea1be60	-0.31590557
28	0xbe25adfd	-0.16179653
29	0xbe0c8b29	-0.1372496
30	0x3c37c166	0.011215543
31	0xbed4bf71	-0.41552308
32	0xbd0ac1d2	-0.033876248
33	0x3d975e83	0.073910736
34	0x3f59bb51	0.8505145
35	0xbf460dac	-0.7736461
36	0xbdacb0b2	-0.084321395
37	0xbdb564d7	-0.08857124
38	0x3ed65dac	0.4186834
39	0x3e222aa4	0.15836579
40	0x3eaa4ea8	0.33263135
41	0xbe3ed4c7	-0.18635856
42	0x3f5d4265	0.86429435
43	0xbf7a5956	-0.97792566
44	0x3ea3b9f8	0.3197782
45	0x3e8535d7	0.2601764
46	0xbf6c8458	-0.9238944
47	0xbf1a3869	-0.60242325
48	0xbfc2f685	-1.5231482
49	0x3e9852b8	0.2975061
50	0x3e3b0dfc	0.18267053
51	0xbfac70f8	-1.3471975
52	0xbf57cd63	-0.8429777
53	0x3e95f2d3	0.29286823
54	0xbf5d41a6	-0.86428297
55	0xbdcb6eb5	-0.09933225
56	0xbf810908	-1.0080881
57	0x3fab2a93	1.3372368
58	0xbfa1abdd	-1.2630574
59	0xbe3c5b0f	-0.18394111
60	0xbed08bb4	-0.40731585
61	0xbf981236	-1.1880558
62	0x3f3a9b25	0.7289298
63	0x3f9583d8	1.168086
64	0x3f1f07ec	0.6212146
65	0x3f29c46b	0.66315335
66	0xbf57e448	-0.84332705
67	0x3f4da717	0.80333084
68	0x3d54436c	0.05182211
69	0x3faf6068	1.3701296
70	0x3eecaf67	0.4622757
71	0x3edbc97d	0.4292716
72	0xbe44d0bb	-0.1922025
73	0x3e28af09	0.1647302
74	0x3fa311d4	1.2739816
75	0x3f9e27c8	1.235589
76	0xbf440f86	-0.76586187
77	0x3e5d2e2c	0.21599644
78	0x3f148228	0.580111
79	0x3db096eb	0.08622535
80	0xbeb8d94b	-0.3610328
81	0x3f44f595	0.7693723
82	0xbed27fd5	-0.41113153
83	0xbfbf8b32	-1.4964354
84	0x3f3d77ca	0.7401091
85	0xbd949f9f	-0.07257008
86	0x3f49483e	0.7862586
87	0x3e84aa36	0.2591111
88	0x3e7014a2	0.23445371
89	0x3ec94822	0.39312845
90	0xbf85995b	-1.0437425
91	0xbe1c736b	-0.15278403
92	0xbf7d8c8c	-0.9904258
93	0x3fa45aae	1.2840173
94	0x3f8999ae	1.0750024
95	0xbf7f79fa	-0.99795496
96	0xbf8439d2	-1.0330145
97	0xbf8c761a	-1.0973542
98	0xbdfb240f	-0.12262737
99	0xbf8f74be	-1.1207502
100	0x3d902b4f	0.070395105
101	0xbf98de12	-1.194277
102	0xbf262e0e	-0.64914024
103	0xbf481068	-0.78150034
104	0xbe24a59d	-0.16078801
105	0xbfaa6e20	-1.3314857
106	0x3ef53eca	0.47899467
107	0xbe47a50d	-0.19496556
108	0xbd04f3e6	-0.032459162
109	0x3e99f52f	0.30069873
110	0xbb8f633d	-0.004375844
111	0xbe9e598c	-0.30927694
112	0x3f9d345f	1.2281607
113	0xbf89ee31	-1.0775815
114	0x3fa3a81d	1.2785679
115	0xbe87549b	-0.26431736
116	0xbeb9e6d2	-0.36308914
117	0x3cc3c8ad	0.0238994
118	0x3df1dc29	0.1180957
119	0x3ece76f2	0.40325123
120	0x3f003856	0.5008596
121	0xbd67acae	-0.056561165
122	0x3dffc550	0.12488806
123	0x3f13af50	0.5768938
124	0xbe129f55	-0.14318593
125	0xbf4df098	-0.8044524
126	0x3e68b3ad	0.22724791
127	0xbf02e048	-0.51123476

output.2.weight f4 [128, 128]
0	0x3ce19626	0.027537417
1	0xbd366a58	-0.04453501
2	0x3c841162	0.01612157
3	0xbdc541a6	-0.09631662
4	0x3e9edca5	0.31027713
5	0x3d618a42	0.055063494
6	0x3c907a32	0.017636392
7	0x3d581439	0.05275366
8	0x3da99a25	0.08281354
9	0xbe0722e1	-0.13196899
10	0x3d468099	0.048462484
11	0x3e1185df	0.14211224
12	0xbf5750ad	-0.84107476
13	0x3e526218	0.20545232
14	0xbe812770	-0.252254
15	0xbd9a790e	-0.075426206
16	0xbdb8fabc	-0.09032199
17	0x3ea71d22	0.32639414
18	0xbe014c3f	-0.12626742
19	0x3d7e2db5	0.06205531
20	0xbc33c9a5	-0.010973369
21	0x3d6c6316	0.057711683
22	0x3cfa6bfd	0.030569071
23	0xbdc5beb6	-0.09655516
24	0xbda51c12	-0.080619946
25	0x3e8fc8db	0.28082928
26	0x3d5e908e	0.054337077
27	0x3d618fcc	0.055068776
28	0xbd89bec7	-0.06725841
29	0x3baaee39	0.0052163866
30	0x3d8d6138	0.06903309
31	0x3e0d02a3	0.13770537
32	0xbe6588e3	-0.224155
33	0x3d41409b	0.047180753
34	0x3e46b2bd	0.1940412
35	0x3ec8af9f	0.39196488
36	0x3c68abb3	0.0142010925
37	0xbba2d07f	-0.0049687023
38	0x3e95224e	0.29127735
39	0xbe8f32a6	-0.2796833
40	0x3e337f32	0.1752899
41	0x3d6da874	0.058021978
42	0x3e32d9d5	0.17465909
43	0xbdda6c04	-0.106651336
44	0xbdee0676	-0.11622326
45	0xbb9ea931	-0.0048419465
46	0x3e4b04c2	0.19826034
47	0xbdd1967d	-0.102337815
48	0xbec1c6cd	-0.37846985
49	0xbc60fa2b	-0.01373152
50	0x3eb4b7c5	0.35296455
51	0xbf11b00d	-0.5690926
52	0xbdb681c7	-0.08911472
53	0xbe0d5a46	-0.13803968
54	0xbdeade4f	-0.11468183
55	0x3da049ad	0.078265525
56	0x3fba7511	1.4566976
57	0x408414a3	4.127519
58	0xbe390c70	-0.18071151
59	0xbda91b4a	-0.08257158
60	0xbf06626b	-0.52493924
61	0xba516ca2	-0.0007988905
62	0x3d9ac78c	0.07557592
63	0x3ef65fda	0.48120004
64	0x3cedf032	0.029045198
65	0x3e6a878c	0.2290327
66	0xbe8b17f7	-0.2716672
67	0xbd07df69	-0.033172045
68	0x3db55b53	0.08855309
69	0x3d79c697	0.060980406
70	0x3e1cf7e2	0.15328935
71	0x3ea0bf8d	0.31396142
72	0x3d9d55de	0.076823935
73	0xbc6956e0	-0.014241904
74	0x3e55a9af	0.2086551
75	0x3e2cb0b4	0.16864282
76	0xbecf9d25	-0.4054958
77	0xbe072db2	-0.13201025
78	0xbe2586f6	-0.16164765
79	0x3d4509fb	0.04810522
80	0x3c6de7c5	0.01452059
81	0x3e30aafd	0.17252727
82	0xbe98fb49	-0.29879215
83	0xbdaec3b6	-0.08533423
84	0x3d3e8289	0.046511207
85	0x3cfcc0c1	0.030853631
86	0x3e888874	0.26666605
87	0xbf3dcc07	-0.74139446
88	0xbd3849ee	-0.04499238
89	0x3d138c10	0.036022246
90	0x3d96054c	0.07325229
91	0x3d96b1f9	0.07358164
92	0x3e37f544	0.17964655
93	0x3e0397d5	0.12850888
94	0x3e80b562	0.25138384
95	0xbdb544be	-0.08851002
96	0xbd5d26c1	-0.053992037
97	0xbe36f0c4	-0.17865282
98	0xbd9fdd62	-0.07805897
99	0xbe429a2e	-0.19004127
100	0xbd2cc4af	-0.04217976
101	0x3c20f7f1	0.009824739
102	0x3c0e1552	0.008672075
103	0xbdab87f9	-0.08375544
104	0xbcdd642b	-0.027025303
105	0xbd01dcbf	-0.03170466
106	0x3e658af8	0.22416294
107	0x3c2a6c50	0.0104018
108	0xbe1c50ea	-0.15265241
109	0xbd8c9314	-0.068639904
110	0x3cceab2a	0.025228102
111	0x3e8061d8	0.2507465
112	0x3d9edb21	0.07756639
113	0xbd209e19	-0.039213274
114	0xbd53fbdb	-0.05175386
115	0xbd5a17d1	-0.05324537
116	0x3cae862a	0.021304209
117	0xbd9484dd	-0.07251904
118	0xbd84370f	-0.06455814
119	0x3f6ae8c2	0.9176141
120	0x3e4d6d77	0.20061289
121	0xbd1b6aa8	-0.037943512
122	0xbd744815	-0.059639055
123	0xbebac5f9	-0.36479166
124	0x3cf28a19	0.029606866
125	0x3df2a3d5	0.11847655
126	0xbf301a97	-0.6879057
127	0xbdf7acd0	-0.12093508
128	0xbcf60e74	-0.030036189
129	0x3d5e7938	0.054314822
130	0xbd3339e5	-0.043756384
131	0x3d8606b8	0.0654425
132	0x3c957078	0.018242106
133	0xbd4128b4	-0.04715796
134	0xbd834ca9	-0.06411106
135	0x3d66682c	0.05625169
136	0xbdab8835	-0.08375589
137	0x3d5ddbdd	0.054164756
138	0x3d17f89e	0.037102334
139	0xbd479dd6	-0.04873451
140	0xbda8dee3	-0.08245637
141	0x3d361a25	0.044458527
142	0xbb15b22e	-0.00228418
143	0xbbc7e27c	-0.006099997
144	0xbd5659f9	-0.0523319
145	0x3d3b8a84	0.045786396
146	0xbdb4d6d8	-0.08830041
147	0x3d3488c3	0.04407574
148	0xbda7505c	-0.08169624
149	0xbd76d7fd	-0.060264576
150	0x3d801449	0.06253869
151	0xbd1cf92c	-0.038323566
152	0x3db2a440	0.087227345
153	0x3c799a74	0.015234578
154	0xbdc06442	-0.09394123
155	0x3d784e9d	0.060621846
156	0xbc59039c	-0.013245489
157	0xbdada7b4	-0.084792525
158	0xbd974a5a	-0.07387228
159	0xbc228684	-0.009919766
160	0xbdbde42a	-0.092720345
161	0x3d8f37ef	0.0699309
162	0xbda38e2e	-0.07986103
163	0xbd1d8994	-0.038461283
164	0x3c813132	0.015770528
165	0xbd892dca	-0.06698187
166	0x3d1badf3	0.038007688
167	0x3d0adf1a	0.033904172
168	0xbd25c865	-0.040474314
169	0xb8b31e76	-8.541059e-05
170	0xbdae4422	-0.08509089
171	0xbd103817	-0.03520974
172	0x3d9ee8cb	0.077592455
173	0xbdc20094	-0.094727665
174	0x3d99d650	0.0751158
175	0xbd982444	-0.07428792
176	0x3d81caea	0.06337531
177	0x3c126b1c	0.00893667
178	0x3d25304f	0.040329274
179	0x3c1b7069	0.00948725
180	0x3d92ca29	0.07167465
181	0x3b26db15	0.0025460173
182	0xbd840afa	-0.06447406
183	0xbce6e5f9	-0.028185831
184	0x3d4ed05d	0.05049168
185	0xbd1da7fa	-0.038490273
186	0xbd28fd6e	-0.041257314
187	0xbd924bcd	-0.07143364
188	0x3d989b4c	0.074514955
189	0xbcc3649a	-0.023851682
190	0x3d8a4dd7	0.06753128
191	0xbce0c6e5	-0.02743859
192	0xbce72d94	-0.028219976
193	0xbd8ff19b	-0.070285045
194	0x3d608f7c	0.054824337
195	0xbdabbe5e	-0.08385919
196	0x3d9935b0	0.07480943
197	0xbd50b749	-0.050956044
198	0xbd2df9c8	-0.042474538
199	0x3d61c616	0.05512055
200	0xbd9db9ef	-0.0770148
201	0x3d72a60d	0.05924039
202	0x3d75232e	0.059848003
203	0xbd513b95	-0.051082212
204	0xbd3d56d4	-0.046225384
205	0xbdc24992	-0.09486689
206	0x3d3e2f93	0.04643209
207	0xbd9e00c4	-0.0771499
208	0xbda8a703	-0.0823498
209	0x3d76b44a	0.06023053
210	0xbc8c4928	-0.017124727
211	0xbd163891	-0.03667504
212	0xbd37d715	-0.044882853
213	0xbcd5b7a3	-0.026088541
214	0xbdb731c3	-0.08945038
215	0xbc96c3d6	-0.018403929
216	0xbd339e42	-0.0438521
217	0xbd22f481	-0.03978396
218	0x3d01efa3	0.031722676
219	0x3d2e086c	0.0424885
220	0xbc95c0cf	-0.018280415
221	0xbda3916d	-0.07986722
222	0x3ac350db	0.0014901416
223	0xbcd1b07a	-0.025596846
224	0x3c99d30f	0.018777398
225	0x3cc94151	0.024567278
226	0x3bb2888c	0.0054484066
227	0xbdb670a0	-0.089082
228	0xbd7d5ba4	-0.061854973
229	0x3d6298da	0.05532155
230	0xbad9849a	-0.0016595304
231	0xbd88db5e	-0.06682466
232	0x3d05c05f	0.032654162
233	0x3c9d48a9	0.019199686
234	0x3d909ee0	0.07061553
235	0xbc3b55a9	-0.011433997
236	0xbd9f700b	-0.077850424
237	0x3cec8b74	0.02887509
238	0xbc30fa8a	-0.010801921
239	0xbae21c7a	-0.0017250918
240	0xbcac1290	-0.021004945
241	0xbce74346	-0.02823032
242	0xbd985f53	-0.07440057
243	0x3ce74fda	0.028236318
244	0xbd0a0198	-0.033692926
245	0x3d5f168c	0.05446486
246	0xbdc25521	-0.09488893
247	0x3d493011	0.049118105
248	0xbd890310	-0.06690037
249	0x3d0eeff2	0.0348968
250	0xbd76b9f3	-0.06023593
251	0x3d4d4414	0.050113752
252	0xbc9ced57	-0.019156141
253	0x3d537084	0.051620975
254	0xbdc0ef95	-0.09420697
255	0xbdc05ef7	-0.09393113

output.2.bias f4 [128]
0	0x3f55fa87	0.835854
1	0xbdaa629f	-0.08319592
2	0x3f6f0959	0.9337364
3	0xbf63b547	-0.8894848
4	0x3f949c0c	1.1610122
5	0x3d045098	0.032303423
6	0x3f5b10e9	0.8557268
7	0x3e8aaf8d	0.2708706
8	0x3f22b86f	0.63562673
9	0xbd9f9aef	-0.07793223
10	0x3f4e7e7f	0.8066177
11	0xbe960245	-0.29298607
12	0xbaf9e55d	-0.0019065548
13	0xbd96e91d	-0.073686816
14	0x3e08bdd9	0.13353671
15	0x3eb98a98	0.3623855
16	0x3dc5f028	0.09664947
17	0xbbd1f0cc	-0.006406879
18	0x3ef06018	0.46948314
19	0xbdca7344	-0.098852664
20	0xbcab97cb	-0.020946404
21	0x3ecc0460	0.39847088
22	0xbd0265c8	-0.031835347
23	0xbf73993b	-0.95155686
24	0xbdc645f7	-0.096813135
25	0x3f610b6d	0.8790806
26	0x3ee514d4	0.44742453
27	0xbcbdddb3	-0.023177003
28	0x3f80299c	1.0012698
29	0xbf7d395d	-0.98915654
30	0x3f1daf83	0.61595935
31	0x3e644e7d	0.22295566
32	0x3f36ff44	0.71483254
33	0x3f2b5b76	0.66936433
34	0x3e8632c1	0.26210597
35	0x3f7a4a77	0.97769874
36	0xbf551717	-0.8323836
37	0x3d95b7c2	0.0731044
38	0xbc1c63d8	-0.009545289
39	0x3e9f7607	0.31144735
40	0x3f3166be	0.692974
41	0xbe78ea3e	-0.24308106
42	0xbd290515	-0.041264612
43	0x3d8ce46f	0.06879508
44	0xbf827f9f	-1.0195197
45	0xbf4c1134	-0.7971375
46	0x3ef63452	0.48086792
47	0x3caa5cd6	0.02079622
48	0xbf468838	-0.77551603
49	0x3b0264c5	0.001989649
50	0x3bc03e65	0.005866813
51	0xbec07a9e	-0.3759355
52	0xbefc87fc	-0.49322498
53	0x3f5aa780	0.85411835
54	0xbd852544	-0.065012485
55	0xbd6c6b18	-0.05771932
56	0x3b265324	0.0025379146
57	0xbf07fa6d	-0.53116494
58	0xbe8d7bb4	-0.2763344
59	0x3c8f627f	0.017503021
60	0xbca5faa3	-0.020261114
61	0x3c657cdd	0.0140068205
62	0xbddd3b4d	-0.10802326
63	0x3d9efb11	0.07762731
64	0xbc110021	-0.008850128
65	0xbe101096	-0.14068827
66	0x3e8c59e5	0.27412334
67	0xbe8be28d	-0.27321282
68	0xbe0ac68a	-0.13552299
69	0x3fa59c2c	1.2938285
70	0xbdcaa048	-0.098938525
71	0xbec7b544	-0.39005482
72	0xbf52c19c	-0.82326674
73	0x3e90cd1e	0.28281492
74	0x3f1a9165	0.60378104
75	0xbe327b73	-0.17429905
76	0xbc23adde	-0.009990184
77	0x3cee6b54	0.029103912
78	0xbc166476	-0.009179225
79	0x3d4fe7af	0.05075806
80	0x3ed33eb7	0.41258785
81	0xbf09ae86	-0.53781927
82	0xbd48ad9a	-0.048993684
83	0xbe5c362b	-0.21505038
84	0xbd6356b5	-0.055502612
85	0xbf11bf29	-0.5693231
86	0xbe9861db	-0.29762158
87	0xbd921454	-0.071327835
88	0xbced9931	-0.029003711
89	0x3e960b4d	0.29305497
90	0xbe7b2b44	-0.24528223
91	0x3f6a3cb4	0.91498876
92	0x3f73af6d	0.95189553
93	0x3f553ca5	0.8329566
94	0x3d329b54	0.043605164
95	0xb9f307f8	-0.0004635451
96	0x3e22e645	0.15908153
97	0xbef0087f	-0.46881482
98	0xbf730c90	-0.94941044
99	0x3d6cce05	0.057813663
100	0xbdcf487a	-0.10121246
101	0xbdab86c7	-0.08375316
102	0xbebaf43f	-0.3651447
103	0x3c8c216d	0.017105782
104	0xbd2dee6d	-0.04246371
105	0xbd83338f	-0.064063184
106	0x3f2f8955	0.6856893
107	0x3d7aecb0	0.06126088
108	0xbd96cb80	-0.07363033
109	0xbf88402b	-1.0644583
110	0xbd5b473b	-0.053534728
111	0x3f58f253	0.8474476
112	0xbebbb14b	-0.366587
113	0x3f5e4327	0.86821216
114	0xbe671a09	-0.22568525
115	0xbcb96a9a	-0.02263384
116	0xbf014387	-0.50493664
117	0x3f6671a8	0.90017176
118	0x3f07db60	0.53069115
119	0xbf26c089	-0.65137535
120	0xbee6d1d7	-0.4508197
121	0x3e12211b	0.14270441
122	0x3e6d2615	0.23159058
123	0xbf2ccedf	-0.6750316
124	0x3e188aaf	0.14896654
125	0xbd4b2034	-0.04959126
126	0xbf6939fd	-0.9110411
127	0x3f7caa98	0.98697805

output.4.weight f4 [128, 128]
0	0x3dc9f864	0.0986183
1	0x3c168124	0.009186063
2	0xbce059d0	-0.027386576
3	0x3e1b41ac	0.1516177
4	0xbd18fd46	-0.037350915
5	0xbd56e0ca	-0.05246047
6	0xbcb83b9a	-0.022489358
7	0xbe5adcb0	-0.21373248
8	0x3e1a9bf1	0.1509855
9	0x3d80aa45	0.06282476
10	0x3d0b5c8b	0.034023803
11	0x3e20af00	0.15691757
12	0x35e3b03a	1.6964107e-06
13	0x3c450fca	0.01202769
14	0xbd5954da	-0.053059436
15	0xbb36f8ec	-0.0027919365
16	0x3d3a8b7c	0.04554318
17	0xbcbbc24b	-0.022919795
18	0xbda191bb	-0.07889124
19	0xbb0139be	-0.0019718255
20	0xbd01c7b0	-0.031684577
21	0xbd8d5fca	-0.06903036
22	0xbc8a13ac	-0.016855083
23	0x3ddeb9be	0.10875271
24	0x3d4d7cba	0.050167777
25	0x3c8dc2fe	0.017304894
26	0x3e53b639	0.20674981
27	0xbccad8c3	-0.024761563
28	0xbc285642	-0.010274472
29	0x3e79e05c	0.24401993
30	0x3dbd002a	0.09228547
31	0xbd9f19d4	-0.07768598
32	0xbdd859b6	-0.10563986
33	0x3cdde096	0.02708463
34	0x3e26db04	0.16294485
35	0xbe8c8840	-0.274477
36	0x3de577e4	0.11204508
37	0x3d3dc278	0.046328038
38	0x3af2f326	0.0018535599
39	0xbd8d3f00	-0.06896782
40	0xbda8bb9a	-0.08238907
41	0x3e208ab5	0.15677913
42	0x3d271d75	0.040799577
43	0xbcc59835	-0.02412043
44	0x3ea00e62	0.31260973
45	0xbe0cfb60	-0.13767767
46	0xbdf2aa71	-0.11848915
47	0x3d28b607	0.04118922
48	0x3db3e6d8	0.08784264
49	0x3d2ca918	0.042153448
50	0xbd6874a2	-0.056751855
51	0xbe4b0050	-0.19824338
52	0x3c34f879	0.011045569
53	0xbe8457ba	-0.2584818
54	0xbd73468c	-0.05939345
55	0x3ddf73b5	0.10910741
56	0xbb0bd548	-0.0021336842
57	0x3d9fca6c	0.07802281
58	0x3e2bb856	0.16769537
59	0xbd6c018e	-0.05761867
60	0xbcf039ce	-0.029324438
61	0xbd04e687	-0.03244641
62	0x3b8f58c5	0.004374596
63	0x3d18a5d0	0.037267506
64	0xbd99076b	-0.07472118
65	0xbbd5047d	-0.006500779
66	0xbd8aeae9	-0.06783087
67	0x3e8f54df	0.2799444
68	0xbd348484	-0.04407169
69	0xbcb99fbd	-0.022659177
70	0x3d4ad525	0.049519677
71	0x3d513890	0.051079333
72	0x3e68f087	0.22748004
73	0xbe4a7db9	-0.19774522
74	0x3d6b3b7c	0.057429776
75	0x3e30794a	0.17233768
76	0x3d4d89ba	0.050180174
77	0xbd8b84c6	-0.06812434
78	0x3dab30e5	0.08358935
79	0x3d106498	0.035252184
80	0xbd813c43	-0.06310322
81	0x3c828d45	0.015936503
82	0xbab2383d	-0.0013597083
83	0x3da8e9f7	0.0824775
84	0x3d105728	0.03523937
85	0x3d61bb56	0.055110298
86	0xbe1c1caa	-0.1524531
87	0xbd537bf5	-0.051631887
88	0xbd4bfe25	-0.049802918
89	0xbda6bf2d	-0.08141933
90	0x3df7b100	0.12094307
91	0xbe25cd37	-0.16191565
92	0x3dc44d65	0.09585074
93	0xbda23587	-0.07920366
94	0xbdb04f7f	-0.08608913
95	0x3d4589c9	0.048227105
96	0xbc45b7f0	-0.01206778
97	0xbe8924e8	-0.2678597
98	0xbeab92a9	-0.3351033
99	0xbcfb77bb	-0.03069674
100	0x3d9bc7f2	0.07606496
101	0xbd73b1c2	-0.059495695
102	0xbe3b4c04	-0.18290716
103	0xbd82d7b7	-0.063888006
104	0x3d42c027	0.047546532
105	0xbcde9d09	-0.02717449
106	0xbd99fa97	-0.07518499
107	0xbc86b532	-0.016443823
108	0xbd9ac20a	-0.07556541
109	0x3e154066	0.14575347
110	0xbd2a0d98	-0.04151687
111	0x3e7d0a26	0.24710903
112	0xbd4bde99	-0.049772833
113	0x3ddbe74d	0.107374765
114	0x3e1631a8	0.1466738
115	0x3d550f8c	0.05201678
116	0x3e367c45	0.17820843
117	0xbc8b349e	-0.016992863
118	0xbc1c2001	-0.009529115
119	0x3d795a88	0.060877353
120	0xbcc88a85	-0.024480114
121	0x3e15216d	0.14563532
122	0x3e2c7849	0.1684276
123	0x3e17f9c1	0.14841367
124	0x3e3057ad	0.17220946
125	0x3d80bd23	0.06286075
126	0x3df963ae	0.121772155
127	0xbd212aca	-0.039347447
128	0xbc46cc12	-0.012133615
129	0x3b4b89fe	0.0031057592
130	0x3e5c7c14	0.21531707
131	0xbe504e94	-0.20342475
132	0xbe880a4e	-0.26570362
133	0x3d4cd674	0.050009206
134	0xbdbbe942	-0.0917535
135	0xbd6ea0b9	-0.058258746
136	0xbe82bfb2	-0.25536877
137	0xbd1a33bd	-0.037646998
138	0xbf940830	-1.1564999
139	0x3e706344	0.23475367
140	0xbd6a8bd4	-0.057262257
141	0x3d838cb2	0.0642332
142	0xbf0efc1a	-0.55853426
143	0x3e09f814	0.1347354
144	0x3e1f34b9	0.15547456
145	0xbd886e24	-0.06661633
146	0xbde1e8b0	-0.1103071
147	0xbe3ae78c	-0.1825239
148	0xbcc92f73	-0.024558758
149	0x3d05ed2a	0.03269688
150	0xbcf6dcce	-0.030134585
151	0xbd5fc652	-0.054632492
152	0xbf14f90b	-0.5819251
153	0xbe8c2240	-0.2736988
154	0x3dc9fac1	0.09862281
155	0x3ccc797b	0.02496027
156	0x3d931226	0.07181196
157	0xbebb7529	-0.36612824
158	0x3dcadc86	0.09905343
159	0x3e672853	0.22573976
160	0x3d76110d	0.060074855
161	0xbe856642	-0.2605458
162	0xc00abd18	-2.1677914
163	0x3f2e84d4	0.6817143
164	0xbd5831e1	-0.052781943
165	0x3d6789ef	0.056528028
166	0xbf81c8fb	-1.0139459
167	0x3e7fcee4	0.24981266
168	0x3c4acca9	0.012377896
169	0xbf8c7348	-1.0972681
170	0xbd096786	-0.033545993
171	0x3c80e485	0.015733967
172	0xbcf5079a	-0.029910851
173	0xbcaedc00	-0.021345139
174	0xbcc8ccf5	-0.024511794
175	0xbc8e5552	-0.017374668
176	0xbe21d88b	-0.15805261
177	0x3def4439	0.11682934
178	0x3c6a0411	0.014283196
179	0x3e98293d	0.29718962
180	0xbd41a841	-0.0472796
181	0xbdd156c4	-0.10221627
182	0xbc7d6f2b	-0.015468399
183	0x3d855dd6	0.065120384
184	0xbd56075c	-0.052253112
185	0xbe553fe2	-0.2082515
186	0x3ee1026c	0.4394716
187	0x3cde755e	0.027155574
188	0xbca68328	-0.020326212
189	0xbda7e234	-0.08197442
190	0xbd56f16a	-0.052476324
191	0xbd3cf9dc	-0.046136722
192	0x3be70387	0.007049981
193	0x3d31c795	0.043403227
194	0xbdcce213	-0.10004058
195	0xbe0f5130	-0.13995814
196	0x3bcc38c5	0.0062323534
197	0xbc99f15f	-0.018791853
198	0x3d9f065b	0.07764884
199	0xbe494b9b	-0.19657747
200	0xbc7f64f6	-0.015588036
201	0xbf378d34	-0.71699834
202	0x3ebac8ea	0.3648141
203	0x3d8dcf6b	0.069243275
204	0xbd20b10b	-0.03923134
205	0xbf504cbd	-0.81367093
206	0x3d54e82a	0.05197922
207	0xbd5e61c3	-0.05429245
208	0xbcd93b60	-0.02651757
209	0xbe41fddf	-0.189445
210	0x3d593620	0.053030133
211	0xbeb75c4a	-0.35812598
212	0xbc493ac3	-0.012282076
213	0xbdba4bf7	-0.090965204
214	0xbeaff2e8	-0.3436501
215	0xbd6f7c82	-0.05846835
216	0x3dd58fca	0.10427816
217	0xbe4833d4	-0.19551021
218	0xbdf5c49e	-0.120003924
219	0xbca4dc40	-0.020124555
220	0x3c41d324	0.011830125
221	0xbe032704	-0.12807852
222	0xbd624db8	-0.0552499
223	0x3d4d1bf2	0.05007548
224	0xbe0c66ba	-0.13711062
225	0x3eb40b20	0.35164738
226	0xbd86d42d	-0.06583438
227	0x3d4a55ed	0.04939835
228	0x3c18b449	0.009320327
229	0x39ae0f2f	0.0003319918
230	0x3de04b9e	0.10951923
231	0xbce86fb3	-0.028373575
232	0xbd331ef2	-0.043730684
233	0xbcf2349a	-0.029566098
234	0x3e0aea20	0.13565874
235	0x3d425c33	0.04745121
236	0xbda3449d	-0.07972071
237	0x3d9fa70d	0.07795534
238	0xbdbcbc2c	-0.092155784
239	0xba5d8e09	-0.0008451646
240	0xbda077a1	-0.078353174
241	0xbd112fbe	-0.03544592
242	0x3e11d285	0.14240463
243	0xbd52b3bd	-0.051440943
244	0xbf1b1c1f	-0.60589784
245	0x3e7ad38e	0.24494764
246	0xbee0a9aa	-0.43879443
247	0xbe202a08	-0.15641034
248	0xbcde989c	-0.02717238
249	0x3e750497	0.23927532
250	0x3d22a0cc	0.03970413
251	0xbeba566b	-0.36394057
252	0x3dc81106	0.09768872
253	0x3dacad74	0.08431521
254	0xbe30a663	-0.17250971
255	0x3cadfdef	0.021239249

output.4.bias f4 [128]
0	0xbecccd11	-0.40000203
1	0x3e7d778d	0.24752636
2	0x3e174234	0.14771348
3	0xbd4670db	-0.04844747
4	0x3f47539a	0.7786194
5	0x3b4a3a9a	0.0030857683
6	0x3e1f0f7b	0.15533249
7	0x3f48412b	0.7822444
8	0xbf3216e2	-0.69566166
9	0x3ef4641b	0.47732624
10	0xbcf41cc3	-0.02979887
11	0x3d9bccdd	0.07607434
12	0xbd65bca6	-0.056088112
13	0x3d367732	0.044547267
14	0xbe874aca	-0.26424247
15	0x3eef291f	0.4671106
16	0x3e913c43	0.2836629
17	0xbbcc4de3	-0.0062348708
18	0xbf01b4d9	-0.50666577
19	0xbedd9c08	-0.43283105
20	0x3f138c45	0.5763591
21	0xbf3de35d	-0.74175054
22	0x3c37a04b	0.01120765
23	0x3e439b65	0.19102247
24	0x3f139d2b	0.57661694
25	0x3f37f08f	0.7185144
26	0xbe922752	-0.28545624
27	0xbe53d3e0	-0.20686293
28	0xbf14004a	-0.5781294
29	0x3e84836e	0.25881523
30	0xbea5e119	-0.32398298
31	0xbebe7895	-0.37201372
32	0xbddb997f	-0.107226364
33	0x3f34a98b	0.705712
34	0xbde25628	-0.11051589
35	0xbd00d1fe	-0.031450264
36	0xbeb59bb8	-0.35470366
37	0xbdae8bb9	-0.08522744
38	0xbe811fe2	-0.25219637
39	0x3e5c5ee3	0.21520571
40	0x3e76f9ed	0.24118777
41	0xbd227275	-0.039659936
42	0x3eb69120	0.35657597
43	0x3c290dcb	0.01031823
44	0x3e780a65	0.24222715
45	0x3f31c834	0.6944611
46	0x3eb2cbbb	0.3492106
47	0xbe0b5400	-0.13606262
48	0x3d989c82	0.074517265
49	0xbf74c736	-0.9561647
50	0xbe8f7225	-0.28016773
51	0xbe27ab4d	-0.1637394
52	0xbdb33f47	-0.087523036
53	0xbcb43597	-0.02199821
54	0xbec58158	-0.38575244
55	0xb9c7d4c9	-0.00038114775
56	0x3e6e27e1	0.232574
57	0xbeace2a8	-0.33766675
58	0x3eb1f2fc	0.34755695
59	0x3e8bac38	0.2727983
60	0xbc4e39be	-0.012587009
61	0x3e9e1484	0.30875027
62	0xbf1c6ea6	-0.61106336
63	0xbf2169d2	-0.63052094
64	0xbb8e5c30	-0.0043444857
65	0xbd864e3f	-0.06557893
66	0x3eb775e1	0.35832122
67	0x3d517aed	0.05114262
68	0xbee7d50d	-0.45279732
69	0x3f02addb	0.5104653
70	0xbe186bf2	-0.14884928
71	0xbd4ca8dc	-0.049965724
72	0x3a1a19a5	0.0005878455
73	0xbdc2d8bb	-0.09513994
74	0x3c923083	0.017845398
75	0xbd1d150a	-0.038350143
76	0x3f127acc	0.57218623
77	0xbd0f53d5	-0.034992058
78	0xbebbd92b	-0.36689124
79	0xbe346b15	-0.17618974
80	0x3f13fc7b	0.5780713
81	0xbda56f1b	-0.08077832
82	0x3ef031a6	0.4691288
83	0xbeb1d4d9	-0.34732702
84	0xbed3c626	-0.41362113
85	0x3d9b155d	0.07572434
86	0xbd82e3b8	-0.0639109
87	0x3c81758f	0.015803127
88	0xbe96ccde	-0.29453176
89	0xbd27202e	-0.040802173
90	0x3d9dedb4	0.07711354
91	0x3f0b13ec	0.54327273
92	0x3d80783c	0.06272933
93	0x3ddbb55c	0.10727951
94	0xbcd856ca	-0.026408572
95	0xbd8f70a2	-0.07003905
96	0x3e56c974	0.20975286
97	0xbd913996	-0.07091062
98	0xbaf9bc8b	-0.0019053383
99	0xbde63514	-0.112405926
100	0xbd8e8781	-0.06959439
101	0x3ed9a828	0.42511106
102	0xbefec8ec	-0.49762666
103	0xbe4d779d	-0.2006516
104	0xbe02d053	-0.12774782
105	0xbec8a55d	-0.39188662
106	0xbe8524de	-0.2600469
107	0x3d7fe106	0.06247046
108	0xbcbc3127	-0.022972656
109	0x3d8f8b49	0.070089884
110	0x3f1200b4	0.5703232
111	0xbe03e314	-0.12879592
112	0x3e49348e	0.19648954
113	0x3f035d0a	0.5131384
114	0xbecd600a	-0.40112334
115	0x3e231b89	0.15928473
116	0x3c858aff	0.01630163
117	0xbe59e56a	-0.21278921
118	0xbccef281	-0.02526212
119	0xbe66cf07	-0.22539912
120	0xbdae46f2	-0.085096255
121	0xbeb6be68	-0.35692143
122	0xbecae46c	-0.39627397
123	0xbdb838bf	-0.089951985
124	0xbf2958cf	-0.66151136
125	0xbd9da029	-0.07696564
126	0x3ec416d4	0.38298666
127	0x3ebd4b2f	0.36971423

output.6.weight f4 [128, 128]
0	0xbe3429ac	-0.17594022
1	0x3ee2adc3	0.44273195
2	0x3e12a487	0.14320575
3	0x3bf091ca	0.007341598
4	0xbfbbaf10	-1.46628
5	0x3ac6a41f	0.0015155113
6	0x3d924ea4	0.07143906
7	0x3cdba38b	0.026811382
8	0xbda31d29	-0.07964546
9	0xbe950303	-0.2910386
10	0x3d58c9be	0.05292677
11	0xbead603b	-0.3386248
12	0xbdbe5cfc	-0.09295079
13	0xbd005d10	-0.03133875
14	0xbd7927c0	-0.060828924
15	0x3f2766fb	0.6539151
16	0x3da5c2f6	0.080938265
17	0xbcb8ede7	-0.022574378
18	0x3e58801d	0.21142621
19	0xbeda8c76	-0.42685288
20	0x3e727187	0.2367612
21	0xbee9e6e8	-0.4568398
22	0xbb13eafb	-0.002257048
23	0x3e7bd943	0.24594598
24	0xbf004266	-0.50101316
25	0x3e92559b	0.28580937
26	0xbf9ddad2	-1.2332404
27	0x3e7e26d5	0.248195
28	0x3d721be4	0.05910863
29	0x3dc4daf7	0.09612077
30	0x3eef7370	0.4676776
31	0x3dd1fc98	0.102532566
32	0x3d50404c	0.05084257
33	0xbc86fc00	-0.016477585
34	0x3d6d25ec	0.057897493
35	0xbd84280a	-0.06452949
36	0xbe80db79	-0.25167444
37	0x3d770414	0.060306624
38	0xbe816b42	-0.25277144
39	0x381a39a3	3.677014e-05
40	0xbe7bda4e	-0.24594995
41	0x3d87bddf	0.06628012
42	0xbd4d4456	-0.050114
43	0xbd91d4a2	-0.071206346
44	0xbe1f2acc	-0.1554367
45	0xbda15426	-0.07877378
46	0x3df9c22c	0.121952385
47	0x3e65cd81	0.22441675
48	0xbd1bf20b	-0.038072627
49	0x3dd2c892	0.10292162
50	0x3e127b2e	0.14304802
51	0x3eab2090	0.3342328
52	0x3d3dfb12	0.046382017
53	0xbd725e7a	-0.05917213
54	0xbc515bb7	-0.012778214
55	0xbc802bf7	-0.015645964
56	0xbd43cf27	-0.047804978
57	0x3e13f323	0.14448218
58	0x3eff568b	0.49870715
59	0x3ddf4f2b	0.10903772
60	0x3d964d34	0.07338944
61	0x3eff5153	0.49866733
62	0xbe11ebd6	-0.1425012
63	0xbe3f7d32	-0.18700102
64	0x3d9f0fe0	0.077667
65	0x3c0cb964	0.008589122
66	0xbebfb63a	-0.37443715
67	0xbd09687f	-0.03354692
68	0x3e97242f	0.29519793
69	0xbd8abe8d	-0.06774626
70	0x3dd43569	0.1036175
71	0x3c213806	0.009840017
72	0xbd97d247	-0.07413154
73	0xbcd8f786	-0.026485216
74	0x3e8298bf	0.2550716
75	0xbd353612	-0.04424102
76	0xbe3e68e4	-0.185947
77	0x3d23f6c5	0.04003026
78	0xbe8c612f	-0.27417895
79	0xbef432f4	-0.47695124
80	0x3eb132b7	0.34609005
81	0xbd42cd7c	-0.047559246
82	0xbd8dcc99	-0.069237895
83	0xbe48380f	-0.19552635
84	0x3d56e616	0.05246552
85	0x3d0d3852	0.03447754
86	0x3d310728	0.043219715
87	0x3d8f8c43	0.07009175
88	0xbda29d88	-0.07940203
89	0xbd41ba1d	-0.047296632
90	0x3c86d461	0.016458692
91	0xbda21df6	-0.07915871
92	0xbd524a8e	-0.051340632
93	0xbe7aa6b0	-0.24477649
94	0x3d2243cf	0.03961545
95	0x3cba800e	0.02276614
96	0xbf2db575	-0.67855006
97	0x3da25e13	0.079280995
98	0x3e40403d	0.18774505
99	0x3d1bc131	0.03802604
100	0x3d1cfdf3	0.038328122
101	0xc0305584	-2.7552195
102	0xbe1f5af7	-0.15562044
103	0xbdbe61b9	-0.09295983
104	0x3d20e203	0.03927804
105	0x3d99016d	0.07470975
106	0xbe1d3293	-0.15351324
107	0x3e909bd9	0.28243902
108	0xbc3f11a4	-0.011661921
109	0x3e32ed7a	0.17473403
110	0xbe606adb	-0.21915762
111	0x3daeecd7	0.08541267
112	0x3dcd725c	0.10031578
113	0x3de53755	0.11192194
114	0xbf8608de	-1.0471456
115	0x3d06c7b7	0.032905307
116	0xbcdfc00b	-0.027313253
117	0xbba66e15	-0.005079041
118	0x3d7ec78e	0.06220203
119	0x3e89502b	0.26818976
120	0xbd0d39ae	-0.034478836
121	0x3dfd3af2	0.123647586
122	0x3d1d9c6d	0.038479257
123	0xbce9fe14	-0.028563537
124	0x3d399544	0.045308366
125	0x3dc01693	0.09379306
126	0xbd796f56	-0.060897194
127	0x3eef5906	0.46747607
128	0xbd7d94e9	-0.06190959
129	0xbd4498e9	-0.04799739
130	0x3cc45fef	0.023971526
131	0xbc912a73	-0.017720437
132	0xbd5c9c90	-0.053860247
133	0xbd849c64	-0.06475142
134	0xbcb6a190	-0.022293836
135	0xbd9749e2	-0.07387139
136	0xbdb231ca	-0.08700903
137	0xbd150f53	-0.036391567
138	0xbba3dd60	-0.005000755
139	0xbd74216c	-0.059602186
140	0xbda2b866	-0.079453275
141	0x3d209059	0.03920016
142	0xbaf06f2b	-0.0018343678
143	0x3d28ff5b	0.04125915
144	0xbd80be5b	-0.062863074
145	0xbdb106df	-0.08643889
146	0xbdb0966b	-0.0862244
147	0x3c84cb4e	0.016210224
148	0x3d54fd4d	0.05199938
149	0xbdeba4b0	-0.11506021
150	0xbc4dec39	-0.012568527
151	0xbda869da	-0.082233146
152	0xbdb9e6c0	-0.09077215
153	0x3ce9e7a9	0.028552847
154	0xbd6853b5	-0.056720454
155	0x3c853c58	0.016264126
156	0x3d3e701b	0.04649363
157	0x3d8271ae	0.06369339
158	0x3ca1ef9d	0.019767577
159	0xbd5c16ef	-0.05373281
160	0xbd734f83	-0.059402
161	0xbda890e1	-0.082307585
162	0x3ccb5ee1	0.024825515
163	0x3cfface0	0.031210363
164	0xbc86f779	-0.016475426
165	0x3d754329	0.059878502
166	0xbd9c3a75	-0.07628337
167	0xbd1d7b31	-0.038447563
168	0xbd448f96	-0.047988497
169	0x3da6074c	0.081068605
170	0xbdae5a99	-0.08513374
171	0x3d9fd8ec	0.078050464
172	0xbdc0e4bc	-0.094186276
173	0xbd208f8e	-0.039199404
174	0xba55ac5e	-0.000815099
175	0x3d033b0f	0.032038745
176	0xbd896ecd	-0.06710587
177	0xbdb13567	-0.08652764
178	0xbc9a284e	-0.018818047
179	0xbd27564a	-0.040853776
180	0x3d32d9a9	0.04366461
181	0x3d082cf0	0.03324598
182	0xbd0a7283	-0.033800613
183	0xbd382787	-0.04495957
184	0xbd971364	-0.07376745
185	0xbcf9e8cd	-0.030506516
186	0x3d79db9a	0.061000444
187	0xbd9bf3b6	-0.076148435
188	0xbc8c8757	-0.017154379
189	0xbdaa35f4	-0.08311072
190	0xbd33a9b2	-0.043863006
191	0x3d15b9a4	0.036553994
192	0x3da97ee1	0.08276153
193	0xbd2a118c	-0.04152064
194	0xbd38a1bc	-0.045076117
195	0x3d33ddf7	0.043912854
196	0xbda35def	-0.07976901
197	0xbd9e8303	-0.07739832
198	0x3c41da55	0.01183184
199	0x3d867f5c	0.065672606
200	0x3d8cc0e8	0.068727314
201	0xbcd7464a	-0.026278634
202	0xbbf72e81	-0.0075433855
203	0xbd4858bb	-0.048912745
204	0xbde2f073	-0.11081018
205	0x3d8bc499	0.068246074
206	0xbddfaa9a	-0.109212115
207	0x3d013ad6	0.03155025
208	0xbd8418cd	-0.06450043
209	0xbd2a30c5	-0.041550416
210	0xbda1c60f	-0.07899105
211	0xbd24611d	-0.040131677
212	0xbd337cb1	-0.043820087
213	0x3aa106dc	0.001228537
214	0xbd75bcdc	-0.059994563
215	0x3ba0ad76	0.0049034907
216	0xbdf1c57f	-0.118052475
217	0xbd07b8e2	-0.033135302
218	0x3da4e238	0.0805096
219	0xbd9a63fe	-0.07538603
220	0xbd5296a9	-0.051413212
221	0x3d417151	0.047227208
222	0xbd243f0b	-0.040099185
223	0xbd8d31ab	-0.06894239
224	0xbc882a5c	-0.016621761
225	0x3d4d6311	0.050143305
226	0xbd55b61f	-0.052175637
227	0xbdad29f7	-0.0845527
228	0xbcc26304	-0.023728855
229	0x3d09f71b	0.033682924
230	0xbd2b49e8	-0.04181853
231	0x3d658f51	0.05604488
232	0x3da5efbe	0.08102368
233	0x3c9b12e0	0.018929899
234	0xbd6e4541	-0.058171514
235	0x3d3fdc5a	0.046841003
236	0x3c925350	0.017861992
237	0xbd866fcf	-0.065642945
238	0xbd85898c	-0.065203756
239	0xbc555af6	-0.013022175
240	0xbda43643	-0.08018162
241	0xbd73d06b	-0.059524935
242	0xbcf56ea8	-0.029959992
243	0x3c126328	0.0089347735
244	0x3d43a8e7	0.0477685
245	0xbdc0dd74	-0.09417239
246	0x3da7bbca	0.08190115
247	0xbd7faeeb	-0.062422674
248	0xbd8af6e2	-0.067853704
249	0xbd90e04b	-0.070740305
250	0x3db16bde	0.08663152
251	0xbda79fd1	-0.081847794
252	0x3cd374b4	0.025812484
253	0x3da21b8f	0.07915413
254	0x3ca8bf6d	0.020599091
255	0xbc1c34c2	-0.009534063

output.6.bias f4 [128]
0	0xbf0504d0	-0.5196047
1	0xbc0ef729	-0.00872592
2	0xbeccf3ed	-0.4002985
3	0x3ef08063	0.4697295
4	0xbc3a0b14	-0.01135518
5	0xbe4f2965	-0.20230635
6	0x3e9a8106	0.30176562
7	0xbe2ee952	-0.17081192
8	0xbe19b7ad	-0.15011473
9	0xbf0ace77	-0.5422129
10	0xbdeb73c9	-0.11496694
11	0x3d24997f	0.040185448
12	0x3ec5e53e	0.3865146
13	0x3c85a665	0.016314695
14	0xbe9afef8	-0.3027265
15	0x3eff2d09	0.49839047
16	0x3d7a65a5	0.061132092
17	0x3dd9da38	0.10637325
18	0x3e3dcddd	0.18535562
19	0xbe894940	-0.26813698
20	0x3e825e6e	0.2546267
21	0x3e7e26d2	0.24819496
22	0x3e00f6f5	0.12594207
23	0xbe472c3c	-0.19450468
24	0xbc9c1175	-0.019051293
25	0xbe41a2d3	-0.18909769
26	0x3dd8d095	0.10586659
27	0x3ef3f584	0.4764825
28	0xbeb76c6a	-0.358249
29	0x3e54b097	0.20770489
30	0xbdb81eea	-0.089902714
31	0xbd0033e9	-0.031299505
32	0xbf613f9d	-0.8798769
33	0x3ed7786e	0.42084068
34	0xbd362aac	-0.04447429
35	0xbc857700	-0.016292095
36	0x3d7b8ee4	0.061415568
37	0xbee922a4	-0.4553424
38	0x3ec08a50	0.37605524
39	0xbe94ecb0	-0.29086828
40	0xbda4d82e	-0.080490455
41	0x3e957793	0.2919279
42	0x3e9490cf	0.2901673
43	0x3e5cafa9	0.21551384
44	0xbdef8dbd	-0.11696956
45	0xbda93e6e	-0.08263861
46	0xbea666ab	-0.32500204
47	0x3de6a41c	0.1126177
48	0xbc2abe0c	-0.010421287
49	0x3e213946	0.15744504
50	0x3e15a484	0.14613539
51	0xbcb296b1	-0.02180037
52	0x3daf1b79	0.08550162
53	0x3e441ca1	0.19151546
54	0xbf581202	-0.8440248
55	0xbeb5e7a8	-0.35528302
56	0xbd01ae37	-0.031660285
57	0x3e39d296	0.18146738
58	0x3f05bb6c	0.5223911
59	0xbe47c020	-0.19506884
60	0xbe30f933	-0.17282562
61	0x3ea75a0e	0.32685894
62	0xbde5d163	-0.11221578
63	0x3c8ec162	0.017426196
64	0xbdd8e442	-0.10590412
65	0xbc44d994	-0.012014765
66	0x3ec51443	0.3849202
67	0xbec0cbb3	-0.3765541
68	0x3ea2dcbd	0.31809035
69	0x3ec6ddcd	0.38841096
70	0xbe10af58	-0.14129388
71	0xbf0fbe29	-0.56149536
72	0xba02fa0a	-0.0004996365
73	0x3e2244ce	0.1584656
74	0x3ddd15a2	0.10795142
75	0x3d7b1193	0.061296057
76	0xbd028ddb	-0.031873565
77	0x3db6192a	0.088915184
78	0xbc59be7f	-0.013290047
79	0xbdfa29b3	-0.12214985
80	0xbf0a93b8	-0.5413165
81	0x3e21c40e	0.15797445
82	0xbd43bf8d	-0.0477901
83	0x3e9e11a9	0.3087285
84	0xbddb4296	-0.1070606
85	0x3e8fed96	0.2811095
86	0xbd3278bf	-0.043572184
87	0xbf3a5c5e	-0.7279719
88	0x3ef545d6	0.47904843
89	0x3ededba0	0.43526936
90	0x3e4a84b0	0.19777179
91	0x3eb7e6d2	0.3591829
92	0xbe1202bf	-0.1425886
93	0x3eb38bb7	0.3506753
94	0x3e8913c7	0.267729
95	0x3e2b4974	0.16727239
96	0xbdfe4a88	-0.124165595
97	0xbeb7c58a	-0.35892898
98	0x3d8dce60	0.069241285
99	0xbc410144	-0.011780087
100	0xbe9c54cd	-0.30533448
101	0xbcfa6028	-0.030563429
102	0x3e84d919	0.25946882
103	0xbd11e018	-0.035614103
104	0x3fd97210	1.6987934
105	0xbfa93c38	-1.3221502
106	0x3e57dd47	0.21080504
107	0xbe804347	-0.2505133
108	0x3eecc77f	0.46245953
109	0x3eacd368	0.3375504
110	0x3d0fbe29	0.03509346
111	0x3bab5a1a	0.005229247
112	0xbf19861d	-0.59970266
113	0xbd85f79a	-0.06541367
114	0xbee89521	-0.45426276
115	0x3d79a148	0.060944825
116	0xbe6c33a6	-0.23066577
117	0x3d4a982a	0.04946152
118	0x3ba1716f	0.0049268524
119	0xbe47e21a	-0.19519845
120	0x3e4e50b8	0.2014798
121	0xbdb1dd37	-0.086847715
122	0x3d1c3cb0	0.038143814
123	0x3f1e4b1b	0.6183335
124	0xbd0f8d64	-0.03504695
125	0x3ecf21dc	0.4045552
126	0x3f03db93	0.5150692
127	0xbd22e384	-0.039767757

output.8.weight f4 [7, 128]
0	0xbe3ccc3f	-0.18437289
1	0x3dc0ef3b	0.094206296
2	0x3e7685f2	0.24074534
3	0xbe43e712	-0.19131115
4	0xbdebda65	-0.11516265
5	0xbe1bec02	-0.15226749
6	0xbed220bd	-0.41040602
7	0x3f5a9e39	0.8539768
8	0xbdf10e7c	-0.11770341
9	0x3e1995f4	0.14998609
10	0xbdc822ca	-0.097722605
11	0x3cb1f6ba	0.021724094
12	0x3e831780	0.25603867
13	0x3e389c5f	0.18028401
14	0xbd217bc3	-0.03942467
15	0x3d87f628	0.066387475
16	0xbc8e788f	-0.017391471
17	0x3de8b3f4	0.11362448
18	0x3eea59e3	0.45771703
19	0xbe7d1c10	-0.24717736
20	0x3e8526b4	0.2600609
21	0x3ed4c377	0.41555378
22	0xbd765c7d	-0.060146797
23	0xbd8bff13	-0.06835761
24	0x3c07c977	0.008287779
25	0xbe497298	-0.1967262
26	0xbed7ebe9	-0.42172173
27	0xbcec1c26	-0.028822016
28	0x3debe652	0.115185395
29	0xbdfb54bd	-0.12272022
30	0x3e52ab57	0.20573173
31	0x3c8ad769	0.016948419
32	0xbe9eb2b1	-0.30995706
33	0x3e071bcd	0.13194199
34	0x3d2d6c27	0.04233947
35	0x3e2721c0	0.16321468
36	0x3e06f50e	0.13179418
37	0xbde77f76	-0.11303608
38	0x3d89d72c	0.06730494
39	0xbe0991e7	-0.13434564
40	0xbdc55992	-0.09636225
41	0xbe42f795	-0.19039758
42	0xbf519259	-0.81863934
43	0x3f08012c	0.5312679
44	0xbee74127	-0.45166895
45	0xbc73ea48	-0.0148874
46	0x3ebf14a0	0.37320423
47	0x3f966dc6	1.175225
48	0xbea463ab	-0.3210729
49	0xbe0ee711	-0.13955332
50	0x3e834425	0.25637928
51	0x3d86f7fa	0.065902665
52	0xbd8bf26d	-0.068333484
53	0x3ec871ff	0.39149472
54	0xbe10748c	-0.14106959
55	0xbe59add3	-0.21257715
56	0x3e8b71be	0.27235216
57	0x3f1e620d	0.61868364
58	0xbe6c4fcd	-0.23077317
59	0x3d43404c	0.04766874
60	0xbe195e9d	-0.14977498
61	0xbe9b6cea	-0.30356532
62	0xbf390512	-0.7227336
63	0x3d93dae8	0.072194874
64	0x3eb8517b	0.35999665
65	0x3c5c8308	0.013458975
66	0xbe33a0e9	-0.17541851
67	0xbe20d1c0	-0.15705013
68	0x3ebb4f81	0.36584094
69	0x3e734ae6	0.2375904
70	0x3d788516	0.060673796
71	0xbed310ab	-0.41223654
72	0x3d6499d8	0.05581078
73	0x3e112965	0.14175947
74	0xbf040c4f	-0.5158128
75	0x3cc73662	0.024317924
76	0xbc7f1724	-0.015569482
77	0x3d443f66	0.047912024
78	0xbe5a52b7	-0.21320616
79	0x3d662cea	0.056195177
80	0xbf3588e9	-0.70912033
81	0xbed6089a	-0.41803437
82	0x3f9e5379	1.2369224
83	0x3eebd541	0.46061137
84	0x3d3ca239	0.046053145
85	0x3e0952e3	0.13410525
86	0xbe4c02b6	-0.19922909
87	0xbdeedf42	-0.11663677
88	0x3c813d21	0.015776219
89	0x3e351bb0	0.17686343
90	0x3da59c3e	0.080864415
91	0x3f0abb80	0.5419235
92	0x3e5032de	0.20331904
93	0xbb176fde	-0.002310745
94	0xbea928ce	-0.33038944
95	0xbb796502	-0.003805459
96	0xbed99f24	-0.42504227
97	0xbe962936	-0.29328316
98	0xbe26db1b	-0.1629452
99	0xbd492865	-0.04911079
100	0x3db51aa7	0.08842974
101	0xbca95ab8	-0.02067314
102	0x3e7a0161	0.24414589
103	0x3e4f894d	0.2026722
104	0x3e57f81b	0.21090738
105	0xbe548ef1	-0.20757653
106	0x3e6e8b89	0.23295416
107	0xbe85b857	-0.26117203
108	0x3f12132c	0.57060504
109	0x3c701dc9	0.014655539
110	0x3bd4c7cd	0.0064935447
111	0x3edc6a35	0.4304978
112	0x3e600d5e	0.21880099
113	0x3d357222	0.0442983
114	0xba2d7dca	-0.00066181703
115	0x3dc4dbd0	0.096122384
116	0x3d3e59b5	0.04647227
117	0xbec45e98	-0.3835342
118	0x3dbca131	0.09210432
119	0x3cfb5905	0.030682096
120	0x3f5be686	0.85898626
121	0xbeb2bcd9	-0.34909704
122	0xbd4b191e	-0.0495845
123	0x3f106ce0	0.5641613
124	0xbd351532	-0.044209667
125	0xbdace83e	-0.08442734
126	0x3f38f319	0.7224594
127	0xbd50015d	-0.05078255
128	0xc04eca27	-3.2310884
129	0xbdad3c48	-0.08458763
130	0xbf8ff160	-1.1245537
131	0xbf7d1c8a	-0.9887167
132	0xbcd0a7c5	-0.025470624
133	0xbf407309	-0.7517553
134	0x3ec8231e	0.39089292
135	0x3e52e27a	0.20594206
136	0xbd06bc1b	-0.032894235
137	0x3fbdd6ae	1.483114
138	0xbd702626	-0.05863013
139	0xbc8ae088	-0.016952768
140	0xbd97889a	-0.073991016
141	0x3daf1fb5	0.085509695
142	0x3d1ba6f4	0.038001016
143	0xbfa24485	-1.267716
144	0xbd39b512	-0.045338698
145	0xbd17d81c	-0.037071332
146	0x3e87473d	0.26421538
147	0x3e2a5765	0.16634901
148	0xbdaaa393	-0.083319806
149	0xbf479927	-0.77968067
150	0xbfe02743	-1.7511982
151	0x3db70ca8	0.08937961
152	0xbd4c0fef	-0.049819883
153	0xbeebcc0b	-0.4605411
154	0xbe5b9059	-0.21441783
155	0x3eb3f853	0.35150394
156	0xbe41536d	-0.1887948
157	0xc0713d4f	-3.769367
158	0x3f3ca98b	0.736962
159	0xbd836844	-0.064163715
160	0xbf7cd437	-0.98761314
161	0x3e13552e	0.14387962
162	0x3cf9cae3	0.030492252
163	0x3f0564c2	0.5210687
164	0x3f72821c	0.9472978
165	0xbf2d0ce7	-0.6759781
166	0x3d25bc92	0.040463038
167	0x3e3931c7	0.18085395
168	0x3e6a8516	0.22902331
169	0x3f093096	0.5358976
170	0xbf5fca64	-0.874182
171	0x3e8af39e	0.2713899
172	0xbf0ed21e	-0.55789363
173	0xbe6cc433	-0.23121719
174	0x3dbda505	0.092599906
175	0xbf1cfe70	-0.6132574
176	0xbf8a4733	-1.0802978
177	0x3f149863	0.58045024
178	0x3b5fd16a	0.003415192
179	0x3ec4d571	0.38444093
180	0x3f34b695	0.705911
181	0x3d84f710	0.06492436
182	0xbe23c429	-0.15992798
183	0x3e119886	0.1421834
184	0xbf865102	-1.0493472
185	0x3c9ce420	0.019151747
186	0x3f25bb1c	0.6473863
187	0xbf41360f	-0.7547311
188	0x3e21beb2	0.157954
189	0xbeb5f453	-0.35537967
190	0x3e8d16a8	0.27556348
191	0x3e635983	0.22202115
192	0x3ec99caf	0.39377353
193	0x3d185b25	0.037196297
194	0xbdc26092	-0.094910756
195	0x3d261501	0.040547375
196	0xbf24d39a	-0.6438538
197	0x3ed12fee	0.4085688
198	0xbd1b0c6c	-0.037853643
199	0xbef88cdd	-0.4854497
200	0xbd1aef6e	-0.037825994
201	0x3e655f7b	0.22399704
202	0xbf02b0b5	-0.51050884
203	0xbd947440	-0.072487354
204	0xbc94cb53	-0.018163359
205	0xbd9bedc2	-0.07613708
206	0xbe3a0335	-0.18165286
207	0xbd05a507	-0.032628085
208	0xc0758e82	-3.836823
209	0xbde30fad	-0.11086974
210	0xbe25d764	-0.16195446
211	0x3ebf0468	0.3730805
212	0x3c2fe83c	0.010736521
213	0x3d8971d0	0.06711161
214	0xbe264c61	-0.16240074
215	0x3e5ef447	0.21772872
216	0xbca7fa3b	-0.020505061
217	0xbc89427e	-0.016755339
218	0x3d8ae3d2	0.067817345
219	0x3d9a6a7a	0.0753984
220	0xbd68b95c	-0.056817397
221	0x3d69ea46	0.057108186
222	0xbf0384b5	-0.5137437
223	0x3e4ddf9a	0.20104828
224	0xbddb97f8	-0.10722345
225	0x3e7b9ad1	0.24570777
226	0xbe027548	-0.12740052
227	0x3e560dd7	0.20903717
228	0xbf05dd5e	-0.52290905
229	0xbd86cb68	-0.065817654
230	0x3e013009	0.1261598
231	0xbdaf4cb8	-0.08559555
232	0xbf698da6	-0.91231763
233	0x3ec9be64	0.3940307
234	0xbf32ee1f	-0.69894594
235	0xbde87a85	-0.11351494
236	0xbed311d0	-0.41224527
237	0x3e353e8c	0.17699641
238	0xbdc746cc	-0.097303
239	0xbe0a544b	-0.13508718
240	0xbdbdcaae	-0.09267174
241	0x3cdb9cd6	0.026808184
242	0x3f32a99d	0.6979006
243	0xbd16c285	-0.036806602
244	0x3e46764c	0.19381064
245	0x3e373127	0.17889844
246	0xbe1820ec	-0.14856309
247	0x3e119776	0.14217934
248	0x3f1a9cec	0.60395694
249	0x3e1a30d1	0.15057684
250	0x3e5bea42	0.21476081
251	0xbf8a48c1	-1.0803453
252	0x3d9e59b7	0.077319555
253	0xbe4a901a	-0.19781533
254	0x3e54b7a2	0.20773175
255	0x3e6f9bf5	0.23399337

output.8.bias f4 [7]
0	0x3ef19144	0.4718114
1	0xbce98745	-0.028506884
2	0xbeb9938e	-0.36245388
3	0x3df79552	0.120890275
4	0xbe08da5c	-0.13364547
5	0xbd7e8ec1	-0.06214786
6	0xbbf7923d	-0.0075552748
