output/models/79.52Acc_V1_FourLayers128_128_128_128Units_ReLU_CrossEntropyLoss_Adam_0.001lr_7713epochs_10batches.pth (torch, 210123 bytes, 10 tensors)

output.0.weight f4 [128, 6]
0	0xbe0f5980	-0.13998985
1	0x3e0c8f08	0.13726437
2	0x3be5be73	0.0070112287
3	0xbef1241c	-0.47097862
4	0x3f963707	1.1735543
5	0xc01a7572	-2.4134183
6	0xbf0aa2a4	-0.5415442
7	0x3e728e09	0.23686995
8	0x3e97d080	0.2965126
9	0xbf08a6a4	-0.53379273
10	0x3fb48cde	1.4105489
11	0x3e60a93c	0.21939558
12	0xbde51648	-0.111858904
13	0xbe93adb0	-0.2884345
14	0x3df94aca	0.12172468
15	0x3ceab3a5	0.028650114
16	0xbef9a293	-0.48756847
17	0xbfe7b4ad	-1.8102013
18	0xbd7de1e5	-0.061983008
19	0xbeb96c50	-0.36215448
20	0x3c6bd599	0.014394187
21	0xbe9fc49d	-0.31204692
22	0x3e18bf60	0.14916754
23	0x3e727b92	0.23679951
24	0x3dbe5e91	0.09295381
25	0xbe8195a7	-0.25309488
26	0xbdfa71fe	-0.122287735
27	0xbe891918	-0.26776958
28	0xbe313421	-0.17305042
29	0x3e983828	0.29730344
30	0x3ea0909d	0.3136033
31	0xbdebbc56	-0.115105316
32	0xbec11147	-0.37708494
33	0xbe2b8e72	-0.16753557
34	0xbe41e92f	-0.18936609
35	0x3e15715b	0.14594023
36	0xbde1d842	-0.11027576
37	0xbf5a73ee	-0.85333145
38	0x3d253c12	0.04034049
39	0x3f01d3d6	0.5071386
40	0x3ede4f0e	0.4341969
41	0x3fcd4853	1.6037697
42	0x3e0d8e72	0.1382387
43	0x3e2f3c44	0.17112833
44	0xbeb88878	-0.36041617
45	0x3efcbea9	0.49364212
46	0x3f8a10bf	1.078636
47	0x3ee06a5e	0.43831152
48	0x3e80cfc6	0.2515852
49	0x3e0b4a24	0.13602501
50	0x3e18b408	0.14912426
51	0xbd1b8074	-0.0379643
52	0x3fb65e3a	1.4247506
53	0x40247789	2.5697958
54	0xbea0db9d	-0.31417552
55	0x3e7bede6	0.2460247
56	0x3dfa2209	0.12213523
57	0xbc160f69	-0.0091589475
58	0xbf945d8f	-1.1591052
59	0x4089dbd0	4.3080826
60	0x3ddc5fb0	0.107604384
61	0xbed8367b	-0.42229065
62	0x3d755aee	0.05990117
63	0x3ec9079c	0.39263618
64	0x3fe32c9e	1.7747991
65	0x3eba1f2d	0.3635191
66	0xbca9ab1d	-0.020711476
67	0x3f062f49	0.524159
68	0xbdcbe876	-0.09956448
69	0xbe8a3e10	-0.27000475
70	0x3fb707ab	1.4299215
71	0xbfeeac9f	-1.864643
72	0xbecee01a	-0.4040535
73	0xbe118d04	-0.1421395
74	0xbd1e9bf8	-0.038722962
75	0xbecd1b40	-0.40059853
76	0xbea9839f	-0.3310823
77	0x3db00c51	0.08596099
78	0xbf50f69d	-0.816263
79	0x3de76d93	0.113001965
80	0xbd825f53	-0.06365838
81	0x3f011332	0.50419915
82	0xc00e1664	-2.2201166
83	0x3ea3cbb0	0.3199134
84	0x3f1075d9	0.5642982
85	0xbf31cd43	-0.6945383
86	0x3d3cdb14	0.046107367
87	0x3ee5b30c	0.44863164
88	0x40032057	2.0488489
89	0xbf2c1f18	-0.67234945
90	0x3d19d5d3	0.037557434
91	0xbe529523	-0.20564704
92	0xbeae206e	-0.34009117
93	0x3eaef64d	0.34172288
94	0xbde37a53	-0.11107316
95	0x3df469f9	0.11934275
96	0x3f5feb27	0.8746819
97	0xbebb9377	-0.36635944
98	0xbd90b5fe	-0.07065962
99	0xbf15140f	-0.5823373
100	0xbd282c83	-0.041058075
101	0xc011bce8	-2.277155
102	0xbea10b07	-0.31453726
103	0x3eeb2170	0.45923948
104	0x3e6c73c3	0.23091035
105	0xbeb48afb	-0.35262284
106	0xbf4def1b	-0.8044297
107	0xbfb3d2eb	-1.4048742
108	0xbecdc4ad	-0.40189114
109	0xbe91ed42	-0.28501326
110	0xbece1ed0	-0.40257883
111	0xbeaca0b8	-0.3371637
112	0x3ea610a3	0.32434568
113	0xbe2820e8	-0.16418803
114	0x3ee2abd5	0.44271722
115	0xbd99425e	-0.07483362
116	0x3e5186e2	0.2046161
117	0xbf0a790f	-0.5409097
118	0x3fd2ac54	1.645884
119	0xbe68e21d	-0.22742505
120	0x3f0901f9	0.53518635
121	0x3eac9a8c	0.3371166
122	0x3d6b48d6	0.05744251
123	0xbe98e961	-0.29865554
124	0xbec59da2	-0.38596827
125	0xbfe1d4f3	-1.7643112
126	0xbe69c9c2	-0.22830871
127	0x3ded8e22	0.11599375
128	0xbcaa7684	-0.020808466
129	0x3ea50c07	0.3223574
130	0xbf909ff2	-1.1298811
131	0x3f053e43	0.5204813
132	0xbe71ca2c	-0.23612279
133	0x3e4d8667	0.20070802
134	0xbe81ec4d	-0.25375596
135	0xbf4446ed	-0.76670724
136	0x40ac2208	5.379154
137	0xc028a189	-2.6348593
138	0x3e1ddd9e	0.15416571
139	0x3ed02456	0.40652722
140	0x3e86127b	0.26185974
141	0xbf042e08	-0.5163274
142	0x3eeec75a	0.46636468
143	0x3ebb514d	0.36585465
144	0x3ed78bed	0.42098942
145	0x3ec99a36	0.39375466
146	0xbe934464	-0.28763115
147	0xbea8226c	-0.32838762
148	0xbfa264d8	-1.2687025
149	0xbf41aba5	-0.75652534
150	0xbe575022	-0.21026662
151	0x3eaf6c49	0.34262303
152	0x3d86191e	0.065477595
153	0x3ee03513	0.43790492
154	0x3e738514	0.23781234
155	0xbfeb5c6c	-1.838758
156	0xbecab91e	-0.39594358
157	0xbbdcb07f	-0.006734907
158	0x3e7a2bc6	0.2443076
159	0xbdf6e0bf	-0.12054586
160	0x3f5550de	0.8332652
161	0xbf8e6f87	-1.1127785
162	0x3f0a40b8	0.54005
163	0xbf00147c	-0.50031257
164	0x3d7698a0	0.06020415
165	0xbed43b2d	-0.41451398
166	0xbf8e3e51	-1.1112767
167	0x3f9b639d	1.2139775
168	0x3dc4919a	0.09598084
169	0x3d514462	0.051090606
170	0x3e605f81	0.21911432
171	0xbf0b7176	-0.5447
172	0x3ffedeb6	1.9911716
173	0x403709b4	2.8599672
174	0xbdc0fe5a	-0.09423514
175	0x3e896f20	0.26842594
176	0x3d3b2abb	0.045695048
177	0x3d85263f	0.065014355
178	0xbf54cb63	-0.83122844
179	0x3ef43cc0	0.477026
180	0xbecdc55a	-0.4018963
181	0x3e8c1798	0.2736175
182	0xbe82af7c	-0.2552451
183	0x3f46456e	0.7744969
184	0xbfc96f0d	-1.5737015
185	0xbf1c181b	-0.6097428
186	0x3f234076	0.63770235
187	0xbf3ae347	-0.7300305
188	0x3d184e31	0.037183944
189	0x3c618c8e	0.013766421
190	0xbf2f6144	-0.6850779
191	0x3fb2517a	1.3931115
192	0xbecb7695	-0.39738908
193	0x3de705e1	0.11280418
194	0x3e601308	0.2188226
195	0xbee8bd20	-0.4545679
196	0xc04c29c9	-3.1900504
197	0x3f074e76	0.52854097
198	0xbd482743	-0.048865568
199	0x3e960112	0.29297692
200	0x3d8bd98b	0.068286024
201	0xbdb3005d	-0.08740304
202	0x3e8f05bf	0.2793407
203	0x3f53b078	0.82691145
204	0x3bb2e568	0.0054594763
205	0x3e362b22	0.17789891
206	0xbfb3d77c	-1.4050136
207	0xbecabe7a	-0.39598447
208	0x3fb6ac47	1.4271325
209	0x405577ed	3.3354447
210	0x3c2b961e	0.010472802
211	0xbe117ee6	-0.14208564
212	0x3e4e8c35	0.20170672
213	0xbe27a23d	-0.16370483
214	0xbf978a27	-1.1839036
215	0x404b6399	3.177954
216	0xbe2f4966	-0.17117843
217	0xbf5ec88b	-0.87024754
218	0x3cc443c2	0.02395809
219	0x3f1b7560	0.60725975
220	0xbfa478a3	-1.2849315
221	0xbf86e3c5	-1.053826
222	0x3f138af6	0.5763391
223	0xbe295af9	-0.1653861
224	0xbdc2fb59	-0.09520597
225	0xbebb7731	-0.36614373
226	0xc03b2bcb	-2.924548
227	0x3f90df1e	1.131809
228	0x3f228d5a	0.63496935
229	0x3e6c08ab	0.23050182
230	0xbf0ed7d7	-0.55798095
231	0xbf7cc7bb	-0.98742265
232	0xbf4d8687	-0.802834
233	0x3f869b0f	1.051607
234	0x3f1da5c4	0.61581063
235	0xbe6a1f9c	-0.2286362
236	0x3d8d3897	0.06895559
237	0x3ec7c522	0.39017588
238	0x3ed3d451	0.41372922
239	0x3fc4e9a9	1.5383807
240	0xbeb79480	-0.35855484
241	0xbdc500d4	-0.096192986
242	0xbe226296	-0.1585792
243	0xbd802802	-0.06257631
244	0x3ecd85bc	0.40141094
245	0x3e833810	0.2562871
246	0x3eff6437	0.49881145
247	0xbf7d83d3	-0.9902927
248	0x3d98d79b	0.074629985
249	0xbf31f5ac	-0.6951549
250	0x3f6ebf84	0.9326098
251	0xbf5ac269	-0.85452896
252	0xbe3f76d9	-0.1869768
253	0x3e435511	0.19075419
254	0x3d976b1c	0.07393476
255	0x3e56bf16	0.20971331

output.0.bias f4 [128]
0	0x3e00d29c	0.12580341
1	0x3f239630	0.6390104
2	0x3f811703	1.0085148
3	0xbeb29a99	-0.34883574
4	0x3e0c8cd0	0.1372559
5	0x3e55ce84	0.2087956
6	0x3f87aff9	1.0600578
7	0xbf2adeb8	-0.6674609
8	0x3fc55252	1.5415747
9	0xbe9cac30	-0.3060012
10	0xbddda34c	-0.10822162
11	0x3fa1995d	1.2624928
12	0xbda9af3a	-0.08285375
13	0x3f8e9c13	1.114138
14	0x3c0d876b	0.008638243
15	0x3eaa607c	0.33276737
16	0x3f3ac231	0.7295256
17	0xbe143f31	-0.1447723
18	0xbe82d55e	-0.2555341
19	0x3f162d34	0.58662724
20	0xbf44e38d	-0.76909715
21	0x3fb90149	1.4453517
22	0x3f940540	1.1564102
23	0xbec2938b	-0.3800319
24	0xbf276cb2	-0.6540023
25	0xbf0800ad	-0.5312603
26	0xbf8b0491	-1.0860769
27	0x3f969364	1.176373
28	0xbfa000f6	-1.2500293
29	0xbfc54fcb	-1.5414976
30	0xbf9a2997	-1.2043942
31	0xbf6174db	-0.8806893
32	0xbdd6580d	-0.10466013
33	0xbfcba2cd	-1.5909058
34	0xc02204ba	-2.5315385
35	0xbfbd9a36	-1.4812686
36	0x3f68a1f3	0.90872115
37	0x3f050802	0.51965344
38	0xbea23f46	-0.316889
39	0xbf502e4e	-0.81320655
40	0xbe011e56	-0.12609228
41	0x3f51b719	0.8192001
42	0xbf8aeb4c	-1.0853057
43	0x3e9e4868	0.30914617
44	0x3f740281	0.9531632
45	0x3fa97f2b	1.3241934
46	0xbe83e2c5	-0.2575895
47	0xbfa30d05	-1.2738348
48	0xbdf493bd	-0.11942241
49	0x3e0eaa26	0.13932094
50	0xbf836281	-1.0264436
51	0x3e9db3f3	0.30801353
52	0x3dc498e4	0.09599474
53	0xbf50059f	-0.8125858
54	0xbe44d7da	-0.19222966
55	0x3f86900f	1.0512713
56	0xbf4ae335	-0.7925294
57	0x3ed7b466	0.4212982
58	0x3fbfd0eb	1.4985632
59	0x3f3fdd45	0.74947006
60	0xbf3a91f7	-0.72878975
61	0xbf36a510	-0.71345615
62	0x3e948e46	0.29014796
63	0x3e37548a	0.17903343
64	0x3f2e268a	0.68027556
65	0xbe12e337	-0.14344488
66	0x3db385a2	0.08765723
67	0x3f316ff5	0.6931146
68	0x3d26b113	0.040696215
69	0x3fb96b24	1.4485822
70	0xbf275a82	-0.6537248
71	0xbecfa2a6	-0.40553778
72	0x3f833f76	1.0253742
73	0x3e747e80	0.23876381
74	0x3dab0530	0.08350599
75	0xbfa9f8c5	-1.3279043
76	0x3ed1588f	0.40887877
77	0xbf9850e4	-1.1899686
78	0x3faf0a40	1.3675003
79	0x3e095825	0.1341253
80	0x3f1f4c9b	0.62226266
81	0x3e5af90a	0.21384063
82	0xbda634df	-0.08115553
83	0x3e502ef5	0.20330413
84	0x3f1b05bb	0.6055562
85	0xbf7d1472	-0.9885932
86	0x3fa5f859	1.2966415
87	0x3f171f81	0.59032446
88	0x3fa38ae6	1.2776763
89	0xbf9bdabc	-1.2176127
90	0xbf846c76	-1.03456
91	0xbf41d752	-0.7571918
92	0xbd2af6bb	-0.041739207
93	0x3f83c4df	1.0294455
94	0xbe394024	-0.18090874
95	0xbe8a58c0	-0.27020836
96	0x3e927f2c	0.2861265
97	0xbf5b18af	-0.8558454
98	0xbfe8300d	-1.8139664
99	0xbf8e9a1c	-1.114078
100	0xbf65ee1c	-0.8981645
101	0x3da48f3f	0.080351345
102	0xbf7aa0f9	-0.97901875
103	0x3d75127a	0.059832074
104	0xbf657c80	-0.89643097
105	0xbfa48c26	-1.285527
106	0xbfb81281	-1.4380647
107	0x3fa5afc8	1.2944269
108	0xbdd48e38	-0.103786886
109	0xbfb6862b	-1.4259695
110	0xbe8bfd24	-0.27341568
111	0xbfd5cb23	-1.6702617
112	0xbdfbb96f	-0.12291228
113	0x3e903ef2	0.28173023
114	0xbfe462bd	-1.7842633
115	0xbfd285d9	-1.6447097
116	0xbedd79d4	-0.4325701
117	0xbf2bfa53	-0.6717884
118	0xbf52fa10	-0.82412815
119	0x3f670194	0.90236783
120	0x3f39d24f	0.7258653
121	0xbea5cdf7	-0.323837
122	0x3f06f4b7	0.52717155
123	0xbf3341b4	-0.7002213
124	0xbf2435b9	-0.64144474
125	0xbf50d8e5	-0.81580955
126	0xbeec8085	-0.46191803
127	0x3e776c25	0.24162348

output.2.weight f4 [128, 128]
0	0x3d64c2c9	0.055849824
1	0x3d62c083	0.055359375
2	0xbdad9d9d	-0.08477328
3	0xbd0a73f3	-0.033801984
4	0xbc7c5d62	-0.015403124
5	0x3bfbc3b9	0.007683244
6	0xbe3d48c8	-0.18484795
7	0xbdc20161	-0.09472919
8	0x3e1e9b82	0.15489009
9	0xbc80197d	-0.015637154
10	0x3e1f9f3b	0.15588085
11	0x3d7a289e	0.06107389
12	0xbd6b7261	-0.057482127
13	0x3eb0a1de	0.34498495
14	0x3e8b08df	0.27155206
15	0x3d540f43	0.051772367
16	0xbe5f6662	-0.218164
17	0xbd66f9dd	-0.056390632
18	0x3da0a1f9	0.07843394
19	0x3d38bcaf	0.045101818
20	0x3ba789f8	0.0051128827
21	0x3d175ebd	0.036955584
22	0xbea296e3	-0.31755742
23	0x3cfde3ef	0.030992476
24	0x3b90b3f1	0.004415982
25	0xbd995d9b	-0.07488557
26	0xbd41e116	-0.0473338
27	0x3f29b808	0.66296434
28	0x3da07736	0.07835238
29	0xbe5816f9	-0.21102513
30	0xbe8f3610	-0.27970934
31	0x3e30a06a	0.17248693
32	0xbe66ed3d	-0.22551437
33	0xbd8f4fc6	-0.069976375
34	0x3b2841b3	0.0025673925
35	0xbd3fe78f	-0.04685169
36	0xbf7097ae	-0.93981445
37	0x3fa4d507	1.2877511
38	0x3e1fcf56	0.15606436
39	0x3dd9724b	0.10617503
40	0xbd8eacd2	-0.069665566
41	0x3fa09cf3	1.2547897
42	0xbf0be999	-0.54653317
43	0x3e8192b4	0.25307238
44	0xbb92d5ad	-0.0044810385
45	0x3e9c4757	0.30523178
46	0xbd0bb883	-0.03411151
47	0x3bef1b7e	0.0072969785
48	0x3dd5f9b8	0.10448021
49	0x3da44e05	0.080226935
50	0xbea3e8e0	-0.32013607
51	0xbdb21da9	-0.086970635
52	0x3d07a460	0.033115745
53	0x3e101a75	0.14072593
54	0xbdb11961	-0.08647419
55	0x3cbe8130	0.02325496
56	0xbe2c0cfe	-0.16801831
57	0xbdfeb33b	-0.12436529
58	0x3eaf56b8	0.3424585
59	0xbdd9e214	-0.10638824
60	0xbcc09846	-0.02351011
61	0xbe4498f9	-0.1919898
62	0xbd8db98f	-0.06920158
63	0x3b43063a	0.002975835
64	0xbe0a4554	-0.13503009
65	0x3d917c94	0.071038395
66	0x3cd58563	0.02606458
67	0x3e2582e5	0.16163214
68	0x3cdc8576	0.026919108
69	0xbd4be296	-0.049776636
70	0x3dd78bed	0.105247356
71	0xbda8863b	-0.082287274
72	0x3ed67085	0.4188272
73	0xbd9467a4	-0.072463304
74	0xbe9646de	-0.29350942
75	0xbe31dc9a	-0.17369309
76	0x3dcf231d	0.10114119
77	0x3d8edb7d	0.06975458
78	0x3e67156c	0.22566766
79	0xbcba7ef1	-0.022765609
80	0x3f8c940f	1.0982684
81	0x3e42756c	0.18990105
82	0xbe36c2be	-0.17847726
83	0xbd9ba318	-0.07599467
84	0xbe6e911d	-0.23297544
85	0x3d6c6595	0.057714064
86	0xbd2332a3	-0.039843213
87	0x3d1c7004	0.038192764
88	0xbd6c7dde	-0.057737224
89	0x3c9913a0	0.018686116
90	0x3e1bd700	0.15218735
91	0x3e2f201f	0.17102097
92	0x3f9a23a1	1.2042123
93	0x3e514268	0.20435488
94	0xbd222ff1	-0.0395965
95	0xbead6a7f	-0.33870313
96	0x3c89817a	0.016785372
97	0xbd8f26a9	-0.06989796
98	0xbea738df	-0.32660577
99	0x3d1db2e3	0.038500678
100	0xbefc1b2f	-0.4923949
101	0x3d1a7032	0.037704654
102	0x3d36d89d	0.044640172
103	0xbcea0922	-0.028568808
104	0xbf5d231b	-0.8638169
105	0xbd2407c6	-0.040046476
106	0x3f1a5464	0.6028502
107	0xbd355ae2	-0.044276126
108	0xbcd3e30b	-0.025865098
109	0xbe0e326c	-0.13886422
110	0xbd688185	-0.056764144
111	0xbf19d233	-0.60086364
112	0xbcf8baf7	-0.03036259
113	0x3e2f4ced	0.17119189
114	0x3eae029e	0.33986372
115	0x3d764a1a	0.060129263
116	0x3d200ce2	0.039074786
117	0xbf0615e5	-0.5237716
118	0x3ca4eb76	0.020131808
119	0x3d9cf7f4	0.07664481
120	0x3e4dae7d	0.20086093
121	0x3cd510de	0.02600902
122	0x3f8c8ac2	1.0979846
123	0xbda3f09a	-0.080048755
124	0xbdf1a2ba	-0.11798616
125	0xbd3a495f	-0.04548013
126	0x3e58b58c	0.21163005
127	0x3dad8553	0.08472695
128	0x3d9bb238	0.07602352
129	0x3dd1beb7	0.10241454
130	0xbd889b1f	-0.06670212
131	0xbcd3647e	-0.025804754
132	0x3d208cbc	0.039196715
133	0x3c97027a	0.018433798
134	0xbeb8976a	-0.3605302
135	0xbe67ef2a	-0.22649828
136	0x3cd2a54b	0.025713583
137	0x3de22e6f	0.11044013
138	0xbca76bd3	-0.020437157
139	0xbe288259	-0.16455974
140	0x3d421385	0.047381897
141	0x3f8e793c	1.1130748
142	0xbd51d6e2	-0.05123032
143	0xbc918394	-0.017762937
144	0xc0a8adcf	-5.271217
145	0x3e15ba2f	0.14621805
146	0x3d9aded2	0.07562031
147	0x3d9a9e49	0.07549722
148	0xbb6dfd7c	-0.0036314419
149	0xbed26d2a	-0.4109891
150	0xbec8985e	-0.39178747
151	0x3d93bb94	0.07213512
152	0xbc3882e8	-0.011261679
153	0x3c11e6f0	0.008905157
154	0xbb0462d5	-0.002020051
155	0xbe93ef0d	-0.2889332
156	0x3e1e6ed5	0.15471967
157	0x3e044baa	0.12919489
158	0xbd208f3f	-0.03919911
159	0xbe89f237	-0.26942608
160	0x3cb81582	0.022471193
161	0x3e1de565	0.15419538
162	0x3dae2825	0.08503751
163	0x3dc05aa9	0.09392292
164	0xbe896872	-0.26837498
165	0xc066d27a	-3.6065965
166	0x3bbc7088	0.0057507195
167	0x3d2837d6	0.041068874
168	0x3c083249	0.00831277
169	0x3e46ff07	0.19433223
170	0x3d8da7ef	0.069167964
171	0x3ebc002c	0.3671888
172	0x3dd9c2c8	0.10632855
173	0xbe67ba51	-0.22629668
174	0x3d8295bc	0.06376216
175	0xbeacd7a9	-0.33758286
176	0xbd939146	-0.07205443
177	0xbda3ab68	-0.079916775
178	0x3d46b02c	0.048507854
179	0xbd7a7a55	-0.06115182
180	0x3da90d48	0.08254486
181	0xbe89f099	-0.26941374
182	0x3dd6ca7a	0.10487838
183	0xbbbc06a5	-0.005738097
184	0x3df523fb	0.11969753
185	0x3e42b080	0.19012642
186	0xbe42cc91	-0.19023348
187	0x3daf4d6c	0.08559689
188	0xbe5e915b	-0.21735136
189	0x3ddaa7c3	0.10676529
190	0x3d40bcd4	0.04705508
191	0x3cb66645	0.022265563
192	0x3d916b48	0.071005404
193	0xbd1419a9	-0.036157284
194	0xbd727635	-0.059194762
195	0x3d2ee759	0.0427011
196	0xbd26d0a1	-0.040726308
197	0xbe83d806	-0.2575075
198	0xbc82a3a7	-0.015947176
199	0x3da4c96e	0.08046232
200	0x3d3cb732	0.046073146
201	0xbdb1fb6d	-0.08690534
202	0xbdee50aa	-0.11636479
203	0x3e1b2c58	0.15153635
204	0x3dc3c5ec	0.09559235
205	0x3ccb1c34	0.024793722
206	0x3d1ec05c	0.038757667
207	0xbd868d6d	-0.065699436
208	0xbed9b0e1	-0.4251776
209	0x3e0cabc5	0.137374
210	0x3de9b769	0.11411936
211	0xbe018a29	-0.1265036
212	0xbf9c2ed3	-1.220179
213	0xbc85b364	-0.016320892
214	0xbd601cf1	-0.0547151
215	0xbd48e147	-0.049042966
216	0x3da2063f	0.079113476
217	0x3baa2053	0.0051918416
218	0x3d4f6767	0.05063572
219	0x3dc3fa09	0.09569175
220	0xbea8b144	-0.32947743
221	0x3d698636	0.05701276
222	0xbdadff7d	-0.08495996
223	0xbe0c983a	-0.13729945
224	0xbdc0e300	-0.09418297
225	0x3c9db06c	0.019249164
226	0x3d648db2	0.055799194
227	0x3d9967e5	0.074905194
228	0x3de4fbd4	0.11180845
229	0xbd1c1bc1	-0.038112406
230	0xbda1d83e	-0.07902573
231	0xbd3d3117	-0.046189394
232	0x3dc814ff	0.0976963
233	0x3d5b0247	0.05346897
234	0x3e060823	0.13089041
235	0xbdb67944	-0.08909848
236	0x3d79693f	0.060891386
237	0x3db41aa4	0.08794144
238	0x3d73f241	0.059557203
239	0x3df11470	0.11771476
240	0x3d5b65ab	0.053563755
241	0xbc38b1a6	-0.011272823
242	0x3c858516	0.016298812
243	0xbeaab358	-0.33339953
244	0x3e0d0f92	0.13775471
245	0x3d87c14d	0.06628666
246	0xbdeafa49	-0.11473519
247	0xbd24bf1e	-0.040221326
248	0xbe7733b9	-0.24140824
249	0xbd5aee17	-0.053449716
250	0xbf162ba9	-0.5866037
251	0xb96ce9c3	-0.00022593797
252	0x3c1411b3	0.009037423
253	0x3db2da98	0.087331
254	0xbdb328e0	-0.08748031
255	0x3d9b1e75	0.075741686

output.2.bias f4 [128]
0	0x3f459a6a	0.7718874
1	0xbf3735c9	-0.71566445
2	0xbd411ef7	-0.04714867
3	0x3bb53d6b	0.0055310032
4	0x3f5e9daf	0.86959356
5	0xbf72ef7f	-0.9489669
6	0xbf60154d	-0.875325
7	0xbf665f6c	-0.8998935
8	0xbdfdbb6f	-0.12389266
9	0x3da089d4	0.07838789
10	0xbd9348c8	-0.07191616
11	0xbdc7999e	-0.09746097
12	0xbe06a0c0	-0.13147259
13	0x3d155b57	0.03646406
14	0x3f1c3c52	0.6102954
15	0x3eee0170	0.46485472
16	0x3eca0943	0.3946019
17	0x3c16d52c	0.009206098
18	0x3f2e8516	0.68171823
19	0x3f5ce952	0.8629352
20	0x3d2e9805	0.042625446
21	0xbeac4398	-0.3364532
22	0xbf843b59	-1.0330611
23	0x3ccd578e	0.025066163
24	0xbd306367	-0.043063547
25	0xbdab4150	-0.08362067
26	0xbd48e75b	-0.049048763
27	0x3f12114a	0.5705763
28	0xbf25b210	-0.64724827
29	0xbf181fbe	-0.59423435
30	0x3da34bd5	0.07973448
31	0x3f8b1ca9	1.0868121
32	0xbf4d10a0	-0.8010349
33	0x3f4efd7b	0.8085553
34	0x3cb30e4b	0.021857401
35	0x3ce722fa	0.02821492
36	0x3d03db9a	0.03219185
37	0xbce79d89	-0.02827336
38	0x3d28a181	0.041169647
39	0xbb191ec9	-0.0023364297
40	0xbea0805a	-0.31347924
41	0x3f2c263e	0.6724585
42	0xbf850105	-1.0390936
43	0xbdc2f34a	-0.0951906
44	0xbece67cf	-0.40313575
45	0x3edbefa2	0.42956263
46	0x3c8ef6c3	0.01745165
47	0x3f7c9ec5	0.98679763
48	0xbb8e1365	-0.004335808
49	0xbf8e5310	-1.1119099
50	0xbd3eb560	-0.04655969
51	0xbe7696a3	-0.24080901
52	0xbf7fbf7d	-0.9990156
53	0x3d3fddb5	0.046842296
54	0x3f631846	0.88708913
55	0xbeba7e86	-0.36424655
56	0xbdcb1915	-0.099168934
57	0x3d350b7c	0.044200405
58	0xbdb6d402	-0.08927156
59	0xbd8d291d	-0.06892607
60	0x3c1fd675	0.00975572
61	0x3d77f171	0.06053299
62	0xbc67934d	-0.01413424
63	0x3db1bbed	0.08678422
64	0xbd87598b	-0.06608876
65	0x3d1493f4	0.03627391
66	0xbf1fe68d	-0.6246117
67	0xbf2c334a	-0.6726576
68	0x3d2f4053	0.042785954
69	0xbd3c6203	-0.04599191
70	0xbeb213df	-0.34780785
71	0x3cd3e010	0.025863677
72	0x3d960103	0.07324412
73	0x3d072257	0.032991733
74	0xbca01600	-0.01954174
75	0xbf537687	-0.82602733
76	0x3f14bf0d	0.5810402
77	0xbcce1e4b	-0.02516093
78	0xbee49cbc	-0.4465083
79	0x3d220d62	0.039563544
80	0xbd2cb754	-0.042167023
81	0xbc129c12	-0.008948343
82	0xbd01a890	-0.031654894
83	0xbd8d1f23	-0.068907045
84	0xba23569a	-0.0006230861
85	0x3f5013ec	0.812804
86	0xbdf0d9ce	-0.11760293
87	0xbe35838f	-0.17725967
88	0xbf09d403	-0.5383913
89	0xbf7524a2	-0.9575902
90	0xbf055020	-0.52075386
91	0x3e1b53af	0.15168642
92	0x3f97d384	1.1861424
93	0x3fa40509	1.2814037
94	0x3f4888c4	0.7833369
95	0xbe90c934	-0.28278506
96	0xbe31e968	-0.17374194
97	0x3e0d519a	0.1380066
98	0x3f6c67f4	0.9234612
99	0x3e9a5675	0.30144086
100	0xbecd96ff	-0.40154263
101	0x3f968a62	1.1760981
102	0xbd38baab	-0.045099895
103	0xbd8ff865	-0.07029799
104	0x3eb40e61	0.3516722
105	0xbd4c53e8	-0.049884707
106	0x3b34d810	0.0027594604
107	0xbe66f06f	-0.22552656
108	0xbcb33aeb	-0.02187868
109	0xbe6882ac	-0.22706097
110	0xbc7927dd	-0.015207258
111	0xbf485b4e	-0.7826432
112	0x3f4bde4b	0.7963607
113	0x3cd9e422	0.02659804
114	0x3ee77b10	0.45211077
115	0xbc09951f	-0.00839737
116	0x3d962201	0.073307045
117	0x3f8c0246	1.0938194
118	0x3cf1be86	0.029509794
119	0x3f361dbf	0.7113914
120	0x3d077b89	0.033076797
121	0x3d8699bd	0.06572292
122	0xbdf6be9d	-0.12048075
123	0x3f738704	0.9512789
124	0x3f8a5f09	1.0810252
125	0xbf7e4ca8	-0.9933572
126	0xbf043a88	-0.5165181
127	0x3bab3c0a	0.005225663

output.4.weight f4 [128, 128]
0	0xbf1dcdfe	-0.61642444
1	0xbe0c4b0f	-0.13700508
2	0xbe66ccde	-0.22539088
3	0x3cf3a6e7	0.029742671
4	0x3eae4c03	0.34042367
5	0xbdec99a7	-0.11552744
6	0xbe7cbaef	-0.24680685
7	0x3e3aa4c4	0.18226916
8	0x3e47607d	0.19470401
9	0x3d3ec1a8	0.046571404
10	0xbd1f392e	-0.03887289
11	0x3caa283e	0.020771142
12	0xbe773f40	-0.24145222
13	0xbdbf5997	-0.0934326
14	0x3e115023	0.14190726
15	0xbf0ca5ac	-0.54940295
16	0xbe0246f1	-0.12722374
17	0xbd458505	-0.04822256
18	0xbe9e02e4	-0.3086158
19	0x3dd810a0	0.10550046
20	0xbd81957c	-0.0632734
21	0xbcaa05f6	-0.020754796
22	0x3e482085	0.19543655
23	0x3e102ec7	0.14080344
24	0x3d3eb739	0.046561453
25	0xbb177663	-0.0023111335
26	0xbdaa819e	-0.08325504
27	0xbf17d167	-0.593039
28	0x3eaabc3a	0.3334673
29	0xbe275347	-0.16340362
30	0xbcf663d7	-0.030076904
31	0xbba94bcb	-0.005166506
32	0xbd8fcc51	-0.07021392
33	0xbd92c957	-0.07167309
34	0xbd24019c	-0.040040597
35	0x3b00498c	0.0019575087
36	0x3d9c431e	0.07629989
37	0xbbdba555	-0.0067030587
38	0x3d61069f	0.054937955
39	0xba8d130f	-0.0010763126
40	0x3c5d0d29	0.013491907
41	0xbdb78411	-0.089607365
42	0xbeb76459	-0.35818747
43	0x3d576b13	0.05259235
44	0x3dadb10d	0.084810354
45	0x3e8bf5b1	0.27335885
46	0xbcccfa98	-0.025021836
47	0xbd9ece00	-0.07754135
48	0xbcf14a5d	-0.029454404
49	0x3d2b41f7	0.041810956
50	0xbd8e948d	-0.069619276
51	0x3e0f1b30	0.13975215
52	0xbd96c678	-0.07362074
53	0x3d91b1c5	0.07113985
54	0x3e5d9d20	0.2164197
55	0x3cc19398	0.023629948
56	0x3d7d718a	0.061875857
57	0x3d9fdd2f	0.07805859
58	0x3d85cf27	0.06533652
59	0xbdbb9984	-0.0916014
60	0xbb93997d	-0.004504381
61	0x3cb6c872	0.022312377
62	0x3d8a1736	0.067427084
63	0x3e24dc30	0.1609962
64	0x3cfe64b7	0.031053884
65	0x3c925035	0.017860511
66	0xbd272a26	-0.04081168
67	0x3bde40be	0.00678262
68	0x3c52092e	0.012819571
69	0xbcfa69ae	-0.03056797
70	0x3d6b8751	0.057502095
71	0xbd357802	-0.0443039
72	0xbd360f84	-0.04444839
73	0x3e06e0a2	0.13171628
74	0x3d7776ef	0.06041616
75	0x3da3bce7	0.07995015
76	0xbe0d9a61	-0.13828422
77	0x3d179d6d	0.037015367
78	0x3cf1e7d4	0.02952949
79	0xbd69c880	-0.057075977
80	0xbd4a0a9d	-0.049326528
81	0x3d24dffb	0.040252667
82	0x3cd175c9	0.02556886
83	0xbd627eba	-0.055296637
84	0x3d3e782b	0.04650132
85	0xbdc4dfd8	-0.09613007
86	0xbd82dbac	-0.06389555
87	0x3e895662	0.26823717
88	0x3e23cadc	0.15995353
89	0x3ccad002	0.024757389
90	0xbc01b7e7	-0.007917381
91	0x3ca6ca6a	0.02036019
92	0x3ccffc69	0.025388913
93	0xbda1bf84	-0.07897857
94	0xbe05fe1e	-0.1308522
95	0xbd3d452f	-0.046208557
96	0xbb983114	-0.0046445224
97	0x3d2e1761	0.042502765
98	0xbe8e7607	-0.27824423
99	0xbec7da39	-0.39033678
100	0x3e41b711	0.1891749
101	0x3e0eea31	0.13956524
102	0xbb7e43f6	-0.0038797832
103	0x3d990c32	0.07473029
104	0x3de9a52a	0.11408456
105	0xbe4309ae	-0.19046661
106	0x3d5c14dd	0.053730834
107	0xbd3c95e0	-0.04604137
108	0x3d772408	0.060337096
109	0x3e6cf909	0.23141874
110	0xbd532e0b	-0.051557582
111	0xbe36311c	-0.17792171
112	0xbe8673ff	-0.26260373
113	0x3d98ec55	0.07466952
114	0x3e198edc	0.14995903
115	0x3d96c5fe	0.07361983
116	0xbd3f975c	-0.046775207
117	0x3dcb532d	0.09927974
118	0xbdb3e7b5	-0.08784429
119	0xbed76248	-0.4206717
120	0xbd47fd58	-0.04882559
121	0xbd582b34	-0.052775577
122	0x393c2544	0.0001794296
123	0x39a0bf02	0.0003065989
124	0xbe2aad03	-0.16667561
125	0x3e60f2a0	0.21967554
126	0xbe6932f2	-0.2277334
127	0x3d801aab	0.062550865
128	0x3e511232	0.20417097
129	0x3e8b08eb	0.2715524
130	0x3e8ccf45	0.27501884
131	0xbcb16f48	-0.021659508
132	0x3e0c82fb	0.1372184
133	0x3db9cc11	0.09072126
134	0xbdaf70c0	-0.08566427
135	0xbcd31ef8	-0.025771603
136	0xbebe31ed	-0.37147465
137	0x3cdec03a	0.02719127
138	0xbd86fc8d	-0.06591139
139	0x3d1ccf79	0.0382838
140	0x3debef06	0.115201995
141	0x3da307c6	0.07960467
142	0x3d1411bd	0.03614973
143	0xbe90d31e	-0.2828607
144	0x3df172a0	0.11789441
145	0x3c21d211	0.009876744
146	0x3e7114e2	0.23543122
147	0xbe6ecea4	-0.23321015
148	0xbd7f3d5a	-0.06231437
149	0x3c6057ef	0.01369284
150	0xbd33a63b	-0.0438597
151	0xbe653d7c	-0.22386736
152	0xbcf68016	-0.030090373
153	0x3d3061b0	0.043061912
154	0x396a408d	0.00022340026
155	0x3ca85b61	0.020551385
156	0xbe2a89e1	-0.16654159
157	0xbdddaa81	-0.10823537
158	0xbd4376e7	-0.047720816
159	0x3d2396ce	0.03993874
160	0x3e15e800	0.14639282
161	0xbebb0236	-0.36525124
162	0xbdabf775	-0.08396808
163	0x3c042d65	0.0080674635
164	0x3d694070	0.056946218
165	0x3d32a5ba	0.04361508
166	0xbd9bfda4	-0.076167375
167	0xbc2c0339	-0.010498815
168	0x3e71d36d	0.23615809
169	0xbd8465aa	-0.064647034
170	0xbe5b6de4	-0.21428639
171	0xbd277060	-0.040878654
172	0x3c19f182	0.009395959
173	0x3e88ccbb	0.26718697
174	0x3d240f1b	0.04005347
175	0x3bae38fa	0.0053168507
176	0xbcf6bcb3	-0.030119276
177	0x3ec55190	0.3853879
178	0xbda1ed7c	-0.07906625
179	0x3d9bb751	0.07603324
180	0xbe04f837	-0.12985311
181	0xbdc27bbf	-0.09496259
182	0xbe18eca0	-0.14934015
183	0xbdc1ff55	-0.09472529
184	0xbcbb15d7	-0.022837562
185	0x3d3c8a10	0.046030104
186	0x3d7dd952	0.06197483
187	0x3db2b203	0.08725359
188	0xba8507ad	-0.0010149382
189	0xbd0a1e83	-0.033720504
190	0x3d8496e7	0.06474095
191	0x3e1a3f5f	0.15063237
192	0xbdada13d	-0.084780194
193	0xbd4d7957	-0.050164547
194	0xbd723ee3	-0.059142005
195	0x3d33e242	0.04391695
196	0xbce3e73d	-0.027820224
197	0xbcb3d50b	-0.021952173
198	0x3db64fe1	0.089019544
199	0x3d79f7a0	0.06102717
200	0xbcf5f48b	-0.030023834
201	0xbe128ddb	-0.14311926
202	0x3daa3cff	0.08312415
203	0x3d215f8d	0.039397765
204	0x3e2a54b4	0.16633874
205	0xbd0f5c6f	-0.03500026
206	0xbc90a955	-0.017658869
207	0x3d93523b	0.071934186
208	0x3ce034dd	0.027368957
209	0x3dd4efb6	0.10397284
210	0x3daee03d	0.08538864
211	0x3ce80dc1	0.02832687
212	0x3d9c6fb9	0.07638497
213	0xbe334d1d	-0.17509885
214	0xbdb8f822	-0.090317026
215	0xbe03be68	-0.12865603
216	0x3e08d746	0.1336337
217	0xbcad7219	-0.02117257
218	0x3eb80c3f	0.35946843
219	0xbd3b02db	-0.04565702
220	0xbd903a3d	-0.07042358
221	0x3e3b1f06	0.18273553
222	0xbf4c1078	-0.7971263
223	0x3d15fef0	0.03662008
224	0x3d2fa0bb	0.042877894
225	0x3df59810	0.11991894
226	0xbd295830	-0.041343868
227	0x3e53ab8b	0.20670907
228	0xbde5dc9d	-0.11223719
229	0xbfd20a4e	-1.6409395
230	0xbd8d7218	-0.06906527
231	0x3b82077e	0.0039681783
232	0xbe2e4cb5	-0.17021449
233	0xbdbee638	-0.093212545
234	0xbcf8d5ae	-0.030375328
235	0xbeff33b1	-0.49844125
236	0x3ce2e13b	0.027695289
237	0xbe5a8730	-0.21340632
238	0xbd09710c	-0.033555076
239	0x3dfc76df	0.1232736
240	0xbe2dc38c	-0.16969126
241	0x3db4cabf	0.08827733
242	0xbdc59c04	-0.09648898
243	0xbdb0c25a	-0.086308196
244	0xbda26587	-0.07929521
245	0xbdec7e57	-0.11547535
246	0x3db2f9e4	0.08739069
247	0xc02e4dd7	-2.723501
248	0xbd8308e0	-0.06398177
249	0x3db38179	0.08764929
250	0x3e25e0e4	0.1619907
251	0xbf4916ba	-0.78550303
252	0xbd7f122f	-0.0622732
253	0xbefe3158	-0.4964702
254	0x3e75c05b	0.23999159
255	0x3d3da04b	0.046295445

output.4.bias f4 [128]
0	0x3eb1ce88	0.34727883
1	0x3e5274dd	0.20552392
2	0x3ec9abdc	0.3938893
3	0xbceb8bbc	-0.028753154
4	0xbf07ba2a	-0.5301844
5	0x3d7077a0	0.058707833
6	0xbe875581	-0.26432422
7	0x3f39d23b	0.7258641
8	0x3fbb5c1c	1.4637485
9	0xbe9550b8	-0.29163146
10	0x3e9e3207	0.30897543
11	0x3d6d4a72	0.057932325
12	0xbe9a44e6	-0.3013069
13	0xbee5a57a	-0.4485281
14	0x3f22e0e2	0.63624394
15	0x3f615c4d	0.88031465
16	0x3f4413dd	0.7659281
17	0xbde9d491	-0.11417497
18	0xbec511b2	-0.38490063
19	0xbd7c61d8	-0.06161675
20	0xbe7562bb	-0.23963444
21	0xbefd5036	-0.4947526
22	0xbea3e3da	-0.32009774
23	0x3ed2a261	0.4113951
24	0xbe9919ab	-0.29902396
25	0x3d21bccd	0.039486695
26	0x3ee40c2c	0.44540536
27	0xbeef0d7e	-0.4668998
28	0x3ee31b5d	0.44356814
29	0xbd1ee9e8	-0.03879729
30	0x3ca5ce70	0.020240039
31	0xbe77ba20	-0.24192095
32	0xbe23429d	-0.1594338
33	0xbf13fe62	-0.5781003
34	0xbe2ef49f	-0.17085503
35	0xbf722004	-0.945801
36	0x3f2977cd	0.66198426
37	0x3d8c0605	0.06837086
38	0xbddb2f3c	-0.107023686
39	0x3ecb09f4	0.3965603
40	0x3db1f0fd	0.08688543
41	0xbe2a37cb	-0.16622846
42	0x3e1c3390	0.15254045
43	0xbdc12c18	-0.09432238
44	0xbf0a229e	-0.5395907
45	0xbdfcf4e9	-0.123514004
46	0xbdc36f29	-0.095426865
47	0xbd1d2150	-0.038361847
48	0xbdbeca7c	-0.093159646
49	0xbee93cdd	-0.45554247
50	0x3f300f97	0.6877379
51	0xbe927eb8	-0.28612304
52	0x3ed31734	0.4122864
53	0x3e4b59c1	0.19858457
54	0xbdac9794	-0.08427349
55	0x3d19dbb3	0.037563037
56	0xbccf6797	-0.02531795
57	0x3ba6bc01	0.00508833
58	0x3e25ed58	0.1620382
59	0xbe27e696	-0.16396555
60	0x3f1e25e1	0.6177655
61	0xbe28049f	-0.16408013
62	0x3f71f6cd	0.94517213
63	0x3eb00498	0.34378505
64	0xbd94bb42	-0.07262279
65	0x3e9386ba	0.28813726
66	0x3e8f631a	0.28005296
67	0x3e65b9ef	0.2243421
68	0x3ec4fb91	0.3847318
69	0xbd1fbf4d	-0.039000798
70	0x3f407449	0.7517744
71	0xbf436c31	-0.7633696
72	0x3df75312	0.12076391
73	0x3f4db760	0.80357933
74	0xbe93d00a	-0.2886966
75	0xbec66c28	-0.38754392
76	0x3dac8eb2	0.084256545
77	0xbed03080	-0.40662003
78	0xbea57352	-0.32314545
79	0x3ea2e0fc	0.31812274
80	0x3e6c8135	0.23096164
81	0x3cd44ee4	0.025916524
82	0x3ecd05c7	0.4004347
83	0x3e8f3a02	0.27973944
84	0x3eaa8f35	0.33312383
85	0x3e6e2d53	0.23259477
86	0x3f328c26	0.697451
87	0x3e690c3f	0.22758578
88	0xbc1244bb	-0.008927519
89	0x3f2f4c78	0.6847606
90	0x3ed83e28	0.4223492
91	0x3e3c018e	0.18359968
92	0xbed02f2a	-0.40660983
93	0x3f2c6387	0.67339367
94	0x3eed9d96	0.4640929
95	0x3db1b9e7	0.08678036
96	0x3e392ff5	0.180847
97	0xbdfd695b	-0.123736106
98	0xbe5a967e	-0.2134647
99	0xbe8bdaa4	-0.27315247
100	0xbe32a51e	-0.174458
101	0x3c75f7a0	0.015012652
102	0xbedb3286	-0.42811984
103	0xbe976d09	-0.29575375
104	0xbef9e7c5	-0.4880964
105	0xbd60f6a7	-0.054922726
106	0x3c76fd7d	0.015075085
107	0x3f2f375a	0.68443835
108	0xbe00b75b	-0.12569945
109	0xbf5dc3f9	-0.86627156
110	0xbe435321	-0.1907468
111	0xbcc0e37e	-0.023545977
112	0x3ddd491e	0.108049616
113	0x3e914fc6	0.28381175
114	0xbe945ae7	-0.28975603
115	0xbb5d4579	-0.0033763333
116	0x3f16a9d2	0.58852875
117	0xbd15f11c	-0.036606893
118	0x3e918afb	0.28426346
119	0x3f46f90e	0.7772378
120	0xbe17f6d4	-0.14840251
121	0x3e67e85c	0.22647232
122	0xbd72c40e	-0.059269004
123	0xbc387b3e	-0.011259852
124	0x3b8d0682	0.0043037543
125	0xbea3e790	-0.32012606
126	0x3f461947	0.7738232
127	0xbd9fa119	-0.07794399

output.6.weight f4 [128, 128]
0	0x3ea5389a	0.32269746
1	0xbd9ff5b3	-0.07810535
2	0x3da03c94	0.07824054
3	0xbd6bf65c	-0.057607993
4	0x3d932553	0.071848534
5	0x3e0783ce	0.13233873
6	0x3e82f691	0.2557874
7	0xbe671d30	-0.22569728
8	0xbd70597b	-0.058679085
9	0xbc4f18c5	-0.012640183
10	0x3cdb1706	0.026744377
11	0xbdddafc5	-0.10824541
12	0x3ca53d67	0.02017088
13	0x3e419031	0.18902661
14	0xbd900bd6	-0.070335075
15	0x3e385d30	0.18004298
16	0xbd110069	-0.03540078
17	0xbc91e64c	-0.01781001
18	0xbc6807bb	-0.014161999
19	0xbd69533f	-0.056964155
20	0x3d615006	0.055007957
21	0xbd8aec6a	-0.06783374
22	0x3c8d978a	0.017284174
23	0x3d8cfbc5	0.06883959
24	0xbc84e534	-0.016222574
25	0x3d9bde2b	0.076107346
26	0xbe5209c8	-0.20511544
27	0x3e583835	0.21115191
28	0x3e8d7d5a	0.27634698
29	0xbc2a0b81	-0.010378719
30	0x3d832d5d	0.06405137
31	0xbddae960	-0.10689044
32	0xbe05aba4	-0.13053757
33	0x3e277d5b	0.16356413
34	0xbd6a9711	-0.057272974
35	0x3d3a0510	0.045414984
36	0xbd0d28d2	-0.034462757
37	0x3d6a0319	0.05713186
38	0xbb40e8e0	-0.002943568
39	0x3e2ff25b	0.17182295
40	0xbc4b0847	-0.01239211
41	0x3cdf0fd2	0.027229223
42	0xbdd1f344	-0.10251477
43	0x3d39f046	0.04539516
44	0x3e0870e8	0.1332432
45	0xbc9183c0	-0.017763019
46	0xbd44249e	-0.047886483
47	0xbd81a4d4	-0.063302666
48	0x3d4b960b	0.04970364
49	0xbcc9be87	-0.024626983
50	0xbd24f75e	-0.04027497
51	0x3cfc8b72	0.030828211
52	0x3dee9b73	0.11650743
53	0xbcdae59f	-0.02672082
54	0x3c6b3459	0.014355742
55	0x3de8ecae	0.11373268
56	0xbd3948c5	-0.045235414
57	0x3da09649	0.078411646
58	0xbd65d70e	-0.056113295
59	0x3da0276b	0.078200184
60	0x3e30a7dd	0.17251535
61	0x3e1c2cec	0.15251511
62	0x3d39e469	0.045383845
63	0xbe18738b	-0.14887826
64	0xbd23befb	-0.039977055
65	0x3dfd23e4	0.12360361
66	0xbe8642cf	-0.26222846
67	0x3d43351b	0.047658067
68	0x3ee2d770	0.4430499
69	0xbdbfce38	-0.09365505
70	0xbba282f7	-0.00495946
71	0xbd5d9575	-0.05409761
72	0x3d95c780	0.07313442
73	0xbb8cbb57	-0.0042947936
74	0x3d327ec4	0.043577924
75	0xbcde8d5f	-0.02716702
76	0x3e8b9950	0.27265406
77	0xbe8d4721	-0.2759333
78	0x3e1de833	0.15420608
79	0xbd82d790	-0.063887715
80	0xbd4fc7ed	-0.050727773
81	0x3bf7cdef	0.007562391
82	0x3e078942	0.13235953
83	0xbe3d59a2	-0.18491223
84	0xbd770cf3	-0.060315084
85	0x3e3b40da	0.18286458
86	0xbd5fc0d9	-0.054627273
87	0xbe242c3a	-0.16032496
88	0xbb9d4e12	-0.0048005665
89	0xbd2baee2	-0.041914828
90	0xbea08ace	-0.313559
91	0x3c80ed01	0.015738012
92	0x3ba45c8c	0.0050159153
93	0xbe416fca	-0.188903
94	0xbc826ff8	-0.015922531
95	0x3e39abc5	0.18131931
96	0x3db6e525	0.089304246
97	0xbbf5aeca	-0.007497643
98	0xbd5662d7	-0.052340355
99	0x3df01b40	0.117239475
100	0xbd54f9b4	-0.051995948
101	0x3d010ab8	0.031504363
102	0x3d00988c	0.03139548
103	0xbe134042	-0.14379981
104	0x3ddca979	0.10774512
105	0xbd9961ee	-0.07489382
106	0x3d9f2725	0.07771138
107	0x3d8f3126	0.06991796
108	0xbddeda61	-0.10881496
109	0x3ad47dff	0.0016211866
110	0x3cf94bdc	0.03043168
111	0x3d9f9127	0.077913575
112	0x3d62dbaf	0.055385288
113	0xbecdeffc	-0.40222156
114	0x3d48653e	0.048924677
115	0xbc829da0	-0.015944302
116	0x3e0cb3b0	0.1374042
117	0xbc693f39	-0.014236265
118	0x3e90dfe2	0.2829581
119	0x3e2fdebf	0.17174815
120	0x3d3b063d	0.045660246
121	0x3dbda811	0.09260572
122	0x3d45d98b	0.04830317
123	0x3d175252	0.03694374
124	0xbd108642	-0.03528429
125	0x3d4faaa9	0.050699864
126	0x3e260f55	0.16216786
127	0x3c538404	0.012909893
128	0xbd7a6236	-0.061128817
129	0xbd223193	-0.03959806
130	0xbd05e948	-0.032693177
131	0xbd5d88bf	-0.05408549
132	0xbd9b5bd9	-0.07585878
133	0xbda49268	-0.08035737
134	0x3a2be615	0.0006557417
135	0x3b026547	0.0019896792
136	0x3b93a1f9	0.0045053926
137	0xbd746ce6	-0.059674166
138	0xbda3ce87	-0.07998376
139	0xbcb24174	-0.021759726
140	0x3d4883dc	0.048953876
141	0x3d4557ba	0.048179366
142	0xbd952617	-0.07282656
143	0xbd1261b4	-0.03573771
144	0x3c2b73b2	0.010464596
145	0xbc537fc9	-0.012908884
146	0xbd859110	-0.06521809
147	0x3d2ef1f7	0.042711224
148	0x3d3a85ba	0.045537688
149	0xbd119d57	-0.03555044
150	0xbd78b82a	-0.060722508
151	0x3d1a7b0a	0.037714995
152	0xbc1f073d	-0.009706316
153	0xbccf07f0	-0.02527234
154	0x3d73b259	0.059496257
155	0x3c76835f	0.01504597
156	0xbdcf86b8	-0.101331174
157	0xbd93c181	-0.07214642
158	0xbd8d3811	-0.068954594
159	0xbd83b1fa	-0.06430431
160	0x3d93bbf3	0.07213583
161	0xbd44979b	-0.047996145
162	0xbaaa9da2	-0.0013016949
163	0xbd7f21f8	-0.062288254
164	0x3d58f293	0.05296571
165	0xbda6bc03	-0.08141329
166	0x3d934553	0.07190957
167	0xbd08d51d	-0.033406366
168	0x3c5ffb8f	0.013670816
169	0xbd83f0d7	-0.06442421
170	0x3ca8af1c	0.020591311
171	0x3d860d91	0.06545556
172	0x3d0e22a6	0.034701012
173	0xbcaa8290	-0.02081421
174	0xbd778de4	-0.06043805
175	0xbc9bf6cf	-0.019038586
176	0xbcdf7178	-0.027275786
177	0xbd455137	-0.048173156
178	0x3d35651d	0.044285882
179	0x3b9e5248	0.004831586
180	0x3d2533c6	0.040332578
181	0xbd37c050	-0.044861138
182	0x3da000c0	0.07812643
183	0x3cfd2bc7	0.030904664
184	0xbd1db29d	-0.038500417
185	0x3d26f978	0.040765256
186	0xbd5e9043	-0.054336797
187	0x3d4fb654	0.05071099
188	0x3d730782	0.059333332
189	0xbc9a6954	-0.018849052
190	0xbd195a7c	-0.03743981
191	0xbd1931d0	-0.03740102
192	0x3d5447da	0.051826335
193	0xbc3a917a	-0.011387223
194	0xbd955707	-0.0729199
195	0x3ce610fb	0.028084269
196	0x3d44450d	0.047917414
197	0x3d27a1ee	0.040925913
198	0x3d82977c	0.063765496
199	0xbce4e340	-0.027940392
200	0xbd68b33f	-0.056811567
201	0xbd70f7f9	-0.058830235
202	0x3d8b81ec	0.0681189
203	0xbd347894	-0.044060305
204	0xbd1ee558	-0.038792938
205	0xbc0f93c2	-0.008763256
206	0xbd61717c	-0.055039868
207	0xbc2cdc7f	-0.010550617
208	0xbb6ca25f	-0.0036107523
209	0xbd68ad01	-0.056805614
210	0xbca18251	-0.01971546
211	0xbd54a20c	-0.051912352
212	0xbc075977	-0.008261076
213	0x3c8cec41	0.017202498
214	0xbd96986f	-0.07353293
215	0xbdb507e9	-0.08839399
216	0xbc70cd37	-0.0146973645
217	0x3d67097a	0.056405522
218	0xbdb89734	-0.09013215
219	0xbd9865d5	-0.07441298
220	0xbda3ec55	-0.08004061
221	0xbd555b83	-0.052089226
222	0xbd8b16f5	-0.06791488
223	0x3d3cba3e	0.046076052
224	0xbd829e20	-0.06377816
225	0x3c28dc39	0.010306411
226	0xbda651c8	-0.08121067
227	0x3cdf7822	0.027278963
228	0xbd7020b5	-0.05862494
229	0x3db0d1d4	0.086337715
230	0x3cccea27	0.025013996
231	0x3d5d179d	0.053977598
232	0x3cf365e3	0.02971167
233	0xbb726c23	-0.0036990724
234	0x3c27e9a0	0.010248572
235	0xbd90a11d	-0.0706198
236	0xbd1f0270	-0.038820684
237	0xbda062ac	-0.0783132
238	0xbc55be6a	-0.0130458865
239	0xbd9f3b97	-0.07775038
240	0xbd3624f0	-0.04446882
241	0xbcc34736	-0.023837667
242	0xbd7eca31	-0.062204544
243	0x3d56ff7a	0.052489735
244	0xbc91f8e3	-0.017818874
245	0x3bfbb112	0.0076810205
246	0xbdb2a6f9	-0.08723254
247	0x3d064188	0.03277734
248	0x3c6dc427	0.014512098
249	0x3d2e17f7	0.042503323
250	0xbc45cf7f	-0.012073397
251	0xbd191042	-0.03736902
252	0x3cc6c197	0.024262233
253	0xbd5e6ff3	-0.05430598
254	0xbb99c0ea	-0.0046921866
255	0x3c6aa277	0.014320961

output.6.bias f4 [128]
0	0x3b90f563	0.0044237836
1	0xbc951b60	-0.01820153
2	0xbe0cca8a	-0.13749138
3	0x3e6c3de4	0.23070484
4	0x3e0c2945	0.13687618
5	0x3f1dc495	0.61628085
6	0xbde399bc	-0.11113307
7	0x3eceee00	0.40415955
8	0x3eba4793	0.36382732
9	0x3e53186c	0.20614785
10	0xbee3b265	-0.44472042
11	0x3fd2fc09	1.6483165
12	0xbd98b703	-0.07456782
13	0x3f0146f0	0.5049887
14	0xbcec35c0	-0.028834224
15	0xbe94113c	-0.289194
16	0x3dcdc3a4	0.10047081
17	0x3c047acf	0.0080859205
18	0xbddfbd4f	-0.109247796
19	0x3e9d2027	0.30688593
20	0xbe46a427	-0.19398557
21	0x3e92fe74	0.28709757
22	0x3df69e56	0.12041919
23	0x3e1bb32c	0.15205067
24	0x3d8c2b5f	0.0684421
25	0x3f0e6b35	0.55632335
26	0x3eaead31	0.3411651
27	0xbd0fa220	-0.035066724
28	0x3ea9a798	0.33135676
29	0xbe3033da	-0.1720728
30	0x3e1238d4	0.1427949
31	0xbe1a5887	-0.15072833
32	0x3bcf6aff	0.0063298936
33	0xbf8a29f0	-1.0794048
34	0x3e9c2a7c	0.30501163
35	0xbe52a7c9	-0.20571817
36	0xbdd6343a	-0.1045918
37	0xbe6ee9e9	-0.23331417
38	0x3e35c837	0.17752157
39	0x3ec23eb1	0.37938455
40	0x3ef749bc	0.48298442
41	0xbebf830b	-0.37404665
42	0xbd7fd894	-0.062462404
43	0xbead87b9	-0.3389261
44	0xbe0c5a73	-0.13706379
45	0x3f163745	0.58678085
46	0x3e336dce	0.17522356
47	0xbd5d629d	-0.054049123
48	0xbeaa7d1d	-0.3329858
49	0x3d85f224	0.06540325
50	0xbcacf11a	-0.02111106
51	0xbede1d85	-0.43381897
52	0x3cef7e42	0.02923501
53	0x3d1d489a	0.038399316
54	0x3f0db54a	0.5535475
55	0x3e4ffd1a	0.20311394
56	0xbdfcc5f3	-0.12342443
57	0x3c3b6319	0.011437201
58	0xbe55341f	-0.20820664
59	0x3f1210f4	0.5705712
60	0xbe3ca995	-0.18424065
61	0x3d24bfb0	0.04022187
62	0xbc6a4133	-0.014297771
63	0xbd9d710a	-0.07687576
64	0x3e8160ee	0.25269264
65	0xbcee4bd0	-0.029088885
66	0xbd451421	-0.0481149
67	0xbca50a72	-0.020146582
68	0xbd97e924	-0.07417515
69	0xbd3ac25d	-0.045595516
70	0xbdbb16ab	-0.09135183
71	0x3d895847	0.06706291
72	0x3e8546c9	0.26030567
73	0xbe15807f	-0.14599799
74	0x3ca0e670	0.019641131
75	0xbdcf235c	-0.10114166
76	0x3b98b25b	0.0046599335
77	0xbd546be2	-0.051860698
78	0x3cd34d65	0.02579374
79	0xbc879fbd	-0.016555661
80	0xbda016be	-0.07816838
81	0xbe02a92d	-0.12759848
82	0xbefc6fcc	-0.49304044
83	0xbbb3a8ab	-0.0054827533
84	0x3eb51ebf	0.3537502
85	0x3f503d2c	0.8134334
86	0xbdacda23	-0.08440044
87	0x3d851bd4	0.064994484
88	0x3d8a587a	0.06755157
89	0x3cd0ac9a	0.025472928
90	0xbc892cf5	-0.01674507
91	0x3f07428f	0.52835935
92	0x3f29410d	0.66114885
93	0x3efe7afe	0.4970321
94	0x3f6f0f84	0.9338305
95	0xbe946286	-0.28981417
96	0x3ed47cc1	0.4150143
97	0x3ea32405	0.31863418
98	0x3dbae19a	0.09125061
99	0xbea331ac	-0.31873834
100	0x3e3b496d	0.18289728
101	0x3f07d302	0.5305635
102	0xbe9185d4	-0.28422415
103	0x3ed34f31	0.41271356
104	0xbd785c71	-0.060635034
105	0x3d8e18a0	0.069382906
106	0xbda92589	-0.082591124
107	0x3edf8b9f	0.4366121
108	0x3e6950ba	0.22784701
109	0xbe37dac2	-0.17954543
110	0x3d8f8498	0.07007712
111	0x3c934da3	0.017981356
112	0xbee7147f	-0.45132825
113	0x3ded9fc1	0.11602736
114	0xbd9a52f2	-0.07535352
115	0xbe0ea676	-0.13930687
116	0xbc94b555	-0.018152872
117	0xbe6a4e5c	-0.22881454
118	0x3e052b4b	0.13004796
119	0x3cc032c6	0.02346171
120	0x3e15fb9f	0.14646767
121	0xbe5fc135	-0.21851046
122	0x3f3a1c69	0.726996
123	0xbd1798b4	-0.037010863
124	0xbe83f30f	-0.25771376
125	0x3ed6f3fc	0.4198302
126	0xbe35c118	-0.1774944
127	0xbea97498	-0.33096766

output.8.weight f4 [6, 128]
0	0x3eb7e032	0.35913235
1	0xbd9c3990	-0.07628167
2	0x3bfcc583	0.007713975
3	0x3f7ed205	0.99539214
4	0x3e1d4ce3	0.15361361
5	0x3e916fc3	0.2840558
6	0x3c67f543	0.014157596
7	0x3ddc5e11	0.10760129
8	0x3ed2d30c	0.4117664
9	0x3fd2ef3c	1.6479259
10	0x3ca20a10	0.019780189
11	0xbe829541	-0.25504497
12	0x3f59c2d2	0.850629
13	0x3e71d149	0.23614992
14	0x3d7b7a16	0.061395727
15	0xbf11c7f4	-0.5694573
16	0xbeefdc83	-0.46847925
17	0xbeef9ce8	-0.46799397
18	0xbdbc474f	-0.091932885
19	0xbd897a9f	-0.06712841
20	0x3e5f789e	0.21823356
21	0x3f1d4f20	0.6144886
22	0xbe1ea94c	-0.15494269
23	0x3edc3779	0.43011072
24	0xbe20ee4f	-0.15715908
25	0xbec56b4b	-0.3855842
26	0x3ef30c87	0.47470495
27	0xbcc1310d	-0.02358296
28	0xbc2117c7	-0.009832329
29	0xbf0420df	-0.5161266
30	0x3eebf34b	0.46084055
31	0xbe1d1fff	-0.15344237
32	0xbd725b59	-0.059169147
33	0xbe420059	-0.18945445
34	0x3e564aab	0.20926921
35	0x3fa3256d	1.2745796
36	0xbf093f08	-0.53611803
37	0x3fd866c5	1.6906363
38	0xbf9d42dc	-1.2286029
39	0x3efbda4c	0.49189985
40	0x3ec23b7b	0.37936005
41	0xbeb21bac	-0.34786737
42	0x3cc9f822	0.024654452
43	0xbf2da8d4	-0.67835736
44	0xbdcd9258	-0.100376785
45	0xbb8f65a7	-0.0043761316
46	0x3f96f9d5	1.1794993
47	0x3ba1cdb3	0.0049378513
48	0xbf88ceca	-1.0688107
49	0x3f8bf2a9	1.0933429
50	0xbd24e15b	-0.04025398
51	0xbf3cf775	-0.7381509
52	0xbd2755ce	-0.040853314
53	0xbe6e9947	-0.23300658
54	0xbe030534	-0.12794954
55	0x3e401061	0.18756248
56	0xbf061383	-0.5237352
57	0x3d9439f0	0.07237613
58	0xbe9c7adf	-0.30562493
59	0x3e978e3d	0.29600707
60	0x3e897bdb	0.26852307
61	0xbdb1b10e	-0.086763486
62	0x3ef4dcc2	0.47824675
63	0xbf0243c6	-0.50884664
64	0xbf24837b	-0.64263123
65	0x3db2009e	0.08691524
66	0x3f3177d9	0.693235
67	0xbe2c73eb	-0.16841094
68	0xbd5a3bac	-0.053279564
69	0xbc654fdb	-0.01399609
70	0xbdb087eb	-0.08619674
71	0xbd28d9b0	-0.041223228
72	0x3edb8c56	0.42880505
73	0xbee7295c	-0.45148742
74	0xbe8ad353	-0.27114353
75	0xbe6e13ad	-0.23249693
76	0xbcb8794e	-0.02251878
77	0xbff62978	-1.9231405
78	0x3dbc8e39	0.09206814
79	0x3d0864f2	0.033299394
80	0x3f2e269d	0.6802767
81	0x3ca9027d	0.02063107
82	0xbe2c31cc	-0.16815871
83	0xbc9d517c	-0.019203894
84	0x3e842be5	0.2581474
85	0x3faaeb44	1.3353047
86	0x3f314b0b	0.6925513
87	0x3b3c9abe	0.0028778757
88	0xbe903d21	-0.28171638
89	0xbeeda156	-0.46412152
90	0xbae58996	-0.0017512317
91	0xbe96fbd2	-0.29489
92	0x3ef62e86	0.4808237
93	0x3eb5af0a	0.35485107
94	0x3f348c9b	0.70527047
95	0xbe9fc1bd	-0.31202498
96	0xc040dbaa	-3.0134072
97	0x3d728d0c	0.059216544
98	0x3f7b8ec5	0.98264724
99	0xbc85f114	-0.016350307
100	0x3ec6e19c	0.38844
101	0x3eeb21ea	0.45924312
102	0xbf4be5c5	-0.79647475
103	0x3e115f0c	0.14196414
104	0xbee3fee0	-0.44530392
105	0xbe7681c1	-0.24072935
106	0xbc5adc21	-0.013358147
107	0x3ef5ca71	0.48006013
108	0x3f1bfb42	0.60930264
109	0xbe4599e0	-0.1929698
110	0x3efce462	0.49392992
111	0xbe3e8620	-0.18605852
112	0xbeea5217	-0.45765755
113	0x3ebc930a	0.36830932
114	0xbc45046b	-0.012024979
115	0xbf676108	-0.9038243
116	0x3f170623	0.5899374
117	0xbf1f8dce	-0.6232575
118	0x3ed5c6cd	0.41753235
119	0x3d0957b5	0.03353091
120	0x3e958c0e	0.29208416
121	0x3f2c9670	0.6741705
122	0x3e9565fa	0.29179364
123	0x3e9990eb	0.29993376
124	0xbf1fffe2	-0.6249982
125	0x3ea3f69b	0.32024083
126	0xbec35add	-0.3815526
127	0x3ec719a8	0.38886762
128	0x3dbe23ab	0.09284147
129	0xbd79543b	-0.060871344
130	0xbf905e24	-1.127873
131	0xbbdad8f6	-0.006678696
132	0x3ccb33fe	0.024805065
133	0xbecc5eac	-0.3991598
134	0xbcfc84de	-0.030825075
135	0x3e030bb0	0.12797427
136	0xbe444d70	-0.19170165
137	0xbea0c70d	-0.31401864
138	0xbf3f8034	-0.74805
139	0xbeba24c0	-0.36356163
140	0xbd1eb704	-0.038748756
141	0xbf60d0c8	-0.87818575
142	0xbd391e49	-0.045194898
143	0x3dba99c8	0.09111363
144	0x3f21c9cf	0.6319856
145	0xbf19b886	-0.60047185
146	0x3c84567d	0.016154522
147	0xbe6c3e57	-0.23070656
148	0x3e608020	0.21923876
149	0x3e1b8e33	0.15190963
150	0x3f07e1ec	0.53079104
151	0xbe73a67d	-0.23793979
152	0xbe4dcd7f	-0.20097922
153	0xbd17e34a	-0.037081994
154	0xbed265ed	-0.41093388
155	0xbd25678f	-0.040381964
156	0x3e929895	0.28632036
157	0x3f79090b	0.97279423
158	0xbdef9b3b	-0.1169953
159	0x3e50aebb	0.20379154
160	0xbc5c32c0	-0.013439834
161	0xbfc20c9e	-1.51601
162	0x3de61229	0.112339325
163	0x3d21f92a	0.039544262
164	0x3e69fca4	0.22850281
165	0xc078d51a	-3.8880067
166	0x3d787e5e	0.06066739
167	0xbe806418	-0.25076365
168	0x3e36fb85	0.17869385
169	0xbd71f080	-0.05906725
170	0xbc588181	-0.01321447
171	0x3db8ec5b	0.09029456
172	0xbc8bdda4	-0.01707346
173	0xbe944e48	-0.28965974
174	0xbeb6e235	-0.35719457
175	0x3cf1a367	0.029496862
176	0xbe7f5160	-0.24933386
177	0xc08c307d	-4.380919
178	0x3e16a8d5	0.14712842
179	0xbe3cff92	-0.18456867
180	0x3b564ded	0.0032700256
181	0x3ca23489	0.019800441
182	0xbef8d45c	-0.48599517
183	0x3f9242f8	1.1426687
184	0xbea94a2f	-0.3306441
185	0x3d0daa59	0.034586284
186	0xbf00d3db	-0.50323266
187	0x3ec01d5a	0.37522393
188	0xbf54ce58	-0.83127356
189	0xbd3dc822	-0.04633344
190	0xbe9c80d9	-0.30567053
191	0xbd357fa8	-0.044311196
192	0x3f976d5f	1.1830252
193	0x3dc7738a	0.09738834
194	0xbe85e46b	-0.26150832
195	0x3e608c62	0.21928552
196	0x3d9eba3e	0.07750367
197	0x3e236d5a	0.15959683
198	0xbcf45c48	-0.02982916
199	0x3d20e10c	0.03927712
200	0xbf211cdb	-0.62934655
201	0x3df83fc8	0.1212154
202	0xbe850829	-0.25982788
203	0x3d200989	0.039071593
204	0xbbf1ea72	-0.0073826844
205	0xbed0a4e4	-0.40750802
206	0xbcbb35c1	-0.02285278
207	0x3c727ced	0.014800292
208	0x3e4a6ecd	0.1976883
209	0xbd498a35	-0.04920407
210	0xbf20e36a	-0.62847006
211	0xbd03af16	-0.032149397
212	0xbf0cf25d	-0.55057317
213	0x3db9ee00	0.09078598
214	0x3d974a1a	0.073871806
215	0x3dc91133	0.098177336
216	0x3ea7b537	0.32755443
217	0x3d61689c	0.055031404
218	0x3ccb225b	0.024796655
219	0x3c19e644	0.0093932785
220	0xbfec4c36	-1.8460758
221	0x3e010b63	0.12602
222	0x3c32b7ca	0.010908077
223	0x3e1b5efa	0.1517295
224	0xc01293dd	-2.2902749
225	0x3e1d27ba	0.15347186
226	0xbe9a372a	-0.30120212
227	0x3ceed502	0.029154304
228	0xbbf7f7b3	-0.00756737
229	0xbf4e0ef6	-0.8049158
230	0x3e1e6874	0.15469533
231	0xbdbb8408	-0.09156042
232	0x3d840295	0.06445805
233	0x3e13174c	0.14364356
234	0xbc838df5	-0.016058901
235	0x3e38da0a	0.18051925
236	0x3db3d42e	0.087807044
237	0xbcc1a730	-0.023639292
238	0xbfc5272f	-1.5402583
239	0xbdcf3add	-0.10118649
240	0xbf9e954f	-1.2389315
241	0x3e11c01f	0.14233445
242	0x3c6658e3	0.014059278
243	0x3fb43cce	1.4081056
244	0x3e0ea9e0	0.1393199
245	0x3e720d69	0.23637928
246	0x3d6846aa	0.056708016
247	0x3d19d3ab	0.037555378
248	0xbf26e6bd	-0.6519583
249	0x3cdbe135	0.026840786
250	0xbf30a6b5	-0.69004375
251	0x3ea4a85e	0.32159704
252	0xbe3d5c6d	-0.18492289
253	0x3f308c13	0.68963736
254	0x3e11bd1c	0.14232296
255	0x3eacd6a5	0.3375751

output.8.bias f4 [6]
0	0x3e8a8f25	0.27062336
1	0xbdf97e40	-0.121822834
2	0xbd8d0dea	-0.068874195
3	0xbddc8b45	-0.10768751
4	0xbd857d09	-0.06517989
5	0x3ddd9f7f	0.10821437
