old/models/44.78Acc_H1_OneLayer512Units_ReLU_CrossEntropyLoss_Adam_0.001lr_534epochs_10batches.pth (torch, 31207 bytes, 4 tensors)

output.0.weight f4 [512, 6]
00000000: 8993 3b3e 608e 963e dcc0 153e 4c51 a63e
00000010: b175 743d 46a9 f33e e309 8a3d 3319 33be
00000020: 530c 69be 09b2 a13e 5d7b debe 56ad 0dbf
00000030: f530 c43d 5bc0 2f3d 9b6b 223e 8d96 9e3e
00000040: 844a 0b3f b67a 713d 6aae 033e 8135 3fbe
00000050: e821 5abe 413b 093e 37b9 c5bd 3697 bb3d
00000060: 887c 143d 7efe bfbc 7798 83be 47de aa3e
00000070: 19cd 55bf 9c2f 923f 866e e1be cc2f 1d3e
00000080: 5706 153e 9d24 5cbe 9010 49bf 82de 22be
00000090: 716e af3e c4fe 26be 7119 a83e 355d 953e
000000a0: 6410 9e3e 0546 ef3e d936 63bd 8ae5 2c3e
000000b0: d9e7 b3bd 88ef bdbe ee1a efbf 4c5f 87bf
000000c0: e2cf 4bbf 023f 2b3e c986 19bf 98bb 9f3e
000000d0: 63a0 1b3f cd50 86bd 287d 473e f826 893e
000000e0: c697 d8bd b735 123e 36b4 a43d f646 41bf
000000f0: 4d78 c13e 9838 9dbe c411 bbbe 5e2b 1c3c
00000100: 8c24 3dbf 25c7 64bf a76f 8f3c c855 a13d
00000110: 1851 0c3e b54d 243e ecc0 a0be 6374 093e
00000120: e394 173e 92b2 933c 9db8 27bc ab12 693d
00000130: 9abe c13e 1dc0 053e 193a 803d 2df4 023e
00000140: 7d73 75be 9320 f3be ae07 8ebf db51 64bf
00000150: 1b33 01bd b33b 153e 79cd be3e dda3 a9be
00000160: defe 48be 3c49 d63e 7178 a13e 9e64 863d
00000170: e0aa 313e 8a55 c7be e64a 7f3d 8ab2 a8bd
00000180: 2f9d cfbe eff4 443e 9dfd adbe d098 a63e
00000190: ff7f 49bf 91f4 5a3f c1f2 3f3d ec45 d1be
000001a0: 590e f03c e99f 313e 3547 823c 92a4 933b
000001b0: 9d97 3e3e c1c0 40be 6479 0bbf 221b d9be
000001c0: 01de b23f d50e 3bbe c0c2 a6be e348 b03e
000001d0: 93ab 893e b26d 8bbd 0956 a13d f4b2 a23d
000001e0: 43e6 fb3c b8bd 303e 5c3b a03e 0523 34bd
000001f0: 0623 5d3e e967 87be c720 b53e d670 8fbc
00000200: 85ce 8dbe 267d a7be c177 0fbf 98f1 b2bf
00000210: 165a e5be dcc4 31ba 750e 373d 8006 ccbe
00000220: 3fc8 a73f e504 7e3f 8bd7 313e f6a6 b83e
00000230: b604 b93e 6691 ed3d c117 75be a02d e8bd
00000240: 0337 de3d eb67 13bf 4e9c 153d 8fee 1d3c
00000250: 6d36 e03d 68a4 d1be 3f44 19bf 7766 163d
00000260: 7365 5ebe b340 d8be 50ea 193f 6830 9a3d
00000270: 951d 04bf c65a 043e 3469 023d 042b 053e
00000280: 9dd9 d93e 51b2 bbbc e816 c7bd bbd3 ef3d
00000290: 367f 933e 48ef 85be db22 c7bd 03ef 883e
000002a0: 75e5 ba3e 8c64 203e c7d4 973e 540b 633e
000002b0: cdf4 4c3e 1d4f c0bd fb2a 0abe 1caa a0be
000002c0: 0efa 563e 51ba 813d 4594 d13e 6398 23be
000002d0: 4f02 bd3e 5f5b 5b3e f0c8 af3e 048d ccbe
000002e0: 3e5b 92be 5599 60bd 6c15 a63e 1f50 a53e
000002f0: 31d0 183e f561 653e 6238 f2bd e5a9 5bbe
00000300: e4da f2be 8b33 acbe a444 42be a4ff 253e
00000310: c38b 8cbf 5fc3 4c3f 334e f03d a7fd 35bd
00000320: f431 813e c579 8bbe 5eab 273e 63b0 9bbe
00000330: c227 2a3e e45c 473e a5c9 b73e 0e0b 92be
00000340: dd63 6dbd 3cd4 3fbe 983a e7bd fa5e 4fbe
00000350: 966a 94be 48c0 f13d 8c90 9cbe 41ae 96be
00000360: c854 76be f871 4c3d 463c 383e 9aa3 b83e
00000370: fcc5 613d 7140 c13d 18b1 64bd 4d62 35be
00000380: 88da cbbd f204 73be 0025 a13c f0f2 853e
00000390: 8203 053e 6990 6b3e 94ea 35bd 42b2 413e
000003a0: 4f6b 8abe 0251 f2be dea4 273d 262a 743e
000003b0: 0b47 d4be c6ca bcbe 09b0 34bf c152 6b3e
000003c0: 163c b6be 8d32 b83e 948f 7e3e ecdf 72be
000003d0: e96e 97bd 602f fc3d 4dfc 983e c18a a93e
000003e0: fd6f 2c3e 0a66 c4bb a132 c93e 1190 d73e
000003f0: 726a 9e3e 3d63 b23e 58fd ab3e b920 89bd
0.18317999 0.29405499 0.14624351 0.324839 0.05968255 0.47590083 0.06740167 -0.17490081
-0.22758608 0.31581143 -0.43453494 -0.55342615 0.0957965 0.042908054 0.1586136 0.30974236
0.54410577 0.058954917 0.12859502 -0.18672754 -0.21301997 0.1340151 -0.096544676 0.091597006
0.036251575 -0.023436781 -0.2570226 0.3337271 -0.8351608 1.1420779 -0.44029635 0.15350264
0.145532 -0.21498342 -0.785409 -0.15905192 0.34263948 -0.16308123 0.3283191 0.29172674
0.3087188 0.46733108 -0.05547223 0.16884437 -0.08784456 -0.3709681 -1.8680093 -1.0575957
-0.7961408 0.16723254 -0.5997129 0.3119781 0.60791606 -0.0655838 0.19481337 0.26787543
-0.105758235 0.14278303 0.08042185 -0.754989 0.37787095 -0.3070724 -0.36536992 0.009531824
-0.7388389 -0.8936637 0.017509295 0.078776896 0.1370281 0.16045268 -0.31397188 0.13423304
0.1480289 0.018029485 -0.010236886 0.05690257 0.3784073 0.13061567 0.06261081 0.12788458
-0.23969837 -0.4748579 -1.1096094 -0.891874 -0.03154288 0.14573555 0.37266138 -0.3313283
-0.19628474 0.41852748 0.31537202 0.0656216 0.1735034 -0.3893245 0.062327288 -0.082371786
-0.4054961 0.1923406 -0.33982554 0.32538462 -0.7871093 0.8552943 0.046862368 -0.4087366
0.029303716 0.17346157 0.015903095 0.0045057023 0.18612523 -0.1882353 -0.544821 -0.42403513
1.3974 -0.18267377 -0.32570457 0.34430608 0.26888713 -0.06808032 0.07877738 0.07944289
0.030749446 0.17259872 0.31295288 -0.04397871 0.21595392 -0.26446465 0.3537657 -0.017509859
-0.27696624 -0.32712668 -0.56042105 -1.3979979 -0.44795293 -0.00067813485 0.04469152 -0.3984871
1.3107985 0.9922622 0.1736738 0.3606488 0.36136407 0.11599998 -0.23934843 -0.11336827
0.108503364 -0.5758044 0.036526017 0.009639396 0.10947881 -0.40945745 -0.5986976 0.03671881
-0.21718387 -0.42236862 0.6012316 0.07528764 -0.5160764 0.12925252 0.03183861 0.1300469
0.42548838 -0.022912176 -0.09721166 0.11710306 0.28807992 -0.2615912 -0.09723445 0.2674485
0.36503187 0.15663356 0.29654524 0.2217229 0.20015259 -0.0939009 -0.13492958 -0.31379783
0.20993826 0.06334365 0.40933433 -0.159761 0.36915824 0.21421574 0.3433299 -0.39951336
-0.28585237 -0.05483373 0.3243822 0.3228769 0.14923169 0.22400649 -0.118271604 -0.21451528
-0.47432625 -0.33633074 -0.18971497 0.162108 -1.0980152 0.7998561 0.11733665 -0.044431355
0.25233424 -0.2724134 0.16373965 -0.3040801 0.16616729 0.19469029 0.3589603 -0.2852406
-0.057956565 -0.18733305 -0.11290473 -0.20251074 -0.2898757 0.11804253 -0.3057903 -0.2942982
-0.24055779 0.049913377 0.17991742 0.36062318 0.055120453 0.09436119 -0.055832952 -0.1771328
-0.09953791 -0.23732355 0.019670963 0.2616191 0.1298962 0.23004307 -0.044413164 0.18915656
-0.27034995 -0.4732743 0.040928714 0.23844203 -0.4146045 -0.36873454 -0.7058111 0.22980787
-0.35592717 0.35976067 0.24859458 -0.23718232 -0.07394201 0.123137236 0.2987999 0.33113673
0.16839595 -0.0059936093 0.3929644 0.421021 0.30940586 0.34841338 0.33591723 -0.066956945

output.0.bias f4 [512]
00000000: 72d8 63bf 00f8 a7be 2a6c dd3e b5ce 363e
00000010: 3e84 5fbf b0fb b9be 5186 a7be 2188 19bf
00000020: 5dae 4cbf 8376 ccbd ff88 8e3f 470e 023f
00000030: 1b43 2abf 5eca bebe b7dd 21bf ca2a acbe
00000040: 23ff 15bf 6c2f cbbe e698 33bf a75b 65bf
00000050: 39cc d93e 743b 0dbe 28c3 433e c2e0 17bf
00000060: 2b56 043f 4ec0 9fbd a2ac d83d 520c 21be
00000070: 5f3b 8abd 6af5 2ebf cbb6 3cbd 2fb7 a9be
00000080: 39e6 02bf d30d e8be 0cdc a9be b70f acbe
00000090: 1906 8dbe 004b 0d3c b6d6 443f 47f0 c5bd
000000a0: c981 c43e fde8 513c 916a 5abf b041 843e
000000b0: 097a a23e a6ee 103e 928f b73e 3e84 b4be
000000c0: 555f 6c3e 2486 3cbe dd8c a7be 587d 8cbf
000000d0: 7f83 b3be 3b9f adbd bedc 1dbf 258f 3c3e
000000e0: d33f 843e 19dc a4be c458 103f ba70 123e
000000f0: 5202 b93e 94c6 9cbd 66c6 423f 5848 c23e
00000100: 8da2 d23e 6728 23bf 59bc 94bc 6343 353e
00000110: 206a 643e c1d4 c93e 3b6d e9bc bc16 503e
00000120: 25ad a5be a686 ed3c b3d1 a9be 2283 193e
00000130: 42cc df3e b24e 553f ed65 893f 7bb0 e2bc
00000140: 3363 49be b226 943e 8084 b03e 6a87 eebd
00000150: ae43 cfbe 6e77 bb3e 0a8e 17bf 7908 063f
00000160: e220 acbe d2d1 08bf 4386 80bd b4d5 3bbf
00000170: 503f 11bd 0390 203f 4105 c3bd 7614 35bf
00000180: f657 373e 0aaf 50bf 5696 9fbf c213 873e
00000190: 6627 c1be b453 16bf b1bf 15be 2f95 f4be
000001a0: da7d 73bd 3006 42bd 2737 fdbd 81a9 c8be
000001b0: 8115 a4bd e3f6 f2bd 0a75 103e e8b3 4bbb
000001c0: 416e 963e 0047 143e de67 8e3d 86bd 7d3d
000001d0: bbc4 563e cc64 7dbf b0b9 0bbf 9de3 d03e
000001e0: e1fc cfbe 390d a9bd 6a1e b93e e218 c33f
000001f0: 9cea 36bf 85de 21be 7f58 87be cd32 5ebf
00000200: 300f a6bc a9f9 293f 0821 94bf 5112 263f
00000210: 4c94 2fbe e746 6e3f e067 08bd 477c a9be
00000220: 7c4d 3fbe 2838 21bf 7b73 563f 4182 4fbe
00000230: e34f c5bd 80ef 45be 7af0 983e 5a47 0e3f
00000240: 7d55 dc3e 0f53 013f c039 e73d baa4 0b3e
00000250: c40b 5c3f b466 b3bd 061b 7abf 8e12 8a3f
00000260: c892 11bf a3b8 9dbe c1dc ae3c 9edd 5fbf
00000270: 9ecc 143f cbec 9d3d 0f04 e9be 0951 84bf
00000280: 95da 203f 2c37 633e 7cb5 093f 0125 cbbe
00000290: 6dbd 253f 0469 8f3e 1dfe 1ebd 4836 00bf
000002a0: 3dc2 f2be e3ad c43e 1fec a73e 9d06 7fbe
000002b0: 8f4d 1fbd d8cf 573e 3f2f cbbd e925 88be
000002c0: 1686 543e d663 c83e 6fd8 ac3e 07e6 11bf
000002d0: 1433 8a3f 4046 533f 32f0 7cbf 48a1 fe3c
000002e0: cc18 8a3e 04fc 0a3d 0d29 afbf d453 05bd
000002f0: d3fc 953e 5f76 ce3e e09b 583d 4bf3 11be
00000300: 320b 2c3f bd91 633f 2bec 5f3f b25b 21bf
00000310: 5c49 113f def5 21bf df9d 7dbf 8056 84be
00000320: 10e6 403f 0f23 e63d cad6 103e 43a6 863e
00000330: a78e 903f 38dd 7f3d 0be5 d63e 19be 583e
00000340: a8dd 24be 3ade 10bf 0427 46bd f725 673e
00000350: b135 c0be 460c 6e3e fbae 44bf a7c1 293e
00000360: 905f 9dbc 96a0 b63e 5d46 2dbe 8423 e4bd
00000370: 87f5 f43e 1c5b 87be 21b4 a7be 8ee8 733e
00000380: 16dc dbbe 4e80 d83e 48c1 b7be f087 503e
00000390: 4899 843d 9b13 8cbf de78 5bbe 5611 8c3e
000003a0: e462 8bbe 0e55 a03e ace4 20bf 5036 2b3f
000003b0: 79eb ebbe e0cd 983e 167e 3bbf 6879 03bf
000003c0: 281e 96be 87f3 bdbb 0764 073f 5ced c73d
000003d0: f866 3abb 0da6 3cbf 8b0a efbe cb43 da3e
000003e0: 1b6f 5fbf 119c ec3e 8954 7dbe 6b0e 9a3e
000003f0: c0d2 933e ae65 0cbe 7225 90be 6aca 55bf
-0.89002144 -0.32806396 0.43246585 0.1785229 -0.8731116 -0.36324835 -0.32719663 -0.5997334
-0.7995356 -0.09983542 1.1135558 0.50803035 -0.66508645 -0.3726377 -0.63228935 -0.33626395
-0.5859243 -0.39684618 -0.7015518 -0.89592975 0.42538622 -0.13792211 0.19117415 -0.5932733
0.5169398 -0.07800351 0.10579802 -0.15727356 -0.067496054 -0.6834322 -0.046072762 -0.3314757
-0.5113254 -0.45323047 -0.33175695 -0.3360574 -0.27543715 0.008623838 0.7689012 -0.0966497
0.38380268 0.012811896 -0.8531886 0.25831366 0.3173373 0.14153537 0.35851723 -0.35257143
0.23083241 -0.18410546 -0.32724658 -1.0975752 -0.3506126 -0.084776364 -0.6166495 0.1841398
0.25829944 -0.3219917 0.56385446 0.14300814 0.36134583 -0.07655063 0.7608398 0.3794582
0.4113964 -0.63733524 -0.018156217 0.17701487 0.22306108 0.3942013 -0.028494468 0.20321172
-0.3235866 0.02899487 -0.331678 0.1499143 0.43710524 0.83323205 1.073423 -0.027672043
-0.19666748 0.28935772 0.3447609 -0.11646922 -0.40481323 0.36614555 -0.5920111 0.5235668
-0.33618838 -0.5344516 -0.062756084 -0.7337296 -0.03546077 0.62719744 -0.095224865 -0.70734346
0.17904648 -0.8151709 -1.2467754 0.26382262 -0.3772537 -0.5872147 -0.14623906 -0.47770068
-0.059446193 -0.047369182 -0.12364035 -0.3919182 -0.08011914 -0.11863496 0.14107147 -0.0031082574
0.29380992 0.1448021 0.06953405 0.06194832 0.20973484 -0.9898193 -0.5458021 0.40798655
-0.4062262 -0.08254475 0.36156017 1.5241969 -0.71451735 -0.1580754 -0.26434705 -0.86796266
-0.020270914 0.66396576 -1.157258 0.648717 -0.17146415 0.9307694 -0.033302188 -0.3310263
-0.18681902 -0.6297631 0.8376996 -0.20264532 -0.09634378 -0.19329643 0.2987097 0.55577624
0.43033972 0.5051736 0.11290312 0.13637057 0.8595545 -0.087598234 -0.97697484 1.0786912
-0.56864595 -0.3080493 0.021345498 -0.87447536 0.5812472 0.0771118 -0.4551091 -1.033723
0.6283353 0.22189015 0.5379255 -0.3967667 0.64742166 0.28009808 -0.03881656 -0.50082827
-0.47413817 0.38413915 0.32797334 -0.24904867 -0.038892325 0.2107538 -0.09921121 -0.26591423
0.20754275 0.3913867 0.33758876 -0.5699162 1.0796838 0.8252907 -0.9880401 0.031082764
0.26972044 0.033931747 -1.3684403 -0.032550648 0.29294452 0.40324685 0.05288303 -0.14252965
0.6720458 0.88894254 0.8746974 -0.6303054 0.5675256 -0.6326579 -0.9906902 -0.25847244
0.7535105 0.11237156 0.14144436 0.26298723 1.1293534 0.06246683 0.4197162 0.21166267
-0.1610018 -0.5658909 -0.048377052 0.22573076 -0.37540963 0.2324687 -0.768295 0.16577779
-0.019210607 0.35669392 -0.16921373 -0.111395866 0.47843572 -0.26436698 -0.32754615 0.23819181
-0.4294135 0.4228539 -0.3588965 0.20364356 0.064745486 -1.0943483 -0.21432826 0.27356976
-0.27223885 0.31314892 -0.62848926 0.6687975 -0.4607809 0.2984457 -0.73239267 -0.51357126
-0.29319882 -0.005796853 0.52887005 0.097620696 -0.0028442722 -0.73690873 -0.4668773 0.42629847
-0.8727891 0.4621282 -0.24739279 0.30089125 0.28871727 -0.13710663 -0.28153569 -0.83511984

output.2.weight f4 [7, 512]
00000000: ec30 67bb 59d9 b3be 5bf2 493c 8768 023d
00000010: 324d 25bf 7fc5 13bd ac78 1a3c 124e d33b
00000020: 60fe 0abc 3c75 a7bb 08cd 9cbd e628 393c
00000030: 7bc4 81bb d439 f43c 131d 043c 936e 573c
00000040: a2b8 e8bc 0eda 16bd b53c b53c a589 3fbd
00000050: d1e2 00bd 0c6c 7fbe b90d 10be 3ae0 3ebd
00000060: 113e 003c 4f2c d4bd 06ec d0bd f0f4 ebbc
00000070: 5e99 1c3d e0de 8e3c 79ab a93c d319 c9bc
00000080: 91b1 0cbd 10e4 c6bc d0c4 50bc 8700 b1bc
00000090: 5460 73bc fef2 a73c c04a 143d d26a 563b
000000a0: 8715 05bd b34e 84bb 7e64 2dbd 226b 0a3c
000000b0: 9599 07bf 7fc8 2b3d 43d5 e93c 8b1b 26bc
000000c0: 85be 2cbc 9ff1 543a 54a3 943c 77da 723d
000000d0: e8cd 1ebc 5b60 7eba 8f47 02be 6e8e 043d
000000e0: 5240 a9bb 9985 ca3c ea13 3c3d e16b e1b9
000000f0: 6bbe 87be dc1a 50bc 9fdf 073d 2620 dc3c
00000100: 4fe0 213d 1d78 33bc 5201 cebc daab 0bbc
00000110: 8e60 0fbd e8e1 62bd 08a3 dfbc e810 333d
00000120: f7ca f8bc 3cab dfbb c70e d9bc bebc d63b
00000130: a415 b43c aa38 563d f471 f13c 5cc8 013d
00000140: a095 1a3d 035b 0e3d 5202 353d 8c21 20be
00000150: d9d0 fdbc 7183 423d 861f 15bd 026e e7bc
00000160: 3f8d 253d e7ab 89bb 7ce5 8ebc 7e99 91bb
00000170: 8608 11bd 2e69 c4ba 9ebd e1ba 9fb2 03be
00000180: 5996 99bc 1999 d9ba 6a3e 723d f525 683d
00000190: b88d 9dbb 9923 97bc 4888 153c 4a44 fdbb
000001a0: 9bd5 8cbd b2fe 17bd d4ba 2a3c 0d15 76bd
000001b0: a3d5 fbbf 3d8c 0bbd 9e12 393d 154d e23c
000001c0: 293f bfbb ad88 f63c 918f 40bc 578a 403c
000001d0: 4b9b 1dbc 4b97 79bc 9053 80bc 5aca 123d
000001e0: eb2d 9b3c 36cc 3bbd d041 3cbc 7dc3 7a3d
000001f0: 003e 04bd bf0a 623d 1a9f 03bc 9442 6bbc
00000200: 7995 fe3c 1047 cebb 7c8a bd3c 7fb3 b03c
00000210: 65df 083d 64a7 1c3c 5c4c 9b3c ff20 14be
00000220: 71c7 48be 28c8 5c3e 1eba a9bb 0a8d 0ebd
00000230: f56a 08bd 7dd2 0a3d 82b4 a83c ac4d 763b
00000240: fa02 11bb c280 bf3c e45e 2bbd de18 7d3c
00000250: 33c0 17bb b82b cfbc c8be 50be 91c9 963d
00000260: ef53 af3d d23b 5dbe 6733 fcbc a397 0abd
00000270: 29e7 303d be4c f13c 647c 5d3c d1a0 b4bd
00000280: bdc3 a5bd df8f e3bc 8ca5 2dbd 9cb5 51bc
00000290: 80ee 9c3c 7ead 23bc 4afe ea3c 7c89 0fbd
000002a0: e1bc 123f edb7 783c e53e 17bd e0d3 fdbc
000002b0: c8cb 893c 3cbd 28bb ea66 e0bf 74b7 093d
000002c0: bfb2 2f3d d439 2a3d b1b7 f23c 0177 11bc
000002d0: 6a09 503e b538 073c 43fa b8bc 9994 c4bc
000002e0: 320f d43c e282 e63d ca0d c1bd 6260 01bd
000002f0: 4b28 24bd 1269 fc3c 29f2 e03b 36fa 9fbd
00000300: 8df5 9abc bb40 853e 6b9a 1c3e a32d 413c
00000310: 1003 74bb 612e 86ba 0ab7 db3c 76e7 a03c
00000320: eb9f df3b 8510 df3c c5f7 d2bc c51f a8bc
00000330: 15cb 0dbc b20b a53c 0b5c 313d 63fb d5bc
00000340: 8d22 2cbd f85a c33c debd 73bc 0f5b 973d
00000350: 9e91 5dbc 325f debb 8b26 27bd 130f db3c
00000360: 9e00 29bd 823e 223d 40aa bbbb 08f6 5cbd
00000370: 2847 193d d483 4f3d db1b b13b 7025 fe3c
00000380: 288c d03c 7a17 94bd 4ab9 a4bc 6cab 30bd
00000390: 3810 89bc 56b1 c5bc a8d5 49bc 42d8 dd3c
000003a0: d37c 5dbc 3f4a 69bb 052a 993c e0e8 2f3d
000003b0: 370d 17bd 0049 cabb 1bec ea3c 4ec7 5cbd
000003c0: d6f1 323d d6af 34bd 569d 583d a487 0dbd
000003d0: ea1c 7fbe 85de e9bc 23bf e53c e1da c73c
000003e0: ebfd 50bd 5c4c fa3c ceb6 943b ae05 cdbc
000003f0: 4108 5f3c 9177 10bd 9246 78bc 293c 07bf
-0.0035276962 -0.3512676 0.012325848 0.031837966 -0.64570916 -0.03607702 0.0094281845 0.0064485157
-0.008483499 -0.005110411 -0.07656294 0.011301255 -0.00396019 0.02981273 0.008063572 0.013148922
-0.028408352 -0.036829047 0.022123674 -0.046762127 -0.03146631 -0.2494356 -0.14067735 -0.046600558
0.007827298 -0.10360014 -0.10201268 -0.028803319 0.0382322 0.01744026 0.020711647 -0.024548447
-0.034349028 -0.02427867 -0.012742236 -0.021606697 -0.014854509 0.02050161 0.0362041 0.0032717478
-0.032491233 -0.004037702 -0.042332165 0.008448394 -0.5296872 0.041939255 0.028544074 -0.010138403
-0.01054347 0.00081231626 0.018144287 0.059290376 -0.009692647 -0.0009703689 -0.1272261 0.032362394
-0.0051651383 0.024721907 0.04591743 -0.0004299572 -0.26512465 -0.012701716 0.033172246 0.026870798
0.039520558 -0.01095393 -0.025147114 -0.008524859 -0.03500419 -0.055391222 -0.027299419 0.043717295
-0.030370219 -0.0068258327 -0.026496304 0.0065532615 0.021982975 0.052300133 0.029473282 0.03168522
0.03774035 0.034754764 0.044191666 -0.15637797 -0.030983375 0.047488634 -0.036407016 -0.028250698
0.040417906 -0.0042014006 -0.017443411 -0.0044433465 -0.03540852 -0.0014984959 -0.0017222648 -0.12861107
-0.01874845 -0.0016601413 0.059141554 0.056676824 -0.004808154 -0.018449591 0.00912673 -0.007729088
-0.068766795 -0.03710813 0.01042052 -0.06007867 -1.9674572 -0.03406929 0.04518377 0.027624646
-0.0058363867 0.030094469 -0.011752979 0.011751733 -0.009619544 -0.015233825 -0.015664846 0.03583751
0.018942794 -0.045849048 -0.0114903 0.06122159 -0.03228569 0.05518603 -0.008033538 -0.014359135
0.031077133 -0.0062950924 0.023137324 0.021569965 0.03341617 0.009561393 0.01895731 -0.14465712
-0.19607331 0.21560729 -0.0051796576 -0.034802474 -0.033305127 0.033892144 0.020593885 0.0037582917
-0.0022127018 0.023376826 -0.04183854 0.015447823 -0.002315533 -0.025289401 -0.20385277 0.073626645
0.08560931 -0.21604851 -0.03078623 -0.03383602 0.0431892 0.029455539 0.013518427 -0.08819736
-0.08093975 -0.027778564 -0.042394206 -0.012799647 0.019156694 -0.009990094 0.028685708 -0.035043225
0.57319456 0.01518057 -0.036925215 -0.030984819 0.016820803 -0.0025747558 -1.7531407 0.03362222
0.042895075 0.041559055 0.029628607 -0.00887847 0.20316091 0.008253266 -0.022580272 -0.023996638
0.025886152 0.11255433 -0.09426458 -0.03158606 -0.04007749 0.03081182 0.0068648052 -0.07811396
-0.018915916 0.26025948 0.15293281 0.011790666 -0.003723327 -0.0010237211 0.026820678 0.01964162
0.0068244836 0.027229557 -0.025752911 -0.020522961 -0.008654376 0.020147178 0.04330067 -0.026120847
-0.042025138 0.023847088 -0.014876811 0.07390415 -0.013523487 -0.0067862505 -0.04080824 0.026740586
-0.041260354 0.039610393 -0.0057270825 -0.05394557 0.037421376 0.05066283 0.005404932 0.031023711
0.025457457 -0.0723104 -0.020107884 -0.04313223 -0.016731367 -0.024132412 -0.012319006 0.027080659
-0.01351853 -0.0035597233 0.018696794 0.042946696 -0.036877837 -0.006173253 0.028677037 -0.05390101
0.043687664 -0.044113003 0.052884422 -0.034553185 -0.24913374 -0.028548488 0.028045243 0.024396362
-0.051023405 0.03055399 0.0045383936 -0.025027122 0.013612808 -0.035270277 -0.015153544 -0.5282617

output.2.bias f4 [7]
00000000: 0e88 b23e 79c9 273e 998f 38bf 063e 183f
00000010: bb76 12be cbe0 033e 5ad3 2dbe
0.34869426 0.1638545 -0.7209411 0.5946964 -0.14303105 0.1287872 -0.16975155
