old/models/61.57Acc_H1_TwoLayers450_73Units_ReLU_CrossEntropyLoss_Adam_0.001lr_200000epochs_10batches.pth (torch, 149807 bytes, 6 tensors)

output.0.weight f4 [450, 6]
0	0x3dd98b0a	0.10622223
1	0xbf08dac7	-0.5345883
2	0x3e6c4b3a	0.23075572
3	0xbed57859	-0.4169338
4	0xbdf1e5ec	-0.11811432
5	0xbf44c85d	-0.7686823
6	0x3ea7590f	0.32685134
7	0xbcb3d957	-0.021954222
8	0xbe75763e	-0.23970887
9	0xbeab66f8	-0.33476996
10	0x3d2b9c47	0.041897085
11	0x3f07e0c6	0.5307735
12	0xbe82a8fc	-0.2551955
13	0xbe8c5059	-0.2740505
14	0x3e0d77a5	0.13815172
15	0x3e19792c	0.1498763
16	0xbd906c49	-0.07051904
17	0xbf24b294	-0.6433499
18	0x3e95c239	0.29249743
19	0x3ea8e2f4	0.32985651
20	0x3eac224e	0.33619922
21	0x3e1b8de9	0.15190853
22	0xbda7f87f	-0.08201694
23	0xbcb4dd6b	-0.022078237
24	0xbeb6b230	-0.3568282
25	0xbdbb6eec	-0.09152016
26	0xbe3434a8	-0.17598212
27	0xbe8cc00e	-0.27490276
28	0x3e999a90	0.30000734
29	0x3e4fe384	0.20301634
30	0xbed8d7a0	-0.4235201
31	0x3d3694c4	0.044575468
32	0xbf1a8040	-0.60351944
33	0xbe7c959a	-0.24666443
34	0x3ed5a73b	0.4172915
35	0x3e0b375d	0.13595338
36	0xbd835726	-0.064131066
37	0xbe9a230d	-0.30104867
38	0xbece1804	-0.40252697
39	0x3e8b9bb4	0.2726723
40	0xbee998c8	-0.45624375
41	0xbece8e24	-0.4034282
42	0xbd5c4518	-0.05377683
43	0xbe0d29ec	-0.13785523
44	0x3b160480	0.0022890866
45	0xbe5cfb46	-0.21580228
46	0x3e8ffba0	0.28121662
47	0x3e082128	0.13293898
48	0x3bf53112	0.0074826563
49	0x3e9c378d	0.30511132
50	0x3e11608f	0.1419699
51	0x3e7bc769	0.24587788
52	0x3ca7384d	0.020412588
53	0x3d83ab34	0.06429139
54	0x3eb38f06	0.35070056
55	0x3cff2a0f	0.031147985
56	0x3e586fa3	0.21136336
57	0xbe9ad2b7	-0.30238888
58	0xbf057ee2	-0.5214673
59	0xbe843273	-0.2581974
60	0x3e801a2b	0.25019965
61	0x3e49150f	0.1963694
62	0xbe8268d1	-0.25470594
63	0x3c6b5d07	0.014365441
64	0xbd1ae28c	-0.03781371
65	0x3d213c06	0.039363883
66	0xbf08de82	-0.5346452
67	0x3e882aaf	0.26595065
68	0x3b1b2f01	0.002367914
69	0x3e785d0a	0.24254242
70	0xbf07dbee	-0.5306996
71	0xbd98c86b	-0.07460102
72	0xbe91a2ca	-0.2844451
73	0x3da0fd30	0.07860792
74	0x3e6b4d35	0.22978671
75	0xbe845e07	-0.25852987
76	0xbee43dee	-0.445785
77	0xbe2016cd	-0.15633698
78	0xbe801f74	-0.25023997
79	0x3e43c044	0.19116312
80	0x3e3f6d3e	0.18694016
81	0xbe92d2f8	-0.2867658
82	0xbd97f46a	-0.07419665
83	0xbd8c201a	-0.068420604
84	0x3b05af3d	0.002039864
85	0xbde5c2fd	-0.11218832
86	0xbf026a70	-0.5094366
87	0x3e7e9b70	0.24863982
88	0x3e0c4506	0.13698205
89	0xbffdf4c7	-1.9840325
90	0xbf29d89b	-0.6634614
91	0x3deafd91	0.11474145
92	0xbdecd435	-0.11563913
93	0xbf2366f0	-0.63828945
94	0x3f921dee	1.1415384
95	0xbb75620e	-0.0037442478
96	0x3de2637a	0.1105413
97	0x3e7f5e3d	0.24938293
98	0xbe97ea12	-0.2967077
99	0xbe7b2c9e	-0.24528739
100	0xbc8f034a	-0.017457623
101	0x3ef195b7	0.47184536
102	0xbc8263b5	-0.015916685
103	0x3e4f91a5	0.20270403
104	0xba97f068	-0.0011592032
105	0x3e2f20a6	0.17102298
106	0xbcafa11c	-0.021439128
107	0xbe130ba9	-0.14359917
108	0x3e3bf43e	0.1835489
109	0x3e56512e	0.20929405
110	0x3e205abf	0.15659617
111	0xbed58ea4	-0.4171039
112	0x3f0be923	0.54652613
113	0x3e7ae283	0.2450047
114	0x3e9ab97f	0.30219647
115	0x3d5b73ef	0.05357736
116	0x3e975a64	0.2956115
117	0x3e24e47a	0.16102782
118	0xbf82b943	-1.0212787
119	0xbe9e3d9a	-0.30906373
120	0x3dec5563	0.11539724
121	0x3e97fc9a	0.29684907
122	0x3e53713f	0.20648669
123	0x3e66aeed	0.22527666
124	0x3f27f04d	0.65601045
125	0x3f075bcc	0.52874446
126	0xbdf5eebd	-0.12008426
127	0x3e84496e	0.25837272
128	0xbce399dd	-0.027783329
129	0xbd8dadad	-0.06917892
130	0xbf006554	-0.50154614
131	0xbe15cbae	-0.14628479
132	0xbe66da50	-0.22544217
133	0x3e18ce29	0.14922394
134	0xbe87dc0a	-0.26535064
135	0x3e613195	0.2199157
136	0xbda7bf6f	-0.0819081
137	0xbe46eacd	-0.19425507
138	0xbe2289c7	-0.1587287
139	0x3d936596	0.0719711
140	0xbeaaf6e4	-0.33391488
141	0x3e8e11ae	0.27747864
142	0x3e562200	0.20911407
143	0xbe4cfab2	-0.20017508
144	0xbd5cc020	-0.053894162
145	0x3dbc9f27	0.092100434
146	0xbe18aacb	-0.14908902
147	0xbf0cb41e	-0.54962337
148	0x3f558a6f	0.8341436
149	0xbe9368ab	-0.28790793
150	0xbcd4cecf	-0.02597752
151	0xbdc3f4bf	-0.09568166
152	0x3e372c04	0.17887884
153	0x3e26627c	0.16248506
154	0xbea24351	-0.31691983
155	0xbf0e6707	-0.5562596
156	0xbf04bf17	-0.5185408
157	0x3dbf93d6	0.09354369
158	0xbe2e868f	-0.17043518
159	0x3e0bd06b	0.13653724
160	0x3ef9fc97	0.48825523
161	0x3ec5a5c6	0.38603038
162	0x3e24cc06	0.16093454
163	0x3d0bf45e	0.034168594
164	0xbf279b92	-0.65471756
165	0x3dd22717	0.10261362
166	0x3e171985	0.14755829
167	0x3e8a8b99	0.2705963
168	0x3e8e199e	0.2775392
169	0xbe3fda84	-0.18735701
170	0x3e233862	0.15939477
171	0xbeaea0f9	-0.34107187
172	0x3de40345	0.11133436
173	0x3f34ae96	0.70578897
174	0xbeab3540	-0.33439064
175	0x3e383677	0.17989527
176	0x3aa2cc38	0.0012420481
177	0x3e446826	0.19180354
178	0x3e99f57e	0.30070108
179	0xbed77d8a	-0.42087966
180	0xbe8bc10d	-0.27295724
181	0x3e132cbf	0.14372538
182	0x3d64e7e1	0.0558852
183	0x3e936850	0.28790522
184	0xbf06d8e6	-0.5267471
185	0x3e197237	0.14984976
186	0xbeec167c	-0.46110904
187	0x3ddefe50	0.1088835
188	0x3e9a7460	0.30166912
189	0x3de3ff53	0.111326836
190	0xbf2e3cb6	-0.6806139
191	0x3d692569	0.056920443
192	0xbe56aa9d	-0.20963521
193	0x3e34694b	0.17618291
194	0x3e25a93e	0.16177842
195	0xbe931477	-0.2872655
196	0x3f25cc84	0.6476519
197	0xbd99c1d7	-0.07507675
198	0xbe2ec02a	-0.17065492
199	0xbee8100a	-0.45324737
200	0x3e3d818f	0.18506454
201	0xbe949686	-0.2902109
202	0xbe970570	-0.29496336
203	0x3e1747c8	0.14773476
204	0x3ccb6393	0.024827754
205	0xbdb3fbc2	-0.08788253
206	0x3e9db73c	0.3080386
207	0xbeb17586	-0.34659976
208	0x3f3b9a93	0.73282737
209	0x3ecc3167	0.3988144
210	0xbd078b40	-0.033091784
211	0xbe3cff55	-0.18456776
212	0x3e976fcc	0.29577482
213	0x3e15fc72	0.14647081
214	0x3e312fec	0.17303437
215	0xbe8fad3e	-0.2806186
216	0xbe8d40eb	-0.2758859
217	0xbf3990e2	-0.724867
218	0x3dac26a3	0.08405807
219	0xbcb74642	-0.022372369
220	0x3e4d140f	0.20027183
221	0x3f0fd236	0.5618013
222	0xbeafac5e	-0.34311193
223	0x3e379510	0.17927957
224	0xbe900383	-0.2812768
225	0xbf5a9283	-0.8537981
226	0x3f89ccfc	1.0765681
227	0x3e9b1684	0.30290616
228	0xbeb4549b	-0.352208
229	0x3e8d8814	0.27642882
230	0x3d423a68	0.04741898
231	0xbe35fe9f	-0.17772911
232	0x3ea8a4b9	0.32938173
233	0x3ef2a6a9	0.47392777
234	0xbebdf907	-0.37104055
235	0xbe08d659	-0.13363017
236	0x3db31720	0.08744645
237	0xbe8e5ec2	-0.2780667
238	0xbe666504	-0.22499472
239	0x3ee9de72	0.45677525
240	0xbf224c07	-0.6339726
241	0x3ccaf045	0.024772773
242	0x3cb05d5c	0.021528892
243	0x3ec4c59e	0.3843202
244	0x3e833bc4	0.25631535
245	0x3ead8018	0.3388679
246	0x3dfda247	0.123844676
247	0xbeaf515c	-0.3424176
248	0x3e56fc4b	0.2099468
249	0xbe8bf55c	-0.27335632
250	0xbf158997	-0.5841307
251	0xbed1ea8c	-0.40999258
252	0xbee701b3	-0.45118484
253	0x3ebb272b	0.3655332
254	0x3ba9d8ec	0.00518333
255	0x3ec3e37e	0.382595

output.0.bias f4 [450]
0	0xbf782ff7	-0.9694819
1	0xbdf9b1ba	-0.12192102
2	0x3f106287	0.5640034
3	0x3f259aa4	0.6468909
4	0x3dd06d40	0.10177088
5	0xbe289b0b	-0.16465394
6	0xbf0d5a32	-0.5521575
7	0xbcedfbd0	-0.029050738
8	0xbf84f904	-1.0388494
9	0xbeb75cfd	-0.35813132
10	0x3e88669d	0.26640788
11	0xbe037c0d	-0.1284029
12	0xbdddea72	-0.108357325
13	0xbf5c6c6e	-0.8610295
14	0xbf1860fc	-0.59522986
15	0xbf6fbe4e	-0.93649757
16	0xbd7d1d3b	-0.061795454
17	0xbf0a1783	-0.53942126
18	0x3f168cfd	0.5880888
19	0x3d29a008	0.041412383
20	0x3edf8acd	0.43660584
21	0xbe2a7400	-0.16645813
22	0xbf003ca5	-0.50092536
23	0xbbe4047f	-0.006958544
24	0xbf2cf6a0	-0.6756382
25	0xbf65ebc4	-0.89812875
26	0xbe5f3efb	-0.21801369
27	0xbe79b4c9	-0.2438537
28	0xbeb07870	-0.34466887
29	0x3f4a2ae1	0.7897168
30	0xbf691eaa	-0.91062415
31	0x3f15b09e	0.5847262
32	0xbf659a5c	-0.8968866
33	0x3f2d6052	0.677251
34	0xbf79923c	-0.9748876
35	0x3f4207a6	0.7579292
36	0x3fa1e03d	1.2646557
37	0xbeb5b351	-0.3548837
38	0x3d15afe5	0.0365447
39	0x3f243df9	0.6415706
40	0x3f6abe34	0.91696477
41	0xbf4bbc9f	-0.7958469
42	0xbf04f754	-0.5193989
43	0x3e470010	0.19433618
44	0xbea286a7	-0.31743357
45	0xbf2479f1	-0.6424857
46	0x3f45739f	0.7712955
47	0xbeb7b219	-0.35878065
48	0x3e19b1f7	0.15009294
49	0xbead432f	-0.3384032
50	0xbf8dbc04	-1.1073003
51	0x3e9b477a	0.3032797
52	0xbedd40f7	-0.43213627
53	0xbedbdc4e	-0.42941517
54	0x3f8b84e5	1.0899931
55	0xbe950f11	-0.29113057
56	0xbf30b20a	-0.69021666
57	0x3f5f5a3f	0.8724708
58	0x3ede1caf	0.4338126
59	0xbe32bb6d	-0.1745431
60	0x3f4f9f5d	0.81102544
61	0xbf3da94e	-0.74086463
62	0xbe9aa8c7	-0.30206892
63	0xbf0f94fa	-0.56086695
64	0xbf95dbdb	-1.170772
65	0xbf7d65b8	-0.98983335
66	0xbf3eab09	-0.7447973
67	0xbf13b32d	-0.57695276
68	0xbd87c02d	-0.066284515
69	0xbdf930f9	-0.12167544
70	0xbe238e90	-0.15972352
71	0xbf052fe8	-0.52026224
72	0xbeefb0a7	-0.46814463
73	0x3f845dbe	1.0341108
74	0xbee82b8d	-0.45345727
75	0x3e33ee2c	0.17571324
76	0x3e7f5970	0.24936461
77	0xbeb80b7b	-0.3594626
78	0x3f8cd813	1.1003441
79	0xbf641625	-0.8909629
80	0xbd08df02	-0.0334158
81	0x3df4878f	0.11939918
82	0x3f016a7a	0.50553095
83	0x3f10de6c	0.5658939
84	0x3f002cca	0.5006834
85	0xbe81ef39	-0.25377825
86	0xbe9991bf	-0.29994008
87	0xbf1a2ebb	-0.60227555
88	0x3e6d4f40	0.23174763
89	0xbe9791c3	-0.29603395
90	0xbf73c05e	-0.95215404
91	0xbeb3f596	-0.35148305
92	0xbf89090f	-1.070589
93	0x3e40ed40	0.18840504
94	0xbead9a56	-0.3390681
95	0xbc61bf6a	-0.013778547
96	0xbeb6cf71	-0.3570514
97	0xbec56197	-0.38551018
98	0xbee19288	-0.44057107
99	0x3e1cb075	0.15301688
100	0x3dc6ed84	0.09713271
101	0x3e9f6f80	0.31139755
102	0xbf08f5de	-0.53500164
103	0xbf15e97c	-0.58559394
104	0xbeacc402	-0.33743292
105	0xbf0834d1	-0.5320559
106	0xbe2d001b	-0.16894571
107	0xbf0c71b5	-0.54861003
108	0x3d137c74	0.03600736
109	0xbf8d36f5	-1.1032397
110	0xbf3c837c	-0.7363813
111	0x3ec150b5	0.37756887
112	0xbedc71d4	-0.43055594
113	0xbd8baafc	-0.06819722
114	0x3f8323fe	1.0245359
115	0xbddea54b	-0.10871371
116	0x3f6b0afc	0.91813636
117	0xbebd2030	-0.3693862
118	0xbe98b30d	-0.29824105
119	0x3f423188	0.7585683
120	0x3e61101e	0.21978804
121	0x3e82513d	0.25452605
122	0xbe7bf12e	-0.24603721
123	0x3eabae4a	0.3353141
124	0xbf383e34	-0.71969914
125	0xbe3e08d5	-0.18558057
126	0xbef39947	-0.4757788
127	0xbd9b7f0e	-0.07592593
128	0xbde39890	-0.11113083
129	0xbef677ea	-0.48138362
130	0x3e376f0c	0.17913455
131	0x3edc46e0	0.43022823
132	0xbd64b07f	-0.055832382
133	0xbcce2b72	-0.0251672
134	0xbf4f42a8	-0.80961084
135	0xbef1a54d	-0.47196427
136	0x3ddc8e2e	0.10769306
137	0xbf5d373c	-0.86412406
138	0xbebcfef8	-0.36913276
139	0xbf8e7a55	-1.1131083
140	0xbeab7c5b	-0.33493313
141	0x3dc911f0	0.098178744
142	0xbee40bf8	-0.4454038
143	0x3de3fb2c	0.111318916
144	0xbf161081	-0.5861893
145	0x3f0817f6	0.5316156
146	0xbe303c03	-0.17210393
147	0xbdacb4df	-0.08432936
148	0x3f08099f	0.5313968
149	0x3ee45d45	0.4460241
150	0x3eb34298	0.35011744
151	0x3f2f5cf7	0.6850123
152	0x3ed6ccd6	0.41953152
153	0xbeabb9f2	-0.33540303
154	0x3f486d43	0.7829172
155	0xbe004348	-0.12525666
156	0xbfa6be51	-1.302683
157	0xbe14ddbc	-0.1453771
158	0x3eb5a19b	0.35474858
159	0xbfaa9157	-1.3325604
160	0x3e8e5820	0.2780161
161	0xbf9091f6	-1.1294544
162	0xbf0333fa	-0.51251185
163	0x3e2326fe	0.15932843
164	0x3f700b83	0.93767565
165	0x3e9e19b5	0.30878988
166	0xbe7095cc	-0.23494643
167	0x3f848cb1	1.0355436
168	0xbf42c3be	-0.7607993
169	0x3e9ad574	0.30240977
170	0xbe8f5327	-0.27993128
171	0xbdc79e8a	-0.09747036
172	0x3d6df010	0.05809027
173	0xbee1c961	-0.44098952
174	0x3ea1760c	0.31535375
175	0xbf0e1b42	-0.5551034
176	0xbe37fda6	-0.17967853
177	0x3e6233bc	0.22090048
178	0xbed2eea5	-0.41197696
179	0x3ea313e6	0.3185112
180	0xbebb2d74	-0.36558115
181	0xbdbbe9ce	-0.09175454
182	0x3f401685	0.7503436
183	0xbf45bfc2	-0.77245724
184	0xbf720ca1	-0.9455052
185	0x3ce186c9	0.02753009
186	0x3f783306	0.96952856
187	0xbe92356b	-0.2855638
188	0xbe9a6b44	-0.30159962
189	0x3e4e416c	0.20142144
190	0xbd975ca6	-0.07390718
191	0xbe08c477	-0.13356195
192	0x3d0e149e	0.03468763
193	0x3f83fa62	1.0310786
194	0xbe48c958	-0.19608057
195	0xbde82ea8	-0.11337024
196	0xbf365add	-0.71232396
197	0x3ec054f7	0.37564823
198	0x3e7359af	0.2376468
199	0xbfa915f0	-1.320982
200	0xbf121211	-0.5705882
201	0xbe49028c	-0.19629878
202	0x3d1c1fb3	0.03811617
203	0xbf50dfdb	-0.81591576
204	0xbe314e55	-0.17315038
205	0xbefea3e0	-0.49734402
206	0xbe505d8a	-0.20348182
207	0xbed39570	-0.4132495
208	0xbf723803	-0.9461672
209	0xbf6fa87d	-0.9361647
210	0x3ef6fba0	0.4823885
211	0xbf3d3434	-0.7390778
212	0xbf074326	-0.52836835
213	0xbe00a3e0	-0.12562513
214	0xbe84db54	-0.25948584
215	0xbe1e1527	-0.15437756
216	0xbe8f32ad	-0.2796835
217	0x3ccf1d10	0.025282413
218	0x3f38d94f	0.72206587
219	0x3f8adead	1.0849205
220	0x3f2df0ee	0.67945755
221	0x3f80ee70	1.0072765
222	0xbc85e16d	-0.016342843
223	0xbed15e5a	-0.40892297
224	0xbe6f9034	-0.23394853
225	0xbf915d87	-1.1356667
226	0x3ed4a8e0	0.4153509
227	0xbf37a3ee	-0.7173451
228	0xbedb5975	-0.42841688
229	0x3eb6e0d1	0.35718396
230	0xbda04af5	-0.07826797
231	0x3f7ca692	0.98691666
232	0xbcc7db8a	-0.024396677
233	0x3f005fdb	0.50146264
234	0xbee1f828	-0.4413464
235	0x3e687f77	0.22704874
236	0x3e101ee6	0.14074287
237	0xbef06fee	-0.46960396
238	0x3d953748	0.07285935
239	0x3de254ab	0.110513054
240	0xbe0bea2d	-0.1366355
241	0x3f1c0468	0.60944223
242	0x3e650a82	0.2236729
243	0x3e0c332c	0.13691396
244	0xbd5cee16	-0.053937994
245	0x3d0ec82e	0.034858875
246	0xbf1d508f	-0.6145105
247	0x3e8afa56	0.27144116
248	0xbf16744f	-0.5877122
249	0x3e705c3d	0.23472686
250	0x3f2666b9	0.6500049
251	0x3efa2be5	0.48861614
252	0x3e6521d3	0.22376184
253	0xbf2b91fc	-0.6701963
254	0xbefd12f2	-0.49428517
255	0xbf053fc0	-0.520504

output.2.weight f4 [73, 450]
0	0x3d1648bb	0.036690455
1	0xbc4731f8	-0.01215791
2	0x3c43e6cc	0.011956882
3	0xbcdd474b	-0.027011534
4	0x3d365c7d	0.044521797
5	0xbd2bba72	-0.041925855
6	0x3cbc2bc6	0.022970092
7	0x3cff30ce	0.031151202
8	0x3cb58931	0.022160145
9	0xbd003af4	-0.031306222
10	0x3d4076d7	0.046988335
11	0xbc18092c	-0.0092795305
12	0x3a951ead	0.001137694
13	0x3d06f6e3	0.032950293
14	0xbcd76226	-0.026291918
15	0xbd36a40c	-0.04459004
16	0xbc4ff294	-0.0126921125
17	0xbcd39e1e	-0.025832232
18	0xbd0e3d5e	-0.034726493
19	0xbbe6f208	-0.0070478953
20	0xbccb1ca1	-0.024793925
21	0xbc2c9304	-0.010533098
22	0xbb31f620	-0.0027154759
23	0x3c22f4b0	0.009946033
24	0x3d0a07c3	0.03369881
25	0xbd413acc	-0.047175214
26	0xbc386680	-0.011254907
27	0x3d2968a5	0.041359562
28	0x3c9aa041	0.018875243
29	0x3d27f3f9	0.041004155
30	0x3cd24311	0.025666745
31	0xbc9581b0	-0.018250316
32	0xbbbced2e	-0.0057655787
33	0x3b9a59b5	0.004710401
34	0xbca435fb	-0.020045271
35	0x3b4a3a75	0.0030857597
36	0x3c713284	0.0147215165
37	0x3d2083d5	0.039188225
38	0xbaa491af	-0.0012555624
39	0xbd57dc8f	-0.052700575
40	0xbd33bd70	-0.043881834
41	0x3bd93821	0.0066290055
42	0xbd2de33d	-0.04245304
43	0x3d2938fb	0.041314106
44	0x3d0b7c71	0.034054223
45	0x3c82d1d5	0.015969196
46	0x3c768150	0.015045479
47	0x3b94c99f	0.0045406367
48	0xbb0a3660	-0.002108954
49	0x3d2d6a8f	0.04233795
50	0xbc19d884	-0.00939
51	0xbc08e9a1	-0.008356483
52	0x3c773ee0	0.015090674
53	0xbd507b00	-0.050898552
54	0x3c6676e1	0.014066429
55	0xbc5035f4	-0.012708176
56	0xbc44edaf	-0.012019559
57	0xbc0b3652	-0.008496838
58	0xbd0b1846	-0.033958696
59	0x3d033877	0.03203627
60	0xba687c96	-0.00088686624
61	0xbab2eaba	-0.0013650276
62	0xbb9d1ab0	-0.004794441
63	0x3b4ca9b0	0.0031229071
64	0xbcdf9a6d	-0.027295316
65	0x3c25dc78	0.010123365
66	0xbb1d03ea	-0.0023958632
67	0xbc8001ca	-0.015625853
68	0xbbcbe950	-0.0062228814
69	0xbc596894	-0.013269562
70	0xbd2cf994	-0.042230204
71	0xbcef978d	-0.02924707
72	0x3d323b7d	0.043513764
73	0x3b1cbc09	0.0023915789
74	0x3d1b60cf	0.03793412
75	0x3cdb9fae	0.02680954
76	0x3d019155	0.03163274
77	0x3c6e74a4	0.0145541765
78	0xb9a6ad5b	-0.00031791147
79	0xbca1ae8d	-0.019736553
80	0xbb45f8d0	-0.0030208118
81	0x3be0c1eb	0.0068590543
82	0x3bec4951	0.0072108884
83	0x3c21de8f	0.009879722
84	0x3d0fc91b	0.0351039
85	0xbc5c687c	-0.013452645
86	0xbd01bef6	-0.031676255
87	0xbd1d3cb8	-0.038387984
88	0x3b471d60	0.00303825
89	0xbb5fe2b0	-0.0034162216
90	0xbcea630f	-0.028611688
91	0xbcddfb07	-0.027097238
92	0x3ca2c231	0.019867988
93	0xba833c40	-0.0010012463
94	0x3d07b55f	0.033131953
95	0x3d078ad9	0.0330914
96	0x3aaf576a	0.0013377492
97	0xbd3cfcf1	-0.04613966
98	0x3bcd79b9	0.006270614
99	0x3bb51170	0.0055257604
100	0x3d045ae3	0.03231324
101	0xbca99587	-0.020701183
102	0x3c2f2334	0.010689545
103	0xbd16ee75	-0.036848504
104	0xbcb26275	-0.021775464
105	0xbce17485	-0.027521381
106	0xbc9868c9	-0.018604653
107	0x3c0f92c0	0.008763015
108	0xbc74d504	-0.014943365
109	0xbd25853b	-0.04041026
110	0x3d010458	0.031498283
111	0x3c9505e1	0.01819128
112	0xbcf3fc41	-0.02978337
113	0x3d1ce33f	0.038302656
114	0x3d0ab4ad	0.033863712
115	0x3caad636	0.020854097
116	0x3b8f33af	0.004370175
117	0x3d2c2687	0.04202893
118	0x3cdf64a6	0.027269673
119	0x3c6c698c	0.014429461
120	0xbd572d8a	-0.052533664
121	0xbd020018	-0.03173837
122	0xbd3d3d8e	-0.04620128
123	0x3bd87c39	0.0066066054
124	0xbd334ddb	-0.04377542
125	0xbd1c9475	-0.038227517
126	0x3c07d0da	0.00828954
127	0xbc45787c	-0.0120526515
128	0x3d227ed1	0.039671723
129	0xbd58bfb6	-0.052917205
130	0x3c48812c	0.012237828
131	0x3d08d497	0.033405866
132	0x3c330206	0.010925775
133	0x3cb99339	0.022653209
134	0x3d1e0725	0.038581032
135	0xbd40053f	-0.046880003
136	0x3c8aa6be	0.016925212
137	0xbc29572f	-0.010335728
138	0xbd519e37	-0.051176276
139	0xbcbed578	-0.02329515
140	0xbcdeae3e	-0.027182695
141	0x3d22ecdf	0.03977668
142	0xbd0235c8	-0.03178957
143	0xbd091779	-0.03346965
144	0xbd054b06	-0.03254225
145	0xbd249222	-0.040178426
146	0xbc50bb44	-0.01273996
147	0xbc3d75b0	-0.011563703
148	0xbc156cd3	-0.009120184
149	0x3cf8d4e9	0.030374961
150	0xbcab63e8	-0.020921662
151	0xbc485947	-0.012228317
152	0xbc821766	-0.015880298
153	0xbd0ec312	-0.034854002
154	0x3d1e9ffd	0.038726795
155	0x3b804000	0.0039138794
156	0xbc8a8029	-0.016906815
157	0xbad1e5e0	-0.0016013943
158	0x3c6bcba8	0.014391817
159	0xbca189a6	-0.019718956
160	0x3d103547	0.03520706
161	0x3cb43ea9	0.022002535
162	0x3c61bdd7	0.0137781715
163	0xbca2b4db	-0.01986163
164	0xba891758	-0.0010459227
165	0x3c82fa66	0.01598854
166	0xbd21a4c2	-0.039463766
167	0xbd1fa324	-0.038973942
168	0x3b0911f0	0.0020915233
169	0xbd38e761	-0.045142535
170	0xbd054c81	-0.032543663
171	0xbc3b8e2c	-0.011447471
172	0x3ccd6bda	0.025075842
173	0xbcbbb308	-0.022912517
174	0x3b67a200	0.0035344362
175	0xbb966bec	-0.004590502
176	0x3d0ace93	0.03388841
177	0xbca26ead	-0.019828165
178	0xbc1c5cfc	-0.009543654
179	0x3ccec81c	0.025241904
180	0xbbf15ba5	-0.007365661
181	0x3ba78ef8	0.0051134787
182	0x3d1133cf	0.0354498
183	0xbcf5085d	-0.029911214
184	0xbba03690	-0.004889317
185	0x3c0a8964	0.008455608
186	0xbd01a310	-0.03164965
187	0xbbfe2d48	-0.007756863
188	0xbc57b7d0	-0.013166383
189	0xbd31d9f8	-0.04342076
190	0x3b9e6710	0.0048340634
191	0xbc829f90	-0.015945226
192	0xbc61f0bc	-0.013790306
193	0xbd1ce0a2	-0.038300164
194	0x3d2e3d59	0.042538974
195	0x3ceb35a2	0.028712098
196	0x3c4198d4	0.011816222
197	0x3d0fd0df	0.035111304
198	0x3d215567	0.039388087
199	0xbd32a04e	-0.04360991
200	0xbd31d39f	-0.04341471
201	0x3c08f2a8	0.008358635
202	0x3bbc9190	0.005754657
203	0x3c602ae2	0.013682099
204	0xbc2e60f4	-0.010643233
205	0x3bebb93b	0.007193712
206	0xbc749484	-0.014927987
207	0x3cdb6cfe	0.02678537
208	0x3beb162b	0.0071742735
209	0x3cdebb3b	0.027188888
210	0xbc403478	-0.0117312595
211	0x3c9ae541	0.018908145
212	0x3d2fdf2b	0.04293744
213	0xbcdd96cb	-0.027049443
214	0xbd2195d4	-0.039449528
215	0xbcde6926	-0.027149748
216	0x3d31ad97	0.04337844
217	0x3cd0e6fe	0.02550077
218	0x3d2f0e3d	0.042738188
219	0x3c7c2870	0.0153905
220	0x3ca69144	0.02033294
221	0x3c72bbef	0.014815315
222	0xbbdfa820	-0.006825462
223	0xbd065858	-0.032799095
224	0xbced9692	-0.029002462
225	0xbd0809f7	-0.03321263
226	0x3d0c02bb	0.03418229
227	0x3d06c947	0.032906797
228	0x3c95ae4a	0.018271584
229	0x3ce4b2f8	0.02791737
230	0x3d40f6f9	0.04711053
231	0xbd38afa8	-0.045089394
232	0x3949bd00	0.00019239262
233	0xbd50e526	-0.050999783
234	0xbc94e9e4	-0.018177934
235	0x3c931fe9	0.017959552
236	0x39d9f580	0.00041572377
237	0xbcd4fb01	-0.025998594
238	0xbcc1955e	-0.023630794
239	0xbd583035	-0.05278035
240	0xbd2a9943	-0.041650068
241	0x3d015b17	0.03158101
242	0x3d3c2001	0.04592896
243	0x3c86baaa	0.01644643
244	0xbcf76590	-0.030199796
245	0x3d3c5999	0.045983884
246	0x3ce27289	0.027642505
247	0x3c771fb8	0.015083246
248	0x3d1db07d	0.03849839
249	0x3cf0e4da	0.029406
250	0x3aa140ae	0.0012302601
251	0xbbad36ba	-0.005286065
252	0xbc89ced5	-0.016822258
253	0xbd0951a6	-0.03352513
254	0xbc7a09f8	-0.015261166
255	0xbcfcf65c	-0.030879192

output.2.bias f4 [73]
0	0x3d25b6c2	0.040457495
1	0xbc958731	-0.01825294
2	0xbd297a97	-0.041376676
3	0x3b159b88	0.00228283
4	0x3f17a34d	0.5923355
5	0xbcf54e2c	-0.029944502
6	0xbd4b129e	-0.0495783
7	0x3b9c8388	0.004776422
8	0x3d0b5213	0.03401382
9	0xbc8cc60e	-0.017184284
10	0x3cefc097	0.029266639
11	0xbc7a7e17	-0.015288851
12	0x3c9689aa	0.01837619
13	0x3ca5de65	0.020247648
14	0xbd4f7598	-0.050649256
15	0x3f97fbc4	1.1873708
16	0xbd20f7a6	-0.039298676
17	0x3c6acd95	0.014331241
18	0xbc10c472	-0.008835899
19	0xbd49a568	-0.04923001
20	0xbc083066	-0.00831232
21	0xbc8c8123	-0.017151421
22	0xbcec697d	-0.028858894
23	0x3b843cbc	0.0040355604
24	0xbcb97d67	-0.022642804
25	0x3c8c5db5	0.017134527
26	0xbcd789ec	-0.026310883
27	0x3ca5fa74	0.020261027
28	0x3c0fad7d	0.00876939
29	0xbd33a113	-0.043854784
30	0xbcfe960c	-0.031077407
31	0x3cedcd1d	0.02902847
32	0xbc68078f	-0.014161958
33	0xbcb5435e	-0.02212685
34	0xbc681618	-0.014165424
35	0xbded161d	-0.115764834
36	0xbd1a96af	-0.03774136
37	0x3cd1ebba	0.025625098
38	0x3d0d7683	0.03453685
39	0xbeeb770e	-0.4598927
40	0xbecd070c	-0.4004444
41	0xbb0f1c0d	-0.0021836788
42	0xbd25ac4a	-0.04044751
43	0x3d2c0c2a	0.042003788
44	0xbf00b586	-0.5027698
45	0x3a717373	0.00092106237
46	0x3ccf5cfc	0.025312893
47	0xbca35ba0	-0.019941151
48	0xbc97823f	-0.018494723
49	0x3ad0aa34	0.0015919865
50	0x3bce2ebe	0.006292193
51	0xbd3f3c6f	-0.046688493
52	0xbd0fc2e5	-0.035097975
53	0xbc296a40	-0.010340273
54	0xbc9287da	-0.017887045
55	0x3d1c98cf	0.038231667
56	0x3bd258b7	0.006419267
57	0xbd0f60c0	-0.035004377
58	0xbd41f384	-0.047351375
59	0xbe35728a	-0.17719474
60	0x3bbd1d25	0.0057712966
61	0xbd38da78	-0.045130223
62	0xbd0e68b4	-0.03476782
63	0x3ce80505	0.028322706
64	0xbc832440	-0.016008496
65	0xbbdf1d06	-0.00680888
66	0xbd38ffb6	-0.04516574
67	0xbd1315f3	-0.035909604
68	0xbc94fb6d	-0.018186295
69	0x3c39e1b3	0.011345315
70	0x3afb4900	0.0019171536
71	0xbced44dc	-0.028963499
72	0xbc9ec4b7	-0.01938091

output.4.weight f4 [7, 73]
0	0xbdc0ac8b	-0.0940791
1	0x3ad91d85	0.0016564584
2	0x3d7cc0b5	0.061707217
3	0x3da47584	0.08030227
4	0x3e51b168	0.20477831
5	0x3d939f28	0.07208091
6	0xbd2554f5	-0.040364224
7	0x3d72e16a	0.059297003
8	0x3d7cb9e9	0.061700735
9	0x3d053b80	0.032527447
10	0xbc21cecb	-0.009875963
11	0xbd640094	-0.055664614
12	0xbd0a0039	-0.03369162
13	0x3d29f420	0.04149258
14	0x3c13df5f	0.009025424
15	0x3d32c44d	0.04364424
16	0x3c4e3db1	0.012587951
17	0xbd2f974c	-0.042868897
18	0xbddb5600	-0.107097626
19	0xbdb91854	-0.09037843
20	0xbd83d6b9	-0.064374395
21	0xbd2c073e	-0.041999094
22	0x3dba5ad8	0.09099358
23	0x3d99f7fb	0.07518002
24	0x3cce7214	0.025200881
25	0x3dade7a1	0.08491445
26	0xbcbc8924	-0.023014612
27	0x3cd2feef	0.025756327
28	0x3d7b1d9e	0.061307542
29	0xbd5a3b00	-0.053278923
30	0xbd1c87de	-0.03821551
31	0x3dcb8ec0	0.09939337
32	0x3db755f6	0.089519426
33	0xbd28a300	-0.041171074
34	0xbd801a1a	-0.062549785
35	0x3cb2d0a9	0.021828013
36	0xbc8e536b	-0.017373761
37	0xbcbeca08	-0.023289695
38	0xbde72b90	-0.11287606
39	0xbdf015d1	-0.11722911
40	0x3d92be66	0.07165222
41	0xbd02d8a7	-0.031944897
42	0x3940c599	0.00018384158
43	0xbda299d1	-0.079394944
44	0xbd8530f6	-0.06503479
45	0x3c4a419f	0.012344747
46	0xbced274c	-0.028949402
47	0x3d92d813	0.07170119
48	0x3d0eb906	0.03484442
49	0xbdb93df0	-0.09045017
50	0xbc8647df	-0.016391693
51	0xbdb6d580	-0.08927441
52	0x3d9b994a	0.07597597
53	0xbdd06bfa	-0.10176845
54	0x3d4af4da	0.049549915
55	0x3c9bc0f5	0.019012908
56	0x3d02ac90	0.03190285
57	0x3d8de1fa	0.06927867
58	0xbddd5537	-0.10807269
59	0x3c87c45e	0.016573127
60	0x3c9aee3f	0.018912433
61	0xbdbd11c8	-0.09231907
62	0x3d96da9c	0.07365915
63	0x3da44562	0.08021046
64	0xbd30df6e	-0.04318183
65	0x3c8bdfb6	0.017074447
66	0x3de1ffa2	0.11035086
67	0xbc836408	-0.01603891
68	0x3cc2b067	0.023765756
69	0x3d425245	0.04744174
70	0x3d3d6fe6	0.046249293
71	0x3da47312	0.080297604
72	0x3c93e1ec	0.018052064
73	0xbdce5147	-0.10074096
74	0x3d881746	0.06645064
75	0x3de4a43b	0.11164137
76	0xbce20683	-0.027590996
77	0xbe374e1b	-0.17900889
78	0xbd62bfda	-0.055358745
79	0xbd004832	-0.03131885
80	0xbbaccd50	-0.0052734986
81	0x3c48f4db	0.012265409
82	0x3d45cabd	0.04828905
83	0x3c0dc54b	0.008652995
84	0x3c55b5bd	0.013043818
85	0x3dc2e82b	0.09516939
86	0xbd92129e	-0.07132457
87	0x3d6929ac	0.056924507
88	0xbd8776c1	-0.066144474
89	0x3dd45abb	0.10368868
90	0xbd8d197f	-0.068896286
91	0xbd679324	-0.05653681
92	0x3dfc8f26	0.12331991
93	0xbdc91ab3	-0.098195456
94	0x3d1fc1e0	0.039003253
95	0xbdb38c04	-0.0876694
96	0xbc989d9c	-0.018629842
97	0x3db91ba0	0.09038472
98	0xbdc71701	-0.097211845
99	0xbc928ad8	-0.017888471
100	0x3d78adfb	0.060712796
101	0xbdcc985b	-0.09989997
102	0x3d92ec3b	0.07173964
103	0x3d890a85	0.066914596
104	0x3d7c2971	0.06156296
105	0x3d80a5e7	0.06281643
106	0x3c618d07	0.013766534
107	0xbd96e4c5	-0.07367853
108	0x3ccbca44	0.024876721
109	0x3cff7588	0.031183973
110	0x3b34c3c0	0.0027582496
111	0xbdab0123	-0.08349826
112	0xbc857120	-0.016289294
113	0x3d8064af	0.06269204
114	0xbd56b358	-0.05241713
115	0xbc979432	-0.018503282
116	0x3a7111fa	0.0009196099
117	0x3d482c69	0.048870478
118	0x3de4ba2f	0.11168324
119	0x3dba0435	0.09082834
120	0xbc5a91de	-0.0133404415
121	0xbc2a8da0	-0.010409743
122	0xbd271c5d	-0.040798534
123	0xbd14caad	-0.0363261
124	0x3cca0818	0.024662063
125	0x3d8e7935	0.06956712
126	0x3c0a09f5	0.0084252255
127	0xbdb1c55c	-0.086802214
128	0x3c818665	0.015811155
129	0xbdb6246e	-0.08893667
130	0xbd34ef92	-0.044173785
131	0x3dafa907	0.08577161
132	0xbd57b93f	-0.0526669
133	0x3c5de13a	0.013542468
134	0x3dca782f	0.098862045
135	0xbdd82c23	-0.105552934
136	0xbb34cc30	-0.0027587526
137	0x3ceab7ae	0.028652038
138	0x3dce15f2	0.100627795
139	0x3dac1e21	0.08404184
140	0x3da12ba4	0.07869652
141	0xbd12671b	-0.03574286
142	0xbd3cabac	-0.046062157
143	0xbca16244	-0.019700177
144	0xbdd484cd	-0.10376892
145	0x3c02bb26	0.00797919
146	0x3c9f2ece	0.019431498
147	0xbd9b93af	-0.07596528
148	0xbd3c798a	-0.046014346
149	0x3d998bdc	0.07497379
150	0xbedfd90b	-0.43720278
151	0x3be310d4	0.0069294963
152	0xbd73da88	-0.05953458
153	0xbd8b0b96	-0.06789319
154	0xbdb42286	-0.08795647
155	0x3d763eb2	0.060118385
156	0xbdc00289	-0.093754835
157	0xbda8f2e2	-0.08249451
158	0x3d9a83c1	0.07544661
159	0xbceb4f44	-0.02872432
160	0x3dbd54ad	0.09244666
161	0xbe72a6b6	-0.23696408
162	0xbd95ebc2	-0.07320358
163	0x3d60b030	0.054855525
164	0xbd9792fa	-0.074010804
165	0xbcd1ba09	-0.025601404
166	0xbd8db880	-0.06919956
167	0xbd89af6c	-0.06722912
168	0xbd81ec83	-0.06343939
169	0x3d28fa95	0.0412546
170	0xbd87a71a	-0.06623669
171	0x3d81b52c	0.06333384
172	0x3cbed53c	0.023295037
173	0xbd886fab	-0.06661924
174	0xbd955657	-0.07291859
175	0x3d984c19	0.074363895
176	0x3d49eb91	0.04929692
177	0xbcd365c3	-0.02580536
178	0xbdbc0528	-0.09180671
179	0x3dc26634	0.0949215
180	0x3d1a4c6a	0.03767053
181	0x3d6a5689	0.057211433
182	0xbd56fa6c	-0.052484915
183	0x3d58e6d2	0.052954502
184	0x3d18ac20	0.037273526
185	0xbd28b217	-0.041185465
186	0x3defccf8	0.117090166
187	0xbde5fb04	-0.11229518
188	0x3d3698b9	0.04457924
189	0x3d3d3e06	0.04620173
190	0x3d78e689	0.06076673
191	0x3d9a465c	0.07532951
192	0x3d21709c	0.039414033
193	0x3dae2de1	0.085048445
194	0xbc6b3110	-0.014354959
195	0xbd1920e6	-0.03738489
196	0xbda0c3a9	-0.07849819
197	0x3dd62769	0.10456736
198	0xbd3d8e25	-0.046278138
199	0x3c913aae	0.017728176
200	0x3d610562	0.054936774
201	0x3c92370b	0.017848512
202	0x3d73e08d	0.05954032
203	0xbd1f3db5	-0.038877208
204	0xbdaabae9	-0.083364315
205	0x3d5848fd	0.052803982
206	0x3ca74417	0.02041821
207	0xbda8eabf	-0.08247899
208	0x3de3222b	0.110905014
209	0xbd87d272	-0.06631936
210	0x3ccbf205	0.024895677
211	0x3bbad2b2	0.0057013864
212	0x3d740383	0.05957366
213	0x3cea765f	0.028620897
214	0x3cd399d5	0.025830189
215	0xbd8fe928	-0.07026893
216	0x3d0f0e96	0.03492602
217	0xbdb2fa73	-0.08739176
218	0x3c5fe7c6	0.013666099
219	0x3d826c60	0.06368327
220	0x3cf5acc5	0.02998961
221	0x3da8fc41	0.082512386
222	0xbd1dc6a8	-0.03851953
223	0x3c2b6dbb	0.0104631735
224	0xbd838c47	-0.0642324
225	0x3d78d42a	0.06074921
226	0xbca9070c	-0.020633243
227	0x3d8645ec	0.06556305
228	0x3dd6cf67	0.104887776
229	0x3dad8c67	0.08474045
230	0xbdc2a6af	-0.095044486
231	0xbdc708d9	-0.097184844
232	0x3d7a6a90	0.061136782
233	0x3d94aa1b	0.072590075
234	0x3d26c899	0.04071865
235	0xbdc2a27a	-0.09503646
236	0xbd29077e	-0.04126691
237	0x3d7bfca6	0.06152024
238	0x3d89c247	0.067265086
239	0xbdcfa954	-0.10139719
240	0xbd4a58a8	-0.049400955
241	0xbd8b98a2	-0.06816222
242	0xbd87291a	-0.065996364
243	0x3dd015d4	0.101604134
244	0x3d9f9e53	0.0779387
245	0xbda886e6	-0.08228855
246	0x3c27106a	0.0101967845
247	0xbc70f6ed	-0.014707309
248	0x3dc69b59	0.09697599
249	0xbbc85b9f	-0.0061144377
250	0xbdb200c2	-0.08691551
251	0x3db43fe2	0.08801247
252	0x39fec4ba	0.00048593228
253	0xbd45d442	-0.048298128
254	0xbdb15884	-0.08659461
255	0x3dbafa20	0.09129739

output.4.bias f4 [7]
0	0x3dd397f0	0.10331714
1	0x3e9643f4	0.2934872
2	0xbf8d2f10	-1.1029987
3	0x3f04ff60	0.5195217
4	0xbec83574	-0.39103281
5	0x3e9bb341	0.30410197
6	0xbef7822a	-0.48341495
