old/models/69.68Acc_H1_TwoLayers450_10Units_ReLU_CrossEntropyLoss_Adam_0.001lr_200000epochs_10batches.pth (torch, 34351 bytes, 6 tensors)

output.0.weight f4 [450, 6]
0	0x3d2e4a9f	0.042551633
1	0x3eaafcb3	0.3339592
2	0xbefb9cf3	-0.4914318
3	0xbec28bf2	-0.37997395
4	0x3e9a892b	0.30182776
5	0xbe6f319f	-0.23358773
6	0x3e49f317	0.19721638
7	0x3d8b02c0	0.06787634
8	0xbf187901	-0.5955964
9	0x3eba7137	0.364145
10	0x3f02879e	0.50988185
11	0xbf015c63	-0.50531596
12	0x3d1235e7	0.035695937
13	0xbf43ec5f	-0.7653255
14	0x3e0aa129	0.1353804
15	0xbd00ec73	-0.031475496
16	0x3cda80b3	0.026672697
17	0xbe8f50c6	-0.27991313
18	0x3d5ea69e	0.054358117
19	0x3e3b0ac8	0.18265831
20	0x3e88dc3e	0.2673053
21	0xbe227ebf	-0.15868662
22	0x3e3bf60e	0.18355581
23	0x3e1e1ecf	0.1544144
24	0xbe61fcd2	-0.220691
25	0x3e201795	0.15633996
26	0x3e321172	0.17389467
27	0x3e85804d	0.26074448
28	0x3b5d77a3	0.0033793233
29	0xbd8d10c6	-0.06887965
30	0xbeb5e886	-0.35528964
31	0x3e37c747	0.17947112
32	0x3eae0350	0.33986902
33	0xbe6aa671	-0.22915055
34	0xbda1956c	-0.07889828
35	0xbdae693a	-0.08516164
36	0x3dae9d28	0.08526069
37	0x3d40355a	0.04692588
38	0x3c59239d	0.01325312
39	0x3deef831	0.116684325
40	0x3ea44172	0.3208118
41	0xbe23f76c	-0.16012353
42	0xbe8018e0	-0.25018978
43	0x3e2fe697	0.17177807
44	0x3e313573	0.17305546
45	0xbe007858	-0.12545907
46	0xbe6ca07c	-0.23108095
47	0x3cd22871	0.02565405
48	0xbe5dbfb1	-0.21655156
49	0x3cce4fa5	0.025184462
50	0x3e34edd9	0.17668857
51	0xbee84a33	-0.4536911
52	0x3db761fc	0.08954236
53	0xbe2c51ed	-0.16828127
54	0x3df62c5d	0.120201804
55	0x3d9200a2	0.07129027
56	0x3eae015e	0.33985418
57	0xbdeef9a8	-0.11668712
58	0xbde4f00e	-0.11178599
59	0xbe84c776	-0.25933427
60	0x3e80d88b	0.2516521
61	0x3e5b95fe	0.21443936
62	0x3e8f979e	0.28045362
63	0x3e861868	0.26190495
64	0xbe492170	-0.19641662
65	0x3ed04cd6	0.4068362
66	0x3e8fa8e5	0.28058544
67	0x3d3ef8f1	0.046624128
68	0x3e14a810	0.14517236
69	0x3eb8a0c8	0.36060166
70	0x3e268274	0.16260701
71	0x3e4d7b90	0.20066667
72	0x3d8ffd22	0.07030703
73	0x3d5c82a6	0.053835534
74	0xbd17e720	-0.037085652
75	0x3e178642	0.14797309
76	0xbec36374	-0.38161814
77	0x3eccb381	0.399807
78	0xbeb1f631	-0.34758142
79	0x3e13b43f	0.14424227
80	0xbe2ccb3c	-0.16874403
81	0xbe7bbad2	-0.24582985
82	0x3e3c4ade	0.18387935
83	0x3ea8519f	0.32874772
84	0x3e93d623	0.2887431
85	0x3e0f0d3e	0.13969895
86	0x3d291222	0.04127706
87	0x3b42f863	0.00297501
88	0x3d01938e	0.03163486
89	0x3e4ae2e5	0.19813116
90	0x3ec9fdeb	0.39451537
91	0x3c4680fd	0.012115714
92	0xbe868f1a	-0.26281053
93	0x3ed4aa30	0.41536093
94	0xbe7900c4	-0.24316698
95	0xbe4f3eea	-0.20238844
96	0x3ecc3071	0.39880708
97	0x3f291bc1	0.66057974
98	0x3e8438b5	0.25824514
99	0x3c7c246e	0.015389545
100	0x3d128ff5	0.03578182
101	0xbe733928	-0.23752272
102	0xbe46c2ba	-0.1941022
103	0x3eb040bb	0.34424385
104	0x3ebb1b92	0.36544472
105	0xbe2a28c8	-0.1661712
106	0x3d7b4613	0.061346125
107	0x3e59d971	0.21274354
108	0xbec1c5af	-0.37846133
109	0xbea28db5	-0.3174874
110	0xbea5d8d6	-0.32391995
111	0xbd75a798	-0.059974283
112	0x3e93bc72	0.2885471
113	0x3d8fa184	0.070132285
114	0xbd8e2e5a	-0.069424346
115	0xbe35eefa	-0.17766944
116	0x3db6a74a	0.089186266
117	0x3e92515a	0.2857769
118	0xbeb56816	-0.35430974
119	0xbf43d233	-0.76492614
120	0xbe6e9dea	-0.23302427
121	0x3cc2e61d	0.023791367
122	0x3e732ff3	0.2374876
123	0xbe03d486	-0.1287404
124	0x3e970323	0.2949458
125	0x3ee061a0	0.43824482
126	0xbe8cb3cd	-0.27480927
127	0x3e174215	0.14771302
128	0x3e235187	0.15949069
129	0x3eca55df	0.3951864
130	0xbe83470d	-0.25640145
131	0x3e1e8697	0.1548103
132	0xbdc4b060	-0.09603953
133	0xbece9513	-0.4034811
134	0xbe32cd01	-0.17461015
135	0xbe8c879d	-0.27447215
136	0xbe39a38c	-0.18128794
137	0xbe83f8d6	-0.25775784
138	0x3eb4ba6e	0.35298485
139	0x3e497573	0.1967371
140	0x3e62cbf1	0.2214811
141	0xbe986628	-0.2976544
142	0xbeb8bf3c	-0.360834
143	0xbdeecc63	-0.116600774
144	0x3e6f73b6	0.23383984
145	0x3e105719	0.14095725
146	0xbdeda041	-0.11602832
147	0x3eb35166	0.3502304
148	0xbb38e5d9	-0.0028213172
149	0xbec4354e	-0.38321918
150	0xbc287696	-0.010282179
151	0xbeb7f98c	-0.35932577
152	0x3d419f40	0.047271013
153	0x3cda891d	0.026676709
154	0x3ecfa66f	0.40556666
155	0x3e36dcdb	0.17857687
156	0xbdbb3d18	-0.09142512
157	0xbe036ef4	-0.12835294
158	0x3e076bab	0.13224666
159	0x3eb8bd73	0.36082038
160	0xbe6412be	-0.22272775
161	0x3d3a2899	0.045448873
162	0x3e24cc43	0.16093545
163	0x3caeb2de	0.021325525
164	0xbe8f8bd9	-0.28036383
165	0x3e656225	0.2240072
166	0x3e72a3d8	0.23695314
167	0x3e484ded	0.19560976
168	0xbebda1ec	-0.370376
169	0x3ea4cba7	0.32186624
170	0x3ece388e	0.40277523
171	0xbebd8e56	-0.37022656
172	0xbd9e9e51	-0.0774504
173	0x3e746c53	0.23869447
174	0xbe92c995	-0.2866942
175	0x3ec803a0	0.39065266
176	0x3eadc09d	0.33936015
177	0x3e85d9d8	0.26142764
178	0xbde2a1ee	-0.11066042
179	0x3e8ec249	0.27882603
180	0x3e57bac1	0.21067335
181	0x3dfcdd39	0.123468824
182	0xbede9a84	-0.4347726
183	0xbe9d7606	-0.30754107
184	0x3ea54773	0.32281074
185	0xbcdf48d2	-0.027256403
186	0x3ec53c10	0.38522387
187	0x3ace1a86	0.0015724457
188	0xbc85bd56	-0.016325634
189	0xbe0427de	-0.12905833
190	0xbe8af672	-0.27141148
191	0x3da9cd05	0.082910575
192	0x3e42d525	0.1902662
193	0xbd72f351	-0.059314076
194	0x3d067bae	0.032832794
195	0x3e8bbbde	0.2729177
196	0xbe163d9d	-0.14671941
197	0x3e5da254	0.21643955
198	0x3e46586a	0.19369665
199	0xbf1b811c	-0.6074388
200	0xbede0c02	-0.43368536
201	0x3d6e1986	0.05812981
202	0x3f0b8b87	0.54509777
203	0x3e8ea29d	0.2785844
204	0xbe8ec027	-0.27880976
205	0xbdff5799	-0.1246788
206	0x3e661c17	0.22471653
207	0xbf0f89dc	-0.5606973
208	0x3e87579e	0.26434034
209	0x3ec5e369	0.38650063
210	0xbce58d00	-0.028021336
211	0xbddb2658	-0.10700673
212	0xbebd48e6	-0.3696968
213	0x3d106a28	0.03525749
214	0xbea0a21b	-0.31373677
215	0x3d4fe020	0.05075085
216	0x3d8bcb1c	0.068258494
217	0x3e646d4f	0.22307323
218	0xbe6531eb	-0.22382323
219	0xbf044289	-0.51664025
220	0x3ef5eba1	0.48031333
221	0x3c6a8bc2	0.014315547
222	0xbd04018a	-0.03222803
223	0x3ebf74a3	0.37393674
224	0xbcf88d7a	-0.030340899
225	0xbec4565a	-0.3834713
226	0x3e8b3af9	0.2719343
227	0x3ce8cd51	0.028418215
228	0x3e413c22	0.18870595
229	0xbe85e8c2	-0.26154143
230	0x3ec3c68b	0.38237414
231	0xbeaa4523	-0.33255872
232	0x3c846335	0.016160587
233	0xbde1887a	-0.11012359
234	0x3e39e786	0.18154725
235	0x3e94630d	0.2898182
236	0x3ead4a3f	0.33845708
237	0x3cd5ced3	0.026099598
238	0x3eb3946a	0.35074168
239	0x3de72383	0.1128607
240	0xbeca4501	-0.3950577
241	0x3e8503f7	0.25979587
242	0xbeb0e202	-0.3454743
243	0xbe5eeb71	-0.21769501
244	0x3eca9df2	0.39573628
245	0x3c49e750	0.012323216
246	0x3e099697	0.13436352
247	0x3e6c3597	0.23067318
248	0x3e84386e	0.25824302
249	0xbebdacc2	-0.37045866
250	0xbe9f649a	-0.3113144
251	0x3ec35a3a	0.38154775
252	0xbdb5ac7a	-0.08870788
253	0x3d91def1	0.07122601
254	0x3e8283c4	0.25491154
255	0xbe5c6bc0	-0.21525478

output.0.bias f4 [450]
0	0xbe6fa664	-0.23403317
1	0x3d416484	0.047215
2	0x3ecc260f	0.39872786
3	0x3e7084fc	0.2348823
4	0x3e20a68a	0.1568853
5	0x3d3fe853	0.04685242
6	0xbeb83a50	-0.3598199
7	0xbeebf3f2	-0.46084553
8	0xbd9a432d	-0.07532344
9	0xbdcc09cd	-0.09962807
10	0xbe361b83	-0.17783932
11	0x3eaeda64	0.34150994
12	0xbefccb43	-0.49373826
13	0x3dd76856	0.105179474
14	0xbe77595c	-0.24155182
15	0x3dca027e	0.098637566
16	0x3ec3dac0	0.3825283
17	0x3ef1aeb8	0.47203612
18	0x3ead6d8a	0.33872634
19	0x3f1443f1	0.5791617
20	0xbee9424c	-0.45558393
21	0x3d726faf	0.05918854
22	0xbe998a36	-0.2998826
23	0xbea494b9	-0.32144716
24	0xbe86850e	-0.26273388
25	0xbe54072b	-0.2070586
26	0x3f10c256	0.56546533
27	0xbe1fa91d	-0.15591855
28	0x3efb04f5	0.4902722
29	0xbe63aa98	-0.22233045
30	0x3d160087	0.036621597
31	0x3d5110ca	0.051041402
32	0x3e29aed2	0.16570595
33	0xbdec278e	-0.11530982
34	0xbe69b266	-0.2282196
35	0xbe782f88	-0.24236882
36	0x3e19b2dc	0.15009636
37	0x3e5ec98f	0.21756576
38	0x3e0b8b97	0.13627468
39	0xbe0c48a5	-0.13699587
40	0xbbdf5438	-0.0068154596
41	0xbcf8b8dc	-0.030361585
42	0x3e9dcbb2	0.3081947
43	0x3e05ed3c	0.13078779
44	0xbf115812	-0.5677501
45	0x3dd672fa	0.10471149
46	0xbf07e65e	-0.5308589
47	0x3ea87155	0.32898965
48	0xbd9298fe	-0.07158087
49	0x3e2faec1	0.17156507
50	0xbe798ea6	-0.24370822
51	0xbee1e834	-0.4412247
52	0x3f5482f9	0.8301235
53	0x3d47dc8a	0.048794307
54	0xbe8aa2c7	-0.27077314
55	0x3edb84e8	0.42874837
56	0x3e2b340e	0.16719076
57	0x3ed5c024	0.41748154
58	0xbe07aaa7	-0.13248692
59	0x3e5d4b29	0.21610703
60	0xbead38fb	-0.33832535
61	0xbf0bc7de	-0.5460185
62	0x3eacad9c	0.33726203
63	0x3eb73470	0.35782194
64	0x3e90f52c	0.2831205
65	0xbe750ade	-0.23929927
66	0xbddfc282	-0.10925771
67	0x3d4e0a73	0.050302934
68	0x3de34155	0.110964455
69	0x3dc2cb6a	0.095114544
70	0xbf03adc9	-0.5143705
71	0xbe00ed20	-0.12590456
72	0xbe894400	-0.26809692
73	0xbeca677c	-0.39532077
74	0xbeacbf50	-0.3373971
75	0xbc929920	-0.017895281
76	0x3d8a76be	0.067609295
77	0xbdf3ae62	-0.11898495
78	0x3e7d194a	0.24716678
79	0x3e2294cd	0.15877075
80	0xbecba502	-0.39774328
81	0x3ee9aa65	0.45637813
82	0x3ef0e049	0.47046116
83	0x3ea2ca00	0.3179474
84	0x3dd40e5a	0.103543
85	0xbe9dfaa3	-0.30855283
86	0x3e0cf433	0.1376503
87	0x3ec562ec	0.38552034
88	0x3e04b228	0.12958586
89	0x3e0cc013	0.13745145
90	0xbde991e7	-0.11404782
91	0x3eb4aa37	0.35286114
92	0x3df12ef5	0.117765345
93	0x3c6c3b52	0.01441844
94	0xbda42b55	-0.080160774
95	0xbc6e43e4	-0.014542554
96	0x3ed5b015	0.41735902
97	0xbe0ce649	-0.13759722
98	0xbf08e2b0	-0.534709
99	0x3e5a0633	0.21291427
100	0x3d3f05e1	0.046636466
101	0xbe3a7ed4	-0.18212444
102	0x3e0c2f46	0.13689908
103	0xbe6bfa02	-0.23044589
104	0xbe8811ab	-0.2657598
105	0x3c84a448	0.016191617
106	0xbec05e26	-0.3757183
107	0xbed8954c	-0.42301404
108	0x3daaf657	0.08347767
109	0x3bf10cd9	0.007356268
110	0x3e3e4ed6	0.18584761
111	0x3dc26dc8	0.09493595
112	0x3cc1cbdb	0.023656776
113	0x3e624820	0.22097826
114	0xbe3b8b14	-0.18314773
115	0x3c5ff612	0.013669508
116	0x3e8c8243	0.27443132
117	0x3f29e094	0.66358304
118	0x3e5145f5	0.20436843
119	0x3e1028b5	0.14078029
120	0x3f304079	0.6884838
121	0xbee007b4	-0.43755877
122	0xbd787967	-0.060662653
123	0xbd0d8cde	-0.03455817
124	0x3db18dfd	0.0866966
125	0xbd71ca58	-0.05903086
126	0xbee777b1	-0.45208505
127	0x3c8f5da0	0.017500699
128	0x3ea6a839	0.3255022
129	0xbd9350cc	-0.07193145
130	0x3ea8e0c1	0.32983974
131	0xbeade17f	-0.33961102
132	0xbecacdc3	-0.3961011
133	0xbe9bbb6b	-0.30416426
134	0x3e910d1e	0.2833032
135	0xbe950577	-0.29105732
136	0x3e644945	0.22293575
137	0xbeb26340	-0.34841347
138	0x3e932e7a	0.28746396
139	0xbd8bf929	-0.06834633
140	0xbefabf5b	-0.48974118
141	0x3ded73ef	0.11594378
142	0x3e38335b	0.1798834
143	0xbe97209b	-0.29517063
144	0xbe050884	-0.1299153
145	0xbe3762e1	-0.17908813
146	0x3e981308	0.2970202
147	0x3e7802ef	0.24219869
148	0xbccc8cd4	-0.024969496
149	0x3dff5e5f	0.12469172
150	0xbe418f62	-0.18902352
151	0x3e3a8fc6	0.18218908
152	0xbdb96fa2	-0.090544954
153	0xbed924c2	-0.42410856
154	0xbe4dd6f8	-0.20101535
155	0x3e1c707a	0.15277281
156	0xbec216a3	-0.37907895
157	0xbeb0d0de	-0.34534353
158	0x3f226b80	0.6344528
159	0xbe5438e0	-0.20724821
160	0x3e98b2ce	0.29823917
161	0x3e5af6e2	0.21383241
162	0xbf19631f	-0.5991687
163	0x3d2cf549	0.04222611
164	0x3f291a17	0.66055435
165	0xbe0a01ea	-0.13477293
166	0xbed110ef	-0.40833232
167	0xbec33822	-0.38128763
168	0xbe9c363f	-0.30510136
169	0xbea22305	-0.31667343
170	0xbe984ed0	-0.2974763
171	0xbeab4940	-0.33454323
172	0xbd407826	-0.046989582
173	0xbda35f66	-0.0797718
174	0xbebdfa2c	-0.37104928
175	0xbea1d077	-0.3160436
176	0x3dde5723	0.10856464
177	0x3eebe726	0.4607479
178	0xbdd26407	-0.10272985
179	0x3e352c9d	0.176928
180	0xbf097b16	-0.5370344
181	0xbe304a49	-0.17215838
182	0xbf13d595	-0.57747775
183	0x3e54e7f8	0.20791614
184	0xbe6cb044	-0.23114115
185	0x3ccf573a	0.025310148
186	0x3eda618e	0.42652553
187	0xbd2ff726	-0.04296031
188	0x3d18421d	0.037172426
189	0x3db5ee97	0.08883398
190	0x3e816d4f	0.25278708
191	0xbf1b9ec5	-0.6078914
192	0x3e3c46a4	0.18386322
193	0x3d2bc869	0.041939173
194	0x3e6638d7	0.2248262
195	0x3e30f318	0.17280233
196	0xbe7124dc	-0.23549217
197	0x3d884e1c	0.06655523
198	0xbe897220	-0.26844883
199	0x3f1e4c89	0.61835533
200	0x3e5d655c	0.21620697
201	0x3dee9279	0.11649031
202	0x3e76d0fd	0.2410316
203	0xbd9fbdd2	-0.07799877
204	0x3dd11990	0.10209954
205	0xbd943d5e	-0.07238267
206	0x3eb11050	0.34582758
207	0xbea90432	-0.33011013
208	0xbe975c2d	-0.29562512
209	0xbdb3bbae	-0.087760314
210	0xbe0f2afe	-0.13981244
211	0xbcf4f799	-0.02990322
212	0x3f45af86	0.7722095
213	0xbeb51635	-0.35368505
214	0xbd82c50c	-0.0638524
215	0x3dee8d18	0.11648005
216	0x3df0dcac	0.1176084
217	0x3dff1e28	0.12456924
218	0x3e81a2de	0.2531957
219	0x3c9fa2cc	0.019486807
220	0x3f001dff	0.5004577
221	0x3ecf9104	0.40540326
222	0x3e628315	0.22120316
223	0x3ec6a9e4	0.3880149
224	0x3e1d1c95	0.15342934
225	0x3e678620	0.22609758
226	0xbd566645	-0.052343626
227	0xbe9260b7	-0.28589413
228	0xbe42d141	-0.19025137
229	0x3eca22b9	0.39479616
230	0x3e246228	0.16053069
231	0xbd11650b	-0.035496753
232	0x3ef7424d	0.4829277
233	0x3e0d589b	0.13803332
234	0x3e89528d	0.26820794
235	0x3e8aa20a	0.2707675
236	0x3e905b00	0.28194427
237	0xbe0734f0	-0.13203788
238	0x3e97697b	0.29572663
239	0x3b303891	0.0026889185
240	0x3e7aea3d	0.24503417
241	0x3e2ada06	0.16684732
242	0xbe3708c6	-0.1787444
243	0x3e2aa8a4	0.16665894
244	0xbea72c11	-0.32650807
245	0x3e9aa0a6	0.3020069
246	0xbd41bbce	-0.047298245
247	0xbdcd0a6b	-0.10011753
248	0xbd21ba90	-0.03948456
249	0xbe2d3487	-0.16914569
250	0x3f2401f6	0.6406549
251	0xbe36fe8b	-0.17870538
252	0xbdeb4d81	-0.11489392
253	0x3de68379	0.11255545
254	0xbe352935	-0.176915
255	0x3defe7d5	0.1171414

output.2.weight f4 [10, 450]
0	0xbd4d6963	-0.050149333
1	0x3d01f60d	0.031728793
2	0x3cf3d8b7	0.029766424
3	0x3c4f7f32	0.012664603
4	0xbc2278a7	-0.009916461
5	0xbc64c7b9	-0.013963633
6	0x3c8b50da	0.017006326
7	0xbcd6e498	-0.026232049
8	0x3d28df59	0.041228626
9	0xbd0a0297	-0.033693876
10	0xbd4fbbce	-0.050716214
11	0x3bfedb18	0.007777583
12	0x3bffb9a6	0.0078041134
13	0x3c58b280	0.0132261515
14	0x3bd3b405	0.006460669
15	0xbd0bf914	-0.034173086
16	0x3c0614a4	0.008183632
17	0x3d239d08	0.03994468
18	0xbd1cfa0f	-0.038324412
19	0x3bb8048d	0.005615777
20	0xbcc0d9ac	-0.023541294
21	0xbbe297a6	-0.0069150506
22	0x3c71e9a8	0.014765181
23	0xbb9e71cd	-0.0048353435
24	0xbc6d6338	-0.014488988
25	0xbb45d2dc	-0.0030185496
26	0xbd13f082	-0.036118038
27	0xbc3a0bd9	-0.011355364
28	0x3b265f87	0.0025386529
29	0xbc970539	-0.018435108
30	0xbd57d16e	-0.052689962
31	0xbd3d960d	-0.046285678
32	0xbc8bc54d	-0.017061854
33	0xbcc04557	-0.023470564
34	0x3cb4377f	0.021999119
35	0xbb712ee0	-0.0036801621
36	0xbd041800	-0.03224945
37	0xbc342fd9	-0.010997736
38	0xbcb176d5	-0.021663109
39	0x3d1c76bb	0.038199168
40	0x3ca616d6	0.02027456
41	0xbd26bce0	-0.04070747
42	0x3d042314	0.032260016
43	0x3c01e998	0.007929228
44	0xbd494dc5	-0.049146432
45	0xbba419c6	-0.0050079552
46	0x3d0e604d	0.03475981
47	0xbc6420db	-0.013923849
48	0x3ce3bcd2	0.027799997
49	0xbc2853f9	-0.010273927
50	0x3d02da2b	0.031946342
51	0x3d2107eb	0.03931419
52	0x3cc229ba	0.023701537
53	0xbb507224	-0.0031806314
54	0x3b9657ae	0.004588089
55	0x3d1ab94b	0.037774365
56	0x3cae1883	0.021251922
57	0x3c19f3d3	0.009396511
58	0xbd4b4936	-0.049630366
59	0x3c75fda9	0.015014091
60	0xbca0fcd0	-0.0196518
61	0x3cd34ca0	0.025793374
62	0x39bd0b80	0.00036057457
63	0xbd1ac304	-0.037783638
64	0x3d257a29	0.040399704
65	0xbcd0bb80	-0.025480032
66	0x3d0d3a29	0.034479294
67	0xbd48a2f5	-0.048983533
68	0x3c7a561b	0.015279318
69	0xbccaad71	-0.024740906
70	0xbbf061e8	-0.00733589
71	0x3cb8e264	0.022568889
72	0xbcf5b529	-0.02999361
73	0xbd0f2763	-0.03494967
74	0x3d2b5ac7	0.04183462
75	0x3ca013be	0.019540664
76	0xbd2bf10a	-0.04197792
77	0xbd0eabcd	-0.03483181
78	0xbcaee9d3	-0.02135173
79	0xbd00a423	-0.031406533
80	0x3cc50412	0.024049792
81	0xbd0b7ce3	-0.034054648
82	0xbcf23d4b	-0.029570242
83	0x392f1433	0.00016696825
84	0xbc98534f	-0.018594412
85	0x3cba8ca3	0.022772139
86	0x3ceb6fca	0.028739829
87	0xbcbe1a71	-0.023205968
88	0x3cb626ea	0.022235353
89	0x3d1777ce	0.03697949
90	0xbd3b29b8	-0.045694083
91	0x3bc32c56	0.005956213
92	0xbb0102b0	-0.001968544
93	0x3b5262c0	0.0032102317
94	0x3d004c28	0.03132263
95	0x3cc2a16a	0.023758609
96	0x3b761120	0.0037546828
97	0xbc5ce664	-0.013482664
98	0x3cb0f55b	0.02160137
99	0x3c543e00	0.012954235
100	0xbd3c618f	-0.045991477
101	0xbce6e5b8	-0.02818571
102	0x3bd275c0	0.0064227283
103	0xbd2621ab	-0.040559452
104	0xbd11dcf6	-0.035611115
105	0xbc3545ff	-0.011064052
106	0x3cc59186	0.024117243
107	0x3bd4c461	0.0064931368
108	0xbd5294db	-0.05141149
109	0x3cc215e2	0.023692075
110	0x3c43a0cc	0.011940192
111	0x3c34b43a	0.0110292975
112	0xbd1c21c4	-0.03811814
113	0x3d1949ea	0.037424006
114	0x3cf88c75	0.030340413
115	0x3b8656c1	0.0040996973
116	0xbd1e5dda	-0.038663723
117	0xbc99f7cd	-0.018794918
118	0xbd1f40ec	-0.038880274
119	0xbc45ab2e	-0.012064738
120	0x3cc17526	0.023615431
121	0x3c3d4fbf	0.0115546575
122	0xbcd4e653	-0.025988733
123	0xbd069b78	-0.03286311
124	0xbc8e3d99	-0.017363356
125	0x3c90b09a	0.017662335
126	0x3d1e5586	0.03865578
127	0x3bfea8fe	0.0077716103
128	0xbc0c482e	-0.008562131
129	0xbc4ca1d8	-0.012489758
130	0x3cbb6841	0.02287686
131	0xbc00016a	-0.007812837
132	0x3c8e2ce6	0.017355394
133	0xbb98d96c	-0.0046645906
134	0x3ced12d6	0.028939646
135	0x3ccfc1f2	0.025361035
136	0xbb4ce3ee	-0.0031263786
137	0xbd39e769	-0.045386706
138	0xbd1f6da9	-0.03892294
139	0xbc70d4d0	-0.014699176
140	0xbce48450	-0.027895123
141	0xbb490acc	-0.0030676601
142	0xbb95a311	-0.004566558
143	0xbcdbd41a	-0.026834536
144	0xbd07cfc5	-0.03315713
145	0xbbd0d6f4	-0.0063732807
146	0x3c052c56	0.008128246
147	0x3d14a5dc	0.03629099
148	0xbd2dd97f	-0.04244375
149	0xbd0f99e0	-0.035058856
150	0xbd4db64d	-0.050222684
151	0x3cd82efe	0.026389595
152	0xbd076a1a	-0.03306017
153	0xbcaba40b	-0.020952245
154	0xbd00d131	-0.0314495
155	0x3ba2de8f	0.0049703787
156	0xba002d40	-0.0004889555
157	0xbbb7fd60	-0.0056149215
158	0xbc5cec9d	-0.013484147
159	0xba0e31c6	-0.0005424287
160	0xbca1aeac	-0.01973661
161	0x3c5fc044	0.01365668
162	0xbce4c59d	-0.02792626
163	0xbd0a4c6a	-0.03376428
164	0xbaae7a0f	-0.0013311523
165	0xbd3088da	-0.04309926
166	0xbcb173c1	-0.021661641
167	0xbd2ba2cb	-0.0419033
168	0xbcfa64f8	-0.030565724
169	0x3bbe8f75	0.0058154413
170	0xbc8b24c6	-0.016985308
171	0x3d197f9f	0.037475225
172	0x3cfb84e5	0.030703017
173	0x3c4efc44	0.012633387
174	0x3b09c051	0.002101917
175	0x3ce218d4	0.02759973
176	0xbd1ce7b3	-0.038306903
177	0x3c73711b	0.014858509
178	0xbd12a59d	-0.035802472
179	0x3bc1bf2d	0.0059126825
180	0xbd0dc4ac	-0.03461139
181	0x3d32c225	0.043642182
182	0xbd0e2527	-0.0347034
183	0xbbd7d102	-0.006586195
184	0x3ce21171	0.027596207
185	0xbd526787	-0.051368263
186	0x3c88c2bc	0.01669442
187	0x3c2da8bf	0.010599314
188	0x3c1dd73f	0.009633838
189	0xbd0aab0c	-0.03385453
190	0x3cd4c3ca	0.025972266
191	0x3c53db20	0.012930661
192	0x3c72954a	0.014806101
193	0xbc0936ad	-0.008374852
194	0x3d33212d	0.04373281
195	0x3d06ff3f	0.032958265
196	0xbcf6e3cf	-0.030137924
197	0xbcc7b4fa	-0.024378289
198	0x3c6203d9	0.013794863
199	0xbc7046e6	-0.014665341
200	0xba821b2c	-0.0009926311
201	0xbce94f7c	-0.028480284
202	0xbc88e206	-0.016709339
203	0x3d2b51a3	0.0418259
204	0xbc2d4140	-0.010574639
205	0xbca7f82b	-0.020504078
206	0xbcafb4ca	-0.021448512
207	0xbd0fda6e	-0.03512042
208	0x3cb270d7	0.021782322
209	0x3d25352f	0.040333923
210	0xbd3e9112	-0.04652507
211	0xbcba41f3	-0.022736525
212	0xbd40acf4	-0.04703994
213	0xbd4f5305	-0.050616283
214	0xbd098199	-0.03357086
215	0x3b9b6468	0.004742194
216	0x3cd13b72	0.025541041
217	0x3a926429	0.0011168766
218	0xbbe7c708	-0.007073287
219	0x3b49cce7	0.0030792297
220	0xbc9e8513	-0.019350564
221	0xbd238fc2	-0.03993202
222	0xbd1c6c58	-0.038189262
223	0x3cb58655	0.022158781
224	0x3d120a02	0.035654075
225	0xbc868abf	-0.016423581
226	0xbc1d01e8	-0.009582974
227	0xbd52a316	-0.051425062
228	0x3d156a1b	0.036478143
229	0x3cc62ad6	0.024190348
230	0x3ca46d1b	0.020071557
231	0x3d1098ae	0.035301857
232	0x3cda689a	0.026661206
233	0x3d1f9bfe	0.038967125
234	0xbd21d778	-0.039512128
235	0x3d0a2622	0.033727773
236	0x3cba4893	0.022739684
237	0x3c4a97fe	0.012365339
238	0xbd04dcee	-0.032437257
239	0x3bd1798c	0.0063926633
240	0x3c947e21	0.01812655
241	0x3c80f0d6	0.01573984
242	0xbcca2c0f	-0.024679212
243	0x3c6880cd	0.014190865
244	0x3ced4aec	0.02896639
245	0xbcac9180	-0.021065474
246	0xbc303efe	-0.010757206
247	0xbd27c111	-0.040955607
248	0xbb23fde0	-0.0025023147
249	0x3d34f545	0.04417922
250	0x3cb9f293	0.022698676
251	0xbd00a086	-0.031403087
252	0xbcfaab9d	-0.03059941
253	0xbccf7f76	-0.025329333
254	0xbce138d0	-0.02749291
255	0x3d2693f3	0.04066844

output.2.bias f4 [10]
0	0x3d0af33c	0.033923373
1	0xbd3db0b1	-0.046311084
2	0xbb268cf8	-0.0025413614
3	0x3d2820a5	0.041046757
4	0x3c12b4aa	0.0089542065
5	0xbe4c320e	-0.1994097
6	0xbd2ed693	-0.042685103
7	0xbcaa92da	-0.020821977
8	0xbd2b2032	-0.04177875
9	0x3ba0b22d	0.0049040527

output.4.weight f4 [7, 10]
0	0xbe6f11b9	-0.23346604
1	0x3d024403	0.031803142
2	0xbe908ffd	-0.28234854
3	0x3d93ab7f	0.07210445
4	0xbe6826e4	-0.22671086
5	0x3dd2e6b1	0.10297907
6	0x3e682076	0.22668633
7	0xbde2d914	-0.110765606
8	0xbcccd6ba	-0.025004733
9	0x3e810165	0.25196376
10	0x3e86ac54	0.2630335
11	0x3e229bfe	0.15879819
12	0x3d35cb52	0.044383354
13	0xbe379b81	-0.17930414
14	0x3e1272a8	0.1430155
15	0x3de11f54	0.109923035
16	0xbd13e2df	-0.036105033
17	0x3e8d3401	0.27578738
18	0xbe8f1fd7	-0.2795398
19	0x3e730b22	0.23734716
20	0xbe0aee06	-0.13567361
21	0xbe2ce48b	-0.16884057
22	0xbe81ed28	-0.25376248
23	0x3e9417f5	0.28924528
24	0x3db898fa	0.09013553
25	0x3e210126	0.15723094
26	0x3e7cf5e2	0.24703172
27	0xbe74b32b	-0.23896472
28	0x3cc4e14c	0.024033211
29	0x3e593939	0.21213235
30	0x3d03cc84	0.032177463
31	0xbe2e652a	-0.17030779
32	0x3e94bcee	0.29050392
33	0x3e0e973c	0.13924879
34	0xbe728df4	-0.23686963
35	0x3db4b1a6	0.08822946
36	0xbe8238f8	-0.2543409
37	0xbe986ce4	-0.29770577
38	0xbe0dda11	-0.13852717
39	0xbe3aaebb	-0.18230717
40	0x3bf6e8ae	0.007535062
41	0xbdadb55c	-0.08481857
42	0xbe634be7	-0.22196923
43	0x3bdd2b8b	0.0067495755
44	0xbe01079c	-0.12600559
45	0x3dfb7e45	0.122799434
46	0x3e95a6a1	0.2922869
47	0x3de77f04	0.11303523
48	0x3e7d9d41	0.24767019
49	0xbe99fea3	-0.30077085
50	0xb9884bd4	-0.00025996438
51	0xbd9b5571	-0.07584656
52	0xbde86127	-0.11346655
53	0xbe19398c	-0.14963359
54	0x3e949a52	0.29023987
55	0x3da2135a	0.07913847
56	0xbe945065	-0.28967586
57	0xbe7c479f	-0.24636696
58	0xbd5585a1	-0.05212939
59	0xbc90c2cb	-0.01767101
60	0x3e68aaf4	0.22721463
61	0x3e31a1b9	0.17346849
62	0xbe45e55d	-0.19325776
63	0xbe4d68cd	-0.2005951
64	0xbe90345e	-0.28164953
65	0x3ddfabfb	0.109214745
66	0xbdd81cb1	-0.105523475
67	0xbe5b03a0	-0.21388102
68	0xbc59a9ca	-0.01328511
69	0x3e864516	0.26224583

output.4.bias f4 [7]
0	0x3e9649c8	0.29353166
1	0x3d7de27f	0.06198358
2	0xbf903c42	-1.1268389
3	0x3dd547ae	0.104140624
4	0xbda1c663	-0.078991674
5	0x3e413034	0.18866044
6	0x3aa11802	0.001229048
